metrics_best_runs/cnn_enc_dec_freezed_buggy/0094.predictor.model (torch_old, 117938 bytes, 12 tensors)

weight f4 [100, 256]
0.11519264 0.086753435 0.10606825 -0.1273519 -0.013555552 0.110373795 0.14357896 -0.19830832
0.009139576 -0.3054881 0.279025 -0.12955703 -0.0837535 0.080315344 -0.07449578 0.14893025
0.18119265 0.37340918 0.25035208 0.035168774 -0.12697369 0.12597688 0.28027967 0.022625385
0.24707223 -0.060947567 0.35405225 0.053727545 0.20830259 0.059429325 0.13725205 0.059757777
-0.059652545 0.09342801 0.29505825 0.28642634 0.04506382 0.03911318 0.093701586 0.15270115
0.073196694 0.16420025 0.04938894 0.44837618 0.3470753 0.15763427 0.2066913 -0.02639358
-0.01137712 -0.12792276 -0.13368315 0.19989678 -0.0021314232 -0.096155 -0.16133192 -0.054785475
0.031773202 0.06317105 -0.042450204 0.28854293 -0.22686751 0.122536644 -0.30294392 -0.04157138
-0.35937414 -0.40096697 -0.22869317 -0.113849916 -0.081701405 -0.059449136 -0.10349351 -0.038881887
-0.02835774 0.09976465 0.39526984 -0.07461468 0.2771237 0.13023093 0.35397458 0.11660647
0.32062924 0.15742141 0.34700364 0.17382863 0.11793678 0.15377682 0.37064758 0.08998854
0.24473819 0.3691024 0.16128431 0.4427293 0.21168576 0.26735973 -0.063191235 -0.21209498
0.17819613 0.27010703 0.0319015 0.20220998 0.3164603 0.2485286 0.18642907 0.36687782
0.3607363 0.26403168 -0.08409107 0.49597508 0.25848094 0.22138974 0.06388085 0.050599013
-0.16255131 0.09277494 -0.18153292 0.18745966 -0.16777174 0.108727984 0.102634616 -0.22929521
-0.042981163 0.13246667 -0.08484944 0.015628994 -0.1458543 0.084842436 -0.16726458 0.11354945
0.2788761 0.21095277 -0.23981105 -0.014396078 0.11833157 0.046015233 0.18391074 0.096314594
0.0058803265 0.14688297 0.25934458 0.093404695 -0.10822843 -0.03861705 0.1258607 -0.21472745
-0.14395379 0.08170029 0.02444157 -0.042859774 -0.061226625 0.10838527 -0.06861456 -0.18452246
-0.06445097 0.050274067 -0.27257565 0.04887613 -0.058164362 0.008820789 -0.008505164 -0.10754937
-0.06992845 0.092077926 0.114682764 0.010015849 0.027840065 0.24444354 -0.021601416 0.057791814
0.2873764 -0.06772182 -0.0971604 -0.0020262767 0.18453914 0.037194785 0.081581466 0.29696128
-0.43286142 -0.18793932 -0.020619584 -0.22711657 -0.15663554 -0.22952609 -0.17526734 -0.26269683
-0.04432632 -0.22264838 -0.10089222 -0.17823139 -0.14627774 -0.09685116 -0.15758522 -0.21134251
-0.10772386 -0.000939089 -0.013388307 -0.048657678 0.38938433 -0.001819671 0.118094824 0.19675773
0.07877722 0.12627421 0.09656397 0.004494296 0.061335336 0.10144661 0.25639606 0.04793347
-0.122366026 -0.04302281 -0.23277847 -0.08035688 -0.1067386 -0.20530848 -0.0936932 0.011623395
-0.15583527 -0.039895475 -0.25453174 -0.12532552 -0.12591968 -0.081645824 -0.25158942 -0.13066998
-0.052138023 0.16789533 0.388728 0.010651142 -0.008075436 0.33374143 0.079212755 0.0064247665
0.115528055 0.18767609 0.16805714 0.1180447 0.16724834 -0.07453013 -0.035907142 0.09153137
-0.17221121 -0.10114258 -0.11067069 -0.14426918 -0.16607831 -0.23079126 -0.1283599 -0.16107544
-0.26395866 -0.36512843 -0.06350897 -0.17706876 -0.025949808 -0.2719466 -0.098124266 -0.15335956
00000000: 1eea eb3d c9ab b13d 503a d93d 8968 02be
00000010: 1b18 5ebc a80b e23d 5d06 133e 5611 4bbe
00000020: 29be 153c f068 9cbe 5ddc 8e3e 99aa 04be
00000030: f486 abbd 5f7c a43d 3e91 98bd 2c81 183e
00000040: 918a 393e 7d2f bf3e 262e 803e 220d 103d
00000050: 6405 02be 1500 013e d180 8f3e df58 b93c
00000060: 8100 7d3e 28a4 79bd 5646 b53e 6a11 5c3d
00000070: 464d 553e 2a6c 733d cd8b 0c3e 92c4 743d
00000080: 3a56 74bd 2f57 bf3d e011 973e 79a6 923e
00000090: d794 383d 2435 203d 9ee6 bf3d b15d 1c3e
000000a0: 26e8 953d 1c24 283e 0f4c 4a3d 9091 e53e
000000b0: dbb3 b13e e16a 213e e2a6 533e 5937 d8bc
000000c0: 1a67 3abc 2ffe 02be 3ce4 08be beb1 4c3e
000000d0: 59af 0bbb eaec c4bd 3234 25be bc66 60bd
000000e0: 9e24 023d d35f 813d 44e0 2dbd e6bb 933e
000000f0: f54f 68be 7ef4 fa3d 771b 9bbe c046 2abd
00000100: e3ff b7be 8b4b cdbe 8b2e 6abe 252a e9bd
00000110: 1153 a7bd f080 73bd 68f4 d3bd 9d42 1fbd
00000120: 7e4e e8bc 6951 cc3d cf60 ca3e 95cf 98bd
00000130: 28e3 8d3e 425b 053e 283c b53e 5fcf ee3d
00000140: 8429 a43e 1433 213e 76aa b13e 2200 323e
00000150: d788 f13d ac77 1d3e 85c5 bd3e e94b b83d
00000160: a69c 7a3e fdfa bc3e b727 253e 6aad e23e
00000170: 27c4 583e 60e3 883e 686a 81bd 6d2f 59be
00000180: 0c79 363e 784b 8a3e 26ab 023d 2210 4f3e
00000190: 1607 a23e 487e 7e3e 43e7 3e3e 69d7 bb3e
000001a0: 6eb2 b83e 292f 873e f037 acbd 72f0 fd3e
000001b0: 9d57 843e feb3 623e f7d3 823d e940 4f3d
000001c0: da73 26be ca00 be3d c4e3 39be 6df5 3f3e
000001d0: 5bcc 2bbe c7ac de3d 1932 d23d 5dcc 6abe
000001e0: 040d 30bd 58a5 073e 8bc5 adbd 6008 803c
000001f0: d45a 15be dfc1 ad3d 6847 2bbe 9d8c e83d
00000200: d9c8 8e3e 0104 583e 0791 75be 87dd 6bbc
00000210: d257 f23d 787a 3c3d 1953 3c3e 9640 c53d
00000220: c1af c03b 7d68 163e d0c8 843e f64a bf3d
00000230: dea6 ddbd e92c 1ebd a1e1 003e 83e1 5bbe
00000240: 9f68 13be 7b52 a73d b039 c83c bb8d 2fbd
00000250: c5c8 7abd 19f9 dd3d ca85 8cbd 75f3 3cbe
00000260: dffe 83bd 2eec 4d3d 098f 8bbe 5632 483d
00000270: c13d 6ebd 1285 103c 3e59 0bbc d842 dcbd
00000280: a636 8fbd 5a93 bc3d ccde ea3d 8419 243c
00000290: d910 e43c 684f 7a3e 74f5 b0bc 1cb7 6c3d
000002a0: 0023 933e bdb1 8abd 08fc c6bd 48cb 04bb
000002b0: d4f7 3c3e 8f59 183d 2f14 a73d 4f0b 983e
000002c0: 03a0 ddbe 2a73 40be 67ea a8bc 3f91 68be
000002d0: 1165 20be e308 6bbe 4879 33be 3380 86be
000002e0: 848f 35bd f0fd 63be 95a0 cebd 4a82 36be
000002f0: d5c9 15be e759 c6bd 055e 21be 2c6a 58be
00000300: 549e dcbd 322d 76ba a15a 5bbc 464d 47bd
00000310: 625d c73e 0782 eeba b3db f13d dc7a 493e
00000320: f355 a13d 074e 013e 55c3 c53d e344 933b
00000330: c33a 7b3d 3ec3 cf3d 5846 833e e355 443d
00000340: 0a9b fabd b038 30bd 7b5d 6ebe 2692 a4bd
00000350: c499 dabd 633c 52be 38e2 bfbd 0d70 3e3c
00000360: 4893 1fbe 7069 23bd fc51 82be 5555 00be
00000370: 17f1 00be ed35 a7bd 54d0 80be 5ace 05be
00000380: ae8e 55bd c1ec 2b3e 5b07 c73e 2182 2e3c
00000390: d54e 04bc 28e0 aa3e 4c3a a23d d986 d23b
000003a0: f999 ec3d 292e 403e 2c17 2c3e 6bc1 f13d
000003b0: 2643 2b3e 41a3 98bd 5e13 13bd cd74 bb3d
000003c0: 2358 30be d723 cfbd 51a7 e2bd 4dbb 13be
000003d0: 6f10 2abe 8b54 6cbe c770 03be f6f0 24be
000003e0: 9725 87be 1df2 babe fe10 82bd 8351 35be
000003f0: b194 d4bc 963c 8bbe 60f5 c8bd 4a0a 1dbe

bias f4 [100]
0.053997185 0.008642956 -0.012795035 -0.022895139 0.021744259 -0.037106775 0.03818031 -0.020962235
0.051621865 -0.06370819 0.0167625 -0.056521855 -0.0028238664 -0.051383406 0.021425677 -0.084169365
0.005406586 -0.053078253 0.006722988 -0.0029284495 -0.014267437 0.01007562 -0.049004085 0.05734604
-0.017687688 0.047356866 -0.039810576 -0.02724594 0.036477275 -0.00831451 0.07183315 -0.009563892
0.05733591 0.011697938 0.056623492 -0.001019083 -0.05305298 0.0079919 0.0054772357 -0.047137637
-0.036854457 -0.041505694 -0.044895463 0.029544288 -0.01571737 -0.05596888 0.03236357 -0.010789082
-0.019971136 0.043726068 -0.02733751 0.007678421 0.03417694 -0.02150325 -0.032175813 -0.075812064
0.03738728 -0.05407686 0.0014517038 0.015133436 -0.043592557 0.038976483 0.011618979 -0.021967107
0.004031549 -0.013583237 0.033362955 -0.013320196 0.018405786 0.0326377 -0.051049363 0.01344437
0.046362534 0.027452208 -0.009626341 -0.024332756 0.041926403 0.021310773 -0.05046335 -0.064673476
0.048536118 0.0031957985 -0.04161542 -0.020189991 -0.013522406 0.05999463 0.047409482 -0.026771456
0.047133323 0.012650435 -0.0067114937 -0.041951705 0.057171866 -0.07721202 -0.05186431 0.05805961
0.021677561 -0.021661153 -0.0583191 0.008254105
00000000: 272c 5d3d 2f9b 0d3c 44a2 51bc 968e bbbc
00000010: 0421 b23c 46fd 17bd f562 1c3d feb8 abbc
00000020: 7371 533d 7179 82bd 8351 893c 7683 67bd
00000030: 9e10 39bb 6877 52bd e784 af3c fd60 acbd
00000040: bb29 b13b 9568 59bd 834c dc3b 3beb 3fbb
00000050: f8c1 69bc 3714 253c 82b8 48bd aee3 6a3d
00000060: c5e5 90bc 46f9 413d 6a10 23bd e132 dfbc
00000070: 3269 153d 9539 08bc 421d 933d dfb1 1cbc
00000080: 0fd9 6a3d b5a8 3f3c 09ee 673d c092 85ba
00000090: 154e 59bd 75f0 023c 627a b33b 6513 41bd
000000a0: b3f4 16bd e001 2abd 4ee4 37bd dd06 f23c
000000b0: b7c1 80bc a03f 65bd aa8f 043d b1c4 30bc
000000c0: 829a a3bc 1b1a 333d eaf2 dfbc 449b fb3b
000000d0: 1efd 0b3d 9527 b0bc c9ca 03bd 5b43 9bbd
000000e0: 6823 193d b37f 5dbd 1947 be3a 3bf2 773c
000000f0: 1c8e 32bd cea5 1f3d 885d 3e3c 5df4 b3bc
00000100: 161b 843b 3a8c 5ebc 98a7 083d f43c 5abc
00000110: bbc7 963c 1caf 053d 2319 51bd c645 5c3c
00000120: a4e6 3d3d 74e3 e03c cdb7 1dbc 7d55 c7bc
00000130: 05bb 2b3d ee93 ae3c a8b2 4ebd 8773 84bd
00000140: cfcd 463d 9a70 513b ee74 2abd 7b65 a5bc
00000150: 158d 5dbc eebc 753d 7230 423d d04f dbbc
00000160: df0e 413d c543 4f3c 17ec dbbb 8dd5 2bbd
00000170: 0c2d 6a3d 5621 9ebd ac6f 54bd eacf 6d3d
00000180: 2495 b13c bb72 b1bc 02e0 6ebd 3a3c 073c

weight f4 [100]
0.21373299 -0.0013582672 1.903118 -0.00018866887 0.00069858 2.290312 -0.001720051 0.0346042
0.0032901969 1.6446781 0.000140253 3.124765 0.17899004 0.14458877 0.0043606698 2.0427678
1.192743 0.02343035 1.4878701 0.0003592091 3.8768399 0.0054344437 -0.0007814514 1.6940172
-0.007374002 0.6461651 3.596309 0.50773954 4.0408225 2.417532 4.093459 0.7601161
2.2165272 1.4848175 0.044344254 -0.00042295133 0.0010346594 1.8617398 0.0059451982 1.6882763
-0.0031128812 0.18092015 0.29618803 0.20005833 0.0014905904 0.25407982 8.2270446e-05 3.3856475
0.009206435 0.004741411 3.2969491 2.7123537 3.6715777 0.15642823 0.22641316 6.46637
3.351539 -0.0013216016 0.7551244 2.8169456 -0.0011766811 3.004845 0.0019527826 0.21901213
0.8757568 0.77918816 0.08621412 2.0325787 0.62039685 -0.00022485967 0.12668973 1.7610143
1.1251762 3.344244 0.024942292 0.00083604385 -1.0200137 1.6383516 1.6974646 2.014959
1.3215796 0.00034713102 1.8369793 0.0056288494 0.5389707 0.020463714 2.9490457 2.6279933
2.17625 4.138185 2.3359592 2.5304472 1.3801095 2.3344455 0.00043751064 0.0011198405
4.2661384e-05 3.6043503 1.6006075 -0.0056459373
00000000: d2dc 5a3e e207 b2ba 5f99 f33f 6ad5 45b9
00000010: e920 373a 7994 1240 5673 e1ba 22bd 0d3d
00000020: 58a0 573b d084 d23f e110 1339 26fc 4740
00000030: 2a49 373e 140f 143e f3e3 8e3b b5bc 0240
00000040: cdab 983f 01f1 bf3c 8772 be3f 3b54 bc39
00000050: 251e 7840 6b13 b23b 51da 4cba 8ed5 d83f
00000060: 9da1 f1bb 136b 253f ed29 6640 38fb 013f
00000070: 6b4e 8140 d8b8 1a40 9efd 8240 f896 423f
00000080: 95db 0d40 800e be3f 52a2 353d 91bf ddb9
00000090: 699d 873a 7d4d ee3f f0cf c23b 7019 d83f
000000a0: 7b01 4cbb 2243 393e f5a5 973e 17dc 4c3e
000000b0: ea5f c33a c016 823e 9c88 ac38 73ae 5840
000000c0: 96d6 163c d75d 9b3b 3701 5340 3497 2d40
000000d0: 21fb 6a40 b92e 203e dad8 673e 81ec ce40
000000e0: 9d7f 5640 9739 adba d54f 413f d648 3440
000000f0: de3a 9aba 614f 4040 83f4 ff3a b744 603e
00000100: 9931 603f e078 473f 0791 b03d c515 0240
00000110: 54d2 1e3f 4fc8 6bb9 f4ba 013e eb68 e13f
00000120: c605 903f 1808 5640 c753 cc3c f429 5b3a
00000130: cf8f 82bf 81b5 d13f 8546 d93f 17f5 0040
00000140: 8529 a93f 23ff b539 2322 eb3f 3672 b83b
00000150: fcf9 093f 85a3 a73c 2abd 3c40 0b31 2840
00000160: ae47 0b40 036c 8440 5b80 1540 d9f2 2140
00000170: 6ea7 b03f 8e67 1540 af61 e539 9dc7 923a
00000180: 50ef 3238 adad 6640 b5e0 cc3f 8e01 b9bb

bias f4 [100]
-0.5726913 0.33029646 -2.9811916 -1.0876774 0.47001302 2.0269535 -0.46129373 -0.10551161
-0.8625061 2.2723193 -0.3322555 -1.6188034 -1.0527813 0.7350279 -0.5554661 2.4335737
-1.4851761 0.5687274 -2.3287854 0.4302047 0.27558127 0.5348629 -1.2606013 -1.5929416
0.51561224 0.960133 -0.8146464 -1.4648235 -1.3322673 1.919375 -0.7144558 -1.1825522
-2.0300455 -1.547061 0.64558536 0.08986979 -1.1093355 -1.8603479 0.70827436 2.383796
1.2955201 0.30218577 0.15756372 0.98408985 1.2204059 -0.81662124 0.590549 -1.5480568
-0.34853938 0.9421993 2.198784 -0.6522164 0.34369162 0.75329167 0.8139655 0.082463436
-0.77040833 -0.5196968 -1.473141 1.9321316 0.5175252 0.5121749 -0.60318637 0.26475772
1.7992468 -1.3680731 -0.9241486 2.1986802 1.7314485 2.0822845 1.0070424 -1.7397914
2.0282388 1.9669955 -0.9299221 -0.943936 2.0242264 -2.1209912 -2.384556 2.2556226
-1.1509116 -0.3882501 -2.08285 -0.5773535 -1.3287115 -0.97105247 -2.4650803 -1.918707
2.5951333 -0.6996298 -1.096721 1.814121 1.7305886 2.1188092 -0.35582784 0.934636
0.9950713 -0.39230785 2.5408964 -1.240922
00000000: e69b 12bf 9e1c a93e d8cb 3ec0 0339 8bbf
00000010: 8ca5 f03e 9bb9 0140 b12e ecbe 7916 d8bd
00000020: 33cd 5cbf ae6d 1140 651d aabe f334 cfbf
00000030: 8ac1 86bf ca2a 3c3f 0733 0ebf acbf 1b40
00000040: 401a bebf 1e98 113f d20a 15c0 ca43 dc3e
00000050: fd18 8d3e c6ec 083f 625b a1bf 83e5 cbbf
00000060: 2aff 033f 47cb 753f ab8c 50bf 567f bbbf
00000070: bc87 aabf 14ae f53f 93e6 36bf df5d 97bf
00000080: 44ec 01c0 1806 c6bf 1545 253f a70d b83d
00000090: b5fe 8dbf e11f eebf 7851 353f 1d90 1840
000000a0: 9ad3 a53f 18b8 9a3e 6258 213e 50ed 7b3f
000000b0: 4336 9c3f 170e 51bf 382e 173f ba26 c6bf
000000c0: c173 b2be f933 713f e1b8 0c40 a7f7 26bf
000000d0: 59f8 af3e b9d7 403f 0b60 503f 97e2 a83d
000000e0: 7b39 45bf d90a 05bf e28f bcbf 1750 f73f
000000f0: 887c 043f e51d 033f 6c6a 1abf 538e 873e
00000100: b84d e63f 051d afbf 0195 6cbf 2db7 0c40
00000110: 1ba0 dd3f 2644 0540 c4e6 803f 7cb1 debf
00000120: aace 0140 82c6 fb3f 600f 6ebf caa5 71bf
00000130: ed8c 0140 52be 07c0 919c 18c0 1f5c 1040
00000140: 1251 93bf b8c8 c6be 6a4d 05c0 70cd 13bf
00000150: 3813 aabf e596 78bf e0c3 1dc0 3198 f5bf
00000160: aa16 2640 f01a 33bf 5b61 8cbf 1e35 e83f
00000170: ed83 dd3f 929a 0740 112f b6be 4e44 6f3f
00000180: febc 7e3f 93dc c8be 0c9e 2240 88d6 9ebf

running_mean f4 [100]
6.169492 -3.7308903 -6.441821 4.6481657 -2.0634036 -4.1678514 4.08473 0.7385428
-5.2627635 -2.79179 -1.8194981 19.063427 7.770947 -0.31905597 4.559819 4.7858224
-6.083315 -5.175105 -0.7561137 -3.92684 -0.042117704 -0.29729244 5.751548 -11.446477
0.18630992 7.16238 -21.742256 7.1330686 6.853186 -1.560096 9.295893 4.8183455
-0.008158597 3.6193361 9.348615 -15.721339 7.849096 -1.2756816 -5.156495 14.404618
-1.0775371 2.4170084 11.11364 4.2829075 -7.6465545 -6.8979506 3.9433808 2.7196605
-7.34675 -2.7701778 0.38869005 1.2344428 -15.6087675 -9.665307 -8.263498 18.594183
6.2747383 6.3886843 1.246393 5.483904 5.2069106 -9.271107 2.8299854 15.1543665
6.782167 -5.913612 -10.486059 1.2466991 0.2354445 -7.952325 12.56058 -22.790926
0.69877225 -2.0127149 0.26669848 3.18162 -11.917114 4.905282 -0.3153878 -0.96864116
-15.948761 5.3377323 6.812288 5.5893526 3.7764363 -6.322098 -3.5300124 0.99259114
0.52322745 -9.112418 11.267025 -0.85881984 -4.027814 1.8067188 -3.4843156 5.7863894
6.7321787 0.8290074 13.073424 -8.475424
00000000: 7a6c c540 e8c6 6ec0 6623 cec0 c6bd 9440
00000010: ce0e 04c0 0a5f 85c0 1cb6 8240 2411 3d3f
00000020: 8f68 a8c0 b0ac 32c0 50e5 e8bf e681 9841
00000030: 99ab f840 4e5b a3be 0aea 9140 7525 9940
00000040: 84aa c2c0 769a a5c0 ab90 41bf 5951 7bc0
00000050: 9d83 2cbd b736 98be ae0c b840 c524 37c1
00000060: 07c8 3e3e 3832 e540 24f0 adc1 1942 e440
00000070: 4d4d db40 3ab1 c7bf fabb 1441 e32f 9a40
00000080: a3ab 05bc 34a3 6740 ed93 1541 9b8a 7bc1
00000090: cb2b fb40 8949 a3bf 0202 a5c0 5179 6641
000000a0: bcec 89bf 44b0 1a40 78d1 3141 940d 8940
000000b0: 93b0 f4c0 03bc dcc0 5a60 7c40 eb0e 2e40
000000c0: 9318 ebc0 984a 31c0 6202 c73e 3902 9e3f
000000d0: 83bd 79c1 19a5 1ac1 4a37 04c1 e3c0 9441
000000e0: a8ca c840 1a70 cc40 ce89 9f3f 247c af40
000000f0: 039f a640 7456 14c1 7b1e 3540 4978 7241
00000100: 8307 d940 4f3c bdc0 e6c6 27c1 d693 9f3f
00000110: 5d18 713e 7279 fec0 23f8 4841 d153 b6c1
00000120: bde2 323f 52d0 00c0 b48c 883e a99f 4b40
00000130: 80ac 3ec1 12f8 9c40 827a a1be def8 77bf
00000140: 202e 7fc1 b4ce aa40 43fe d940 fadb b240
00000150: 22b1 7140 a04e cac0 b9eb 61c0 741a 7e3f
00000160: 3cf2 053f 77cc 11c1 bc45 3441 9edb 5bbf
00000170: dae3 80c0 9042 e73f 07ff 5ec0 1a2a b940
00000180: 026e d740 d439 543f bf2c 5141 569b 07c1

running_var f4 [100]
22.817686 4.5343423 4.7376785 2.1994874 2.7916114 3.309257 3.0266762 9.585509
7.346512 1.1914593 3.201554 11.546662 15.284308 2.8855927 2.0863514 4.891041
15.580609 4.9758353 1.5228035 7.2842402 12.630955 3.8019454 2.2675965 4.8145537
6.6713834 15.779264 11.802521 8.913378 8.890341 2.8056536 15.08956 21.431494
4.343186 12.199197 9.551058 6.691433 4.7747517 1.7758974 2.8357372 3.7927709
1.8693154 14.445836 28.018795 13.176845 8.512572 10.097309 0.9450869 3.0504425
3.6782186 6.047812 7.4403744 7.4917803 9.296822 16.982794 12.37754 20.188942
3.1730866 2.843452 10.381022 2.637801 4.1415067 7.6635103 5.5071974 8.736016
3.4611852 11.018957 5.281743 1.7080201 15.178301 5.6505456 15.7345 31.840734
1.4932891 2.758015 6.0461698 8.228516 4.8553324 4.2441416 2.8414564 3.574534
5.9785447 2.6368756 2.8493028 8.277043 22.77534 2.1228666 12.826657 4.9213862
2.0129156 11.481652 3.6955292 3.2845972 8.880446 2.4236593 3.6782038 7.288003
2.914379 3.7823324 4.8604236 12.906176
00000000: 9f8a b641 5519 9140 109b 9740 67c4 0c40
00000010: c3a9 3240 deca 5340 10b5 4140 3f5e 1941
00000020: a016 eb40 bd81 983f 43e6 4c40 21bf 3841
00000030: 878c 7441 8dad 3840 c886 0540 6883 9c40
00000040: 2d4a 7941 0b3a 9f40 3aeb c23f 7f18 e940
00000050: 6418 4a41 1353 7340 4d20 1140 d310 9a40
00000060: f97b d540 de77 7c41 20d7 3c41 329d 0e41
00000070: d63e 0e41 d48f 3340 d66e 7141 b373 ab41
00000080: 61fb 8a40 e92f 4341 22d1 1841 3820 d640
00000090: c4ca 9840 9b50 e33f b87c 3540 c2bc 7240
000000a0: ba45 ef3f 2522 6741 7e26 e041 5bd4 5241
000000b0: 7f33 0841 948e 2141 37f1 713f 733a 4340
000000c0: ef67 6b40 ad87 c140 8c17 ee40 aabc ef40
000000d0: c8bf 1441 c3dc 8741 670a 4641 f482 a141
000000e0: da13 4b40 1efb 3540 ab18 2641 bbd1 2840
000000f0: 3987 8440 7a3b f540 f63a b040 b9c6 0b41
00000100: 0f84 5d40 a64d 3041 0a04 a940 67a0 da3f
00000110: 52da 7241 45d1 b440 83c0 7b41 d3b9 fe41
00000120: 1924 bf3f 5183 3040 397a c140 00a8 0341
00000130: e25e 9b40 02d0 8740 6cda 3540 2ac5 6440
00000140: 3d50 bf40 92c2 2840 fa5a 3640 c56e 0441
00000150: e533 b641 0cdd 0740 fd39 4d41 ff7b 9d40
00000160: 9cd3 0040 d9b4 3741 8d83 6c40 d736 5240
00000170: 4f16 0e41 3c1d 1b40 b167 6b40 5237 e940
00000180: 2f85 3a40 bc11 7240 9788 9b40 b27f 4e41

weight f4 [7, 100]
-0.18151827 0.008369712 0.08702767 -0.0036755886 0.0017451398 -0.14091763 0.00368551 0.015695637
0.00782804 0.013912738 0.00096552237 0.5990002 -0.058630534 0.16814429 0.0020359 0.01924159
0.05192177 -0.020840283 0.022182046 -0.0017718144 0.3696422 -0.015140976 -0.0064599183 -0.0833071
0.037688028 0.67209935 0.16366147 -0.16527918 0.021112006 -0.09419396 -0.5834722 -0.21139094
0.0033624698 0.19313711 0.00073946785 -0.01261041 0.002212263 -0.023506926 -0.0149331335 0.6835698
0.009780934 -0.23856714 -0.16056067 -0.14224735 -0.009252402 0.040701445 -0.0016078345 -0.08475403
0.026572337 -0.06390638 -0.08740991 -0.14406183 -0.0347079 -0.038889453 -0.0010185876 0.033444304
0.3722868 -0.00020069799 -0.07996449 0.094483465 -0.00016964052 0.44347256 0.028349856 0.4657803
0.030512502 0.08239884 -0.23351985 -0.09871517 -0.08188655 0.007912162 0.22650613 -0.12308015
0.061827935 -0.018172748 -0.036876217 -0.01792721 -0.659562 0.20563708 -0.021174977 0.16771246
-0.34169048 0.0014619749 -0.13920262 -0.010845335 0.036333308 -0.05397735 -0.22062266 -0.42016658
-0.06782675 -0.021781396 -0.32850605 -0.01937677 0.13904144 -0.032098617 -0.019919071 0.029900447
-3.0963597e-06 0.025833877 0.035335805 0.050009217 0.35045475 -0.0021356698 -0.5119852 0.0014173683
0.0025119283 0.12411112 0.00092629064 0.054523464 0.0061911973 0.0033070168 0.0018345492 -0.11400561
0.26448804 0.29299185 0.00045783893 -0.0319339 0.52056956 -0.10217907 -0.027093211 -0.00063300674
-0.08123188 0.024920825 -0.0017353158 -0.16596717 0.07381204 -0.051941633 0.33382192 0.4088205
0.34951988 0.0076782033 0.013901361 0.40843207 -0.09270388 0.33890074 0.18144062 -0.008932163
-0.0055121947 -0.065014556 0.018148798 0.21785997 -0.015643694 0.35788226 0.32199672 0.2994555
0.012565362 -0.2782439 -0.0028889352 -0.09728051 0.011529507 -0.035206705 -0.06544996 -0.38161117
0.4040701 -0.2729905 -0.3425181 0.35769895 -0.10358982 0.0067450833 0.24847332 0.017102603
0.001858045 0.22967018 -0.013664292 0.215178 0.35872367 -0.07759943 -0.13444898 0.067207076
-0.12627175 -0.0028314928 0.24331884 -0.17389794 0.08097889 0.048462197 0.12632456 -0.007841683
0.16616204 0.05313682 0.12784047 0.12830044 -0.2115176 0.0020938094 -0.06198324 0.03382549
0.5515159 -0.020772513 -0.22108506 0.11037507 0.024766384 0.057246935 -0.099345215 0.06623461
-0.35157636 -0.0055701463 0.020562993 0.011317952 0.0005487117 -0.16424905 -0.26461267 0.013317652
0.032429885 0.0020186573 -0.30200538 -0.008474439 0.00029933924 0.043781385 -0.008137405 0.10231124
0.014633697 0.110174 0.002002697 -0.42982522 0.08192681 0.018148193 0.0041237636 -0.11474474
0.25864914 -0.03753434 -0.21559663 -0.0004646665 -0.279044 -0.021646751 0.00038604817 0.03770687
0.012045075 0.16192536 0.022934556 -0.027915139 -0.28800392 0.09419957 0.4717247 0.17581114
0.018540453 0.16137125 0.029446868 0.017391864 0.006764144 0.020077597 -0.026478767 0.47882983
-0.008368334 -0.14564246 0.052737087 -0.09044064 -0.003426462 -0.014975228 0.0026778402 -0.14215119
-0.0016421041 0.055453166 -0.14282961 -0.18296853 -0.33170512 -0.14631788 -0.09434676 0.115790345
00000000: eddf 39be 1e21 093c 903b b23d 25e2 70bb
00000010: 2dbd e43a b64c 10be 9988 713b 2394 803c
00000020: 2e41 003c 41f2 633c 1c1b 7d3a 1458 193f
00000030: 9226 70bd 042e 2c3e bc6c 053b 8aa0 9d3c
00000040: ecab 543d 3eb9 aabc 1fb7 b53c 3a3c e8ba
00000050: be41 bd3e db11 78bc b9ad d3bb ea9c aabd
00000060: c35e 1a3d b40e 2c3f df96 273e f23e 29be
00000070: 16f3 ac3c c3e8 c0bd 6f5e 15bf de76 58be
00000080: e25c 5c3b bcc5 453e d9d8 413a e59b 4ebc
00000090: 9dfb 103b 9991 c0bc 1aaa 74bc 6efe 2e3f
000000a0: 3640 203c f24a 74be 046a 24be 4aa9 11be
000000b0: 6397 17bc 8fb6 263d f9bd d2ba 8593 adbd
000000c0: 3bae d93c 59e1 82bd f803 b3bd f284 13be
000000d0: df29 0ebd 8c4a 1fbd 2182 85ba e5fc 083d
000000e0: 609c be3e 7572 52b9 6cc4 a3bd 8c80 c13d
000000f0: 88e1 31b9 d60e e33e f53d e83c c17a ee3e
00000100: 5bf5 f93c b9c0 a83d d41f 6fbe 2e2b cabd
00000110: 23b4 a7bd 03a2 013c 39f1 673e 7211 fcbd
00000120: 4a3f 7d3d 04df 94bc 840b 17bd 16dc 92bc
00000130: 0ed9 28bf 8792 523e 2577 adbc d1bc 2b3e
00000140: 0ef2 aebe bd9f bf3a 228b 0ebe a2b0 31bc
00000150: 3cd2 143d 5b17 5dbd e8ea 61be 1320 d7be
00000160: c0e8 8abd e66e b2bc f231 a8be 08bc 9ebc
00000170: e160 0e3e d779 03bd 522d a3bc c8f1 f43c
00000180: 0ecb 4fb6 91a1 d33c 47bc 103d 77d6 4c3d
00000190: ce6e b33e 98f6 0bbb 7611 03bf fdc6 b93a
000001a0: 2a9f 243b f92d fe3d 50d2 723a ff53 5f3d
000001b0: 87df ca3b 89ba 583b 4275 f03a c67b e9bd
000001c0: fa6a 873e 0703 963e 1a0a f039 1fcd 02bd
000001d0: 0c44 053f 4343 d1bd 95f2 ddbc 5df0 25ba
000001e0: e65c a6bd c226 cc3c 8973 e3ba 4cf3 29be
000001f0: c42a 973d c0c0 54bd b5ea aa3e ec50 d13e
00000200: 45f4 b23e 7099 fb3b 89c2 633c 021e d13e
00000210: 88db bdbd 6684 ad3e 92cb 393e 3558 12bc
00000220: a49f b4bb 5a26 85bd caac 943c af16 5f3e
00000230: 3427 80bc 583c b73e c1dc a43e 3b52 993e
00000240: f3de 4d3c fc75 8ebe 4a54 3dbb 013b c7bd
00000250: 42e6 3c3c e834 10bd a10a 86bd 8a62 c3be
00000260: 47e2 ce3e 69c5 8bbe 885e afbe 5124 b73e
00000270: e626 d4bd dc05 dd3b ca6f 7e3e c21a 8c3c
00000280: a589 f33a a92e 6b3e 32e0 5fbc 9f57 5c3e
00000290: a1aa b73e 73ec 9ebd feac 09be dda3 893d
000002a0: 624d 01be 9190 39bb 9328 793e 4d12 32be
000002b0: 43d8 a53d 4c80 463d 3a5b 013e 677a 00bc
000002c0: 6226 2a3e ffa5 593d 9de8 023e 3161 033e
000002d0: 1298 58be 4b38 093b 23e2 7dbd 998c 0a3d
000002e0: 2530 0d3f 1e2b aabc 1f64 62be 530c e23d
000002f0: dfe2 ca3c c37b 6a3d 8175 cbbd 03a6 873d
00000300: d101 b4be c685 b6bb b973 a83c ee6e 393c
00000310: 6bd7 0f3a e730 28be 507b 87be 4832 5a3c
00000320: 33d5 043d 734b 043b 73a0 9abe 60d8 0abc
00000330: a2f0 9c39 1c54 333d c052 05bc 8e88 d13d
00000340: 2dc2 6f3c e8a2 e13d ae3f 033b 0d12 dcbe
00000350: 3ec9 a73d 85ab 943c a320 873b 4aff eabd
00000360: a96d 843e 9cbd 19bd 5dc5 5cbe 7b9e f3b9
00000370: dbde 8ebe 8754 b1bc 8266 ca39 8572 1a3d
00000380: b558 453c c3cf 253e 40e1 bb3c 4aae e4bc
00000390: 4075 93be b4eb c03d e685 f13e d607 343e
000003a0: 26e2 973c 813e 253e 8f3a f13c 6279 8e3c
000003b0: c1a5 dd3b c679 a43c 00ea d8bc 2f29 f53e
000003c0: 561b 09bc 4c23 15be d802 583d f138 b9bd
000003d0: 7e8e 60bb a95a 75bc b47e 2f3b 1590 11be
000003e0: df3b d7ba dc22 633d ed41 12be 1a5c 3bbe
000003f0: 41d5 a9be 5bd4 15be e038 c1bd 7d23 ed3d

bias f4 [7]
0.36034834 0.33299756 0.8253687 0.7010496 0.33542806 0.369298 0.45040065
00000000: 947f b83e a87e aa3e 5d4b 533f fd77 333f
00000010: 3abd ab3e a114 bd3e ea9a e63e

weight f4 [7]
6.2534394 7.975819 5.703674 6.8645067 7.074394 8.511089 9.275448
00000000: 2d1c c840 e939 ff40 7f84 b640 0aaa db40
00000010: 7061 e240 6c2d 0841 3c68 1441

bias f4 [7]
-6.178363 -4.6415033 -6.759233 -6.136473 -6.1697855 -4.636498 -4.641667
00000000: 26b5 c5c0 3287 94c0 a34b d8c0 fd5d c4c0
00000010: e26e c5c0 315e 94c0 8988 94c0

running_mean f4 [7]
0.94730246 2.2994206 1.6142098 0.1342325 0.19714084 0.8285477 0.9145542
00000000: 6a82 723f b529 1340 6d9e ce3f 3f74 093e
00000010: 4adf 493e b41b 543f 3920 6a3f

running_var f4 [7]
0.09877271 0.14081243 0.061540734 0.107944556 0.10479417 0.079857916 0.08723074
00000000: 5949 ca3d 2231 103e 2312 7c3d 0912 dd3d
00000010: 539e d63d 8c8c a33d 08a6 b23d
