metrics_best_runs/enc_dec_split_freezed/0171.predictor.model (torch_old, 100300 bytes, 18 tensors)

weight f4 [100, 100]
00000000: 3c17 463d bae9 053d 0425 4cbc 581e 2cbd
00000010: ea2b d13d af0f 5b3d a0c7 d6bd 1c0c 88bd
00000020: 373a d8bd ba0e a3bd 117f 73bd 44ad eb3d
00000030: c163 85bd 0afd d73d c1e5 1b3d b681 863c
00000040: 6599 2fbd 74d4 cfbc 4a6f 0fbe ba66 543d
00000050: 0ac1 e1bd 672d 8e3d b3b0 25bd 3e5b 473e
00000060: 7a56 81bc d087 79bd 8c74 86bd e81e 333d
00000070: 4c8b c33d 9903 f63b bdee e6bd 75c1 81bd
00000080: 3115 d83d 6e25 e7bd 0e1b b0bd e1b6 1a3e
00000090: 9f5b 953a 3189 de3d 8f13 64bd 22d4 acbd
000000a0: 65e3 c23d a2ed 04be 435e 473d 8f56 af3d
000000b0: 89ab e33d a983 b5bd 1b31 3b3d 602a 8abd
000000c0: 40d9 24bd 2ed8 f6bd e31c c23c 7a32 613d
000000d0: 1e53 dc3d 83a8 57bd f609 3d3d c4fd ef3d
000000e0: 7616 49bd dbd8 b2bd dab0 a6bc 480a 38bd
000000f0: 3c0b b03b 8430 81bd 528e 363e ec1a f0bc
00000100: 1c3f 52bd 7051 60bd 1579 71bd ac58 443d
00000110: e506 d8bc 96b4 16be 7013 63bd 2fd6 b23d
00000120: c9de 97bc adba 013e 281c 9abd 15a5 babc
00000130: 8d82 44bd c165 bcbc c02f 29bc d051 e83d
00000140: b211 a03d 9218 9fbd 4b9d 893d a5b1 e93d
00000150: b202 50bd 8495 273e 2a54 9d3b 7743 0a3c
00000160: 3a43 c0bd 8457 3e3c b5cd 9e3d a722 cfbd
00000170: 436d 6e3d e8d7 b4bd 3fe0 a4bc 7954 0dbe
00000180: a1c2 75bd c392 14bb 0538 e1bb 95aa 82bc
00000190: 65d6 06bd be22 c93c 688d b8bd 871c 003d
000001a0: ae0e ddbb f330 d33c b93c a63b 98c5 d4bc
000001b0: b91a 33be 4908 1cbe 170d 9b3d ecc4 0b3e
000001c0: bf62 42bc 6c0e 993d c275 0ebb 72b4 34bd
000001d0: 2b43 08bd 18b6 c43d 6900 ecbd 86f9 9abc
000001e0: 1996 1fbd 2bd9 58bd 9028 04bb b5af 35bd
000001f0: d5de a63d 276b 84bb 2196 c4bc 7325 bcbc
00000200: ad03 c3bd 6db2 09ba b716 653c a197 263d
00000210: 196e afbc 188d e4bd 9adf d8bb 0f28 e73d
00000220: ed99 0e3d 0319 59bc b607 6d3c f358 87bd
00000230: 31cd c0bd eacd a1bd f536 ab3d b89f de3d
00000240: 8f29 693d f5f5 a0bd 00f2 c63d 2032 1dbc
00000250: c649 c8bd e2ab a0bd a523 863d ba2e 9bbd
00000260: ba46 9e3d 7241 abbd d216 b9b9 9ac6 1bbc
00000270: da50 01be a5cb a03c b91b b43d 5fc9 a1ba
00000280: a8ec 8f3d 07da b63d 496e df3d f1cb a6bd
00000290: d7d1 503d ce6e 8abc ac02 2c3d 2b88 093d
000002a0: 9f36 05be 5400 1abe 5646 0f3b 8102 4e3d
000002b0: 5f8b 4bbd 9c20 473c 51fa 1dbd 5e5c cdbd
000002c0: bd36 1c3d f3fa 983d ebbc 143d d919 6ebd
000002d0: c7cf d03d 19e8 61bd a5bf d3bc a9ba 1cbd
000002e0: 9828 cc3c 2b4c 0a3e 69d5 023d cb58 cb3d
000002f0: f813 adbd ddae 3dbb ae9d babb 5f02 603d
00000300: 6611 863e 92a9 82bd ed40 99bd 5922 153c
00000310: 6d34 19bd 471f fb3c 285b 8d3c f539 233d
00000320: b83c e5bc ec22 c23c 9d73 40bd 81d3 cdbd
00000330: bc0f a9bc fe75 a03d 2917 783d 7c2f 0c3e
00000340: 46de 42bd 0c97 c7bd 2c06 893d bb5e e33c
00000350: 5284 0e3d 45f4 803b 72e4 4ebb 168d 29bd
00000360: fc47 ccbc 1f18 e8bd 7dcf 08bd 5acb e3bb
00000370: 4161 cb3c 44db a5bc 7c1e a8bd 927c eabb
00000380: 132c 57bd 1dbb e63c 371e eb3c f7f7 48bc
00000390: b358 ca3d 883d 12be 030f 913d def9 78bd
000003a0: 1c96 0dbe 7c1f acbd a8e7 a73d a9df d0bc
000003b0: b8ad 0bbe 0613 6dbd 93ff ac3d 2c84 efbc
000003c0: fad2 07be c5a7 24bc 22ce 023e c556 b2bd
000003d0: 2400 a93d 6555 803d 18f1 103e e959 513c
000003e0: 1b31 2ebe f730 8ebd 176d cd3d 8d45 0abe
000003f0: 051e 80bd 6eca 073d 5c08 3a3e f5b3 1e3b
0.048362 0.032693602 -0.012459997 -0.042021126 0.10213454 0.053481754 -0.10487294 -0.06642935
-0.105579786 -0.07961793 -0.05944735 0.11507657 -0.06513167 0.1054631 0.038060907 0.016419273
-0.042870898 -0.02536986 -0.14007297 0.05185578 -0.110231474 0.069422536 -0.040451717 0.194684
-0.015788306 -0.060920537 -0.06565198 0.043730646 0.09548053 0.007507753 -0.112760045 -0.06335727
0.10550917 -0.11286436 -0.0859891 0.15108825 0.0011395103 0.10866011 -0.055682715 -0.084388986
0.09516028 -0.12981275 0.04867388 0.085614316 0.11116702 -0.08863003 0.045701127 -0.06746364
-0.04024625 -0.12052952 0.023695415 0.05497978 0.10758041 -0.05265094 0.046152078 0.11718324
-0.049093686 -0.08732768 -0.020348001 -0.04493168 0.005372433 -0.06308082 0.17827728 -0.029309712
-0.051329717 -0.054765165 -0.058953363 0.047936127 -0.026370475 -0.14717326 -0.05543846 0.087322585
-0.01853885 0.12668867 -0.07524902 -0.022783795 -0.047976065 -0.022997739 -0.010326326 0.113437295
0.07815875 -0.07768358 0.067194544 0.11410836 -0.05078382 0.1636563 0.004801293 0.008438936
-0.093878224 0.011617545 0.07754079 -0.10114031 0.05820967 -0.08830243 -0.02012646 -0.13801755
-0.060000066 -0.0022670485 -0.006873133 -0.01595048 -0.032919306 0.0245527 -0.09011346 0.031277206
-0.0067461347 0.025780177 0.0050731567 -0.025973126 -0.17490663 -0.15237536 0.07570856 0.13649338
-0.011864363 0.07473454 -0.002173767 -0.0441174 -0.03326718 0.09605044 -0.11523516 -0.01891781
-0.038961504 -0.052941483 -0.0020165779 -0.04435702 0.081479706 -0.004041094 -0.023997368 -0.022967076
-0.095221855 -0.0005252723 0.013982466 0.04067195 -0.021414803 -0.11159724 -0.0066184523 0.112869374
0.034814764 -0.013250592 0.01446717 -0.066087626 -0.09414137 -0.07900603 0.083600916 0.10870308
0.0569244 -0.078594126 0.097141266 -0.00959447 -0.09779696 -0.07845284 0.065497674 -0.07577272
0.07728334 -0.08362092 -0.00035302952 -0.0095077995 -0.12628499 0.019628355 0.0879435 -0.0012343338
0.070275605 0.08928304 0.10909707 -0.081443675 0.05098137 -0.016898539 0.041994736 0.033577126
-0.13009118 -0.15039188 0.0021861992 0.050295357 -0.04969346 0.012153771 -0.0385688 -0.10027383
0.03813814 0.0746974 0.03631298 -0.05813012 0.101958804 -0.055152986 -0.02584822 -0.03826395
0.0249217 0.13505618 0.031941805 0.09929045 -0.08451074 -0.0028943338 -0.0056950664 0.05468976
0.2618515 -0.06379999 -0.07483087 0.009102427 -0.037403513 0.030654563 0.01725538 0.039850194
-0.027983055 0.023698293 -0.046985257 -0.10050107 -0.020637386 0.07835005 0.060568962 0.13689989
-0.047575258 -0.09745607 0.0669063 0.027755132 0.03479416 0.003935369 -0.003156927 -0.041394316
-0.024936669 -0.11332726 -0.033401 -0.0069517316 0.024826648 -0.020246156 -0.082089394 -0.007155963
-0.052532267 0.028165394 0.028700931 -0.012266151 0.09880199 -0.14281285 0.070829414 -0.060785167
-0.13826793 -0.08404443 0.08198482 -0.025497274 -0.13640487 -0.05787947 0.084471844 -0.02923783
-0.13264075 -0.010049765 0.12773946 -0.08707956 0.0825198 0.06266288 0.1415447 0.012777784
-0.1701092 -0.06942933 0.10030573 -0.13503094 -0.06255726 0.033152036 0.18167251 0.002421615

bias f4 [100]
00000000: eab6 d8bd e1db b5bd 8a50 41bd fe19 923d
00000010: 217a 1abd bbf4 9d3d 97a3 02bc e55c dfb9
00000020: 684a ebbb ec95 0d3e cf63 993b 7a21 fa3a
00000030: 2156 27bd 14d9 9a3d 735d 8f3d 8364 a83d
00000040: 1609 20be 807e 77bd 9c72 f1bd 20f3 ab3d
00000050: 3bf2 953d 20ec a1ba 3fea ce3c a648 2a3d
00000060: 73ac ecbd 1d87 843d c049 e4bc 1e22 b83d
00000070: b07c 89bd 92c6 1bbb 7e27 473d cc0d 483d
00000080: 2001 afbc 97b0 863c 0adc 8ebd 2e3b 403c
00000090: b5c0 bebd f5e9 d43a acad eebd 8cdb 12be
000000a0: 1438 34bd afbe b4bd 469f 80bd 3d32 00bc
000000b0: 1943 f53c e1a2 41bd 7597 14bd b344 aabd
000000c0: 1ce3 b4bd ba17 30bd a6af 5ebd 8682 383d
000000d0: d353 b83c ffa0 853d 7025 8bbd cf0e 81bc
000000e0: c68a 7bbd c063 06bd 2ae5 b0bc 0a07 fe3d
000000f0: 4485 173d a2bc 26bd f20a c8bd d218 853d
00000100: 30fa 3e3d 4bb8 03be 9f83 d43d d059 05bd
00000110: 42fb 85bc 1881 4fbc d9fa a23d bb17 83bd
00000120: d244 66bc 00bb afbd a462 a43c c518 133e
00000130: ca53 c53d 1fa1 c0bc 7052 f13c e3dd 4bbc
00000140: cf10 1b3c 88a1 94bd d84c 783d 21e9 313d
00000150: a0ab 6b3d f0ba 043e 9765 903d c96c 673d
00000160: 6dc9 ac3d a953 3abd 3fdb 373d db72 c93d
00000170: 05cb 413d d916 76bd 584e 77bc 1dc1 8dbd
00000180: 0c75 83bd 4e05 423d b533 5c3c 3b41 bbbd
-0.10581763 -0.08879829 -0.04719595 0.07133864 -0.037714127 0.07712694 -0.007973573 -0.00042603086
-0.007180501 0.13826722 0.0046810876 0.0019083463 -0.040853623 0.075609356 0.07000246 0.08222296
-0.15628466 -0.060423374 -0.11789438 0.08395982 0.073215924 -0.0012353696 0.025258182 0.04157319
-0.115563296 0.06471083 -0.027867198 0.08990882 -0.067132354 -0.002376948 0.048621647 0.048841283
-0.021362841 0.016441626 -0.06975563 0.01173286 -0.093141 0.0016244041 -0.11654219 -0.14341563
-0.043998793 -0.088254325 -0.06280379 -0.007824478 0.029939221 -0.047274474 -0.036277253 -0.083138846
-0.0883238 -0.042991377 -0.05436673 0.04504635 0.022500908 0.06524848 -0.0679425 -0.015754132
-0.06141164 -0.032809973 -0.021593649 0.12403686 0.036992326 -0.040707238 -0.09767713 0.06498875
0.046625316 -0.12863271 0.10376667 -0.032556355 -0.01635516 -0.012665056 0.07958002 -0.064010106
-0.014054494 -0.08580589 0.020066567 0.14364918 0.09635122 -0.023514329 0.029458255 -0.012443039
0.009464457 -0.07257372 0.06062016 0.04343522 0.05753672 0.12961936 0.07050627 0.05650023
0.084368564 -0.04548994 0.044886824 0.0983636 0.047312755 -0.060080383 -0.015094362 -0.06921599
-0.06418809 0.04736834 0.013440062 -0.09143301

weight f4 [100]
00000000: f401 ed3e ccd0 d83e eff3 613f 1feb 3c3f
00000010: a3b2 663e 7541 263f ecdc 213e a3ee ae3e
00000020: 1271 b03e b3d9 4f3f 57f7 843d 61c2 ff3d
00000030: 2129 b83b 31ce c63c 2580 293f 3ae5 313f
00000040: 98b7 7b3d 5c04 643f bed6 cd3e 94a1 a83c
00000050: ba22 aa3e 0a83 2d3f d49f 243f f8f6 ad3e
00000060: e984 893e de4f 85bd 0d2c 6e3f 0cf1 b93e
00000070: 137b ba3e 847f 5f3e 5652 8e3e 9065 223f
00000080: 159e 573f ec04 af3e 8dad 213f b657 533d
00000090: 644d fd3e da75 253f b38c 533f acf0 093d
000000a0: b79c 733e 97ff 3f3f 4be4 b83d b8da 313f
000000b0: 3d2e 6e3d 08c9 653f 930b e43e c046 ad3e
000000c0: 2a46 433f 0384 7b3f 99df 093f bb85 ee3d
000000d0: fa18 4d3f 80cc fb3d ffb3 e53e 8dce 243f
000000e0: 98e6 413f 0a71 643f b7eb 813e 1f53 513f
000000f0: a2b4 603f 9dda 5d3e 28e5 643f 6bcf 0d3f
00000100: 078d 263f b808 373f a701 2e3f 4dcc 723f
00000110: 04f6 083f 253f ac3c 7fd6 863e a329 123e
00000120: afdc c93d 3901 563f e8b3 b73e 170c 223f
00000130: c933 7d3e 0d4e cf3c 331a 063e 2e34 263e
00000140: a9f1 923e 210f 0e3f 48bc 853f 57af ce3e
00000150: 6baa 5f3c 00ff 1b3e d0ca 423f d38c 6b3f
00000160: 165a c73d c630 403f 1e68 08bd d81e 3b3f
00000170: 99d0 8c3e ae55 013f 4271 5c3f d6dc 453d
00000180: 8f4b 8a3e b47f f93d bdb4 443f dc2e 4b3f
0.46290553 0.423468 0.8826284 0.73796266 0.22529082 0.6494363 0.15806931 0.3416644
0.34461266 0.8119156 0.06492489 0.12488247 0.0056201373 0.024268242 0.6621116 0.69490397
0.061454386 0.8906915 0.40202898 0.020584859 0.3322962 0.67778075 0.6430638 0.33977485
0.26859215 -0.06509374 0.93035966 0.36316717 0.36422023 0.21825987 0.27797192 0.6343622
0.8422559 0.34183443 0.6315544 0.05159732 0.49473107 0.6463295 0.82636565 0.03367679
0.2379025 0.74999374 0.090279184 0.69474363 0.058149565 0.89759874 0.4454008 0.3384304
0.76278937 0.9824831 0.5385681 0.11646601 0.80116236 0.12294865 0.4486389 0.6437767
0.75742483 0.89234984 0.2537515 0.8176746 0.87775624 0.21665426 0.89412165 0.5539462
0.6505894 0.7149768 0.6797127 0.9484299 0.5350039 0.021026203 0.26335523 0.14273696
0.09856545 0.83595616 0.35879445 0.632997 0.24726786 0.025305772 0.13095932 0.16230842
0.28699997 0.55491835 1.0448084 0.4036815 0.013651471 0.15233994 0.7609072 0.92011756
0.097339794 0.7507442 -0.03330242 0.7309394 0.27502897 0.5052136 0.8611032 0.04830631
0.27010772 0.121825606 0.76838285 0.79368377

bias f4 [100]
00000000: 6770 20bd 4e82 a0bd 7083 d6bc ad9e c13d
00000010: a2d6 62bd 31a4 ac3c 757a 37bc e3a8 883b
00000020: 5a4e 5fbd a830 fbbd 0617 31bd c5d1 5dbc
00000030: e86c 49bb ab31 5abc e277 41bd 6349 ccbd
00000040: 604c f9b9 1bb6 9ebd 7d50 0e3d a639 e8bc
00000050: 69ea 3dbc 896e c13c a7de 403d 1b9b 85bc
00000060: 6b02 823c 5377 abbd 59f8 96bd 33cf 233d
00000070: c8d3 15bc 151e 913d 8ee6 6dbc cf09 2abb
00000080: ab1f babd 758d edba b97d 9ebd 3698 eb3c
00000090: 4476 7abb 7044 593c 6949 a53d 6d2c 92bd
000000a0: df5e 483d c0db b03d b132 9dbd ce3f 893d
000000b0: 27f7 2e3d 8466 133c d952 d6bb 1b74 8b3d
000000c0: 1b8e 2a3d 5ea1 283c 647f 363c 05c7 27bd
000000d0: 131a 49bc 2b2f d43d e4d7 d3bc 3dc5 3f3b
000000e0: 4bd9 b1bc fc6f 113d 540a f93c 85b8 70bd
000000f0: ccd5 13bd 4e39 da3c 2e0b 7e3d 7749 d33d
00000100: 9600 c7bd dd00 e23c 1364 c4bd 22fb 0d3d
00000110: 4105 9d3d 24cd 5bbd a4d6 883b 60ac 9abd
00000120: 069a 063d 0617 e4bd dc28 bb3d fa98 763d
00000130: 9873 29bd 0565 32bc 4ca5 453d 7c0f be3c
00000140: f83f e33b 46b7 d33c b815 febd b098 083d
00000150: 7551 713c 5ee8 c2bc d9a1 603d 190d 8abd
00000160: d996 b43d 636e d4bd 0ed5 74bd 5dd6 a03c
00000170: b020 2cbd baf5 d63d cbb4 4ebd 2462 c4bc
00000180: 104b c43c ccd4 763b 0e4e bfbc 0f21 8bbd
-0.039169695 -0.07837354 -0.026185721 0.09454093 -0.05538047 0.021074386 -0.01119863 0.0041705235
-0.05451808 -0.1226514 -0.043234847 -0.0135387825 -0.003073508 -0.013317506 -0.04723347 -0.09974935
-0.00047549885 -0.077495776 0.03474473 -0.028347801 -0.011591532 0.023612278 0.047087338 -0.016309312
0.015870294 -0.08372369 -0.07371587 0.039992522 -0.009144731 0.07085816 -0.014520301 -0.0025945788
-0.090880714 -0.0018123823 -0.077388234 0.028759103 -0.0038217464 0.013260946 0.080706425 -0.0713738
0.0489186 0.08635664 -0.07675684 0.06701623 0.04271617 0.00899661 -0.006540638 0.06809255
0.04163943 0.010292379 0.011138771 -0.040961284 -0.012274283 0.10360559 -0.02585978 0.002926185
-0.021710059 0.035507187 0.030400433 -0.05876972 -0.036092564 0.026638653 0.06202238 0.10316747
-0.09716909 0.027588302 -0.095894 0.034663327 0.07667018 -0.053662434 0.004175978 -0.07552409
0.032861732 -0.11137204 0.09138653 0.060204484 -0.041370004 -0.010888343 0.048253343 0.023200743
0.006935116 0.025844228 -0.12406486 0.03334874 0.0147288935 -0.023792442 0.05484185 -0.067407794
0.088178344 -0.10372617 -0.059773497 0.019633466 -0.04202336 0.10496087 -0.050465386 -0.023972578
0.023961574 0.0037663458 -0.023352649 -0.06793415

running_mean f4 [100]
00000000: f4d2 043e 7f93 db3e 8a15 883e eb90 c339
00000010: 99f2 c715 163a 413a 78be bb3e 65f7 a33a
00000020: 0490 243f 1279 d93e de41 f23e f963 333a
00000030: 8ffb a13e 5df8 803f eaa1 413f 52d0 fa3e
00000040: 54bd e439 0000 0000 b9c1 b60e c577 253f
00000050: a231 e139 cb64 df3e ed41 f639 e2fb 183f
00000060: 626c 1a0f 1e49 853a 0400 0000 db53 3f3a
00000070: 9636 8639 52e2 b239 7cf3 ca3f 31fe a53a
00000080: 0400 0000 d794 4f3a 0400 0000 59a7 e725
00000090: 4dde 9d1c d42a 063f aaa0 6207 e9c9 4a3f
000000a0: 1c8e 2e39 0000 0000 ee4d d514 9990 9c39
000000b0: 965f 4e3a 4bdf 803e 9146 591c 3e6c 6901
000000c0: 30ce 913e 0000 0000 4e3e 8806 8fce 493f
000000d0: 6119 5b3f e26c 153b a48a c33e 327c df39
000000e0: d368 2d3e 8f01 8f3e d664 133f 2f7a 8a3e
000000f0: 909c 003a dfaa c839 2600 0000 3f55 a13a
00000100: 4073 9f3e f99f b539 c2ff 893e bbb6 0e3a
00000110: 0d89 f83d 33dc 543f 00f5 1f3a caab 633f
00000120: 6a73 dd3e 4c00 0000 9050 003a 05fa 8a3e
00000130: 1b04 823e 0685 8428 aff8 b43a 47ad c039
00000140: 0d70 9e39 c50c 5f39 df27 b23e 2849 ff39
00000150: 62e3 853f fd15 853e 8828 733a 29e5 6e3e
00000160: d0ae 6b3a 8010 b73e 6531 8d3a 6552 b43d
00000170: 8b5f b13e 15c6 f13e dee3 8105 0801 173f
00000180: 198e 8209 cafc 453a e68a ca39 4870 da3e
0.12971097 0.42885968 0.26578933 0.0003730127 8.075821e-26 0.0007371021 0.36668754 0.0012509642
0.6428225 0.42475182 0.47315878 0.0006843205 0.31637236 1.0075794 0.75637686 0.4898706
0.0004362861 0.0 4.5053012e-30 0.6463588 0.00042952324 0.43631586 0.00046969895 0.5975934
7.61366e-30 0.0010168885 6e-45 0.0007298567 0.0002559914 0.00034119427 1.5855556 0.0012664256
6e-45 0.0007918602 6e-45 4.0185511e-16 1.0446852e-21 0.524091 1.7049565e-34 0.7921434
0.00016646873 0.0 2.1538242e-26 0.00029862372 0.000787252 0.2517036 7.189048e-22 4.2873e-38
0.2847762 0.0 5.124906e-35 0.7883081 0.855856 0.0022800495 0.38191712 0.00042626407
0.16934519 0.27930877 0.5757574 0.27046344 0.0004906142 0.00038274282 5.3e-44 0.001230873
0.31142616 0.000346422 0.2695294 0.0005444099 0.12135515 0.831485 0.00061018765 0.88934004
0.43252116 1.06e-43 0.0004894817 0.27143875 0.25393757 1.4712634e-14 0.0013807024 0.00036750195
0.00030219593 0.00021271694 0.34796044 0.00048691896 1.0460017 0.25993338 0.0009275754 0.23329605
0.00089905877 0.35754776 0.0010772167 0.08804778 0.34643206 0.47221437 1.2214807e-35 0.5898595
3.142999e-33 0.0007552622 0.0003863193 0.4266379

running_var f4 [100]
00000000: a7a6 3a3b d446 c93a e21f 133b 2c15 0438
00000010: f8dc 1f12 7e97 0439 c393 2a3c 3842 be39
00000020: 60ae ac3b 2e5a fc39 1c72 a83b 1271 ea38
00000030: c0eb 323b df7c 3c3c b767 d53b fadb f43a
00000040: cd3c 6d38 6406 0000 e59c 690c 97f8 5c3b
00000050: 8f87 3238 f2d3 083c da81 5238 3b26 d23b
00000060: 7844 030c b09f 7939 6406 0000 ea95 ff38
00000070: 201b 8837 76fe e537 0618 7a3c 9ae5 c239
00000080: 6406 0000 e427 1639 6406 0000 14af 3422
00000090: e5bc 1c1a 53d5 2a3b 9eb9 0605 dd8a 8b3b
000000a0: 2016 1037 6406 0000 cdf4 a011 291c ab37
000000b0: e48c 1539 8055 363b f824 de19 1b93 1f00
000000c0: b0b9 0c3a 6406 0000 7107 9103 fe31 a93b
000000d0: 8889 213c 2936 9d3a 4d13 473b dbfb 2e38
000000e0: dc9a 003a 868b 1b3b 0718 683b fd98 2338
000000f0: 3a85 6838 00d2 1538 6606 0000 405e b739
00000100: fc9a 233a 5101 1138 9144 6339 da1d 9038
00000110: c26d 823b 4fc4 c93b 08ae b338 d097 a13b
00000120: 1d98 bb3a 6606 0000 6814 6538 ed4c 603a
00000130: bc25 2e3b fb05 7925 ba23 e639 264c 0238
00000140: 43d4 be37 f707 5437 4838 403a 268c 7138
00000150: 68cb cb3b 1571 043b 360a 5039 2a66 9c3c
00000160: faf1 4039 f36e 5d3a babb 8d39 3150 7a39
00000170: 36c9 d13a c8bf cc3b fc4f 2f02 db27 7f3b
00000180: 52d6 bb05 993c 0939 10dd 1038 034b a43a
0.002848068 0.0015356191 0.0022449424 3.149097e-05 5.044392e-28 0.00012644936 0.010411206 0.0003628896
0.0052698106 0.00048132375 0.005140556 0.000111790505 0.0027301162 0.011504381 0.006512608 0.0018681281
5.656183e-05 2.293e-42 1.7996881e-31 0.0033717507 4.2564756e-05 0.008351313 5.0188835e-05 0.006413249
1.0112477e-31 0.00023805979 2.293e-42 0.00012187271 1.6225094e-05 2.741742e-05 0.015264517 0.0003717363
2.293e-42 0.00014319975 2.293e-42 2.4487234e-18 3.2412632e-23 0.0026067093 6.334742e-36 0.004258497
8.58822e-06 2.293e-42 2.539442e-28 2.0397902e-05 0.00014262233 0.0027821958 2.2969194e-23 2.899672e-39
0.0005368246 2.293e-42 8.5240425e-37 0.0051634302 0.00985945 0.001199429 0.0030376494 4.171939e-05
0.00049058883 0.0023734285 0.0035414712 3.900471e-05 5.5437187e-05 3.5719946e-05 2.295e-42 0.00034974702
0.0006241051 3.457192e-05 0.0002167395 6.8720154e-05 0.0039803693 0.006157435 8.567801e-05 0.0049314275
0.0014312301 2.295e-42 5.461686e-05 0.0008556385 0.0026572784 2.1599334e-16 0.00043895637 3.1065334e-05
2.2748607e-05 1.2638039e-05 0.00073326053 5.75894e-05 0.0062193163 0.0020209004 0.0001984023 0.019091684
0.0001840069 0.00084470137 0.00027033483 0.00023871732 0.00160054 0.006248448 1.2879924e-37 0.0038933668
1.7664124e-35 0.00013087913 3.4538156e-05 0.0012534562

weight f4 [100, 100]
00000000: 2673 a0bd da8f 8a3d 92dd b5bc fe89 fd3c
00000010: 5b18 a13d dcd9 22bd 39dd 20bc fc6e 433d
00000020: 11d9 5dbd 7995 243d d5a0 583c 86b9 64bd
00000030: 164f 0f3d 0d70 31bd 9e77 bfbc 0ba2 ca3d
00000040: 2fb4 6bbc b5f7 f43c ee00 ce3c 1d3f ad38
00000050: 39e5 293d 1434 553d 9add cb3c 859a 86bd
00000060: 1839 6d3c ac78 363b c137 db3d d934 ed3c
00000070: 677a d0bb d436 323d 2db2 0ebe 786f 343d
00000080: 6d85 c8bc 3756 6dbd 12ff 9c3d bac5 d6bc
00000090: acbe aa3d 0e0f 76bd 72eb 823d 5d8c 873d
000000a0: c21f 09bd 6739 9ebd b6d4 2ebd 201e b33b
000000b0: dd99 82bc 424e af3c 65ea 4bbd 2fac 71bd
000000c0: b6e1 f5bd 1053 d73c 458f 90bb 7250 0e3d
000000d0: d807 62b8 e1b8 83bd b573 c2bd d120 cf3c
000000e0: 9f46 03bc 5e4c 833d 9d8f 573d 33fa d3bd
000000f0: 525f a93d 72a9 b5bd 99eb 8abd 4f39 c7bd
00000100: b1b3 c53d a7bd c1bd d2db 0bbe c141 a1bd
00000110: 23e6 0bbc 861b 34bd efc6 4fbd b47a 80bb
00000120: e63f 8dbc c780 ac3d 1bab 2abd 45dd ca3d
00000130: d0cf 12bd 260a 823c 4798 c9bd 2e9c c8bc
00000140: 569c 46bb ebf1 abbd 521e 84bd 3d6a e6bd
00000150: 086f a6bd 8504 c03d fd90 e53c 360c ec3d
00000160: 241d cebc 7ef8 f5bd effe 04bd 0744 17bd
00000170: db2d 413d 9e91 2cbb 12d3 cfbb 9aa0 cb3d
00000180: b01f d1bb c715 e63d d56b fb3c 12cc 043e
00000190: b6f4 32bd abe8 f03d 4ea8 923d 1523 f63c
000001a0: f2c3 833d e9c0 21bd 36e5 003e 6f3e 16bd
000001b0: ef28 3a3d fb73 043e 2684 5d3d fd23 113c
000001c0: 25d8 66bd 12bc 3d3c 03be a43d 489e b0bc
000001d0: 721d 37bd 5410 373e e352 b83c 4bf6 9e3c
000001e0: 86a2 1cbd 3412 223d 0fbf dd3c 7257 85bd
000001f0: feee 96bc 61d1 2b3e 57ae 2b3a 544b a73d
00000200: cfd9 f5bd 275f 7e3d 61b7 003e a940 c6bd
00000210: 3a44 2c3e 29f8 78bd 954e ef3b b5f5 d5bd
00000220: bd47 53bd 06e1 3f3c 8e9c ba3c dfec c53d
00000230: d68a dd3c 166d 8abc bebf 84bb 6f28 33bd
00000240: d031 8bbd 0b5c 00bd 767a 2bbc 58da 25bd
00000250: bd68 1b3d 75c0 9abc dc1e 96bd 42b1 013d
00000260: e998 253d 618c 78bd 394d 8abc 652d 79bd
00000270: 42c3 2a3e 9a23 cb3d 6bd3 b0bd 35ab 903e
00000280: 05af 59bd b719 cebd d9c6 36bd 26b8 4a3c
00000290: 5925 6fbd 6d7c 0aba ccb1 f93d c3d5 2ebd
000002a0: d006 6dbd aa23 a33d d54a a7bd cfc6 5b3d
000002b0: 7d34 f53d 7807 663d 81be 283c 2e68 8abd
000002c0: 6915 963d 94a4 c4bb 9fef a0bd 38b8 c6bb
000002d0: a397 97bd 6f13 56bd 9120 fbbc 4ea8 7bbd
000002e0: d757 563d c50f a7bd e611 e0bd 88df 2e3c
000002f0: 405b 3fbe 867a 513d e576 f13b 15c1 253e
00000300: 7fa2 a23c a111 9abd 62e1 143e e93a bebd
00000310: bd03 a7bd d6f0 ffbc f31f 91bd 3fe5 6b3d
00000320: c070 b63b 28ea 94bd c18b ebbd e2ae 41bd
00000330: 8b9f ffbd 0374 f1bd c2ef 9ebc fc80 673d
00000340: 14fb 853d 6073 753d edfd a83d 4572 3c3d
00000350: 24c3 353d d8d9 4e3d 771b 94bd 8615 453d
00000360: ac8c 613d f742 1c3e 4c33 c3bb 4155 bd3d
00000370: 8d90 c03c cab1 46bd 2c76 fabd ef86 c93d
00000380: 1f22 543d dba7 0d3b b6c8 813d ee06 e8bd
00000390: 4ea0 4cbc 4af5 403c 18f1 603c 4c96 cabd
000003a0: 9f9b 8e3d 2f19 af3c 2aea 1f3c 122e 7dbd
000003b0: aa32 903c 9131 8dbd 7b1b 72bd 4857 7ebd
000003c0: 425a 603c ae83 1a3c ba47 c73c 4400 3fbd
000003d0: 131f a13b 009c adbc a59b a6bb 92ef cfbd
000003e0: 8ae3 a8bd 2785 16bd 9bff 83bd 5bfb 18bd
000003f0: 6d0e 14bd 1a33 1ebe b2ad 09bc 0749 b0bd
-0.07834463 0.06765719 -0.02220038 0.030949589 0.078659736 -0.03975855 -0.009818369 0.047713265
-0.05416209 0.04018161 0.013221939 -0.05584099 0.03498753 -0.04331975 -0.023372468 0.098941885
-0.014386221 0.029903272 0.025146928 8.2610386e-05 0.04147837 0.05205162 0.024885941 -0.06572441
0.014478944 0.0027842922 0.107039936 0.028955864 -0.0063622477 0.04350932 -0.13935156 0.044051617
-0.024477685 -0.05794355 0.07665838 -0.02621733 0.08337149 -0.06007295 0.06392564 0.06618569
-0.033477552 -0.077257924 -0.042683326 0.0054662377 -0.015942508 0.02139962 -0.049784083 -0.059002098
-0.120059416 0.026284724 -0.0044116103 0.034744687 -5.3889904e-05 -0.06431747 -0.094947256 0.025284203
-0.008012443 0.0641105 0.052627195 -0.10350456 0.08270134 -0.0887021 -0.06783218 -0.097277276
0.09653414 -0.094600014 -0.13658074 -0.0787387 -0.008538756 -0.04397156 -0.050726827 -0.0039208774
-0.017242383 0.08423 -0.041667085 0.09905485 -0.035842717 0.01587398 -0.09843498 -0.024488535
-0.0030305586 -0.083957516 -0.06451096 -0.11250732 -0.08126646 0.09375862 0.028023237 0.115257666
-0.02516038 -0.12010287 -0.032469686 -0.03693011 0.04716287 -0.0026331912 -0.0063423 0.09942742
-0.0063819513 0.112346224 0.030691067 0.12968472 -0.043690406 0.11763128 0.07161008 0.030046025
0.06433858 -0.039490614 0.12587437 -0.036680635 0.045449194 0.12934868 0.054081105 0.008858678
-0.056358475 0.011580484 0.08044054 -0.02155985 -0.044705816 0.17877322 0.022500461 0.019404551
-0.038240932 0.03956814 0.027068643 -0.065108195 -0.018424507 0.1677909 0.0006549111 0.081686646
-0.12004434 0.062102463 0.12569954 -0.09680302 0.16822901 -0.06078354 0.007303069 -0.104472555
-0.051582087 0.011711365 0.02277973 0.0966432 0.027043741 -0.01689772 -0.0040511778 -0.043739732
-0.0679661 -0.03133778 -0.010466209 -0.040491432 0.037941683 -0.018890599 -0.07330105 0.031663187
0.04042903 -0.06068075 -0.016882526 -0.060834307 0.16676047 0.099189 -0.08634075 0.2825562
-0.053145427 -0.100634985 -0.04462323 0.012373006 -0.058385227 -0.0005282823 0.12192115 -0.042684328
-0.057867825 0.07965787 -0.0816857 0.053656396 0.11972902 0.056159467 0.010299326 -0.06758152
0.073283024 -0.0060010646 -0.07858204 -0.006064441 -0.07401969 -0.052264627 -0.030655177 -0.061439805
0.052329864 -0.08157305 -0.10940914 0.010673411 -0.18687153 0.051142238 0.0073689097 0.16186936
0.019852875 -0.07522894 0.14539102 -0.0928858 -0.0815501 -0.03124277 -0.07086172 0.057591673
0.00556764 -0.07271224 -0.11501265 -0.047285922 -0.12481602 -0.117897056 -0.019401435 0.056519493
0.0654203 0.059924483 0.082515575 0.046007413 0.044375554 0.05050072 -0.07231801 0.04811623
0.055065796 0.1525992 -0.005957043 0.092447765 0.023506427 -0.048509397 -0.12229571 0.0984019
0.051790353 0.0021614942 0.06337111 -0.11329447 -0.0124893915 0.0117772315 0.013729356 -0.09891948
0.06963276 0.021374313 0.009760419 -0.061811514 0.017602284 -0.0689422 -0.05910824 -0.062094957
0.013693394 0.009430809 0.024326194 -0.046631113 0.0049170344 -0.02119255 -0.0050844722 -0.10153116
-0.08246525 -0.036748078 -0.06445237 -0.037349086 -0.03614657 -0.15449181 -0.008403229 -0.08607679

bias f4 [100]
00000000: a260 3f3c 4cd4 b1bd 9f3a b83c 0bf1 90bd
00000010: 0bf4 133e 5a2f aebd 1632 db3c a0b7 4abd
00000020: 92d9 a6bc 616a 95bd e1f2 433d 5e4c 7ebc
00000030: 56d8 debd a68b 953c 3540 8b3d ffef 953d
00000040: 5192 66bd 9bb4 afbd 40d3 403c 654a 5f3d
00000050: 0b52 003d 66ae fbbc d3e0 32bd f5db 6ebd
00000060: 2b18 24bd af0a 9fbc 1fc5 42bc 0417 2dbd
00000070: fc17 163e a3ae cdbc e4a1 95bc 607e 7f3d
00000080: bd5a 09be 6032 c2bd 9b1b 8a3d be1c 3ebd
00000090: 1fc8 c9bd 3a26 51bd 2040 eebd 6fc6 93bd
000000a0: 1ee8 0fbe 387c 1c3d 8240 2a3d 8426 853d
000000b0: 2f75 02bd 3633 6f3d f636 6f3c ea4a 3fbe
000000c0: a91a d2bc ecee 0dbd ae3d 85bd 2b95 23be
000000d0: a5ec 02bc 4470 0ebe fd56 a4bd 24c1 b0bd
000000e0: 7799 a1bd 7556 1dbe 1013 e43c 4af8 96bd
000000f0: b468 94bd 8cce dbbd 558a 99bd 0341 15be
00000100: e32f 2bbe 6440 3ebd 47be 91bd fdbc 4fbc
00000110: 18e2 20bd 7053 b0bd 5a18 2e3e 9652 bcbc
00000120: ca7b 073d 5f8c 06bd 7d14 d7bb c1ce e2bd
00000130: 3470 a73a da4c 85bd a4e3 0abe a582 b03d
00000140: 0dee e4bd d678 46bd ba7e 0bbe 8e3c 093d
00000150: af1b e3bb ecee d13b dcc2 f7bd baf0 963d
00000160: dd1f b03d bac9 bfbb 8090 74bd 8076 d2bd
00000170: fce0 65be 6187 4ebc 15d6 dc3c 4a08 5fbe
00000180: 1924 d0bc 3e3e 783b 655f bdbd 06f0 10bc
0.011680754 -0.086830705 0.02248889 -0.07077225 0.14448564 -0.08505125 0.026757281 -0.049491525
-0.020367417 -0.07295681 0.04783905 -0.015521137 -0.108811066 0.018255066 0.06799356 0.07321166
-0.056291882 -0.0857937 0.011769116 0.054514308 0.031328242 -0.030722808 -0.04367144 -0.058315236
-0.04006211 -0.019414274 -0.011887818 -0.042258278 0.14657587 -0.025107687 -0.018265672 0.06237638
-0.1341352 -0.094822645 0.067435466 -0.04641413 -0.09852623 -0.051061846 -0.116333246 -0.072155826
-0.1405339 0.0382044 0.041565426 0.06501487 -0.031850036 0.058398448 0.014600506 -0.18680921
-0.025647478 -0.03465168 -0.06505905 -0.15974872 -0.007990991 -0.13910013 -0.08024404 -0.08630589
-0.07890599 -0.15365012 0.027841121 -0.07371576 -0.07246533 -0.10732755 -0.07497088 -0.14575581
-0.16717486 -0.046448126 -0.07116371 -0.012679336 -0.03927812 -0.086096644 0.17001477 -0.022988599
0.03307704 -0.032848712 -0.0065637217 -0.110745914 0.0012774528 -0.06508799 -0.135634 0.086186685
-0.11178217 -0.048455082 -0.13622561 0.033505015 -0.0069307904 0.0064066555 -0.12097713 0.07370134
0.085998274 -0.005852905 -0.05970812 -0.10276508 -0.22449106 -0.012605519 0.026957551 -0.21780506
-0.025407838 0.0037878896 -0.09246711 -0.008846289

weight f4 [100]
00000000: a167 2a3f f7fa a13e 064b 8b3f d5d2 353f
00000010: e636 c83e eb02 223f fd0e d03e 7fd0 533f
00000020: 265d 7f3d ade2 243f 8e8c 013f ab1e 693f
00000030: 3318 143f ecb2 743d 12dc 663f d2ae 713f
00000040: 5f97 b43e 4327 c23e fa0c 3f3e c766 d83e
00000050: 9362 a53e f1f4 f73e 555d 3e3f d6c4 623e
00000060: d2c1 2f3e eb52 d43d 50b5 353f d309 633e
00000070: 2a8b 283f cdfc e73e 59fc 3c3f 6a9d 233f
00000080: e9cf 8a3e 9f78 243f 14ad 3a3f 6b3f 2c3f
00000090: e1a5 533e c04f d93e 456b 0a3f a29a 4d3f
000000a0: 02a0 e13e f6ae f03e f2b1 843e c014 8b3f
000000b0: 746c b03e 16d4 803e 8a47 1d3f fc16 063f
000000c0: 3ae7 193f 5114 2c3f 5800 963e 5ceb 953e
000000d0: d294 b73e 4e6e 8e3e 5ce4 603f e9a1 bf3e
000000e0: c25f 753f f08e 0c3f af32 5b3e c95e 093f
000000f0: 3840 bc3e b47d 953e 089f 243f a022 163f
00000100: d43f 0b3f 301c a63e 8b5f 973e 997f 223f
00000110: 751b 723f b7cb 303f 1d30 f23d 73e4 c73e
00000120: aa1d 3f3f bf15 c83d cb99 463f a03e 0c3f
00000130: 08ec b13e 2872 733f b863 383e c9f0 163f
00000140: b665 8d3e e392 6b3e 584b f13e 956e 613f
00000150: 0e44 2f3d d07c 0d3f d6b4 ed3e 4281 f93e
00000160: 4383 b53d a093 1a3f 24bf 093f ceb0 af3e
00000170: 09e7 b43d 4616 2e3f 350b 1e3f 3e3b 1f3f
00000180: 6e0a 933e c74a 083f 8455 0e3e 727c 1e3f
0.66564375 0.31636783 1.088227 0.7102483 0.39104384 0.632857 0.40636435 0.82740015
0.062344693 0.6440838 0.50605094 0.9106242 0.57849425 0.059740946 0.9017955 0.9440738
0.35271737 0.3792058 0.18657294 0.42265913 0.3230177 0.48429063 0.74361163 0.221454
0.1716378 0.10367378 0.70979786 0.22171716 0.6583735 0.4531006 0.7382255 0.6391207
0.27111748 0.64246553 0.72920346 0.6728427 0.20668747 0.42443657 0.5406993 0.80314076
0.4406739 0.47008485 0.25917011 1.0865707 0.34457743 0.2516181 0.61437285 0.5237882
0.6011845 0.672185 0.29297137 0.29281127 0.35855728 0.2781853 0.8784845 0.37428215
0.9584924 0.54905605 0.21406053 0.53660256 0.36767745 0.29197466 0.6430516 0.58646584
0.5439427 0.3244338 0.2956508 0.6347595 0.94573146 0.69060844 0.11825583 0.3904148
0.7465464 0.09769773 0.7757842 0.5478306 0.3475039 0.95096064 0.1800679 0.5896116
0.27616662 0.23005252 0.47127795 0.8805936 0.04278951 0.55268574 0.4642703 0.48731428
0.08862927 0.6038151 0.5380728 0.3431458 0.08833129 0.68002737 0.6173585 0.6219977
0.28718895 0.532391 0.13899809 0.6190864

bias f4 [100]
00000000: 0ed8 993e f705 833e 84f9 b13e f573 a13b
00000010: de3a d83e 3b99 683e 35f9 d23e e291 88be
00000020: 6fbd af3e 9f44 b9be 489a d5be 3898 363f
00000030: 4fed a03d 7031 853e e904 bdbd f046 8a3d
00000040: 5fa4 dc3e feea e13e fc33 583e 5aec ccbd
00000050: 89ae b9be 8cf4 f7be 222f a53e 6326 563f
00000060: e184 553f 7d70 f63e 10a6 babd c40f 323f
00000070: 4826 6f3d 4096 8dbd 402b 5dbd 6721 54bd
00000080: 2d37 d3be 5d4f 073f 924f 6b3d f68f ab3e
00000090: 2ca6 073f 1e8a 15bf 214b fbbe ba56 0f3f
000000a0: 98a6 b83d c454 a03d d7fc 5f3e e2b7 b9bd
000000b0: 9c04 87be 9620 133f 21e4 2a3e e331 69be
000000c0: caf8 bd3d 8ce3 e33d 8f4f 11be af24 87be
000000d0: 3a88 ffbb 6e57 183f cbcd 133e f0a6 b33e
000000e0: 5957 b53e 4f49 853e 6b40 513e 64b4 4cbe
000000f0: 6e30 29bc 7699 4e3e 8f2c 133c 358e af3d
00000100: 1199 95be b884 14be d11a 093f fcda ff3e
00000110: 9bf0 fbbd 5820 3cbd a3e4 803e 464e ecbd
00000120: 49e5 963e 13fa 433f 7db4 bd3d 7758 0dbf
00000130: e2e6 c23d 2ce7 12bf b0aa 063d 7a60 f1be
00000140: 331b 10be 8cf1 343f 1fe0 b53c 2ed2 e63e
00000150: 3246 f9be a9e9 c2be bd96 823c 7cf3 a03e
00000160: a5f8 d03e c89a 30be 516f 073f cccd 6abd
00000170: d01a a23c c79d 0d3e 3ebb 073e 324a 453d
00000180: 7373 09bf b317 dabd 4c8c d33e d279 00bf
0.3004765 0.25590488 0.34760678 0.0049271532 0.42232412 0.22714703 0.41205755 -0.266738
0.34324214 -0.36185166 -0.4171927 0.7132602 0.07857763 0.2601428 -0.09229452 0.067518115
0.43094155 0.44124597 0.2111358 -0.10006018 -0.36265972 -0.48428762 0.32262522 0.83652323
0.8340588 0.48132697 -0.09113705 0.69555306 0.058386117 -0.069134235 -0.053996325 -0.051789667
-0.41253033 0.52855474 0.05744893 0.3350827 0.52987933 -0.58413875 -0.49080756 0.5599171
0.0901615 0.07828668 0.21873794 -0.09068276 -0.26370704 0.574716 0.16688587 -0.22772937
0.092759684 0.111273855 -0.14190505 -0.26395175 -0.007798222 0.5950841 0.14433973 0.350883
0.35418203 0.26032493 0.2043473 -0.19990689 -0.010326488 0.20175728 0.008982792 0.08572046
-0.29218343 -0.14503753 0.53556544 0.4997176 -0.12301751 -0.045929283 0.25174436 -0.11538367
0.29471806 0.7655346 0.09262941 -0.5521311 0.09516694 -0.5738399 0.032877624 -0.47143918
-0.14072876 0.7068107 0.022201596 0.4508223 -0.48686367 -0.38068894 0.015941018 0.31435764
0.408147 -0.17246544 0.5290423 -0.05732517 0.019788176 0.13829719 0.13255021 0.04816646
-0.53691787 -0.106490515 0.41317976 -0.50185883

running_mean f4 [100]
00000000: 0c83 893d dabe 353d c7a1 b93d cf47 613d
00000010: 8724 863e f4e1 bc3d e521 e83d 09fc 033e
00000020: ac9f 0e3e 2269 d73c 86a4 d03d 5037 0b3e
00000030: 3d9a 003e e8dd 943e e499 673e f115 a63d
00000040: 5617 083d 3f86 7f3d 751d 343e b3dd f93d
00000050: aea0 e33d 3b87 a43c 5b6e bd3d 9af1 093d
00000060: 934f 133e e116 ff3d 620e d23c 3e74 293d
00000070: 9076 be3e d9c6 d13d 500c 223e 04b0 e43d
00000080: 1dbd c83d 27fa bb3d 3d1c 3e3e 563b 3d3e
00000090: de83 043d cedf 233e 40ab 933c 5371 a23d
000000a0: 595e b63c 1cb8 633e 6d3a ac3e efe8 3b3e
000000b0: 3f12 053d 157b cb3d 873f 143e 0d39 d33c
000000c0: 80bc 0c3e a231 253e fa5c 413e 620f 083d
000000d0: 2c24 bf3d a949 f23c 93b0 043e 5124 823d
000000e0: 0ece 243e 3a93 d43d dd0b 933d 77a2 653d
000000f0: e44c c73d 9ad4 243d 6fe2 963d 4ba9 d43c
00000100: f8da 673c 6e9f d33c 34a2 f33c c7af d03d
00000110: cf44 bb3d 064c 113d 9813 da3e 6463 113e
00000120: f501 a63d d993 063e c9e2 063e 4d79 543d
00000130: 07af f63d ccb8 4c3e e06d 7d3c 1fb1 3b3e
00000140: f625 d93d 962b 403d 0f58 8c3c bba2 463e
00000150: dd7e 283e 1e62 773e 0e80 693c 35bf 283e
00000160: b6c3 513e bd40 4b3e 4b46 513e 0793 293d
00000170: 6c0e 8c30 5cc4 9a3d f313 853e c623 8031
00000180: 4d05 3e3e 98c8 fe3d c7da d53c be82 403d
0.06714448 0.044371463 0.0906406 0.055000123 0.26199743 0.09222785 0.1133459 0.12889113
0.13928097 0.026295248 0.1018763 0.13595319 0.12558837 0.2907555 0.22617298 0.08109654
0.03322538 0.062383886 0.17589362 0.12200489 0.111146316 0.020084014 0.09249564 0.033677675
0.14385824 0.12455536 0.025641624 0.041370623 0.3719983 0.10243005 0.1582501 0.11166385
0.098016955 0.09178572 0.1856546 0.18479666 0.03235232 0.16003343 0.018025994 0.07931771
0.022261785 0.22238201 0.33638325 0.18350576 0.032488104 0.099355854 0.14477359 0.02578404
0.13743782 0.16132215 0.18883124 0.033217795 0.09333071 0.02957614 0.12957983 0.06354583
0.16094229 0.10379644 0.07179997 0.05606314 0.097314626 0.040241815 0.073674075 0.025959631
0.014151327 0.025832858 0.02974043 0.10189777 0.091439836 0.035472892 0.42593074 0.14198071
0.08105842 0.13142337 0.13172449 0.051873494 0.120451026 0.1999237 0.015468091 0.18329285
0.106029436 0.046916567 0.017131833 0.19398014 0.16454645 0.24158522 0.014251722 0.1647919
0.20484814 0.19848914 0.20436971 0.04139998 1.019044e-09 0.07556984 0.25991783 3.7293573e-09
0.1855671 0.12440604 0.026105298 0.046999685

running_var f4 [100]
00000000: e90a 9b3c 6a52 5a3c c002 213d bd28 813c
00000010: 58db 6b3d aca2 ee3c 2d7c f73c 6953 433d
00000020: cf61 483d 37ee b33b 4c24 b43c ca84 743d
00000030: 0952 3b3e 2b28 9d3d f354 c03d c4a9 613c
00000040: 77fa ec3b 050a d43c bc78 713d 48bf 6e3d
00000050: 6990 d53c db46 cd3a 6018 123d 36f0 1a3c
00000060: 5662 893d 8126 453d c86c 613b 833f 133d
00000070: 4355 283e bd99 b13c 7399 a33d 5637 2c3d
00000080: ffaa d83d 2158 bc3c 79b3 cd3d d186 3d3e
00000090: 112a 323c 8a73 913d 40a6 383b 6e31 d73c
000000a0: 5cfd 963b e523 683e 430f 2d3e 2881 5f3d
000000b0: cc33 8c3b b7e5 e53c cef7 b53d a671 103c
000000c0: 233e 893d 58b3 4a3d ce72 d23d 6694 223c
000000d0: 57d0 f03c fdbf f53b 494b 843d df78 de3c
000000e0: 3efc 263e 6215 cb3d dfbb 933c 851a 593c
000000f0: fc49 f23c 8382 983c f411 953c 7663 a73b
00000100: caab 7c3b e722 303b 93b2 063c e91f e13c
00000110: 5d06 4f3d a836 fc3b 4035 5c3e bc06 803d
00000120: 1285 b83c 49b0 283d e180 393d 4fab 503c
00000130: 86ff 853d 3472 2d3e ff07 2e3b 3aba 823d
00000140: 8a9c 413d f482 423c 4f77 863b c21a 8e3d
00000150: f90d 913d e258 0a3e 09c7 a43a 9209 583d
00000160: 0360 493d 3622 873d 91b4 8e3d 10b0 933c
00000170: 0ff6 be2e c957 963c 6810 f93d 0945 5f30
00000180: b243 a93d f73d 2f3d a0d8 b73b 3576 243c
0.0189261 0.013325313 0.039309263 0.015766496 0.05758223 0.029130302 0.030210579 0.047686968
0.048921403 0.005491044 0.021989964 0.05969695 0.18293013 0.07673677 0.09391203 0.013773385
0.007232006 0.025883684 0.058953032 0.05828789 0.026069837 0.0015661375 0.035667777 0.009456685
0.06708209 0.048132423 0.0034397114 0.03594924 0.16438775 0.021679753 0.079882525 0.04204496
0.1057949 0.022991242 0.10043997 0.1850846 0.010874287 0.071021155 0.0028175265 0.026268687
0.0046078395 0.22669943 0.16900353 0.054566532 0.0042786356 0.028063638 0.088851556 0.008816158
0.06701305 0.04948744 0.102758035 0.009923076 0.02939622 0.0074996934 0.06459672 0.027157245
0.1630716 0.09916188 0.01803392 0.013250952 0.029576294 0.01861692 0.018197037 0.005108292
0.0038554543 0.0026876272 0.008221286 0.027481036 0.050543178 0.007696945 0.21504688 0.062512845
0.02252439 0.041183744 0.045288924 0.012736156 0.06542878 0.16938096 0.002655506 0.06383176
0.047268428 0.011872042 0.004103578 0.069386974 0.07082743 0.13510469 0.0012571524 0.052743502
0.04916383 0.06598322 0.06968034 0.01802829 8.6839085e-11 0.018352406 0.12161332 8.122503e-10
0.08264865 0.042783704 0.0056105405 0.010037948

weight f4 [7, 100]
00000000: a845 d8bd 8c1d 8b3c a611 52be ee9f bebd
00000010: e86a 57bc 3944 dbbd bc37 51be 0a63 b83d
00000020: 98b6 c6bc 1e00 013d b3c5 e13d 0552 85be
00000030: 8df1 d8bc 81c4 4bbd f105 693d 8559 d5bc
00000040: e5af 16be a69b 31be 8f69 12be 59e0 963d
00000050: 64fb b53b b4d3 b7bb 3c8f 23be f004 aabd
00000060: 4e84 dfbe d3fd 8a3c 02b8 2fbd 0e85 03be
00000070: acb5 f8bc c4da d4bd 68f7 663b f065 ba3a
00000080: 2749 c53d 4b4f afbd 9033 ab3d 0746 0f3d
00000090: 7e70 edbc ddf4 d73d 25f0 833d 0a14 74ba
000000a0: c03c 21bd fb6e d2bd 3708 1e3d ca00 d5b9
000000b0: 464c 2dbd 8889 06bc 5034 c53d 9ee0 1fbc
000000c0: 6f19 573d ff34 2abd a06d 8fbc f5ee 8f3e
000000d0: 563b 3cbc 77d0 babd 9b49 25be 5ca9 e73c
000000e0: 33e7 e6bd d068 34bd 9388 373d 239a 263e
000000f0: 96bd 873d 1262 90bd 93a8 dfbd 6d2c ea3c
00000100: 04e5 223c 4159 09be 67b5 01be 5307 2dbe
00000110: 5dd6 46bd 730a 5d3d db78 1bbd a7e7 b13d
00000120: d4c0 06bd d4ec ccbd bd22 21bc 0f6e 0c3e
00000130: 684d 46bb e5f4 803d 58c9 ef3d df3a de3d
00000140: 759b 21be a5ec e4bd 03d9 a4bd 2571 5ebd
00000150: 804e 223e bd48 0d3c 228b 57bd 1f8e 7bbd
00000160: 0edb 18bc 1836 013d d10a 9b3c ea57 c53d
00000170: 872d 0dbc 0d2b 853c 9bef 1abd f198 593d
00000180: 6e40 d63d 2966 abbd 3ee0 c9bd 880f e63d
00000190: 9890 8d3d 5371 13bd ef4a 173e b119 8b3d
000001a0: 2156 cabd 41ce 61bd 6038 26bd 1f4d b9bd
000001b0: 5bd7 4cbe 3192 02be b0e6 0f3e 20d9 0cbd
000001c0: c8b3 98bd bcc7 a93d d604 b83d f38f 32bd
000001d0: 5a6a 223e c6f4 e4bd 23d1 cdbd 68d1 e33c
000001e0: b78d 73bd 1e4a 483d 8781 0ebe c0ec 30be
000001f0: b108 583b 0dae 813b b935 e43c 3cd1 05be
00000200: 4851 753c ef40 ec3d cadb 313c 8591 033d
00000210: e650 bebd 5eb2 d8bd d178 b43d 6a70 293c
00000220: 2d07 5a3e 3612 b73d 54c8 453c 3db1 cc3c
00000230: 1e2e af3d 14d6 563d 17b8 b8bd 64b9 74bd
00000240: 5741 b53d 0900 91bd 5eeb 8cbd 48c9 00be
00000250: 04fc baba eb8d 67bc d4b4 9ebd b33b a43d
00000260: e09a 223e 4566 8bbc 75bd 083e 27b2 3cbd
00000270: 7927 aebd bb37 8abd bda8 353d c027 8d3d
00000280: 6d8c 373e ca74 1bbd 3fcf a6bd df0f f83d
00000290: c051 293e debd 843c f80d 2fbd d312 443d
000002a0: 18c1 cc3c c880 e93d fdbf de3c 208d e63c
000002b0: 0348 7a3d 9205 fdbd 3674 f8bc 59a7 f0bd
000002c0: 7298 88bd 53b6 af3d 28c3 d63d 515a 32be
000002d0: b7fd 24bd 4b94 e0bd 9189 ddbb d0bd 343d
000002e0: 791d 8e39 5f61 ea3d f44e 83bd b481 333d
000002f0: 53ff 923c e705 ec3c 976f 46bd 1fa8 f1bc
00000300: adbe ffbd 6c7b d53b 5a70 453d 947e 503c
00000310: cf23 873d 7110 bf3d c170 213e 4c07 603d
00000320: b9dd 06bc 1367 f23d b8c3 653d c3f8 24be
00000330: 25ed 513e 903a de3d b357 8d3d 930b 893d
00000340: 1ee4 9ebc 630b cf3c 25b9 c1bd b307 b03d
00000350: 6235 29bd 1078 91be 2013 c7bd 915c 1d3c
00000360: 5192 9abd 1d7b 523d 7ac1 07be 9f38 033e
00000370: a2c1 823d 97c3 a3bc 960c 373e 081e 8a3e
00000380: 811c 8cbd e968 37be 5b6a 1ebe d9c8 f1bd
00000390: dc79 86bd 56a6 2cbd 4e44 153e 0cea 253e
000003a0: 7d7b 5cbc 2c2a 0ebe 28c6 c7bd b4f2 8e3d
000003b0: e909 50be 37b7 633e 7373 91bd 67fc 0a3c
000003c0: 9a91 ad3c 338f 183c bdcc a9bc f719 5fbc
000003d0: 4630 29bd 4fa5 af3d 7625 5b3d 4262 e5bd
000003e0: 4082 f9bc 9903 363d 5544 35bd 8cca 24be
000003f0: ea9d dcbd 25e0 423b 0068 9f3c b26e a6bb
-0.10560161 0.016981862 -0.20514545 -0.09307848 -0.013148047 -0.10706372 -0.20431417 0.09003265
-0.02425699 0.031494252 0.11024036 -0.26039138 -0.026482368 -0.049747948 0.05689043 -0.026043663
-0.14715536 -0.17344531 -0.1429808 0.0736701 0.0055536497 -0.005609954 -0.15972608 -0.08301723
-0.43655628 0.016966736 -0.042900093 -0.12843725 -0.030360065 -0.10393289 0.003524268 0.0014221054
0.09633093 -0.08560046 0.08359444 0.034978893 -0.028984305 0.10544751 0.06442288 -0.00093108474
-0.039364576 -0.10275074 0.038582053 -0.00040627114 -0.04230907 -0.008211501 0.096291184 -0.009758143
0.05251449 -0.041554447 -0.017508328 0.28111997 -0.011488756 -0.09121793 -0.1614136 0.028278999
-0.112745665 -0.04404527 0.04480798 0.16269736 0.066279575 -0.070499554 -0.10920825 0.028585637
0.009942297 -0.13412954 -0.12666856 -0.16897325 -0.048544277 0.053965043 -0.037957054 0.08686762
-0.03289874 -0.10006109 -0.009834942 0.13713859 -0.003025854 0.0629671 0.11708325 0.108510725
-0.15781958 -0.11177949 -0.08049204 -0.05430712 0.15850258 0.008623299 -0.05262292 -0.061414834
-0.00932957 0.03154573 0.018926056 0.09635909 -0.008616812 0.01625588 -0.03782616 0.053124372
0.10461508 -0.08369095 -0.09857224 0.11233431 0.06912345 -0.035996746 0.14774679 0.067920096
-0.09879709 -0.05512834 -0.040581107 -0.09047913 -0.20004027 -0.1275108 0.14052844 -0.034386754
-0.074561656 0.082900494 0.089852974 -0.043594312 0.15860882 -0.11179499 -0.10049655 0.027809814
-0.05946132 0.04889881 -0.13916598 -0.17277813 0.0032964165 0.003957516 0.027857648 -0.13068098
0.014972992 0.115358226 0.010855624 0.0321212 -0.09292774 -0.10580896 0.088121064 0.010341743
0.212918 0.0893902 0.012071688 0.024986858 0.08553718 0.052450255 -0.09019487 -0.059747115
0.08850353 -0.07080085 -0.0688083 -0.12576783 -0.001426578 -0.014132957 -0.07749334 0.08019199
0.15879393 -0.01701654 0.13353522 -0.046068337 -0.085036226 -0.06748911 0.044350374 0.06892347
0.17924662 -0.037953176 -0.08144998 0.12112402 0.16535091 0.016203817 -0.04273793 0.047869515
0.024994418 0.11401516 0.027191157 0.028143466 0.061103832 -0.12354578 -0.030328851 -0.11750669
-0.06669702 0.085796975 0.10486442 -0.17417265 -0.040281024 -0.10965785 -0.006760784 0.04412633
0.0002710631 0.11444353 -0.064115435 0.043824866 0.017944014 0.028811408 -0.048446264 -0.029499112
-0.124875404 0.006514957 0.04820285 0.012725491 0.06598627 0.09329308 0.15765668 0.05469446
-0.008231574 0.11836066 0.056094855 -0.1611052 0.2050062 0.10851014 0.06901493 0.06691661
-0.019395884 0.025273984 -0.09459142 0.085952185 -0.041310675 -0.28411913 -0.09720445 0.009604589
-0.07547439 0.05138694 -0.13257399 0.12814568 0.06384589 -0.019990725 0.17875895 0.26976037
-0.06841374 -0.17911114 -0.15470259 -0.11805887 -0.065662116 -0.042150818 0.14576837 0.16202563
-0.013457176 -0.13883275 -0.09754592 0.06979886 -0.2031628 0.2223786 -0.07102098 0.008483029
0.021187592 0.009311485 -0.02072751 -0.01361703 -0.041305803 0.08576452 0.053502522 -0.11200382
-0.030457616 0.044437025 -0.04425462 -0.1609289 -0.10772307 0.0029735651 0.01945877 -0.005079114

bias f4 [7]
00000000: cc18 edbe e963 b6be b321 d7bc 1d4b e8bd
00000010: ffc9 25bf d417 6fbe 29da 1abf
-0.4630798 -0.356231 -0.026261186 -0.11342452 -0.64761347 -0.23348933 -0.60489136

weight f4 [7]
00000000: e55c bd3f 2f52 913f 0fe7 393f e6af 9a3f
00000010: 3edf 6a3f a081 ae3f 4a1b 9d3f
1.4793974 1.1353205 0.7261819 1.208493 0.9174689 1.3633308 1.2273953

bias f4 [7]
00000000: 2e0f 8dbe f676 603d f8a2 a83e 7baf 053d
00000010: 5b57 a13d f25e 18be 0bb5 dbbd
-0.27550644 0.05480095 0.32936835 0.032638054 0.0787799 -0.14879969 -0.107278906

running_mean f4 [7]
00000000: 518d 843d bd3e 933e 1755 fd3e 70df d53e
00000010: 304f 833e 40e5 773e 8f77 eb3c
0.064722665 0.28758803 0.4947898 0.41772032 0.25646353 0.24208546 0.028743533

running_var f4 [7]
00000000: 6052 703a c109 c23b bfe7 f03b 8f11 c43b
00000010: e61c 6a3b fd48 083c 93e6 f639
0.0009167548 0.005921573 0.007351845 0.0059835385 0.0035722791 0.008318183 0.00047092568
