metrics_best_runs/enc_dec_split_freezed/0171.autoencoder.model (torch_old, 348766 bytes, 9 tensors)

weight_ih_l0 f4 [400, 1]
0	0x3e4742f5	0.19459136
1	0x3eaeb452	0.34121948
2	0xbe054360	-0.13013983
3	0xbd8264f3	-0.06366911
4	0x3d1ea4ea	0.038731493
5	0x3efd78bd	0.49506178
6	0x3ee341f5	0.4438626
7	0x3ea97d8d	0.331036
8	0x3eb1d6dc	0.34734237
9	0x3ea7a88d	0.32745782
10	0x3e182acb	0.14860074
11	0xbe72c497	-0.23707806
12	0x3ea5b97d	0.3236808
13	0x3e1b411a	0.15161553
14	0x3df3d192	0.11905207
15	0x3e6c80e1	0.23096038
16	0x3e78e080	0.2430439
17	0x3e9bf5cd	0.3046097
18	0x3da55e82	0.080746666
19	0x3dc85988	0.09782702
20	0x3ee9a9c0	0.4563732
21	0x3ece8940	0.40339088
22	0x3de71bbd	0.112845875
23	0x3c9bdd13	0.019026315
24	0x3e57b6d4	0.21065837
25	0x3e002236	0.1251305
26	0xbc0c5dc6	-0.008567279
27	0x3e35710b	0.17718904
28	0x3d4fc588	0.05072549
29	0x3ee095f1	0.43864396
30	0x3dbcc3b9	0.09217019
31	0x3ef8c5c4	0.48588383
32	0x3df56b58	0.11983365
33	0x3e781e05	0.24230202
34	0x3e9a7f50	0.30175257
35	0xbef261e2	-0.47340304
36	0xbe8471ba	-0.25868016
37	0x3e585095	0.2112449
38	0x3eb86c41	0.3602009
39	0xbdbb1196	-0.091342136
40	0xbdbf8477	-0.093514375
41	0xbe46a2e8	-0.19398081
42	0x3ef68f4e	0.48156208
43	0x3eebf233	0.4608322
44	0xbd06af60	-0.032882094
45	0x3e13b13b	0.14423077
46	0xbea2144d	-0.31656113
47	0x3e3495a3	0.17635207
48	0x3e1e5910	0.15463662
49	0x3ce3e98f	0.02782133
50	0x3e815038	0.25256515
51	0x3b423872	0.0029635695
52	0xbdd4f040	-0.103973866
53	0x3e948693	0.29008922
54	0xbdc824ca	-0.09772642
55	0xbde3fd59	-0.111323066
56	0x3d8aaa24	0.06770733
57	0xbf038371	-0.5137244
58	0x3ddcb653	0.10776963
59	0x3ea7472c	0.32671487
60	0xbdfeaa47	-0.124348216
61	0xbe05ce0c	-0.13066882
62	0x3e8af8e2	0.27143008
63	0x3bfad6dd	0.007655008
64	0xbde9ff0e	-0.11425601
65	0xbd28b1bc	-0.041185126
66	0x3deccacb	0.11562117
67	0x3e7b7459	0.24556102
68	0xbe632b82	-0.22184566
69	0x3e06e0ad	0.13171645
70	0x3e079403	0.13240056
71	0xbd8ab9cf	-0.067737214
72	0x3e5a2bda	0.2130579
73	0x3e14877e	0.14504811
74	0x3da3d27a	0.079991296
75	0x3e0cd4a5	0.13752992
76	0x3e252fa4	0.16131455
77	0x3f20bfe9	0.6279283
78	0xbdf7f997	-0.12108152
79	0x3eec8917	0.4619834
80	0x3ed403d2	0.41409165
81	0xbeee1c0d	-0.46505776
82	0xbed11e7f	-0.4084358
83	0xbe122bd0	-0.14274526
84	0x3e7b518a	0.24542823
85	0xbe76adad	-0.2408969
86	0x3db840cb	0.08996733
87	0x3d31f062	0.043442138
88	0x3f04df1b	0.5190293
89	0x3e74531f	0.23859833
90	0xbdd72698	-0.10505408
91	0x3e847f86	0.25878543
92	0xbe29b3db	-0.16572516
93	0x3ebee171	0.37281373
94	0x3f0cb226	0.5495933
95	0x3bb62de8	0.0055596717
96	0xbc1a1ad3	-0.009405809
97	0xbd9ac82b	-0.0755771
98	0x3e03ce9e	0.12871787
99	0xbba4529f	-0.005014732
100	0x3eaf7a92	0.342732
101	0x3f2dbfed	0.6787098
102	0xbf01dfd4	-0.5073216
103	0xbe01ba8b	-0.12668817
104	0xbdf56b01	-0.119833
105	0x3ef5324e	0.47889942
106	0x3ee17678	0.44035697
107	0x3ea44413	0.32083187
108	0x3f0b9e2d	0.5453823
109	0x3ead79ea	0.33882076
110	0x3d60b7c4	0.054862753
111	0xbe7745cb	-0.24147718
112	0x3eb03b6d	0.34420338
113	0x3d695d05	0.056973476
114	0x3e2d21bb	0.16907398
115	0x3e7b6d82	0.24553493
116	0x3ebe5304	0.3717271
117	0x3e7c6b65	0.24650343
118	0x3e604bf1	0.2190397
119	0x3c16a285	0.009194021
120	0x3f1031a3	0.5632574
121	0x3ec4ff18	0.3847587
122	0x3e938e4a	0.28819495
123	0xbbc4057c	-0.005982099
124	0x3e8932e5	0.26796642
125	0x3e7cd859	0.24691905
126	0x3e3a8dc8	0.18218148
127	0x3e8c7b5c	0.27437866
128	0x3e9dd2a8	0.3082478
129	0x3ebf4288	0.37355447
130	0x3e4f0b49	0.20219149
131	0x3f0980ed	0.5371235
132	0x3e57f943	0.2109118
133	0x3f0fac1b	0.5612199
134	0x3ec5b4e5	0.38614574
135	0xbef6d8c5	-0.48212257
136	0x3df3934a	0.118933275
137	0x3e976269	0.29567268
138	0x3e882f97	0.26598808
139	0xbdf657ab	-0.1202844
140	0xbe355619	-0.17708625
141	0xbe10b646	-0.14132032
142	0x3ea25f7a	0.31713468
143	0x3f1984f9	0.59968525
144	0xbd144041	-0.03619409
145	0x3ec3ec17	0.3826606
146	0xbe97c19f	-0.2963991
147	0x3eccc6a2	0.39995295
148	0xbd787dad	-0.06066673
149	0x3d746d06	0.059674285
150	0x3eb1044c	0.3457359
151	0xbd8e865d	-0.069592215
152	0xbe8f08da	-0.2793644
153	0x3ed7c9ca	0.4214614
154	0x3c7d6bbe	0.015467582
155	0xbd873402	-0.066017166
156	0x3d6da0a3	0.058014523
157	0xbedd4dfb	-0.43223557
158	0x3d0788df	0.033089515
159	0x3e771237	0.24128042
160	0xbd7e8ad8	-0.06214413
161	0xbefdff70	-0.49608946
162	0x3ee24481	0.4419289
163	0xbb9757f8	-0.004618641
164	0xbd4977bf	-0.049186464
165	0xbe3e750e	-0.1859934
166	0xbcb963b5	-0.022630552
167	0x3e2f3c5a	0.17112866
168	0xbed60e22	-0.41807657
169	0x3e938404	0.28811657
170	0x3e0fd29a	0.14045182
171	0xbdc86229	-0.097843476
172	0x3e3b88ec	0.1831395
173	0x3e8e285b	0.27765164
174	0x3f3ebb9f	0.7450504
175	0x3e880245	0.26564232
176	0x3e9ef480	0.31045914
177	0x3f23e796	0.6402525
178	0x3bf2bedf	0.0074080075
179	0x3ef8e352	0.48610932
180	0x3f0fe8e2	0.56214726
181	0xbef4d7b6	-0.47820824
182	0xbf0214fb	-0.50813264
183	0xbe17f3b0	-0.14839053
184	0x3e87ab2c	0.2649778
185	0xbe8e9327	-0.27846643
186	0x3ed8d324	0.42348588
187	0xbe33a385	-0.17542847
188	0x3efd6c99	0.49496916
189	0x3e316329	0.17322983
190	0xbe420a99	-0.18949355
191	0x3e224d59	0.15849818
192	0xbe5d86d0	-0.21633458
193	0x3e95308c	0.291386
194	0x3ef8dfcc	0.48608243
195	0xbdca169e	-0.09867595
196	0x3c0a6d9f	0.008448987
197	0x3db3a398	0.087714374
198	0x3e9222bd	0.28542128
199	0x3e16f76e	0.14742824
200	0x3e5d49df	0.21610211
201	0x3eeef240	0.46669197
202	0xbe801a04	-0.25019848
203	0x3d5c1475	0.053730447
204	0x3ec1e34a	0.3786872
205	0x3e2fc26e	0.17164013
206	0xbe279626	-0.16365871
207	0x3d992bd8	0.07479066
208	0x3e8f9b5c	0.28048217
209	0xbe3466cc	-0.17617339
210	0xbe21c841	-0.15799047
211	0x3e4a34b5	0.19746669
212	0xbe46d4da	-0.19417134
213	0xbe0fd257	-0.14045082
214	0xbe6249fb	-0.22098534
215	0xbe5e7f9a	-0.21728364
216	0x3e6842b1	0.22681691
217	0xbe8ee3c3	-0.27908143
218	0x3e74efe2	0.23919633
219	0xbeb70a24	-0.35749924
220	0xbe0558b5	-0.1302212
221	0x3e06b70d	0.13155766
222	0x3e62db07	0.22153865
223	0xbe8cf10b	-0.2752765
224	0x3d2ed1ec	0.042680666
225	0x3eb2fc55	0.3495814
226	0xbe855ecd	-0.2604889
227	0xbe3a924b	-0.18219869
228	0x3e3e1621	0.18563129
229	0x3e6e06f2	0.23244837
230	0x3e9b0462	0.3027678
231	0xbe7fe5d7	-0.2499002
232	0xbdbbb56b	-0.09165462
233	0xbf00d371	-0.50322634
234	0x3eb93eb9	0.36180666
235	0x3ee77774	0.45208323
236	0xbef4c6c0	-0.47807884
237	0xbe3284de	-0.17433497
238	0xbe82adf4	-0.2552334
239	0xbde312b1	-0.110875495
240	0x3da11b4a	0.07866533
241	0x3ca1b731	0.019740673
242	0x3e10e6ec	0.1415059
243	0x3e82adf8	0.25523353
244	0xbe326f78	-0.17425334
245	0x3ec40d78	0.38291526
246	0xbda2bd87	-0.07946306
247	0x3dd94df7	0.10610574
248	0xbe0be013	-0.13659696
249	0x3c9f71ef	0.019463507
250	0xbdbbe688	-0.0917483
251	0x3e07ff9c	0.13281101
252	0xbf0a3e4a	-0.54001296
253	0xbe47c115	-0.19507249
254	0x3e8545f3	0.2602993
255	0x3edba5a6	0.42899817

weight_hh_l0 f4 [400, 100]
0	0x3d767f6a	0.060180105
1	0x3d01bbf7	0.031673398
2	0xbccb6c05	-0.024831781
3	0xbd9c82a4	-0.07642105
4	0x3b1f12c8	0.002427267
5	0x3d5e7495	0.0543104
6	0xbd505528	-0.05086246
7	0x3d8ffa26	0.07030134
8	0xbcab1293	-0.02088288
9	0x3cf7804d	0.030212546
10	0xbdcca02c	-0.09991488
11	0xbc8ce2e3	-0.017198032
12	0x3c227bcb	0.00991721
13	0xbd65b4f6	-0.05608078
14	0xbc0f90f0	-0.008762583
15	0xbcf135c5	-0.029444585
16	0x3deb08ee	0.114763126
17	0xbdb9efd2	-0.09078945
18	0x3e0df35d	0.13862367
19	0xbd126219	-0.035738084
20	0xbda2ec2a	-0.07955201
21	0xbd05af91	-0.032638136
22	0x3d229c77	0.039699998
23	0x3c5e57d3	0.013570744
24	0x3e02f9c3	0.12790589
25	0xbac528e5	-0.0015042095
26	0x3c9755c5	0.018473515
27	0xbd8eefcc	-0.069793314
28	0xbdbf6f06	-0.09347348
29	0xbc3e63c1	-0.011620463
30	0x3d759ec9	0.059965882
31	0xbc8e44ec	-0.017366849
32	0x3d322f9a	0.043502428
33	0xbd80b855	-0.062851585
34	0x3db5bc2d	0.08873782
35	0xbcf5bdde	-0.029997762
36	0x3d798568	0.06091824
37	0x3d90d995	0.070727505
38	0xbda13718	-0.078718364
39	0x3dde8520	0.10865235
40	0xbdb26009	-0.087097235
41	0xbca04cf4	-0.019567944
42	0x3dc4c840	0.09608507
43	0x3dacc8ee	0.08436762
44	0x3cc57e3f	0.02410805
45	0xbdeaeb33	-0.11470642
46	0x3da59c12	0.08086409
47	0x3da6c472	0.08142938
48	0xbe006ee6	-0.12542304
49	0x3d5818cb	0.05275802
50	0xb892fd87	-7.009046e-05
51	0x3d0ffcbb	0.035153132
52	0x3dafbebd	0.08581302
53	0x3de0a535	0.10969011
54	0xbda4ec80	-0.08052921
55	0xbc0c7801	-0.008573533
56	0x3cec778d	0.0288656
57	0x3df5be49	0.11999185
58	0xbc50ed22	-0.012751849
59	0x3d68b462	0.05681265
60	0xbd83a042	-0.06427051
61	0x3e4dea4d	0.2010891
62	0x3dbe817c	0.09302041
63	0xbd4d6cc0	-0.05015254
64	0x3e20e888	0.15713704
65	0xbdfe1436	-0.12406199
66	0x3d3142b0	0.04327649
67	0xbe079505	-0.1324044
68	0xbdda9957	-0.106737785
69	0x3dd6f7d2	0.10496487
70	0x3d41e897	0.047340956
71	0x3a4dc181	0.0007848964
72	0xbdce10cf	-0.100618
73	0xbc0662f3	-0.008202302
74	0xbc8018a8	-0.015636757
75	0x3ccf687b	0.025318375
76	0x3e07ea09	0.13272871
77	0xbe212248	-0.15735734
78	0x3dfc6bce	0.123252496
79	0xbd68e8f9	-0.056862805
80	0x3de1c210	0.110233426
81	0x3c2a1d9c	0.010383036
82	0x3dc2ec36	0.0951771
83	0xbdd0a524	-0.10187748
84	0x3d7c775c	0.061637267
85	0xbca16597	-0.019701762
86	0xbd929ea1	-0.07159162
87	0xbe1a7c79	-0.15086545
88	0x3dc86998	0.097857654
89	0xbd8eb401	-0.06967927
90	0xbd3de9d0	-0.04636556
91	0xbd34b971	-0.044122163
92	0x3c7e35ce	0.015515758
93	0xbd1d6b8a	-0.038432635
94	0xbdcd6f97	-0.1003105
95	0x3d3aae9a	0.04557667
96	0x3c9c88c3	0.019108182
97	0xba8d1aee	-0.0010765472
98	0x3cb5c717	0.02218966
99	0xba67101c	-0.0008814351
100	0x3d9175e8	0.07102567
101	0x3df339e5	0.11876277
102	0x3cc09d52	0.023512516
103	0x3d8b2f25	0.067961015
104	0x3d3362eb	0.043795507
105	0x3db5f894	0.08885303
106	0xbd392148	-0.045197755
107	0x3e135088	0.14386189
108	0x3dc6b9ce	0.09703408
109	0xbc961e80	-0.01832509
110	0xbd949eae	-0.07256828
111	0xbdbd27a0	-0.092360735
112	0xbe031389	-0.12800421
113	0x3d491bd2	0.049098797
114	0x3dced6e5	0.10099582
115	0xbd01c3ce	-0.031680875
116	0x3e0ef3e1	0.1396022
117	0xbe153afe	-0.14573285
118	0xbce16dd6	-0.027518194
119	0xbdfde2f1	-0.12396801
120	0x3c97223a	0.018448938
121	0x3ce5dd0b	0.028059503
122	0x3d1d5c0f	0.038417872
123	0x3d567dff	0.052366253
124	0xbcc13097	-0.02358274
125	0x3dd96cb1	0.10616434
126	0xbb9a7b76	-0.0047144247
127	0xbc66af4a	-0.014079878
128	0x3e38515c	0.17999786
129	0x3e1445f8	0.14479816
130	0x3d55b74f	0.05217677
131	0xbe104586	-0.14089021
132	0xbd5e06e6	-0.054205798
133	0xbcedbd1f	-0.029020844
134	0xbbcca4ee	-0.006245247
135	0x3cc8c32f	0.024507133
136	0xbd2b377e	-0.04180097
137	0xbe1d65b4	-0.15370828
138	0xbdb2c802	-0.08729555
139	0x3ddcba6e	0.10777746
140	0xbd622daa	-0.05521933
141	0xbc318bed	-0.010836584
142	0x3cdba26a	0.026810843
143	0xba2bc022	-0.00065517623
144	0xbdb20c87	-0.08693796
145	0x3e44d11b	0.19220392
146	0x3e1e8b0e	0.15482733
147	0xbccab1e7	-0.024743034
148	0x3c7c9851	0.015417174
149	0xbcb44421	-0.022005143
150	0xbd8b78b9	-0.068101354
151	0xbd1d7e55	-0.038450558
152	0x3c77ae7d	0.015117285
153	0xbce32d91	-0.027731689
154	0xbda95cba	-0.08269639
155	0xbc4d7836	-0.012540868
156	0x3da53598	0.08066863
157	0xbd3a331b	-0.045458894
158	0x3cd1b4a2	0.025598828
159	0xbccff3a2	-0.025384728
160	0x3e218162	0.15772012
161	0x3d8bfe0f	0.06835567
162	0x3dbdefe7	0.09274273
163	0x3db3a070	0.087708354
164	0x3df4d6fd	0.11955068
165	0xbd1d1001	-0.03834534
166	0xbc9ed766	-0.01938982
167	0xbe8de6ce	-0.27715153
168	0xbd1a9d22	-0.03774751
169	0xbd2a989d	-0.04164945
170	0x3ce584ee	0.028017487
171	0xbe0e111f	-0.13873719
172	0x3d83b2c7	0.064305834
173	0x3e145b75	0.14488013
174	0xbe249d04	-0.16075522
175	0x3d32b9f5	0.043634374
176	0x3da09c03	0.07842257
177	0xbddb9202	-0.10721208
178	0xbe4bfebc	-0.19921392
179	0xbcb526c6	-0.022113215
180	0x3db79bca	0.08965261
181	0x3cb6b882	0.022304777
182	0x3e19f254	0.15033847
183	0xbe8f62df	-0.2800512
184	0x3d1a1959	0.03762183
185	0x3e197918	0.149876
186	0x3e2c193c	0.16806501
187	0xbdedc46c	-0.1160973
188	0x3e11feef	0.14257406
189	0x3d64cea4	0.05586113
190	0xbddd788c	-0.10814008
191	0xbd409d22	-0.047024854
192	0x3d356ae1	0.04429138
193	0xbce6d10b	-0.028175851
194	0xbe23d549	-0.1599933
195	0x3c058f04	0.008151773
196	0x3e254cd8	0.16142595
197	0xbd176dad	-0.03696983
198	0xbe2a3a9d	-0.16623922
199	0x3d93b62e	0.072124824
200	0xbd2ab014	-0.041671827
201	0x3d1f9b9b	0.038966756
202	0xbe31f1db	-0.17377417
203	0xbd817a08	-0.06322104
204	0xbd3cf85c	-0.04613529
205	0xbd5b6cbe	-0.0535705
206	0xbd34efb1	-0.0441739
207	0x3dbb950e	0.09159289
208	0xbd2acea9	-0.041700993
209	0xbd076950	-0.03305942
210	0xbd61cb71	-0.055125657
211	0x3dffa321	0.12482286
212	0x3dcf4b61	0.10121799
213	0x3d521a06	0.05129435
214	0xbe0c9308	-0.13727963
215	0xbd7480fe	-0.05969333
216	0xbd994666	-0.074841306
217	0x3debfb67	0.115225606
218	0xbcd6d33e	-0.026223775
219	0xbdf84019	-0.12121601
220	0xbcc31c8b	-0.023817321
221	0x3d30e2e0	0.043185115
222	0x3c786890	0.015161648
223	0x3d84debb	0.06487795
224	0xbca15946	-0.01969589
225	0x3d5a45f2	0.05328936
226	0x3d267297	0.040636625
227	0xbc47be0a	-0.012191305
228	0x3be1b264	0.006887721
229	0xbd89a349	-0.06720597
230	0x3d51fc96	0.051266275
231	0x3d332dda	0.0437449
232	0x3dd02304	0.10162929
233	0xbd722403	-0.059116375
234	0x3d2b3802	0.04180146
235	0xbdd86459	-0.10566015
236	0x3e03958a	0.12850013
237	0x3ce06dfe	0.027396198
238	0x3ddd78d8	0.10814065
239	0xbd147489	-0.03624395
240	0x3dda4f05	0.10659603
241	0xbdee7040	-0.11642504
242	0x3d0156c1	0.031576876
243	0x3d34f6d5	0.04418071
244	0xbd83dc15	-0.06438462
245	0x3db2ad85	0.087245025
246	0xbd2d91da	-0.042375423
247	0x3be33eb4	0.006934965
248	0xbda2b9fd	-0.07945631
249	0x3d70aac1	0.058756594
250	0x3d0867d9	0.03330216
251	0xbdbe9213	-0.09305205
252	0xbc99e23d	-0.018784637
253	0x3dd79410	0.105262876
254	0xbd83240c	-0.0640336
255	0xbd8e31d8	-0.06943101

bias_ih_l0 f4 [400]
0	0x3d22e980	0.039773464
1	0x3deb14f1	0.11478604
2	0xbc027b15	-0.007963915
3	0xbb84975b	-0.0040463633
4	0xbd3ef3f8	-0.046619385
5	0x3cd1c98f	0.025608806
6	0xbd21b50d	-0.039479304
7	0xbcbe2997	-0.023213191
8	0x3d911659	0.070843406
9	0xbda971f1	-0.08273686
10	0xbd076a25	-0.03306021
11	0x3cf8f273	0.030389046
12	0xbd20315f	-0.039109584
13	0xbc31ecbd	-0.010859665
14	0x3d59b44c	0.05315046
15	0x3d96538c	0.07340154
16	0xbb0cf6d7	-0.0021509433
17	0x3da7f912	0.08201803
18	0x3cc67ee8	0.024230435
19	0x3e1aca8d	0.1511633
20	0xbd4a31ee	-0.049364023
21	0x3d933487	0.07187753
22	0xbcd7fffb	-0.026367178
23	0x3bab0e43	0.005220206
24	0x3d9ded2b	0.07711252
25	0x3d777009	0.06040958
26	0xbd444fab	-0.04792754
27	0x3c72fe9f	0.014831214
28	0x3c28f2ee	0.010311825
29	0xbc0f63a8	-0.008751787
30	0xbae47236	-0.0017429057
31	0x3d9baa0f	0.076007955
32	0x3c5ae311	0.013359801
33	0x3e3eb171	0.18622376
34	0xbd0910ec	-0.033463404
35	0x3d4b5c97	0.049648847
36	0x3cfc5c58	0.030805752
37	0xbcabc6b4	-0.020968772
38	0xbc28c238	-0.010300212
39	0xbd9e9d87	-0.0774489
40	0xbdd9b6b5	-0.10630552
41	0x3d4e83c9	0.05041865
42	0xbd327b2f	-0.04357451
43	0x3c505cf3	0.012717473
44	0x3c2864bd	0.010277924
45	0x3e14ef73	0.14544468
46	0x3d5112f9	0.051043484
47	0x3e102555	0.14076741
48	0xbd9fbd92	-0.077998295
49	0xbde90cd9	-0.113794036
50	0xbb7f61e4	-0.003896826
51	0xbd4c3deb	-0.049863737
52	0x3deabd64	0.11461905
53	0x3d8581d6	0.06518905
54	0xbd64385b	-0.055717807
55	0x3e11382f	0.14181589
56	0x3db237d4	0.087020546
57	0xbd2ca5f3	-0.04215045
58	0x3cc80438	0.024416074
59	0xbdc0eb3e	-0.09419869
60	0xbdb69d94	-0.089167744
61	0x3d265d81	0.040616516
62	0x3e295632	0.16536787
63	0x3de3429b	0.11096688
64	0x3dce2657	0.100659065
65	0x3d123990	0.035699427
66	0x3c95cb08	0.01828529
67	0xbd5adc4b	-0.053432744
68	0x3c793cab	0.015212218
69	0x3c871acc	0.01649227
70	0x3dfd2f09	0.12362487
71	0xbc08afc5	-0.008342688
72	0x3d482f33	0.048873138
73	0x3d487d57	0.04894766
74	0x3b6f6eb2	0.0036534485
75	0x3d82f1a3	0.06393745
76	0xbd40f8a6	-0.04711213
77	0xbc0d91a5	-0.008640681
78	0xbd274e30	-0.04084605
79	0x3bd06f7f	0.0063609476
80	0x3e2efce9	0.17088665
81	0xbd8fe63c	-0.070263356
82	0x3de34da3	0.110987924
83	0xbdb96549	-0.09052522
84	0xbc294f68	-0.010333873
85	0x3d1a84bc	0.03772424
86	0x3df4560c	0.11930475
87	0xbd8da1e2	-0.06915642
88	0xbbe99ccd	-0.007129288
89	0x3e10c17b	0.14136307
90	0x3d9e731f	0.07736801
91	0xbc8ecaa7	-0.017430617
92	0x3bf80ccb	0.0075698844
93	0x3de79b0b	0.11308869
94	0xbdd1f4db	-0.102517806
95	0x3decc27d	0.11560533
96	0xba709931	-0.0009178101
97	0xbd15325e	-0.036424987
98	0xbd8142e3	-0.06311586
99	0x3de447dd	0.11146519
100	0x3d57f399	0.052722547
101	0x3dc582ac	0.09644064
102	0x3d37fc78	0.044918507
103	0x3d192cfb	0.037396412
104	0x3b0f1715	0.0021833826
105	0x3d42001d	0.04736339
106	0x3c03ca2d	0.008043808
107	0xbdcb314d	-0.09921513
108	0x3cbb9ab8	0.022900924
109	0x3d818196	0.06323545
110	0x3df7c48e	0.12098037
111	0xbd62babc	-0.055353865
112	0x3d224c95	0.039623816
113	0x3dba0a88	0.0908404
114	0x3d2555a7	0.040364888
115	0xbd87295c	-0.065996855
116	0xbd8720cc	-0.065980524
117	0x3d97aebc	0.07406375
118	0x3d987580	0.07444286
119	0x3d8199da	0.06328173
120	0xbd73c594	-0.059514597
121	0xbd18ad5e	-0.03727471
122	0x3dbe1eec	0.09283242
123	0x3dad4810	0.084610105
124	0xbd87ca6d	-0.066304065
125	0xbdd6b5ca	-0.10483892
126	0x3d8ae953	0.06782784
127	0x3d944fa6	0.07241754
128	0x3ba4cc07	0.005029205
129	0xbd1aeaec	-0.037821695
130	0x3d095e34	0.033537105
131	0x3d34c951	0.044137303
132	0x3d888a31	0.06666983
133	0xbd1b627e	-0.037935726
134	0xbe0244be	-0.12721536
135	0x3d8bfba2	0.068351045
136	0xbdf45c95	-0.11931721
137	0xbc5a81fc	-0.013336655
138	0xbd4007bc	-0.046882376
139	0x3bf5728e	0.0074904626
140	0xbce11cec	-0.027479611
141	0xbd1f3781	-0.038871292
142	0xbd47248e	-0.048618846
143	0x3dfe3b27	0.12413626
144	0xbcd0a429	-0.025468903
145	0x3c52c89e	0.012865214
146	0x3d5d5bf8	0.054042786
147	0x3c887c95	0.016660968
148	0x3d49dd50	0.049283326
149	0xbd48bc12	-0.049007483
150	0x3d8d9570	0.069132686
151	0x3d23b4eb	0.03996746
152	0xbdd7584e	-0.1051489
153	0x3d59da10	0.053186476
154	0xbdad4903	-0.084611915
155	0xbd04f42c	-0.032459423
156	0xbdee2cd7	-0.11629646
157	0xbdc9a6e3	-0.09846284
158	0x3d422b4f	0.047404584
159	0xbd75e07f	-0.06002855
160	0xbd209f6d	-0.03921454
161	0xbd9843df	-0.074348204
162	0xbd53c3d5	-0.05170043
163	0xbc9b3210	-0.01894477
164	0x3dae5bb8	0.08513588
165	0xbd362a05	-0.044473667
166	0x3d8ffd11	0.070306905
167	0x3c60171f	0.0136773875
168	0xbcbaba8b	-0.022794029
169	0x3d7f5506	0.062336944
170	0x3a83dc8c	0.0010060235
171	0x3ceca371	0.028886529
172	0x3d24928f	0.04017883
173	0x3d12db93	0.035853934
174	0x3d15b1db	0.03654657
175	0xbd4390af	-0.047745403
176	0x3e002876	0.12515435
177	0xbd9d7199	-0.07687683
178	0xbd7942e4	-0.060854807
179	0xbcdda851	-0.027057799
180	0xbd0848d2	-0.03327257
181	0xbd113cd9	-0.03545842
182	0x3cefdbda	0.029279638
183	0xbd8e8218	-0.06958407
184	0x3b02fde1	0.001998775
185	0x3e0b04bd	0.13576026
186	0xbc3ab222	-0.011395009
187	0x3cb1048d	0.021608615
188	0x3d1d9d4a	0.03848008
189	0x3dc7a6c7	0.09748607
190	0x3d6cd1f3	0.05781741
191	0xbd82a9eb	-0.063800655
192	0x3e004710	0.12527108
193	0x3d537ca1	0.051632527
194	0x3d9086a9	0.070569344
195	0x3db34ee9	0.08755285
196	0x3d2a3ce9	0.041561995
197	0xbcffa467	-0.031206323
198	0x3d728dac	0.05921714
199	0x3d3a81fb	0.045534115
200	0x3d58b217	0.052904215
201	0xbd0554a1	-0.03255141
202	0x3d8dea86	0.069294974
203	0xbcf25e10	-0.029585868
204	0xbd1a2b89	-0.037639175
205	0x3d96a968	0.073565304
206	0xbdcad41b	-0.09903737
207	0x3b4fa7a1	0.0031685608
208	0x3e0f23dc	0.13978523
209	0xbbed3058	-0.007238429
210	0xbd93acee	-0.07210718
211	0xbd5ed3ce	-0.05440121
212	0xbd34085a	-0.043953277
213	0xbdc7d861	-0.09758068
214	0xbdde31d6	-0.10849349
215	0xbdd64247	-0.1046186
216	0x3ddd86b4	0.10816708
217	0xbda06120	-0.07831025
218	0x3d92681c	0.071487635
219	0x3d1024d3	0.03519137
220	0x3bdbc1e8	0.006706465
221	0x3d80d157	0.062899284
222	0x3d6bf36f	0.057605203
223	0xbdd4d941	-0.103930004
224	0x3cb26f54	0.021781601
225	0x3c5b2ccb	0.013377379
226	0x3d14c081	0.0363164
227	0xbddbc4ea	-0.10730918
228	0x3d3653a6	0.044513367
229	0xbcfde635	-0.03099356
230	0xbca35dad	-0.019942129
231	0xbc826bc4	-0.015920527
232	0x3d83109c	0.06399652
233	0xbe05b107	-0.13055812
234	0x3dda85ae	0.106700286
235	0x3da0c460	0.078499556
236	0xbd9c2754	-0.07624689
237	0xbdac5cb5	-0.0841612
238	0xbda4118d	-0.0801116
239	0x3d1fac23	0.03898252
240	0xbdbb0dc3	-0.09133484
241	0x3d28016a	0.041016974
242	0x3beb2323	0.0071758195
243	0x3de53c81	0.11193181
244	0xbd38cb09	-0.045115504
245	0x3d0b37e2	0.03398884
246	0x3d83eab0	0.064412475
247	0x3de6cb71	0.11269272
248	0xbae75189	-0.0017648201
249	0x3cc71758	0.024303123
250	0x3cbad76e	0.022807803
251	0x3daaa8b5	0.083329596
252	0xbcd89b96	-0.026441377
253	0xbd597de4	-0.053098574
254	0xbd6ff727	-0.058585312
255	0xbada19c6	-0.0016639761

bias_hh_l0 f4 [400]
0	0x3dac71a6	0.08420114
1	0x3d9db141	0.07699824
2	0xbdd1d0b8	-0.10244888
3	0xbcb1c5ff	-0.021700857
4	0xbd1c9732	-0.03823013
5	0xbdd34844	-0.10316518
6	0x3dc9f529	0.09861214
7	0x3b84bc66	0.004050779
8	0x3d300012	0.042968817
9	0x3d7f50dd	0.062332977
10	0x3d7625eb	0.060094755
11	0xbd5dc024	-0.054138318
12	0x3e0662f9	0.13123693
13	0x3dc01722	0.09379412
14	0x3df04e11	0.1173364
15	0xbd83ad20	-0.06429505
16	0x3d37c74d	0.044867802
17	0x3d7998ed	0.060936857
18	0xbd5ee2da	-0.05441556
19	0x3d2cb620	0.042165875
20	0xbd75c9da	-0.060006954
21	0x3def0ed4	0.1167275
22	0xbd527b6e	-0.051387243
23	0x3c94c06e	0.018158164
24	0xbddd4e23	-0.10805919
25	0xbc2e2d8e	-0.010630978
26	0xbcb4ec13	-0.022085225
27	0xbd53a8d4	-0.05167468
28	0x3da56948	0.080767214
29	0xbdcd47cb	-0.10023459
30	0xbce14c73	-0.027502274
31	0x3e10b8f5	0.14133056
32	0xbc5dd390	-0.01353921
33	0x3e2df31e	0.16987273
34	0xbcf47ff9	-0.029846178
35	0x3d25a1d2	0.040437527
36	0xbcbfbe3f	-0.023406146
37	0x3d88347a	0.06650634
38	0x3ddf3582	0.10898878
39	0xbc10f851	-0.008848266
40	0x3cd1d5c4	0.025614627
41	0x3acbc635	0.0015546741
42	0xbd92250a	-0.07135971
43	0x3e211faf	0.15734743
44	0x3db3093d	0.087419964
45	0xbd47aece	-0.04875069
46	0xbd46b654	-0.048513725
47	0xbce4da87	-0.027936233
48	0xbdbacebb	-0.09121462
49	0xbd01e939	-0.03171656
50	0xbcd12d50	-0.025534302
51	0x3d833b7e	0.064078316
52	0x3e2c1614	0.16805297
53	0x3dd6ff20	0.1049788
54	0x3befbb15	0.007316003
55	0x3d7caa07	0.06168559
56	0x3dc1e545	0.09467558
57	0xbdce360d	-0.10068903
58	0x3ca4a7ee	0.020099606
59	0x3d4c32a4	0.049852982
60	0x3cfa4b15	0.03055338
61	0xbd6b9b38	-0.057521075
62	0x3d6aaf91	0.05729634
63	0x3d79546d	0.06087153
64	0xbcda995b	-0.026684454
65	0x3b020f07	0.0019845383
66	0x3de5988a	0.11210735
67	0xbd706659	-0.058691356
68	0xbd13935c	-0.036029205
69	0xbcb3b743	-0.021937972
70	0xbc6b81c2	-0.014374198
71	0xbca782d0	-0.020448118
72	0xbd278fbd	-0.040908564
73	0xba06ef4a	-0.0005147351
74	0x3d976bfe	0.07393645
75	0x3b6b6dd5	0.003592362
76	0x3cac40c5	0.021026978
77	0xbd7cb8e8	-0.061699778
78	0xbe19cae6	-0.15018806
79	0x3ce99ab2	0.028516147
80	0x3dd2cc92	0.10292925
81	0xbc6cdc2f	-0.014456793
82	0xbced4be5	-0.028966853
83	0x3ce95a72	0.02848551
84	0x3d7333a0	0.059375405
85	0xbc17f29b	-0.00927415
86	0x3bc99a26	0.006152409
87	0x3d9a8349	0.07544572
88	0x3da68210	0.08130276
89	0x3df12d90	0.117762685
90	0x3d14b2ce	0.036303334
91	0x3d9ad986	0.075610206
92	0x3dadd556	0.08487956
93	0x3d67f5b5	0.05663081
94	0x3d52d5c1	0.051473383
95	0x3bf6c442	0.00753072
96	0xbd7aa88a	-0.061195888
97	0x3e047d8f	0.12938522
98	0x3d8f295f	0.06990313
99	0xbc1b2024	-0.009468112
100	0x3de3f5a4	0.111308366
101	0xbdafacd5	-0.08577887
102	0x3cc3a275	0.023881176
103	0x3dcdc325	0.100469865
104	0xbdc8b2b0	-0.09799707
105	0x3d557bfd	0.052120198
106	0xbc93efab	-0.018058619
107	0xbd803231	-0.06259573
108	0xbd519bf5	-0.051174123
109	0x3da90888	0.0825358
110	0xbce9d13d	-0.028542155
111	0x3cd5818d	0.026062751
112	0xbd56b375	-0.052417237
113	0x3c076664	0.008264158
114	0xbd09b201	-0.033617023
115	0xbcebbdaf	-0.028776972
116	0x3d02af3e	0.031905405
117	0x3d0f489d	0.03498136
118	0xbc9ede16	-0.019393008
119	0x3ddb06b5	0.10694639
120	0x3cb04b95	0.021520415
121	0x3cc0c5c5	0.023531804
122	0x3d92d1ea	0.07168944
123	0xbdad7c32	-0.08470954
124	0x3d24432a	0.040103115
125	0xbdf00ae9	-0.11720831
126	0xbd11ae31	-0.035566512
127	0xbda741f2	-0.08166875
128	0x3d4ff50f	0.050770815
129	0x3bd5949a	0.006517959
130	0x3d65864b	0.056036275
131	0x3db27df3	0.08715429
132	0xbd544eb4	-0.05183287
133	0xbc59dbbd	-0.013297019
134	0xbdfdb05d	-0.12387154
135	0x3ca81286	0.020516645
136	0xbdfc392e	-0.12315594
137	0xbd6641c3	-0.05621506
138	0xbd417c17	-0.047237482
139	0xbd646b6b	-0.055766504
140	0x3d9f422f	0.077762954
141	0x3db7577f	0.089522354
142	0x3d48fd3e	0.049069636
143	0x3c8d7148	0.01726593
144	0x3e08299d	0.13297124
145	0xbdb8bd77	-0.090205126
146	0xbde5b759	-0.112166114
147	0x3d23a2f3	0.039950322
148	0x3d5fe797	0.05466422
149	0x3cb4f6b6	0.022090297
150	0xbbcdb20f	-0.0062773298
151	0xbd6c3692	-0.05766923
152	0xbdc8bb40	-0.0980134
153	0x3dddb26f	0.10825049
154	0x3cf4bf12	0.029876266
155	0x3b83ce6a	0.004022409
156	0xbda8d8f2	-0.08244504
157	0xbe1cdf12	-0.1531947
158	0xbd6c3a00	-0.0576725
159	0xbd985f11	-0.074400075
160	0xbc9dd23b	-0.019265285
161	0xbae7b3dd	-0.0017677505
162	0x3d389bd8	0.0450705
163	0x3d297429	0.041370545
164	0xbd749030	-0.05970782
165	0xbd4817f8	-0.048850983
166	0xbc63ab1f	-0.013895779
167	0xbdea2096	-0.114319965
168	0xbd6b2ec1	-0.057417635
169	0x3df43d9a	0.11925812
170	0x3dfefbd0	0.12450373
171	0xbd3dd3a6	-0.04634442
172	0xbcf60346	-0.030030858
173	0xbd27b2f3	-0.040942144
174	0x3cf55487	0.029947532
175	0xbd94a614	-0.072582394
176	0xbd60076b	-0.054694574
177	0x3d88cf28	0.06680137
178	0xbdf8b376	-0.121436045
179	0xbdbbb273	-0.09164896
180	0xbd75a64a	-0.05997304
181	0xb9b8d9c6	-0.0003525747
182	0x3b0f903b	0.0021906036
183	0x3d2e05d9	0.042486046
184	0x3d9c995b	0.07646438
185	0xbd261914	-0.04055126
186	0x3d849823	0.0647433
187	0x3dd6a9f3	0.10481634
188	0xbc75c467	-0.015000439
189	0x3dc4cc8a	0.09609325
190	0xbcb972ed	-0.022637809
191	0x3d155d49	0.036465917
192	0x3da654db	0.08121654
193	0x3b819b71	0.0039552976
194	0xbdbd9125	-0.092562
195	0xbd3f2aba	-0.046671607
196	0xbc1632b1	-0.009167359
197	0x3d198bfa	0.037487008
198	0xbd5b13af	-0.05348557
199	0x3d6567c6	0.05600717
200	0x3c3cebfb	0.0115308715
201	0xbbcb2cd6	-0.006200413
202	0xbcb57fbe	-0.022155639
203	0x3d206399	0.039157484
204	0xbd8b8a96	-0.068135425
205	0x3da18c89	0.07888133
206	0xbdec5e4f	-0.115414254
207	0xbd23fa02	-0.040033348
208	0x3c6a3f5d	0.014297334
209	0xbdb99422	-0.09061457
210	0xbda53b0e	-0.080679044
211	0x3cb41145	0.021980891
212	0xbdd98e2b	-0.106228195
213	0xbd67fe35	-0.056638915
214	0x3d0aa4e0	0.033848643
215	0xbd0a798a	-0.033807315
216	0xbd85c635	-0.065319456
217	0x3cd42d88	0.025900617
218	0x3d90ede3	0.07076623
219	0x3d1935f7	0.03740498
220	0xbdc0349c	-0.093850344
221	0xbd2aa1e0	-0.041658282
222	0x3d363943	0.044488203
223	0x3d5cf9ae	0.05394905
224	0xbd1661e8	-0.036714464
225	0x3d46ac72	0.0485043
226	0x3d000f09	0.03126434
227	0x3d145c21	0.036220673
228	0xbd703df8	-0.058652848
229	0xbbc2c056	-0.0059433384
230	0xbcc2f8fc	-0.023800366
231	0xbd687598	-0.05675277
232	0x3d7bf7bb	0.06151555
233	0xbc444e58	-0.011981569
234	0x3da75634	0.08170739
235	0x3db07030	0.08615148
236	0xbd51dccd	-0.051235963
237	0xbc437ee6	-0.01193211
238	0xbcc01171	-0.023445817
239	0xbc47aba8	-0.012186922
240	0xbdd43fed	-0.103637554
241	0x3da5c06c	0.08093342
242	0xbd4c4b64	-0.049876586
243	0x3d0d0599	0.034429166
244	0xbd9d2a7a	-0.076741174
245	0xbca8d2b0	-0.020608276
246	0x3cc44505	0.023958692
247	0x3d5b24ed	0.053502012
248	0xbcef4f2b	-0.029212555
249	0xbce1cd94	-0.027563848
250	0xbd757ab2	-0.059931464
251	0x3da6ee05	0.081508674
252	0x3cd114df	0.025522647
253	0xbc6d97c5	-0.014501517
254	0x3c905912	0.017620597
255	0x39ab62f8	0.000326894

weight_ih_l0 f4 [400, 1]
0	0x3e5421d7	0.20716034
1	0x3e17c39e	0.14820716
2	0x3e8302a0	0.2558794
3	0x3e0c2e68	0.13689578
4	0xbd5bf609	-0.053701434
5	0xbd3e96f1	-0.046530668
6	0x3dcc613f	0.09979486
7	0x3e22580b	0.15853898
8	0xbe2202b7	-0.15821348
9	0x3e02441e	0.12721297
10	0x3e52b926	0.20578441
11	0xbdf2d2f0	-0.118566394
12	0xbe1283ba	-0.14308062
13	0x3ce5cce1	0.028051795
14	0x3ea343e3	0.3188773
15	0xbc306923	-0.010767254
16	0x3dec0c38	0.11525768
17	0x3d2c60ae	0.04208439
18	0x3d31554f	0.043294247
19	0xbdc55f8e	-0.09637366
20	0x3e6d530a	0.23176208
21	0x3e4166f3	0.18886928
22	0x3df55896	0.11979787
23	0xbdadbf7d	-0.08483789
24	0xbe4feaa5	-0.20304354
25	0xbdba011f	-0.09082245
26	0x3e28a16b	0.16467826
27	0x3e6d03d3	0.2314599
28	0x3e56c926	0.2097517
29	0xbd5e4a84	-0.054270282
30	0xbdf9e9fb	-0.12202831
31	0xbe71a142	-0.23596671
32	0x3e5dc0c5	0.21655567
33	0xbe10a7ce	-0.14126512
34	0xbddb2af4	-0.10701552
35	0xbe61019f	-0.21973275
36	0x3cb96a5b	0.022633722
37	0x3bf77896	0.0075522168
38	0x3c3d7cd3	0.011565405
39	0x3e69ac7e	0.22819707
40	0xbd9c8da6	-0.07644205
41	0xbe5d85eb	-0.21633117
42	0x3c0a9341	0.00845796
43	0xbe11a7d2	-0.14224175
44	0xbd2bdc04	-0.04195787
45	0xbca615c4	-0.02027405
46	0xbdef18c6	-0.11674647
47	0x3d78a964	0.06070842
48	0x3e853694	0.26018202
49	0x3ca8ec57	0.020620508
50	0x3e614405	0.21998604
51	0xbdc7dd13	-0.097589634
52	0xbdef9347	-0.11698013
53	0x3e6e0713	0.23244886
54	0xbdfcd614	-0.1234552
55	0xbe12f7ea	-0.14352384
56	0xbde7007f	-0.112793915
57	0xbeabb8c4	-0.33539402
58	0xbdf9546f	-0.121743076
59	0xbe017822	-0.12643483
60	0xbdc7554f	-0.09733068
61	0xbd9a3b41	-0.07530833
62	0xbde1fa9e	-0.110341296
63	0x3e8c936f	0.27456233
64	0xbda05145	-0.07828001
65	0xbda9f7d1	-0.0829922
66	0xbc549e2a	-0.012977162
67	0x3e979c3b	0.29611382
68	0xbcbc4dde	-0.022986349
69	0xbe641031	-0.22271802
70	0xbd076258	-0.033052772
71	0xbe1355c6	-0.14388189
72	0x3df5cf81	0.12002469
73	0x3ea042ab	0.31300864
74	0xbe6b622d	-0.2298667
75	0x3d73620b	0.059419673
76	0x3d81c279	0.06335921
77	0xbe2666a7	-0.16250096
78	0xbd91fcb8	-0.071282804
79	0xbe0fd32a	-0.14045396
80	0xbea1b9ed	-0.31587163
81	0xbe70e09e	-0.23523185
82	0xbe0a96da	-0.13534108
83	0x3d767180	0.060166836
84	0x3d9e2d45	0.07723478
85	0xbe4db57d	-0.20088764
86	0x3e900462	0.28128344
87	0xbd058a19	-0.032602403
88	0xbde70c5a	-0.11281653
89	0xbe9d09fe	-0.30671686
90	0xbdd6d870	-0.10490501
91	0x3e92f658	0.2870357
92	0xbe81f483	-0.2538186
93	0xbe5de13a	-0.21667948
94	0x3eceb799	0.4037445
95	0x3e0e3cfc	0.13890451
96	0xbe60ce1b	-0.21953623
97	0x3e092a05	0.13394935
98	0x3d987061	0.074433096
99	0x3d64f0cc	0.055893704
100	0x3e8e5da7	0.27805826
101	0xbd8672e6	-0.06564884
102	0x3dca8542	0.09888698
103	0x3e08497f	0.13309287
104	0xbd3925ba	-0.045201994
105	0xbe73516d	-0.2376153
106	0x3dae8bd1	0.085227616
107	0x3e9aced6	0.30235928
108	0x3d8263b8	0.06366676
109	0xbc0eb8f0	-0.008711085
110	0x3e9d0bc8	0.3067305
111	0xbd99c264	-0.0750778
112	0xbd605280	-0.054766178
113	0xbe11387c	-0.14181703
114	0x3e84327c	0.25819767
115	0x3c8bb3cd	0.01705351
116	0xbddb1501	-0.106973656
117	0xbd805419	-0.0626604
118	0xbcc44be5	-0.02396197
119	0xbd5498b4	-0.05190344
120	0x3e9464a2	0.28983027
121	0x3e9bcf5a	0.30431634
122	0xbc9c6500	-0.01909113
123	0x3d43282f	0.047645744
124	0xbd9faa9a	-0.077962115
125	0xbc0fe0f6	-0.008781662
126	0x3e206f3e	0.15667436
127	0x3e4d7150	0.20062757
128	0x3e1f9c03	0.15586857
129	0xbd5e0f2e	-0.054213695
130	0xbe03f225	-0.1288534
131	0xbe5f1079	-0.21783628
132	0x3e884279	0.26613215
133	0xbe60fc97	-0.21971355
134	0xbdd226a7	-0.102612786
135	0xbd909e4f	-0.07061445
136	0x3d4b650b	0.04965691
137	0x3c56ff87	0.013122446
138	0xbdba864b	-0.091076456
139	0x3e7b4106	0.24536523
140	0xbdf8fd05	-0.12157635
141	0xbe3fda0c	-0.18735522
142	0xbb8a4a24	-0.004220264
143	0xbd8ede57	-0.06976002
144	0xbc6f2acf	-0.014597609
145	0x3d43b638	0.0477812
146	0xbdd0b186	-0.1019011
147	0x3e2bcc22	0.16777089
148	0x3e06d2d4	0.13166362
149	0x3e15cfff	0.14630125
150	0x3e6917ea	0.22763029
151	0xbe60fd97	-0.21971737
152	0xbeb57b22	-0.35445505
153	0x3e6c03a0	0.23048258
154	0xbd9d2dcd	-0.076747514
155	0xbe213770	-0.15743804
156	0xbd903a3b	-0.070423566
157	0xbe93f5e3	-0.28898534
158	0xbdfb3735	-0.12266389
159	0xbe8f0830	-0.27935934
160	0xbe7df215	-0.24799378
161	0xb9fddb82	-0.00048419466
162	0xbde54a9c	-0.11195871
163	0x3e97b5ba	0.29630834
164	0x3dbc566d	0.09196172
165	0xbe528839	-0.20559777
166	0xbdb5e4c0	-0.08881521
167	0x3e439521	0.19099857
168	0xbe06b398	-0.13154447
169	0xbe4bdefc	-0.1990928
170	0x3c9f7f46	0.019469868
171	0xbbca00af	-0.0061646323
172	0x3dbb2e7f	0.09139728
173	0x3eb5f9f4	0.35542262
174	0xbe0a5190	-0.13507676
175	0x3da9749d	0.08274195
176	0x3c3a90da	0.011387074
177	0xbe31b9d6	-0.17356047
178	0xbe072088	-0.13196003
179	0xbca1fe0d	-0.019774461
180	0xbecdff8a	-0.40234023
181	0xbe9b6dd7	-0.3035724
182	0xbdb0dc9d	-0.08635829
183	0x3e38fba9	0.1806475
184	0x3e20a4b7	0.15687834
185	0xbe0fea73	-0.14054279
186	0x3ec1c31f	0.37844178
187	0x3aaf2f17	0.0013365474
188	0x3aeab138	0.0017905599
189	0xbdfbc86d	-0.122940876
190	0x3dae8924	0.08522251
191	0x3e22e2f1	0.15906884
192	0xbe983115	-0.29724947
193	0xbe018a85	-0.12650497
194	0x3e1e2934	0.15445405
195	0x3e5c7013	0.21527128
196	0xbe85ce74	-0.26134074
197	0x3df54cbc	0.119775265
198	0xbd3f8e05	-0.0467663
199	0x3cd9c5dd	0.026583606
200	0x3e7ec0c5	0.24878223
201	0x3dc0d2f8	0.09415239
202	0xbde773bd	-0.11301372
203	0x3c854abe	0.016270991
204	0x3e4c587e	0.19955632
205	0x3db2f496	0.08738057
206	0xbe5d38dd	-0.21603723
207	0x3e6837bb	0.2267751
208	0x3e55d5cb	0.20882337
209	0xbe5db49d	-0.2165093
210	0xbe0eef45	-0.13958462
211	0x3d36b731	0.0446083
212	0xbe44ddc7	-0.19225226
213	0x3d1a5902	0.03768254
214	0x3e87501f	0.26428315
215	0xbd676454	-0.056492165
216	0x3df59be2	0.11992623
217	0xbe801a13	-0.25019893
218	0xbce17133	-0.027519798
219	0xbe549b50	-0.20762372
220	0xbe921d26	-0.28537863
221	0x3e76e9ca	0.24112621
222	0xbd0bf80d	-0.034172107
223	0x3eb95dde	0.36204427
224	0x3c468ae8	0.012118079
225	0x3d4acc37	0.04951116
226	0xbe4c8421	-0.19972278
227	0xbe3b1b7c	-0.18272203
228	0x3df7ac48	0.12093407
229	0x3d6fe3ae	0.05856674
230	0x3e896386	0.26833743
231	0xbe8177d3	-0.2528673
232	0xbe5ce2a5	-0.21570833
233	0xbe95b7db	-0.29241833
234	0x3e9529f9	0.29133585
235	0x3daba868	0.0838173
236	0x3cd17316	0.025567573
237	0x3ba1af44	0.0049342234
238	0xbd776851	-0.06040222
239	0x3e8837b7	0.26605007
240	0x3c67e50b	0.014153729
241	0xbe83f25f	-0.25770852
242	0x3e3dbc9c	0.1852898
243	0x3e824637	0.25444195
244	0xbc68a5a5	-0.014199649
245	0x3e137b1b	0.1440243
246	0x3c2b2993	0.010446924
247	0x3e552f1a	0.20818749
248	0x3e8fe643	0.28105363
249	0xbe1d1d82	-0.15343288
250	0xbe05e6ad	-0.13076277
251	0xbc3f9f03	-0.011695626
252	0xbe364940	-0.1780138
253	0xbe4389a6	-0.19095477
254	0x3e17d790	0.14828324
255	0x3e81ded6	0.25365323

weight_hh_l0 f4 [400, 100]
0	0x3d0798de	0.03310477
1	0x3b245017	0.0025072151
2	0xbbcbb6a8	-0.0062168427
3	0x3e187b92	0.14890888
4	0xbd009db1	-0.031400386
5	0xbdbf3e7b	-0.09338089
6	0xbc20c693	-0.009812969
7	0xbced0bcf	-0.028936295
8	0xbd893305	-0.06699184
9	0x3c06379d	0.00819197
10	0xbdee8b39	-0.11647648
11	0xbd8fb5b7	-0.07017081
12	0x3df9c5ad	0.12195907
13	0xbc56b737	-0.013105205
14	0xba84903d	-0.0010113787
15	0x3e345e05	0.1761399
16	0xbcf0e2d2	-0.029405031
17	0xbd9be7ca	-0.0761257
18	0xbc91aefa	-0.01778363
19	0x3d037464	0.03209342
20	0xbdee2f85	-0.116301574
21	0x3d616dbc	0.05503629
22	0xbdb7a410	-0.08966839
23	0xbd25011e	-0.04028427
24	0x3d61ae4c	0.055097863
25	0x3d3dc401	0.046329502
26	0x3a6ba4ae	0.0008989078
27	0xbda2e8d5	-0.079545654
28	0xbbd45c9a	-0.0064807655
29	0xbda6ad57	-0.08138531
30	0x3d67c84e	0.05658751
31	0xbbbb84c7	-0.0057226154
32	0xbda8bb10	-0.08238804
33	0x3dad0028	0.084472954
34	0xbd8528aa	-0.06501897
35	0x3db94280	0.09045887
36	0xbddf4031	-0.109009154
37	0xbba07066	-0.0048962114
38	0xbc800a86	-0.015630018
39	0x3c2de1ce	0.010612918
40	0xbdae3d3b	-0.085077725
41	0x3def4f5e	0.1168506
42	0xbd25959b	-0.040425878
43	0xbd306ceb	-0.043072622
44	0xbcad180a	-0.021129627
45	0xbc5a2e90	-0.013316765
46	0x3c722d71	0.014781342
47	0xbcd621b2	-0.026139114
48	0x3de17cc6	0.11010127
49	0xbda68910	-0.08131611
50	0x3d8cad70	0.06869018
51	0xbdf90efb	-0.121610604
52	0x3d854fd1	0.065093644
53	0xbd105e19	-0.03524599
54	0xbe293d36	-0.16527256
55	0xbe49bdd7	-0.19701324
56	0x3d6c175e	0.057639472
57	0x3d3378f8	0.043816537
58	0xbc21d4f2	-0.00987743
59	0x3e1efe9e	0.15526816
60	0x3d4f931f	0.050677415
61	0x3c8de8c2	0.017322902
62	0xbdacce37	-0.0843777
63	0x3da589eb	0.080829464
64	0x3cdae941	0.026722552
65	0x3e236eae	0.1596019
66	0x3d9ad999	0.07561035
67	0xbdf25c79	-0.11834044
68	0xbe041cf2	-0.12901667
69	0x3e2677da	0.16256657
70	0x3e1abcb5	0.15111049
71	0xbca0f398	-0.019647405
72	0xbdbbcea7	-0.09170275
73	0x3dfc3b58	0.123160064
74	0x3dd8ed09	0.10592086
75	0x3e262a05	0.16226967
76	0xbe1e0945	-0.15433224
77	0x3b18013f	0.0023194102
78	0xbd533003	-0.05155946
79	0xbe03d416	-0.12873873
80	0xbded88e9	-0.11598379
81	0x3be6736e	0.0070328033
82	0x3d67d3db	0.056598525
83	0x3e199047	0.14996444
84	0x3c558add	0.013033596
85	0xbda42715	-0.08015267
86	0x3d4f9f3f	0.05068898
87	0x3e24a735	0.1607941
88	0x3ca47a90	0.020077974
89	0x3e253663	0.16134028
90	0x3e1c9827	0.15292417
91	0x3d0847eb	0.03327171
92	0x3ce9a57e	0.028521296
93	0xbca80572	-0.020510409
94	0x3d880036	0.06640665
95	0xbe16c2a3	-0.14722686
96	0x3c0c7d06	0.00857473
97	0x3d857c10	0.06517804
98	0xbd64172a	-0.055686153
99	0xbd66bc90	-0.05633217
100	0xbd7d21f5	-0.061799962
101	0xbd8b3e4e	-0.06798993
102	0xbd103e80	-0.035215855
103	0x3d536b86	0.051616214
104	0x3c26ee59	0.010188662
105	0xbd85fb14	-0.0654203
106	0x3dc78264	0.09741667
107	0x3b1416e1	0.0022596645
108	0xbd9c378d	-0.07627783
109	0x3d5c8199	0.05383453
110	0x3d8074ba	0.06272264
111	0xbd52ac99	-0.051434133
112	0x3d8afe95	0.06786839
113	0xbccf37f0	-0.025295228
114	0xbceedb21	-0.029157223
115	0xbc22b405	-0.009930615
116	0xbcc0e035	-0.02354441
117	0xbd7c4d4f	-0.061597165
118	0x3d75725c	0.059923515
119	0xbc65688d	-0.014001978
120	0x3c0b8647	0.008515901
121	0x3aea6c0e	0.0017884986
122	0x3d7958be	0.060875647
123	0xbd4f3c6c	-0.050594732
124	0x3da54d6c	0.08071408
125	0xbd372207	-0.044710185
126	0xbd932ecc	-0.0718666
127	0x3d0e9082	0.034805782
128	0xbde36622	-0.11103465
129	0x3d954822	0.07289149
130	0x3d7c900c	0.06166081
131	0x3d1ab226	0.03776755
132	0xbdd5536a	-0.104163006
133	0xbd30e167	-0.04318371
134	0x3db9598a	0.09050281
135	0x3c99679c	0.018726163
136	0x3d8cc7b5	0.068740286
137	0x3d31cebf	0.04341006
138	0x3d2e2ac3	0.04252125
139	0x3ca8451c	0.020540766
140	0xbdaca2c9	-0.08429486
141	0x3d1942e5	0.03741731
142	0x3dfb4a1e	0.12269996
143	0xbd6a160b	-0.057149928
144	0xbd41176c	-0.047141477
145	0x3d835d2b	0.06414255
146	0xbca330d7	-0.01992075
147	0x3da72c8d	0.08162794
148	0xbd6911ee	-0.056901865
149	0x3d2d432f	0.0423004
150	0x3ddc7dab	0.10766157
151	0x3d021efc	0.03176783
152	0x3d489773	0.04897256
153	0x3d339bf9	0.04384992
154	0xbe0697ae	-0.13143799
155	0xbd025e1c	-0.03182803
156	0x3d801682	0.06254293
157	0xbd816426	-0.0631793
158	0xbdf59baa	-0.11992581
159	0xbd9e4372	-0.07727708
160	0xbdd1be9d	-0.10241435
161	0xbd4041c0	-0.046937704
162	0x3d1dd3a2	0.038531907
163	0xbdb35a44	-0.08757451
164	0x3c8b3811	0.016994508
165	0x3d681542	0.056660898
166	0xbd8d8cca	-0.06911619
167	0xbc9f2446	-0.019426476
168	0x3dae864a	0.08521707
169	0x3d5f13d9	0.054462288
170	0x3db9e818	0.090774715
171	0x3c606957	0.01369699
172	0x3c29d478	0.010365598
173	0xbdb8cd3e	-0.09023522
174	0xbcf98ccb	-0.030462643
175	0xbca1e2c3	-0.019761449
176	0xbc970eed	-0.018439734
177	0x3bbdc8b4	0.005791748
178	0xbd619f50	-0.055083573
179	0xbbc558b9	-0.0060225395
180	0x3d79c182	0.06097556
181	0x3bfbcd8d	0.0076844157
182	0x3dccccda	0.1000001
183	0xbd92646d	-0.07148061
184	0xbcf15ca9	-0.02946313
185	0x3c7d71e9	0.015469053
186	0xbc3a9e40	-0.011390269
187	0xbc1c132d	-0.009526056
188	0xbd652618	-0.055944532
189	0xbd0fe67e	-0.035131924
190	0x3a7b10a5	0.00095773704
191	0xbdb1190b	-0.08647355
192	0x3d5d6aac	0.05405681
193	0x3d3d4241	0.046205763
194	0x3d157ca6	0.036495827
195	0x3d063118	0.032761663
196	0x3d2c3d92	0.042050906
197	0xbda395aa	-0.079875305
198	0x3dc87bb0	0.097892165
199	0xbd90d9c4	-0.070727855
200	0x3d86d6d7	0.06583946
201	0x3db0cedd	0.08633206
202	0xbd9391c7	-0.07205539
203	0x3d33cee3	0.043898474
204	0x3d7162da	0.058932163
205	0xbd875f05	-0.066099204
206	0xbd219f7e	-0.039458744
207	0x3e53e0b5	0.20691188
208	0x3ca9b2ac	0.02071508
209	0xbd1bc095	-0.038025457
210	0xbe2fda1b	-0.17173044
211	0x3d77cb17	0.060496416
212	0x3c579565	0.013158177
213	0xbc929373	-0.017892575
214	0x3e238347	0.15968047
215	0xbda717f6	-0.08158867
216	0xbd1904a4	-0.03735794
217	0xbd91ec51	-0.07125152
218	0xbd93ba18	-0.07213229
219	0x3d8bb13c	0.06820914
220	0xbccca4cb	-0.024980923
221	0x3dab7873	0.08372583
222	0xbb2dcff2	-0.002652165
223	0xbe01cdfb	-0.12676232
224	0xbc74cb27	-0.014941013
225	0xbc8c1aa7	-0.017102553
226	0x3cdcb760	0.026942909
227	0xbe03987a	-0.12851134
228	0x3abb024a	0.001426765
229	0x3b38beb2	0.0028189835
230	0xba696d3d	-0.00089045224
231	0x3c28eb89	0.010310062
232	0xbcee98d6	-0.029125612
233	0x3d4dddf9	0.050260518
234	0xbdb7acd7	-0.089685135
235	0xbe5521f1	-0.20813729
236	0x3d6d3907	0.057915714
237	0xbd1e1614	-0.038595274
238	0x3df4f1df	0.11960196
239	0x3e0037e9	0.12521328
240	0xbdc447d4	-0.09584013
241	0x3d6207ae	0.055183105
242	0x3da5932e	0.08084713
243	0xbd7c2e01	-0.06156731
244	0x3d2193a6	0.03944745
245	0x3e15e932	0.14639738
246	0x3d68d7b1	0.056846324
247	0x3e375d69	0.17906727
248	0x3e1dde8e	0.15416929
249	0xbe047939	-0.12936868
250	0xbcdea28c	-0.027177118
251	0xbcdc1701	-0.026866438
252	0x3df51293	0.119664334
253	0xbda6b6c3	-0.08140328
254	0x3ca0e2ce	0.019639399
255	0x3debf059	0.11520452

bias_ih_l0 f4 [400]
0	0x3e18a1f5	0.14905532
1	0xbdef48bf	-0.11683797
2	0x3d00e20e	0.031465583
3	0xbdb53f60	-0.088499784
4	0x3d16352c	0.036671802
5	0x3c16a751	0.009195165
6	0x3dd4d9d0	0.10393107
7	0x3d9511ea	0.072788075
8	0x3c1cbf4f	0.009567096
9	0x3dd7828e	0.10522948
10	0xbcf48640	-0.029849172
11	0xbcb63666	-0.022242736
12	0x3daff9cb	0.08592566
13	0xbdab6759	-0.083693214
14	0xbc6eaba0	-0.014567286
15	0x3d779329	0.060443077
16	0xbde877e0	-0.11350989
17	0x3d0355b6	0.032064162
18	0xbcfd7ce7	-0.030943347
19	0xbc7ad5eb	-0.015309791
20	0x3dd70bef	0.10500323
21	0x3dfc2b67	0.12312966
22	0xbd7c6810	-0.06162268
23	0x3e8608cc	0.26178586
24	0xbd805c95	-0.062676586
25	0x3a87cf74	0.0010361508
26	0x3e024f74	0.12725621
27	0xbcd2fc4d	-0.025755072
28	0xbca7cd20	-0.020483553
29	0xbcccbb8a	-0.02499177
30	0x3e326886	0.17422685
31	0x3e227c8a	0.1586782
32	0x3cc20920	0.023685992
33	0x3d74d94b	0.05977754
34	0x3e247cd2	0.1606324
35	0x3d847e89	0.06469447
36	0x3d125bcb	0.03573207
37	0x3c03d3ee	0.008046133
38	0xbc6c8304	-0.014435533
39	0x3deef11a	0.1166708
40	0x3d280387	0.04101899
41	0x3db1b6bb	0.08677431
42	0x3df499c9	0.11943395
43	0x3e1a88ca	0.15091243
44	0x3d5596a4	0.052145615
45	0xbd9c52a4	-0.0763295
46	0x3d02a258	0.031893104
47	0x3ce5c3a0	0.028047383
48	0x3d9fba57	0.077992134
49	0x3dead579	0.11466498
50	0x3d42b72d	0.04753797
51	0xbdf220c6	-0.11822657
52	0x3d6b959d	0.05751573
53	0x3d29cde6	0.041456126
54	0x3d5ec6bf	0.054388758
55	0x3e0473d7	0.12934814
56	0x3e403572	0.18770388
57	0x3d04349e	0.032276742
58	0xba6b403d	-0.0008974111
59	0xbd254015	-0.040344317
60	0x3d82da88	0.06389338
61	0x3cfa778f	0.030574588
62	0x3e0223a8	0.12708914
63	0x3e72e871	0.23721482
64	0xbb562bd2	-0.0032679928
65	0xbd88b1e2	-0.066745535
66	0xbc7f5e25	-0.015586411
67	0xbdbb2aa4	-0.091389924
68	0x3d9e6ef2	0.07736005
69	0x3db367c1	0.08760024
70	0xbce1eb46	-0.027578007
71	0x3da9e577	0.0829572
72	0xbbc0f665	-0.0058887475
73	0x3c95d47f	0.018289803
74	0xbd5266e1	-0.051367644
75	0xbc0270c0	-0.007961452
76	0xbd974dfc	-0.07387921
77	0x3d9bbbab	0.07604154
78	0x3db3fb7e	0.08788203
79	0x3e0583cd	0.1303856
80	0x3def959b	0.11698457
81	0x3d800c22	0.06252314
82	0xbd139a07	-0.036035564
83	0xbd248061	-0.040161494
84	0x3d6a72cc	0.057238385
85	0x3e0b66df	0.13613461
86	0x3da68cb4	0.08132306
87	0xbd5c080f	-0.053718623
88	0x3d39168a	0.04518751
89	0xbd900c40	-0.070335865
90	0x3d26faab	0.0407664
91	0x3e094285	0.13404281
92	0x3e98ddc0	0.29856682
93	0xbd82fa6b	-0.0639542
94	0x3c6d40a6	0.014480745
95	0xbca997de	-0.020702299
96	0x3bc6effe	0.0060710898
97	0xbdb20712	-0.08692755
98	0xbcb5f29d	-0.022210414
99	0xbda1f8e9	-0.07908804
100	0x3d10f0a5	0.035385747
101	0xbd20e2b5	-0.039278705
102	0xbd5d9986	-0.05410149
103	0xbcaf603d	-0.021408195
104	0x3c1f8c00	0.009737968
105	0xbd1c280c	-0.03812413
106	0xbdc49a74	-0.09599772
107	0x3d8c79ba	0.06859155
108	0xbc969c07	-0.018384947
109	0x3dc670d9	0.09689493
110	0xbd932765	-0.07185248
111	0x3dba7f5e	0.091063246
112	0x3cfa4566	0.03055067
113	0x3d0887d6	0.03333267
114	0xbd753b55	-0.059871037
115	0x3d294644	0.041326776
116	0x3a906fd9	0.0011019661
117	0xbd4e9f3b	-0.050444823
118	0x3d66bca5	0.05633225
119	0x3d97ec81	0.074181564
120	0xbdb00c21	-0.085960634
121	0xbd88c34e	-0.066778764
122	0xbc771c61	-0.01508245
123	0xbda6f9fa	-0.08153148
124	0xbd800832	-0.06251563
125	0xbd4bd77c	-0.04976605
126	0x3c8adc54	0.016950764
127	0xbd8064f7	-0.062692575
128	0xbbd7ecc3	-0.0065895035
129	0xbcb3c538	-0.021944627
130	0xbd758a8e	-0.05994659
131	0xbb345ed5	-0.0027522345
132	0xbcc61ab8	-0.024182662
133	0x3cfb74b2	0.030695293
134	0x3d9030d9	0.07040567
135	0xbdd2fe2b	-0.10302385
136	0xbcdbadcf	-0.026816277
137	0xbd8acc8b	-0.06777295
138	0xbd8455a8	-0.0646165
139	0x3d3e399e	0.046441667
140	0x3dd99427	0.10623961
141	0x3bb5cad6	0.0055478616
142	0x3d53d5f5	0.051717717
143	0x3dbde8f0	0.09272945
144	0xbd879994	-0.066210896
145	0x3dc5bdae	0.09655319
146	0x3bdefe75	0.006805236
147	0x3d840356	0.06445949
148	0xbda28749	-0.0793596
149	0x3dbe05cc	0.092784494
150	0xbdc9f653	-0.09861436
151	0xbd92df94	-0.071715504
152	0xbbead947	-0.0071670148
153	0x3d8817b9	0.0664515
154	0xbd82f532	-0.063944235
155	0x3d946717	0.07246225
156	0xbdd1fcf7	-0.10253327
157	0xbd3cb011	-0.046066348
158	0x3dc40c87	0.09572702
159	0xbceb47e3	-0.028720802
160	0xbce890d5	-0.028389374
161	0xbc8afba4	-0.016965695
162	0xbdaa4994	-0.08314815
163	0xbe03fced	-0.12889452
164	0xbda8ffc3	-0.08251908
165	0xbd6165fd	-0.055028904
166	0xbc168eb4	-0.0091892965
167	0xbd00c4a0	-0.031437516
168	0xbcdb3305	-0.026757726
169	0xbcadbbde	-0.021207746
170	0x3d89f9e7	0.06737118
171	0x3cc79939	0.024365054
172	0xbc784ad0	-0.015154555
173	0x3d58b829	0.052910004
174	0x3dabb30b	0.08383759
175	0x3d5f6c51	0.054546658
176	0xbdbf048a	-0.09327038
177	0xbd5d589c	-0.054039583
178	0x3d0c9090	0.034317553
179	0xbd0f08b0	-0.034920394
180	0x3da6a393	0.08136668
181	0xbd843d93	-0.06457057
182	0x3ce05948	0.027386323
183	0x3d775ec0	0.060393095
184	0xba8db001	-0.00108099
185	0xbdd9f7c6	-0.10642962
186	0xbd56ddf1	-0.052457754
187	0x3d6a7f12	0.05725009
188	0xbaeb42ae	-0.0017948949
189	0x3cb4da7d	0.02207684
190	0x3d5b5b21	0.053553704
191	0xbdb8f9ab	-0.090319954
192	0xbd26bbb1	-0.04070634
193	0x3d9b63f4	0.07587424
194	0x3dbfe019	0.09368915
195	0xbd96e2a5	-0.07367448
196	0x3d4a6179	0.049409363
197	0xbd8fc6ca	-0.07020338
198	0xbd9c32c1	-0.07626868
199	0x3db8eebe	0.090299115
200	0x3d96963c	0.07352874
201	0x3d2596f4	0.040427163
202	0xbdbd77e5	-0.09251384
203	0x3d2dd7cd	0.04244213
204	0x3c5e1a9d	0.01355615
205	0xbd9ac252	-0.07556595
206	0xbcd2fb73	-0.025754666
207	0x3c94a029	0.018142777
208	0x3aabb66f	0.0013100634
209	0xbcdf82ee	-0.027284112
210	0xbe052293	-0.1300147
211	0xbd92d18a	-0.07168873
212	0x3db81291	0.08987916
213	0xbc36a2a8	-0.011147179
214	0x3da28b37	0.079367094
215	0x3d5e0cfb	0.054211598
216	0xbcf0343e	-0.029321786
217	0x3d0fe65c	0.035131797
218	0x3a3c29ab	0.000717784
219	0x3dc75ad7	0.09734123
220	0xbd779d82	-0.060452946
221	0xbd1ca6a0	-0.038244843
222	0xbd506bc6	-0.05088403
223	0x3ca448d6	0.020054262
224	0x3d3e1748	0.04640892
225	0x3da6b51b	0.08140012
226	0xbd90ffbf	-0.0708003
227	0xbd39e1cf	-0.045381363
228	0x3c64c27c	0.013962384
229	0xbdadf85f	-0.08494639
230	0xbc321711	-0.010869757
231	0xbd840fae	-0.06448303
232	0x3d09514a	0.03352479
233	0x3dc472e3	0.095922254
234	0x3d1ca07c	0.038238987
235	0xbd1bd8d3	-0.038048577
236	0xbdb6297b	-0.088946305
237	0xbd7760a2	-0.06039489
238	0xbce530f1	-0.027977439
239	0x3dd04f86	0.10171418
240	0xbd9025b6	-0.07038443
241	0x3dbf2f7c	0.09335229
242	0xbcc6887e	-0.024235006
243	0xbb7196b9	-0.003686352
244	0xbdb8db86	-0.09026246
245	0x3a1bc1e0	0.00059416704
246	0x3dbadb89	0.09123904
247	0xbd29b8d6	-0.04143604
248	0x3d5a2471	0.05325741
249	0x3c0d3520	0.008618623
250	0xbd8dea15	-0.06929413
251	0x3c91d59d	0.017802054
252	0xbce18ec8	-0.027533904
253	0x3b8838d4	0.004157165
254	0xbd0f505c	-0.034988746
255	0xbda9bfcd	-0.08288536
