metrics_best_runs/simple_rnn/0191.model (torch_old, 277168 bytes, 22 tensors)

weight_ih_l0 f4 [400, 1]
0	0x3d7fb893	0.062431883
1	0xbca540fd	-0.02017259
2	0x3d9eed33	0.07760086
3	0x3f176c5f	0.59149736
4	0x3e834cd8	0.25644565
5	0xbd7cedcd	-0.061750222
6	0x3b906d62	0.0044075707
7	0xbd6f5097	-0.058426466
8	0x3d910964	0.07081869
9	0xbee7a280	-0.45241165
10	0xbe5ef277	-0.2177218
11	0xbe39448e	-0.18092558
12	0xbdf08d16	-0.1174566
13	0xbbb1f966	-0.005431342
14	0x3e2ae5f7	0.16689287
15	0x3e3ff037	0.18743978
16	0xbdb7a44e	-0.089668855
17	0x3d2193e2	0.039447673
18	0xbe0982cf	-0.13428806
19	0x3e9cb5d1	0.30607465
20	0xbeca7a04	-0.39546216
21	0xbea3cf6f	-0.31994197
22	0xbd6fc051	-0.058533017
23	0xbc2d7517	-0.010586998
24	0xbe2b5124	-0.16730171
25	0xbe900b24	-0.281335
26	0xbe7044ab	-0.23463695
27	0xbdfccee8	-0.12344152
28	0xbd0a184d	-0.03371458
29	0xbd7963c6	-0.060886167
30	0x3c162e3e	0.009166298
31	0xbe0497a1	-0.12948467
32	0xbda5d15a	-0.08096571
33	0x3ceef0a9	0.02916749
34	0x3d2273fa	0.039661385
35	0x3cc124b9	0.023577081
36	0x3dcdccf5	0.10048858
37	0xbacae9a6	-0.001548101
38	0x3e69d99c	0.22836918
39	0x3ebf1291	0.37318853
40	0xbe8fa474	-0.28055155
41	0xbc4d4a01	-0.012529851
42	0xbe97c97e	-0.29645914
43	0x3e8e6925	0.27814594
44	0x3e02615f	0.12732457
45	0xbe14cedb	-0.14532034
46	0x3e8692af	0.26283786
47	0xbe917a5a	-0.2841366
48	0x3d944ff7	0.072418146
49	0xbef98f91	-0.48742345
50	0x3e1305a5	0.14357622
51	0x3c45c7b4	0.012071539
52	0x3eef54eb	0.46744475
53	0x3e73ef3b	0.23821728
54	0xbe8b007f	-0.27148816
55	0x3e299d6f	0.16563962
56	0xbe1c5588	-0.15267003
57	0xbe3d7372	-0.1850107
58	0x3da24d28	0.07924873
59	0xbe100371	-0.14063813
60	0x3d818b8a	0.06325443
61	0xbeae0914	-0.339913
62	0xbe787a77	-0.24265467
63	0xbd6cb5ed	-0.057790685
64	0xbdac6552	-0.08417763
65	0xbacb9e84	-0.0015534912
66	0xbde0a81d	-0.10969565
67	0xbd821fc7	-0.06353717
68	0x3b9cb359	0.004782122
69	0x3cab1401	0.020883562
70	0xbdd076dd	-0.10178921
71	0x3df81aec	0.1211451
72	0x3e7595ec	0.23982972
73	0x3e63cb79	0.22245587
74	0xbd4f0e5b	-0.0505508
75	0x3e50c3b8	0.20387161
76	0xbe9c8fa4	-0.3057834
77	0x3d57f9f1	0.052728597
78	0xbdb1f5d4	-0.08689466
79	0x3e5e838b	0.21729867
80	0xbedd3b42	-0.43209273
81	0xbe87c004	-0.26513684
82	0x3e2d3d38	0.16917884
83	0x3dfee577	0.12446111
84	0x3e3fecfe	0.18742749
85	0xbf3be580	-0.73397064
86	0xbe193c98	-0.14964521
87	0xbdf936a4	-0.12168625
88	0xbeaab4ca	-0.33341056
89	0x3d14766c	0.03624575
90	0xbdcd2d64	-0.10018423
91	0x3d3bd188	0.04585412
92	0xbd9ed2f0	-0.07755077
93	0xbe43e9f0	-0.19132209
94	0x3d8a70e2	0.06759812
95	0xbe46f253	-0.19428377
96	0x3de0f4d7	0.109841995
97	0x3ea3a500	0.31961823
98	0xbc8255bb	-0.01591002
99	0xbd533b55	-0.051570255
100	0x3e2a04f4	0.16603452
101	0xbdc54af9	-0.096334405
102	0x3e00382a	0.12521425
103	0xbdad555c	-0.08463547
104	0xbd80ebc9	-0.062949724
105	0x3c477c14	0.012175579
106	0x3d044694	0.03229387
107	0xbe52b7d8	-0.20577943
108	0xbd84c4dd	-0.06482861
109	0x3d187236	0.037218295
110	0xbd0baf92	-0.034102984
111	0xbb024b11	-0.001988117
112	0x3e74bb0e	0.2389948
113	0xbd4d8b1c	-0.050181493
114	0xbbb45f6c	-0.0055045392
115	0xbd7103ea	-0.058841623
116	0x3df05624	0.1173518
117	0x3e144b60	0.14481878
118	0x3d5fa1a8	0.054597527
119	0xbe1c309f	-0.15252922
120	0x3dc107d1	0.09425319
121	0x3c939805	0.018016824
122	0xbd231c58	-0.039821953
123	0xbd11fae6	-0.035639666
124	0x3ce2df02	0.027694229
125	0x3c3a08f7	0.011354676
126	0x3d49b2ab	0.049242657
127	0xbec5a673	-0.38603553
128	0xbe663c61	-0.2248397
129	0x3d795d4a	0.060879983
130	0xbdb16a78	-0.086628854
131	0x3d1612ab	0.036638897
132	0x3e267383	0.16255002
133	0xbdfc50ef	-0.12320124
134	0xbc12b0fe	-0.008953331
135	0x3d86764a	0.065655306
136	0x3c740a5d	0.014895049
137	0x3e0e7b0e	0.13914129
138	0x3d94f032	0.07272376
139	0xbd967a69	-0.07347567
140	0x3e2a1759	0.16610469
141	0x3d947d13	0.072504185
142	0xbd8e3d45	-0.0694528
143	0xbd8a975e	-0.06767152
144	0xbe028868	-0.12747347
145	0xbdfeafad	-0.12435851
146	0xbe26a26f	-0.16272901
147	0x3d132d0b	0.03593163
148	0xbdafa036	-0.0857548
149	0xbd8fa1bd	-0.07013271
150	0x3c502ed6	0.012706479
151	0x3e1e5a90	0.15464234
152	0xbdcc0e38	-0.099636495
153	0xbede20b1	-0.43384317
154	0x3e8ac8fb	0.2710646
155	0xbd3f8c8d	-0.0467649
156	0x3b29900d	0.0025873214
157	0xbe37555f	-0.1790366
158	0x3e9d9226	0.30775565
159	0x3e17b0ad	0.1481349
160	0x3b5877d6	0.0033030412
161	0xbe1a462f	-0.15065835
162	0xbe6efa8d	-0.23337765
163	0xbdf36718	-0.11884898
164	0xbdf26654	-0.11835924
165	0x3bfcf8fb	0.0077201105
166	0x3d9a116c	0.07522854
167	0x3cdfab37	0.027303321
168	0x3e088ae2	0.1333423
169	0xbe6c5509	-0.23079313
170	0xbd4a00c4	-0.049317136
171	0xbe94e452	-0.29080445
172	0xbdd2ee49	-0.102993555
173	0xbe072d2a	-0.13200822
174	0xbcdb350d	-0.026758695
175	0x3e4ab10c	0.197941
176	0x3ca57353	0.020196592
177	0xbe12bc82	-0.14329723
178	0xbe830449	-0.25589207
179	0xbe1f42b5	-0.1555279
180	0x3e41905d	0.18902726
181	0x3d5cda46	0.0539191
182	0xbe29e465	-0.16591032
183	0xbc35416c	-0.011062961
184	0x3cbbf5c0	0.022944331
185	0x3eb794ac	0.35855615
186	0xbe887e10	-0.26658678
187	0xbe83e25a	-0.2575863
188	0x3e3784a9	0.179217
189	0xbc12f1d6	-0.008968791
190	0xbea17ca9	-0.3154042
191	0x3db78ca2	0.089623705
192	0xbe5ba4bd	-0.21449561
193	0xbc46501e	-0.012104062
194	0xbdd145f8	-0.102184236
195	0x3d00cf90	0.031447947
196	0x3d99e587	0.07514482
197	0xbd318b56	-0.04334577
198	0x3d1f7c4a	0.03893689
199	0xbe1aaa14	-0.15103942
200	0x3e217b38	0.1576966
201	0x3e178269	0.14795841
202	0x3e311610	0.17293572
203	0x3e8e2bd6	0.2776782
204	0x3e6007db	0.21877997
205	0x3eb1c9e6	0.3472435
206	0xbe15dfc7	-0.14636146
207	0xbe8c55a7	-0.27409098
208	0x3ed9ae1a	0.4251564
209	0x3e263a35	0.16233142
210	0x3e924b86	0.28573245
211	0xbe1a7e0e	-0.15087149
212	0x3d94dc94	0.072686344
213	0xbe3d02db	-0.1845812
214	0x3e1cee4d	0.1532528
215	0x3e576063	0.21032862
216	0x3e6282e3	0.22120242
217	0x3cf04a87	0.029332412
218	0x3e0a80df	0.13525723
219	0xbe51ba2e	-0.20481178
220	0x3e38a537	0.18031774
221	0x3e910f35	0.28331915
222	0xbdfc3094	-0.12313953
223	0x3d90c877	0.07069486
224	0x3e0bc44f	0.13649105
225	0xbe019fcf	-0.12658618
226	0x3e95e0ff	0.2927322
227	0x3e805c94	0.25070632
228	0xbe818e70	-0.25303984
229	0x3c0535cb	0.008130501
230	0xbdf2bfcb	-0.11852988
231	0xbdb550d1	-0.08853305
232	0xbcac09b1	-0.021000715
233	0x3e16d934	0.14731294
234	0xbe1b9b94	-0.15196067
235	0xbe88f719	-0.2675102
236	0x3e4fd2c0	0.20295238
237	0xbe151b66	-0.14561233
238	0x3db01e1c	0.08599493
239	0x3e6aa42d	0.2291419
240	0xbe552629	-0.20815338
241	0xbd68f012	-0.056869574
242	0xbed3f589	-0.41398266
243	0x3d9eca24	0.07753399
244	0x3e368870	0.17825484
245	0x3e2c40aa	0.16821542
246	0x3e03e3e5	0.12879904
247	0xbe020771	-0.12698151
248	0xbd65aa83	-0.056070816
249	0xbecc4456	-0.39895886
250	0xbda2ffab	-0.07958921
251	0xbeaebf83	-0.34130487
252	0xbe4915a5	-0.19637163
253	0x3e6a7e22	0.22899678
254	0x3e720986	0.23636445
255	0xbe8d38c1	-0.27582362

weight_hh_l0 f4 [400, 100]
0	0x3d8a7947	0.06761413
1	0x3e3b699c	0.18302006
2	0x3c4fde1f	0.012687235
3	0x3d95597a	0.07292457
4	0x3dd8b48e	0.10581313
5	0x3ddb103d	0.106964566
6	0x3dacb0c3	0.08432152
7	0x3d92613e	0.07147454
8	0x3d8b23c9	0.06793935
9	0x3d94220d	0.07233057
10	0x3d4f64c9	0.050633226
11	0x3d57b40e	0.052661948
12	0xbd8e872f	-0.06959378
13	0x3e00f13c	0.12592024
14	0xbbfe4bad	-0.007760486
15	0xbde942ec	-0.113897175
16	0x3d2385ec	0.03992264
17	0x3d67587d	0.056480873
18	0xbe090c58	-0.13383615
19	0xbd945897	-0.0724346
20	0x3d0e7038	0.03477499
21	0x3e003081	0.12518503
22	0x3d31d695	0.043417532
23	0x3da2516a	0.07925685
24	0x3e3f04e0	0.18654203
25	0xbe129c38	-0.14317405
26	0x3e01b4ad	0.12666579
27	0x3dbfb8ed	0.09361444
28	0x3d99003e	0.07470749
29	0xbcd67142	-0.026177052
30	0x3dbe6f22	0.09298541
31	0x3b9ceb51	0.004788794
32	0xbd9caf0a	-0.076505736
33	0xbe092253	-0.13392
34	0x3df171a6	0.11789255
35	0xbd62da0e	-0.055383734
36	0x3d98f03c	0.07467696
37	0xbe3e1c2b	-0.18565433
38	0xbcf7012f	-0.030151932
39	0xbd41c7a5	-0.047309536
40	0xbc5a13b1	-0.013310359
41	0xbda27054	-0.07931581
42	0x3dbc0998	0.09181517
43	0x3e06328f	0.13105224
44	0x3cc101e8	0.02356048
45	0xbccf2608	-0.02528669
46	0x3c3217df	0.010869949
47	0xbbbce73e	-0.005764871
48	0x3dba9b9d	0.09111712
49	0xbd875603	-0.06608202
50	0xbd7cf687	-0.061758544
51	0xbe3e5678	-0.18587673
52	0x3d9f9827	0.07792693
53	0xbdd1d859	-0.10246343
54	0x3e12d311	0.14338328
55	0x3db91254	0.09036699
56	0xbacd1c61	-0.0015648716
57	0x3d9b74da	0.07590647
58	0x3ce92d38	0.028463945
59	0x3d850e23	0.06496837
60	0x3de7d9c2	0.11320831
61	0x3ec9a99d	0.39387217
62	0xbd9388a2	-0.07203795
63	0xbdb9046a	-0.09034045
64	0x3d3054e9	0.043049727
65	0xbb8c185a	-0.004275364
66	0xbe067e92	-0.1313422
67	0xbdf5908c	-0.11990461
68	0x3bdff218	0.0068342797
69	0x3ddaba69	0.10680086
70	0xbc55b729	-0.013044157
71	0x3d8ddab4	0.0692648
72	0xbd504459	-0.05084643
73	0x3d68a39f	0.056796666
74	0x39f5995e	0.0004684431
75	0x3d06e9e7	0.03293791
76	0x3dd39308	0.10330778
77	0x3b62cca7	0.0034606846
78	0x3ca55bf4	0.020185448
79	0xbc367499	-0.0111361975
80	0xbd1e12e2	-0.038592227
81	0x3d28452f	0.041081604
82	0xbc3dac60	-0.011576742
83	0xbbdacbbd	-0.0066771195
84	0xbdda6ba5	-0.10665063
85	0xbe653e8c	-0.22387141
86	0x3c21f783	0.009885672
87	0xbca14d47	-0.019690169
88	0xbddd1e5b	-0.107968055
89	0xbd6f1bd8	-0.058376163
90	0xbe0cbad2	-0.13743141
91	0xbd93bee4	-0.07214144
92	0x3d7540b2	0.05987615
93	0xbdeabefd	-0.114622094
94	0xbe03fac5	-0.1288863
95	0x3de85c88	0.11345774
96	0x3d599c82	0.053127773
97	0x3e37c7d9	0.1794733
98	0x3dd010ca	0.10159452
99	0xbc8bd016	-0.017066997
100	0xbdf56e3f	-0.119839184
101	0xbc5fe017	-0.013664267
102	0xbe04cb03	-0.12968068
103	0xbe71ddda	-0.23619786
104	0xbe549a8f	-0.20762084
105	0x3defd57a	0.11710639
106	0xbceb8865	-0.028751561
107	0xbe1d9f86	-0.15392885
108	0xbdb0d8f8	-0.086351335
109	0xbd9e1987	-0.07719713
110	0xbd5cf98c	-0.053948924
111	0x3ddb825a	0.10718222
112	0x3d6d38cc	0.057915494
113	0x3c35bd68	0.011092521
114	0x3c09c5c7	0.00840897
115	0xbd9fcb23	-0.07802417
116	0xbdaf307e	-0.08554171
117	0xbd51413d	-0.051087607
118	0xbb588c34	-0.0033042552
119	0x3cbc3109	0.0229726
120	0x3d6b2261	0.057405833
121	0x3d50a166	0.05093517
122	0x3c8fcfb1	0.01755509
123	0xbe717146	-0.23578367
124	0x3d5be033	0.05368061
125	0xbdba46c9	-0.090955324
126	0x3e5f51df	0.21808575
127	0xbdd30b0f	-0.10304844
128	0x3dd33377	0.103125505
129	0xbda24076	-0.07922451
130	0x3d910410	0.07080853
131	0xbd0e202e	-0.034698658
132	0xbe2962a8	-0.1654154
133	0x3c9b5246	0.01896013
134	0x3c67be5a	0.014144504
135	0xbdce8512	-0.10083975
136	0x3cc59729	0.02411993
137	0xbd39edf6	-0.045392953
138	0xbdfd1fba	-0.12359567
139	0xbe9fccb6	-0.3121087
140	0xbe0c51ba	-0.13703051
141	0x3c95f251	0.018304022
142	0xbdc9096e	-0.09816252
143	0xbe03ffcd	-0.12890549
144	0xbd5a151e	-0.053242795
145	0x3ce41b17	0.027844949
146	0x3d0b631d	0.03403007
147	0x3e04bf0a	0.129635
148	0xbdb24104	-0.08703807
149	0xbd7ec942	-0.062203653
150	0x3d9038e4	0.07042101
151	0x3cc66da3	0.0242222
152	0x3dfff7b8	0.124984205
153	0xbd1da8f9	-0.038491223
154	0x3d8f407a	0.0699472
155	0xbdb3b289	-0.08774287
156	0x3cd544c5	0.026033768
157	0xbe38c986	-0.18045625
158	0x3dff8a65	0.124775685
159	0xbd9da811	-0.07698072
160	0xbe3080f1	-0.17236687
161	0xbee6bae1	-0.45064452
162	0xbd8d2e5f	-0.0689361
163	0x3c6a2ccd	0.014292908
164	0x3cb183ea	0.021669347
165	0x3d7efe9c	0.062254533
166	0xbcb74c02	-0.02237511
167	0xbde22f59	-0.11044187
168	0xbca37b3d	-0.019956226
169	0x3ce73998	0.028225705
170	0x3d1b2a7f	0.037882324
171	0xbda6c013	-0.08142104
172	0x3e0a5662	0.13509515
173	0xbe71be0e	-0.23607656
174	0x3da5fb23	0.08104541
175	0x3df1db3c	0.11809394
176	0xbd74acef	-0.059735235
177	0xbd06c868	-0.032905966
178	0x3d08a880	0.03336382
179	0x3de9a98d	0.11409292
180	0x3d97b463	0.07407453
181	0x3e0343b0	0.1281879
182	0xbda77e77	-0.08178418
183	0xbe0afa9a	-0.1357216
184	0xbe07e38f	-0.132704
185	0xbe674dc8	-0.22588265
186	0xbdb693ad	-0.08914886
187	0xbc561826	-0.013067281
188	0xbd9876da	-0.07444544
189	0xbbfe885a	-0.007767719
190	0xbe5cb33b	-0.21552746
191	0xbd36839d	-0.04455911
192	0xbdd196df	-0.102338545
193	0x3dd212a9	0.102574654
194	0x3d9a4d6b	0.075342976
195	0xbd1967e2	-0.037452586
196	0x3e2093a8	0.15681326
197	0xbcf6fd44	-0.030150063
198	0xbdb9bf8e	-0.09069739
199	0x3cf28c59	0.029607939
200	0xbd4cb486	-0.049976848
201	0x3e5faa2d	0.2184226
202	0x3dcd2d23	0.10018375
203	0xbe187e6d	-0.14891978
204	0x3dfeddaa	0.12444623
205	0xbdbf27e5	-0.09333781
206	0xbe229b07	-0.1587945
207	0x3e29aa66	0.16568908
208	0xbe0f3572	-0.13985232
209	0xbe6f1214	-0.2334674
210	0xbda67f30	-0.08129728
211	0x3e3d7bfa	0.18504325
212	0xbe50080f	-0.20315574
213	0x3d3f1de5	0.04665937
214	0x3e055796	0.13021693
215	0xbc0083a8	-0.007843889
216	0x3d911a1f	0.0708506
217	0xbda92cbe	-0.08260487
218	0xbe4cb70c	-0.19991702
219	0x3df7d948	0.1210199
220	0xbd988ea8	-0.074490845
221	0xbdeaeea0	-0.11471295
222	0x3d6acab3	0.057322215
223	0xbde7f4eb	-0.11326011
224	0xbdfc4570	-0.12317932
225	0xbecd252c	-0.40067422
226	0x3cd0d6b9	0.025493013
227	0xbe3d8280	-0.18506813
228	0x3e6c7cb7	0.2309445
229	0x3d610c2f	0.05494326
230	0xbd7bf8b7	-0.06151649
231	0xbe2cec88	-0.16887105
232	0xbdcc6e51	-0.09981979
233	0xbe323020	-0.1740117
234	0x3e904f4a	0.28185493
235	0xbdb460fb	-0.0880756
236	0xbda3333f	-0.07968759
237	0x3cea2121	0.02858025
238	0xbe135815	-0.1438907
239	0xbe1d5075	-0.15362723
240	0xbbb47ff8	-0.005508419
241	0xbd7522a6	-0.059847496
242	0x3e03d3f3	0.12873821
243	0x3d736380	0.059421062
244	0xbe6150b2	-0.22003439
245	0xbe369ba3	-0.17832808
246	0x3e5973c9	0.21235575
247	0xbde6da61	-0.11272121
248	0x3d0a52ea	0.03377048
249	0xbdc4db81	-0.096121795
250	0xbde1af23	-0.11019733
251	0x3c94ebeb	0.0181789
252	0x3e0360bb	0.12829868
253	0x3e3afc49	0.18260302
254	0xbe0ff4bd	-0.14058204
255	0x3e7b629e	0.24549338

bias_ih_l0 f4 [400]
0	0x3d8b9078	0.068146646
1	0xbd03c29f	-0.032168027
2	0x3e1c9498	0.15291059
3	0x3dc5e8f9	0.09663577
4	0xbcd00d9d	-0.025397116
5	0x3e0fd72f	0.1404693
6	0xbce5b7e3	-0.028041786
7	0x3db3f511	0.08786977
8	0x3e9631d6	0.29334897
9	0xbc059570	-0.008153304
10	0x3d08896d	0.033334184
11	0x3ddfefb9	0.10934395
12	0x3d3440d1	0.044007126
13	0x3d3db5aa	0.046315826
14	0x3e56e982	0.20987514
15	0xbd85997f	-0.06523418
16	0x3ca9c5dc	0.02072423
17	0xbd9ef826	-0.07762174
18	0xbd9de8ba	-0.07710405
19	0x3bdde9e0	0.006772265
20	0xbc5ab26b	-0.013348202
21	0x3d8975aa	0.06711896
22	0xbda8e936	-0.082476065
23	0xbd2eb32d	-0.042651344
24	0xbcc53102	-0.02407122
25	0x3e6573b6	0.22407421
26	0x3ebf19f8	0.373245
27	0x3e52b057	0.20575081
28	0x3dae50de	0.08511518
29	0x3da47136	0.08029406
30	0x3ce1dbbe	0.027570602
31	0xbdb5429b	-0.088505946
32	0x3dbc136c	0.09183392
33	0x3d7ab8de	0.06121146
34	0xbd13c62b	-0.03607766
35	0x3c493744	0.012281243
36	0x3d27fc47	0.041012075
37	0x3d07e24d	0.0331748
38	0xbcd0c361	-0.025483789
39	0x3d85d630	0.06534994
40	0x3d4700e9	0.048584852
41	0x3dbfacba	0.09359117
42	0x3e4245a6	0.18971881
43	0x3cdbb3a1	0.026819052
44	0x3d826fd4	0.06368986
45	0x3d3eb676	0.046560727
46	0xbd520a09	-0.0512791
47	0xbc095ff4	-0.008384693
48	0x3d905a89	0.07048518
49	0x3e3040eb	0.17212264
50	0xbcb9db03	-0.02268744
51	0x3ebd9a79	0.37031916
52	0x3d96597f	0.07341289
53	0x3c006c98	0.007838391
54	0x3db140af	0.086549155
55	0x3ccc9a58	0.02497594
56	0x3e09ffe2	0.13476518
57	0xbdc35ae2	-0.09538819
58	0xbd353583	-0.044240486
59	0xbc3f2f0f	-0.0116689345
60	0x3d8b7785	0.06809906
61	0x3edaaa8d	0.42708245
62	0xbd803c18	-0.06261462
63	0x3dc6dfb8	0.0971064
64	0xbe0a4f45	-0.13506801
65	0xbd060ed9	-0.032729004
66	0xbd09cdae	-0.033643417
67	0xbd0f525a	-0.034990646
68	0x3e4643e9	0.19361843
69	0x3dd06128	0.10174781
70	0x3e4b2b74	0.19840795
71	0x3dcf03a9	0.1010812
72	0xbd08a789	-0.0333629
73	0x3df67c7c	0.12035462
74	0xbd22dc3e	-0.03976082
75	0xbdc36c97	-0.09542196
76	0xbd0730ed	-0.033005644
77	0x3daf18be	0.08549641
78	0xbd958cef	-0.073022716
79	0x3d49db2c	0.049281284
80	0xbdc190a3	-0.094514154
81	0x3c22c950	0.009935692
82	0x3de26574	0.11054507
83	0x3dc743d5	0.09729735
84	0x3e2888bb	0.16458409
85	0xbd4a0047	-0.04931667
86	0xbb146434	-0.0022642734
87	0xbc06f065	-0.008236025
88	0xbd50ff3d	-0.051024664
89	0x3e58393a	0.2111558
90	0x3eb109c7	0.34577772
91	0xbdcd7e50	-0.10033858
92	0x3dcbefe8	0.09957868
93	0xbbe4dca3	-0.0069843098
94	0x39c1294c	0.00036842597
95	0xbd09ee2e	-0.03367441
96	0x3e007616	0.12545046
97	0x3e90c100	0.28272247
98	0xbc02e2ce	-0.007988645
99	0x3ea7dca2	0.32785517
100	0x3da0b8d4	0.07847753
101	0xbdf0ff9b	-0.11767503
102	0x3dc7aab0	0.09749353
103	0x3d964795	0.07337872
104	0xbd8aeb0a	-0.067831114
105	0xbe1011e4	-0.14069325
106	0x3db80669	0.08985598
107	0xbd180e3d	-0.037122954
108	0xbc260dcd	-0.010135126
109	0xbc0f3635	-0.008740951
110	0x3e27e424	0.16395622
111	0xbd8d2a96	-0.06892888
112	0x3dd58c55	0.10427157
113	0x3d784f22	0.060622342
114	0x3cd3e2c5	0.025864968
115	0xbc389ebe	-0.011268316
116	0x3e290dac	0.16509122
117	0x3d87061a	0.06592961
118	0x3dbb7068	0.09152299
119	0x3dbda2a9	0.092595406
120	0xbd3e8257	-0.04651102
121	0xbdaeffbc	-0.08544871
122	0xbc4a475f	-0.012346118
123	0x3e25a1e9	0.16175045
124	0xbdbf4059	-0.09338445
125	0xbdce728e	-0.10080443
126	0xbef9eb32	-0.48812252
127	0xbd8979f1	-0.067127116
128	0xbd87f5c8	-0.06638676
129	0x3d4ebcea	0.05047313
130	0xbe0ecf31	-0.13946225
131	0x3d79da6a	0.06099931
132	0xbd9d1a05	-0.076709785
133	0x3dec36e9	0.11533911
134	0xbd217718	-0.039420217
135	0x3c7b6ce2	0.015345784
136	0xbcc2960d	-0.02375319
137	0xbd7a9c7a	-0.061184384
138	0x3c63bb1f	0.013899594
139	0x3e1a71ed	0.15082522
140	0xbc4b2ba2	-0.01240054
141	0x3cd88fb7	0.026435716
142	0xbe0be298	-0.13660657
143	0x3d6ceb73	0.05784173
144	0x3da64cb7	0.08120101
145	0xbd2b96bc	-0.0418918
146	0x3b1ea6c9	0.0024208298
147	0xbd172a4b	-0.036905568
148	0x3da54dea	0.080715016
149	0xbd82d587	-0.06388383
150	0xbb1b895a	-0.002373299
151	0xbea00e8b	-0.31261095
152	0x3e27b1bd	0.16376396
153	0xbd636ab4	-0.055521682
154	0x3d2597ab	0.040427845
155	0xbe233eb8	-0.15941894
156	0x3cb59d30	0.02216968
157	0x3d05198b	0.032495063
158	0x3d400c8a	0.04688696
159	0x3dd89182	0.105746284
160	0xbdb67557	-0.089090995
161	0xbef7b0ae	-0.48376983
162	0x3de72a97	0.1128742
163	0x3dbea313	0.09308448
164	0xbd95aa95	-0.073079266
165	0x3c4f429d	0.012650159
166	0x3c8aecf2	0.016958687
167	0xbdaaae0c	-0.08333978
168	0x3d6b54d7	0.057453956
169	0xbb12a6a5	-0.002237716
170	0xbde0b1bf	-0.109714024
171	0xbe54bb7f	-0.20774649
172	0xbd12fa1c	-0.035883054
173	0x3d8deb2e	0.069296226
174	0xbe14f091	-0.14544894
175	0xbd17e2bb	-0.03708146
176	0xbda8108c	-0.08206281
177	0x3c7fc44e	0.0156107675
178	0x3d812aae	0.06306969
179	0xbd93d4c9	-0.0721832
180	0x3c5f6b18	0.013636373
181	0x39b7649e	0.00034979446
182	0x3c3d2b35	0.011545946
183	0xbd971cf8	-0.07378572
184	0x3b8f544c	0.0043740626
185	0x3e8807d5	0.26568475
186	0xbda315ec	-0.07963166
187	0x3e07afe9	0.13250698
188	0x3db1af30	0.086759925
189	0x3e379c6b	0.17930762
190	0xbdf7ab2f	-0.120931976
191	0xbdff8262	-0.124760404
192	0x3c24878d	0.010042083
193	0x3e558c6f	0.20854352
194	0xbdb43f98	-0.08801192
195	0xbd676697	-0.05649432
196	0xbd912b00	-0.0708828
197	0xbe136727	-0.14394818
198	0xbd8b07f7	-0.067886285
199	0xbda72068	-0.08160478
200	0x3d94eca9	0.07271702
201	0x3d555774	0.052085355
202	0x3cdce350	0.02696386
203	0xbcb0661d	-0.021533066
204	0xbc17b075	-0.009258379
205	0x3d987ae2	0.07445313
206	0x3df28f72	0.11843766
207	0x3ab4cf40	0.0013794675
208	0xbda4c12c	-0.08044657
209	0x3d253348	0.04033211
210	0x3d89fba0	0.06737447
211	0xbdb8ffbf	-0.09033155
212	0x3d289574	0.041158155
213	0x3cb66ab3	0.022267675
214	0xbd5f24a7	-0.054478314
215	0xbdaa7827	-0.083236985
216	0x3c8b8686	0.01703192
217	0x3dac639f	0.08417439
218	0xbd95fba9	-0.07323391
219	0x3bab9835	0.0052366504
220	0xbba3e601	-0.005001784
221	0xbd0846a9	-0.03327051
222	0x3de80038	0.11328167
223	0xbabd5fb5	-0.0014448079
224	0x3cccd1f9	0.025002467
225	0x3d858642	0.06519748
226	0x3d93815d	0.072024085
227	0xbb124eab	-0.0022324722
228	0xbd418791	-0.047248427
229	0x3dbcc87c	0.09217927
230	0x3d5c68f3	0.053811025
231	0xbdbb6660	-0.09150386
232	0xbd1ba824	-0.03800215
233	0xbd053902	-0.03252507
234	0x3d38c45c	0.045109138
235	0xbd076644	-0.033056512
236	0xbd7918a8	-0.06081453
237	0xbd83ba59	-0.06432027
238	0xbcf91a18	-0.03040795
239	0xbdaf8699	-0.08570594
240	0xbda4ff06	-0.08056454
241	0xbd09014c	-0.033448502
242	0xbd7adbb0	-0.061244667
243	0x3d1d1098	0.038345903
244	0xbdd1a05d	-0.10235665
245	0xbd4edfbc	-0.05050634
246	0xbcd7fbcd	-0.026365185
247	0x3d72f7dd	0.059318412
248	0x3d3fbfe8	0.046813875
249	0xbd5dcd5c	-0.054150924
250	0xbdd1e029	-0.10247833
251	0xbd7cf660	-0.0617584
252	0x3bffc30d	0.0078052343
253	0x3d3680f6	0.04455658
254	0x3d91e95f	0.0712459
255	0xbce264c1	-0.027635934

bias_hh_l0 f4 [400]
0	0x3d374fce	0.044753842
1	0x3dc1aad2	0.094564095
2	0x3b588678	0.0033039134
3	0xbcf9170b	-0.030406496
4	0x3dd2fdd6	0.103023216
5	0x3e28177c	0.16415209
6	0x3ded1e54	0.1157805
7	0x3df341af	0.118777625
8	0x3e97c0bf	0.2963924
9	0xbe17d264	-0.14826351
10	0x3cfcdad3	0.030866062
11	0x3c8611b1	0.016365858
12	0xbd2c650f	-0.042088564
13	0x3d84cd2a	0.064844444
14	0x3e51d424	0.20491081
15	0xbc9dbe38	-0.019255742
16	0xbdc9bddf	-0.09850668
17	0x3dc52909	0.096269675
18	0x3d3cf195	0.046128828
19	0x3d65a35b	0.05606399
20	0xbd1f9b99	-0.03896675
21	0x3de83048	0.11337334
22	0x3dc082dd	0.0939996
23	0x3dd327b0	0.10310304
24	0xbdfb7b73	-0.122794054
25	0x3e52489f	0.20535515
26	0x3eb94b21	0.3619013
27	0x3e506cf5	0.20354064
28	0x3dd027a7	0.10163813
29	0xbd88e6b4	-0.06684628
30	0x3d3bf910	0.04589182
31	0xbdd53128	-0.104097664
32	0x3d857624	0.06516674
33	0x3d4c3659	0.049856517
34	0xbcc391a5	-0.02387316
35	0x3baf041e	0.005341067
36	0xbbdeaf4b	-0.006795799
37	0xbce662c9	-0.028123276
38	0x3d91106c	0.0708321
39	0x3d3318f0	0.043724954
40	0xbdca894c	-0.098894686
41	0xbcb497c8	-0.022045031
42	0x3e320ebe	0.17388436
43	0xbce1e9b8	-0.027577266
44	0x3c591c0f	0.013251319
45	0x3d883e25	0.06652478
46	0x3d862972	0.06550874
47	0xbd27b0c6	-0.04094007
48	0xbdc03b8e	-0.09386359
49	0x3e8282b7	0.25490353
50	0x3b96f8ee	0.0046073114
51	0x3e871c30	0.26388693
52	0x3e4dcdba	0.2009801
53	0x3ddcb263	0.10776212
54	0xbd4c54c6	-0.049885534
55	0x3d44152b	0.04787175
56	0x3dae8238	0.08520931
57	0xbc9e51eb	-0.01932617
58	0x3d52759e	0.0513817
59	0xbd712ccf	-0.058880623
60	0x3ca4f274	0.020135142
61	0x3eb56317	0.35427162
62	0xbd4a5469	-0.049396906
63	0x3e7dc964	0.24783856
64	0xbd15313c	-0.036423907
65	0xbd956a0a	-0.07295616
66	0xbd719b0e	-0.058985762
67	0x3daa06e0	0.083020926
68	0x3d775c96	0.06039103
69	0x3d257125	0.040391106
70	0x3db60969	0.088885136
71	0x3e6dda9f	0.23227929
72	0xbd95cdba	-0.0731463
73	0x3d1cfca3	0.03832687
74	0xbdc8ec5a	-0.098107055
75	0x3d46e3c0	0.048557043
76	0x3d789403	0.06068803
77	0x3d19c4a7	0.037541058
78	0xbd6449d0	-0.055734456
79	0x3e07b161	0.13251258
80	0x3ce8be74	0.028411128
81	0x3d26b5e7	0.04070082
82	0x3de4b60e	0.11167537
83	0x3d93b899	0.072129436
84	0x3e5e822a	0.21729341
85	0xbe2335b1	-0.1593845
86	0x3d16285c	0.036659583
87	0xbc3020f8	-0.010750048
88	0xbde0ba3d	-0.10973022
89	0x3e39bb1e	0.18137786
90	0x3eac4a63	0.33650503
91	0xbd611497	-0.054951277
92	0xbccd5186	-0.025063287
93	0xbb2b36b1	-0.0026125128
94	0xbd44af3e	-0.048018686
95	0xbde0e055	-0.10980288
96	0x3d06942c	0.03285615
97	0x3eba32d9	0.3636692
98	0x3d86642a	0.065620735
99	0x3ea04be8	0.31307912
100	0xbcb41072	-0.021980498
101	0xbc8fa81e	-0.01753622
102	0x3d15159e	0.03639757
103	0xbd4ec3bc	-0.050479636
104	0xbd001347	-0.031268384
105	0xbd8b7f9e	-0.068114504
106	0x3e202932	0.15640715
107	0x3d1c5c61	0.038174037
108	0x3c48a759	0.01224693
109	0x3d231bad	0.039821316
110	0x3dda71f7	0.10666268
111	0x3d5ea8a4	0.054360047
112	0x3d4c5c05	0.049892444
113	0x3d018713	0.031622957
114	0x3d07e79b	0.03317986
115	0x3d766bf4	0.060161546
116	0xba9c8f66	-0.0011944592
117	0xbc295928	-0.010336198
118	0xbb317086	-0.0027075126
119	0xbd43c146	-0.04779174
120	0x3decc94a	0.1156183
121	0xbd9a65b2	-0.07538928
122	0x3d538c20	0.051647305
123	0x3e346bee	0.17619297
124	0xbd3ced1f	-0.046124574
125	0xbd9f53f9	-0.077796884
126	0xbefb26bf	-0.49052998
127	0xbc4ec257	-0.012619576
128	0x3d7a113b	0.06105159
129	0x3cd89658	0.026438877
130	0xbc191567	-0.009343482
131	0xbca954c4	-0.020670302
132	0xbdeffccd	-0.1171814
133	0xbd431573	-0.047627877
134	0xbc9cc1e2	-0.01913542
135	0x3cefab5f	0.02925652
136	0x3d4331b8	0.047654837
137	0xbdadb014	-0.0848085
138	0x3e19af61	0.15008308
139	0x3b91e8c4	0.0044527967
140	0xbdf1574f	-0.11784231
141	0x3d0aeea9	0.03391901
142	0x3aaf2c81	0.0013364704
143	0x3e127012	0.14300564
144	0x3dedb5c1	0.116069324
145	0x3c787ff4	0.015167225
146	0xbb687fc4	-0.0035476545
147	0xbdfe254e	-0.12409459
148	0xbd442754	-0.04788907
149	0xbd7e351a	-0.06206236
150	0xbd11e3f6	-0.03561779
151	0xbe363be1	-0.1779628
152	0x3e02601c	0.12731975
153	0x3c84fb00	0.016232967
154	0xbc55d2b2	-0.013050722
155	0xbdf3baaf	-0.119008414
156	0xbdc7a701	-0.0974865
157	0x3bbb2978	0.0057117306
158	0x3e33286e	0.17495891
159	0x3dc7885e	0.09742807
160	0xbdacaecc	-0.08431777
161	0xbf011e9c	-0.5043733
162	0x3dd51611	0.104045995
163	0x3c5bbb58	0.013411365
164	0x3d325da4	0.043546334
165	0xbdd1a662	-0.10236813
166	0xbd889828	-0.066696465
167	0xbd9718dc	-0.073777884
168	0x3d3021ca	0.043000974
169	0xbc849c52	-0.01618782
170	0xbe1965e0	-0.14980268
171	0xbd910383	-0.07080748
172	0xbd99d958	-0.07512158
173	0x3d1f7420	0.038929105
174	0xbe00c48a	-0.12574974
175	0x3c07ccc1	0.008288563
176	0xbe0f6c37	-0.14006124
177	0xbd876f4f	-0.06613027
178	0x3d9e164f	0.07719099
179	0xbe48e44d	-0.1961834
180	0x3de5e5c5	0.11225466
181	0xbd86bf97	-0.065795116
182	0xbd5e0202	-0.054201134
183	0xbcc48d3d	-0.023993129
184	0x3d1ab1c8	0.0377672
185	0x3ec3760d	0.38176003
186	0x3d39b534	0.045338824
187	0x3c3087fd	0.01077461
188	0x3cb5b526	0.022181105
189	0x3e0644c5	0.13112171
190	0xbe6c8f03	-0.2310143
191	0xbda0b1d8	-0.07846421
192	0x3d0e817e	0.034791462
193	0x3e5d320c	0.21601123
194	0xbdc37855	-0.09544436
195	0x3c445d6c	0.011985164
196	0x3c93b080	0.018028498
197	0xbdc08725	-0.09400777
198	0x3d09e2b9	0.033663485
199	0xbd8136bb	-0.06309267
200	0x3da51237	0.08060115
201	0x3d255888	0.040367633
202	0x3d57b5da	0.05266366
203	0x3cac72f2	0.021050904
204	0x3da063c1	0.078315265
205	0x3d4b919e	0.04969942
206	0x3dbb122e	0.09134327
207	0x3c12909b	0.008945609
208	0x3c990d69	0.018683152
209	0xbb843d92	-0.00403566
210	0x3c980764	0.018558212
211	0x3d372f9e	0.044723146
212	0xbdfba786	-0.12287812
213	0x3d7e1039	0.06202719
214	0x3df4d668	0.11954957
215	0xbd9062f5	-0.070501246
216	0x3b35436f	0.0027658602
217	0xbc8f6047	-0.017501963
218	0xbdf7a190	-0.120913625
219	0x3d808674	0.06275645
220	0x3dad5a65	0.08464507
221	0xbcd2fbd6	-0.02575485
222	0x3d9ed7ec	0.077560276
223	0x3ba50f42	0.0050372193
224	0xbc999790	-0.018749028
225	0xbcf3b97e	-0.029751536
226	0x3d6669ed	0.056253362
227	0x3bf0e876	0.0073519303
228	0x3d59f149	0.053208623
229	0x3dad4e96	0.08462255
230	0x3daf5fc4	0.08563188
231	0x3c2daa9f	0.010599761
232	0x3c50b1db	0.012737717
233	0x3d34480e	0.04401403
234	0x3dd6bb99	0.10485
235	0xbd403d6d	-0.04693358
236	0x3b374f5a	0.0027970881
237	0xbd9de4a1	-0.07709623
238	0x3db7c613	0.089733265
239	0xbd1efe64	-0.038816825
240	0x3bde6870	0.0067873523
241	0xbdd16277	-0.10223859
242	0x3da68840	0.081314564
243	0xbb663d7c	-0.0035131862
244	0xbd873c27	-0.0660327
245	0x3ce52ebb	0.027976384
246	0xbdce61e4	-0.10077265
247	0xbde49d17	-0.11162775
248	0x3dda84ac	0.106698364
249	0x3d07e401	0.033176426
250	0x3d246c2b	0.04014222
251	0xbc6bc685	-0.014390592
252	0x3d48c320	0.04901421
253	0x3b5cc95f	0.0033689362
254	0x3d2e164f	0.042501744
255	0x3d19fb39	0.0375931

weight f4 [100, 100]
0	0xbdb29280	-0.08719349
1	0x3da21c7a	0.07915588
2	0xbc15907b	-0.009128685
3	0xbce48058	-0.02789323
4	0x3de7e8c4	0.113236934
5	0xbdf3c8ac	-0.119035095
6	0x3db2c07b	0.08728119
7	0xbbf509f2	-0.007477992
8	0xbcf0cb79	-0.029393898
9	0xbc89340a	-0.016748447
10	0x3d8c1183	0.068392776
11	0xbd026b73	-0.031840753
12	0x3d1d8542	0.038457163
13	0x3d3547dd	0.044257987
14	0xbd61283e	-0.05497002
15	0x3c61e210	0.013786808
16	0xbcfd8b66	-0.03095026
17	0x3b4ca27b	0.0031224776
18	0xbc0a2d11	-0.008433596
19	0x3d388a1e	0.045053594
20	0x3b217a6d	0.0024639622
21	0x3d08b1f1	0.033372823
22	0xbdb768c8	-0.08955532
23	0xbde09283	-0.10965445
24	0xbd3c3cdf	-0.04595649
25	0x3c12f410	0.008969322
26	0xbd939c84	-0.07207587
27	0x3d7b1086	0.061295055
28	0xbda40775	-0.08009235
29	0x3d8a3a7e	0.06749438
30	0xbd360a05	-0.04444315
31	0x3d46aebd	0.048506487
32	0xbd9b82e3	-0.07593324
33	0x3db14424	0.08655575
34	0x3cdb3ceb	0.026762446
35	0xbd06c4e6	-0.03290262
36	0x3d3d0604	0.046148315
37	0xbd2a0731	-0.041510765
38	0xbcfe08a7	-0.031009985
39	0xbd825b3b	-0.06365057
40	0xbd99be3c	-0.075069875
41	0xbc5d96b5	-0.013524701
42	0xbdcb1dfa	-0.09917827
43	0x3b966f94	0.004590938
44	0xbd5a0db6	-0.053235732
45	0xbcf4397d	-0.029812569
46	0x3c130eba	0.008975679
47	0x3d5ad066	0.0534214
48	0x3d5d93da	0.05409608
49	0xbd6a55ee	-0.057210855
50	0xbd3f72cd	-0.046740342
51	0x3d23b181	0.039964203
52	0x3d90c9d1	0.070697434
53	0x3d14cd3d	0.036328543
54	0xbc74f26c	-0.014950376
55	0xbcded0c4	-0.027199157
56	0x3d74d7cf	0.059776124
57	0x3da9ef17	0.08297556
58	0x3d517d07	0.051144626
59	0xbdbc15cb	-0.09183844
60	0xbdcb3d4e	-0.09923802
61	0x3cc406ce	0.023929026
62	0xbccaba7c	-0.024747126
63	0x3cc697eb	0.024242362
64	0x3c48576c	0.012227874
65	0xbd21d796	-0.03951224
66	0x3d515446	0.05110576
67	0x39e72a75	0.00044091386
68	0x3d258eeb	0.0404195
69	0xbc92b7f2	-0.017909978
70	0x3dc644bb	0.09681078
71	0xbd6194b1	-0.055073444
72	0x3d7a5340	0.06111455
73	0x3c1e04c8	0.009644695
74	0x3d282556	0.04105123
75	0x3ceda16e	0.02900764
76	0xbd8b5528	-0.06803352
77	0xbdcd61ac	-0.10028395
78	0x3c154d8e	0.009112729
79	0x3d02fbcd	0.031978417
80	0xbd61e994	-0.055154398
81	0x3cc77db1	0.024351927
82	0x3c277316	0.01022031
83	0x3d76467b	0.06012581
84	0x3de8ff88	0.11376864
85	0xbc1863c5	-0.009301131
86	0x3d854940	0.06508112
87	0xbd8e3240	-0.06943178
88	0x3d408b9d	0.047008146
89	0xbd820efc	-0.06350514
90	0x3d15062a	0.03638283
91	0x3d39ff50	0.0454095
92	0xbdd67170	-0.10470855
93	0x3d263330	0.04057616
94	0xbd37d723	-0.044882905
95	0x3d3cdafa	0.04610727
96	0x3d9f3e2e	0.07775532
97	0x3dd5ecae	0.10445534
98	0xbd75331a	-0.059863187
99	0xbd597fb6	-0.05310031
100	0xbca7c7dd	-0.020481044
101	0x3dcc22f7	0.099676065
102	0xbb76b5f7	-0.003764508
103	0x3cc5576c	0.024089538
104	0xbd7c7572	-0.061635442
105	0xbda990be	-0.082795605
106	0x3d4fc130	0.050721347
107	0x3d75e3bb	0.060031634
108	0x3d8059df	0.062671416
109	0xbd979937	-0.0740227
110	0x3dbe94d8	0.093057334
111	0x3d821b00	0.06352806
112	0x3c0b55ce	0.008504344
113	0xbd972d59	-0.07381696
114	0xbd758313	-0.059939455
115	0x3c72d677	0.01482164
116	0x3df57925	0.11985997
117	0xbdacf789	-0.08445651
118	0x3e033dcf	0.12816547
119	0xbd946f37	-0.07247775
120	0xbdb3387f	-0.0875101
121	0x3dfe5b3a	0.12419744
122	0xbdcd85c3	-0.10035279
123	0x3c06782a	0.00820736
124	0x3d9e30f6	0.07724182
125	0x3d639786	0.055564426
126	0x3c2b23bb	0.0104455305
127	0x3d941aaf	0.07231652
128	0xbda9df49	-0.082945414
129	0xbe0c779c	-0.13717502
130	0xbd99c708	-0.07508665
131	0x3df34b64	0.11879614
132	0x3d32e4d9	0.043675277
133	0xbdc422f4	-0.09576979
134	0xbd6201d4	-0.055177525
135	0xbdf0a497	-0.11750143
136	0xbd17a2ef	-0.03702062
137	0x3de3a13b	0.11114737
138	0xbc835508	-0.016031757
139	0x3cb606a3	0.022219962
140	0xbc03f333	-0.008053589
141	0xbd543632	-0.051809497
142	0xbe0a23ec	-0.13490266
143	0x3c98b600	0.018641472
144	0x3d80c0b8	0.06286758
145	0x3c2ec642	0.0106673855
146	0x3c9b9c9d	0.018995577
147	0x3d3d3296	0.04619082
148	0x3d25dcd1	0.04049379
149	0x3c8e44db	0.017366817
150	0xbdccf49a	-0.100075915
151	0x3db93712	0.09043707
152	0xbb08e3c4	-0.0020887712
153	0x3d90bab2	0.07066859
154	0x3d10a7ed	0.035316397
155	0x3d228a3f	0.039682623
156	0x3cac497f	0.02103114
157	0xbdb35ed5	-0.08758322
158	0xbd0facff	-0.03507709
159	0xbd86991f	-0.06572174
160	0x3de25407	0.11051183
161	0xbdab936e	-0.08377729
162	0x3d7f7d3b	0.06237529
163	0xbd6738d0	-0.056450665
164	0x3cdc3235	0.02687941
165	0xbda12007	-0.07867437
166	0x3dc46804	0.09590152
167	0xbba78276	-0.0051119877
168	0x3d6ba1d2	0.05752737
169	0xbcf696dc	-0.030101232
170	0x3d36be35	0.04461499
171	0x3d9e0576	0.07715885
172	0x3d89a71f	0.06721329
173	0x3d71b79a	0.059012987
174	0x3d173483	0.036915313
175	0x3c9b495f	0.018955885
176	0xbe0a8050	-0.1352551
177	0xbd8ba9f5	-0.06819526
178	0x3bca4caa	0.00617369
179	0xbd581543	-0.05275465
180	0x3cc2aa3f	0.02376282
181	0x3d297ae7	0.041376974
182	0x3d4b0767	0.049567606
183	0xbd0a452f	-0.033757385
184	0x3da51963	0.08061483
185	0x3d314bd6	0.043285213
186	0x3de8d07a	0.11367889
187	0x3d99653e	0.074900135
188	0x3db134ca	0.08652647
189	0x3d8bccf5	0.06826202
190	0xbb63ac16	-0.0034740022
191	0xbd4bcdf8	-0.049756974
192	0xbdb2b72e	-0.08726345
193	0x3e0afa23	0.13571982
194	0x3e30c7a5	0.17263658
195	0x3d721da2	0.05911029
196	0x3de70206	0.11279683
197	0xbcd7bb95	-0.026334563
198	0x3d886732	0.06660308
199	0xbdd7c6c9	-0.10535962
200	0xbce51303	-0.027963167
201	0x3da4f122	0.08053805
202	0x3e3078d7	0.17233597
203	0x3d4cc5c4	0.04999329
204	0x3d09f2b0	0.03367871
205	0x3de589bf	0.112079136
206	0xbdc00d9a	-0.09377594
207	0x3d85dfc9	0.06536824
208	0x3d24e31a	0.040255643
209	0xbd1a2924	-0.03763689
210	0xbe0aaf05	-0.13543327
211	0xbd2e326d	-0.04252856
212	0xbd869929	-0.06572182
213	0x3cde1222	0.027108256
214	0xbc667b39	-0.0140674645
215	0xbd983a21	-0.07432962
216	0x3ddbf1ae	0.10739456
217	0x3cbbe3cb	0.022935769
218	0xbd289625	-0.041158814
219	0x3bb1623f	0.005413323
220	0x3dbb85be	0.09156369
221	0xbda80008	-0.08203131
222	0x3dc87d40	0.097895145
223	0xbe5c9304	-0.21540457
224	0xbd18cca8	-0.03730455
225	0xbe111ef9	-0.14171971
226	0xbdf01133	-0.117220305
227	0x3df0fde4	0.11767176
228	0x3e047ded	0.12938662
229	0xbd9d3da4	-0.07677773
230	0xbdcf9716	-0.10136239
231	0xbe015f15	-0.12633927
232	0xbe0e4320	-0.13892794
233	0x3cd79535	0.026316265
234	0x3e046d50	0.12932324
235	0x3d3c03a6	0.045901917
236	0xbb541aae	-0.0032364535
237	0xbd6a5682	-0.057211407
238	0xbdb05cc5	-0.086114444
239	0xbe64e550	-0.22353101
240	0xbda45097	-0.08023184
241	0xbd3796ef	-0.044821676
242	0xbd3cb01d	-0.046066392
243	0xbdfbb40d	-0.12290201
244	0xbe6bfc1e	-0.23045394
245	0xbdddc594	-0.10828701
246	0x3b757f21	0.0037459808
247	0xbbe212fb	-0.0068992353
248	0x3cb567be	0.022144195
249	0xbdc35c7b	-0.095391236
250	0x3b824f93	0.003976771
251	0xbd1a4ebb	-0.03767274
252	0x3d892d9b	0.06698152
253	0x3dcfc707	0.10145383
254	0xbd1d3350	-0.038379014
255	0x3da6c483	0.081429504

bias f4 [100]
0	0xbdf1df0c	-0.11810121
1	0xbdf5607b	-0.11981293
2	0x3c9e772c	0.019343935
3	0xbd8348c8	-0.06410366
4	0x3ddbed75	0.10738651
5	0xbc529bf7	-0.012854568
6	0x3d149255	0.036272366
7	0xbdf5c4da	-0.12000437
8	0xbe2ab84d	-0.16671868
9	0xbc98990a	-0.018627662
10	0xbe3595b0	-0.17732882
11	0xbd9f2f3b	-0.0777268
12	0xbdde43e4	-0.10852793
13	0xbdb097a4	-0.08622673
14	0x3e16a1db	0.1471018
15	0x3de27cb0	0.110589385
16	0x3d7d4bb4	0.061839774
17	0xbe017e4f	-0.12645839
18	0xbca15906	-0.01969577
19	0x3dd41809	0.10356147
20	0xbdcfda2f	-0.10149037
21	0xbdaa3ca2	-0.08312346
22	0xbd788703	-0.060675632
23	0xbd0be210	-0.034151137
24	0x3d58425a	0.052797653
25	0x3d201d91	0.039090697
26	0x3e12dfc4	0.14343172
27	0x3c935b77	0.01798795
28	0xbdccb9a8	-0.099963486
29	0xbe0131f6	-0.12616715
30	0xbdc9ade2	-0.09847619
31	0xbe073f2a	-0.13207689
32	0xbdf5954b	-0.11991366
33	0xbdb5327f	-0.08847522
34	0xbdbaa511	-0.09113515
35	0xbd01dffd	-0.031707752
36	0x3d8ba9f4	0.06819525
37	0x3e31b1ea	0.17353025
38	0x3d63ea7d	0.055643547
39	0x3b47f4bb	0.003051086
40	0xbd0de42f	-0.03464144
41	0x3bd46dfe	0.0064828387
42	0xbe02351e	-0.12715575
43	0xbddfaa4b	-0.10921153
44	0xbdf3e236	-0.11908381
45	0x3dfa0f33	0.1220993
46	0xbdbdd437	-0.092689924
47	0xbd9c9e5d	-0.07647393
48	0xbd5bf2d4	-0.053698376
49	0xbc8f59c6	-0.017498862
50	0xbdc6fa8c	-0.09715757
51	0xbdd19979	-0.10234351
52	0xbc89456c	-0.016756736
53	0xbddc896a	-0.10768397
54	0x3e0189ec	0.1265027
55	0x3b66d89e	0.0035224329
56	0x3d869773	0.065718554
57	0x3e0d6de9	0.13811459
58	0xbda4db22	-0.08049609
59	0xbd90eb53	-0.070761345
60	0xbda95ecd	-0.08270035
61	0x3d82bc8f	0.06383621
62	0xbdbdafe8	-0.09262067
63	0xbe265f9a	-0.16247407
64	0x3e0e80a1	0.13916256
65	0x3e051553	0.12996416
66	0xbddab6df	-0.10679411
67	0x3cdffb2e	0.027341451
68	0xbe08116e	-0.13287899
69	0xbe1b87a0	-0.15188456
70	0xbdc67718	-0.09690684
71	0xbe289fc6	-0.16467199
72	0xbd23581c	-0.03987895
73	0x3c01a61c	0.007913139
74	0x3bf47c43	0.007461102
75	0xbcc556d1	-0.024089249
76	0x3d7b2407	0.061313655
77	0xbd105246	-0.035234712
78	0xbc6be492	-0.014397757
79	0xbd6732a3	-0.056444775
80	0xbdbb96fb	-0.091596566
81	0xbca23f5f	-0.019805608
82	0x3e0833e4	0.13301045
83	0x3ca79ea7	0.020461394
84	0xbdd5d58c	-0.104411215
85	0xbe2b95cb	-0.1675636
86	0xbcac5d69	-0.021040635
87	0x3e122de4	0.14275318
88	0x3cb20cc0	0.021734595
89	0xba951f2d	-0.0011377089
90	0xbd3663b9	-0.044528697
91	0xbdda892e	-0.10670696
92	0xbdbdaad2	-0.09261097
93	0xbdd6ee72	-0.104946986
94	0xbe054d7c	-0.13017839
95	0xbd4b6922	-0.04966081
96	0x3dd79b44	0.105276614
97	0xbe1cbe35	-0.15306933
98	0x3da5961d	0.080852725
99	0xbd93cf8d	-0.072173215

weight f4 [100]
0	0x3f7194e5	0.9436782
1	0x3e5d2ea4	0.21599823
2	0x3f66842e	0.9004544
3	0x3d54d48b	0.05196051
4	0x3f239db5	0.63912517
5	0x3e9c65f9	0.3054655
6	0x3f167d43	0.58784884
7	0x3f1b3911	0.6063395
8	0x3edd5427	0.43228266
9	0x3ec299eb	0.38008055
10	0x3f38bcd0	0.72163105
11	0x3e884d56	0.26621503
12	0x3e8980a6	0.26855963
13	0x3f35fdcb	0.7109038
14	0x3f3cc3dc	0.7373636
15	0x3f496be0	0.7868023
16	0x3ecc0337	0.39846203
17	0x3f0a214a	0.53957045
18	0x3ea20a89	0.31648663
19	0x3f709c5a	0.93988574
20	0x3f628249	0.8848005
21	0x3f52f67b	0.8240735
22	0x3ece7a75	0.40327802
23	0x3f3500c8	0.7070432
24	0x3f7e52b1	0.9934493
25	0x3f228a9a	0.6349274
26	0x3f2e9f18	0.6821151
27	0x3e94cab0	0.29060888
28	0x3f54ff8e	0.83202446
29	0x3f1ef7c7	0.6209683
30	0x3dd197e6	0.102340505
31	0x3f5aa6f3	0.85410994
32	0x3f4d3b58	0.80168676
33	0x3eea4386	0.4575464
34	0x3f287e50	0.6581774
35	0x3ef2c472	0.474155
36	0x3eb290f7	0.34876224
37	0x3e770195	0.24121697
38	0x3e387eef	0.18017171
39	0x3f0434e6	0.51643217
40	0x3f44b816	0.7684339
41	0x3e800257	0.25001785
42	0x3f5da24e	0.8657578
43	0x3eaad4c0	0.3336544
44	0x3f3a80cc	0.7285278
45	0x3f506af2	0.81413186
46	0x3f621739	0.88316685
47	0x3f27534c	0.65361476
48	0x3edb4567	0.42826387
49	0x3f339aaf	0.70157903
50	0xbd1749a8	-0.03693548
51	0x3efafdc5	0.49021736
52	0x3e8dd88f	0.27704284
53	0xbde55ebd	-0.111997105
54	0x3ecc42d1	0.39894727
55	0x3f3a06d9	0.726667
56	0x3ed8e84b	0.42364725
57	0x3eeebfe4	0.46630776
58	0x3eb953ec	0.3619684
59	0x3f569fc1	0.83837515
60	0x3eda26ab	0.42607626
61	0x3f11e919	0.56996304
62	0x3f49ee1e	0.78878963
63	0x3ec24738	0.3794496
64	0x3f33e256	0.70267236
65	0x3f7673ee	0.96270645
66	0x3e1e86c9	0.15481104
67	0x3e31e153	0.1737111
68	0x3f1a5280	0.60282135
69	0x3eebb828	0.46038938
70	0x3d1d584d	0.03841429
71	0x3f228568	0.6348481
72	0x3f3e8013	0.74414176
73	0x3e89652c	0.26835
74	0x3e2787e8	0.16360438
75	0x3e8cd2a0	0.27504444
76	0x3f26b8fc	0.65126014
77	0x3eb62daf	0.3558173
78	0x3e9c7252	0.3055597
79	0x3dd69edc	0.10479519
80	0x3f3a4694	0.72763944
81	0x3f242668	0.64121103
82	0x3f31d2ba	0.6946217
83	0x3e1a0e87	0.15044604
84	0x3f3e08d9	0.7423225
85	0x3e40bd86	0.18822297
86	0x3e13dc5c	0.14439529
87	0x3eaf5d1e	0.3425073
88	0x3e1c665a	0.15273419
89	0x3f7e7457	0.9939627
90	0x3e2d8878	0.1694659
91	0x3e415ef7	0.18883882
92	0x3e7ea482	0.24867442
93	0x3e3c1776	0.18368325
94	0x3e5f34b9	0.21797456
95	0x3f4f39b8	0.80947447
96	0x3f39172e	0.72300994
97	0x3ed067bb	0.4070414
98	0x3e88ba5f	0.2670469
99	0x3e22f477	0.15913568

bias f4 [100]
0	0xbd4c3ebb	-0.049864512
1	0x3c6b6f61	0.0143698165
2	0xbcd33a2f	-0.02578458
3	0x3b90a32b	0.0044139824
4	0xbcc6542a	-0.024210054
5	0x3d865e0b	0.06560906
6	0x3cdda2c3	0.02705515
7	0x3d8987bc	0.067153424
8	0x3dd64060	0.10461497
9	0x3d0dc17f	0.03460836
10	0x3c9ea613	0.0193663
11	0x3b0216b9	0.001984997
12	0xbce78498	-0.028261468
13	0xbdda9340	-0.10672617
14	0xbd070f4b	-0.03297357
15	0xbccb270c	-0.024798892
16	0x3d212d7b	0.039350014
17	0x3d108852	0.035286255
18	0x3d29cd87	0.04145577
19	0x3cfa4d78	0.030554518
20	0x3abcfad3	0.0014418013
21	0x3c3b87e7	0.011445976
22	0x3c63372e	0.013868136
23	0xbd2f96df	-0.04286849
24	0x3d1ba501	0.037999157
25	0x3d59a44d	0.053135205
26	0xbba2f465	-0.0049729818
27	0x3cb65a69	0.022259908
28	0x3c81f10f	0.015862016
29	0xbd001ac8	-0.03127554
30	0x3da61893	0.08110156
31	0xbaa4ce32	-0.0012573658
32	0x3d97a36a	0.07404216
33	0x3d985d74	0.074397
34	0x3c8aa807	0.016925825
35	0x3da32b60	0.079672575
36	0xbd143dac	-0.036191627
37	0x3d29d6dc	0.04146467
38	0x3e218d96	0.15776667
39	0xbd4f0710	-0.050543845
40	0x3d5038a8	0.05083528
41	0x3c6a6400	0.014306068
42	0xbc74dc1f	-0.014945059
43	0x3d5c999c	0.05385743
44	0x3d09c662	0.03363646
45	0x3dc6f580	0.09714794
46	0xbda1871c	-0.07887098
47	0xbc35ad78	-0.011088721
48	0x3b831463	0.004000233
49	0xbca31683	-0.019908195
50	0xbc7b8053	-0.015350419
51	0xbd6540b8	-0.055969924
52	0xbde6b2e0	-0.112645864
53	0xbce50d81	-0.02796054
54	0x3d85b193	0.0652801
55	0x3d64cc40	0.05585885
56	0x3ca7159a	0.020396043
57	0x3d66dbfb	0.056362133
58	0x3d18c471	0.037296716
59	0xbaaa01cb	-0.0012970505
60	0xbd0190d8	-0.031632274
61	0x3d3330b2	0.04374761
62	0xbd474d8e	-0.048657946
63	0x3bb681e8	0.0055696853
64	0xbc952242	-0.018204812
65	0x3dc2c4b7	0.09510177
66	0x3c773f52	0.01509078
67	0x3da0057f	0.07813548
68	0x3d15371d	0.036429513
69	0x3d943924	0.07237461
70	0xbd9620f3	-0.07330503
71	0xbd1b5fd2	-0.03793318
72	0xbd544d02	-0.051831253
73	0x3d53cb41	0.05170751
74	0x3bd7f466	0.006590414
75	0x3dde29d3	0.10847821
76	0x3dba2c90	0.09090531
77	0xbda4863c	-0.08033416
78	0x3cbe4806	0.023227703
79	0x3cbb87b8	0.022891864
80	0x3dde4f5f	0.108549826
81	0x3c288982	0.010286691
82	0x3d4406d0	0.04785806
83	0xbcb01fc9	-0.021499531
84	0xbd48af01	-0.04899502
85	0x3d6e4d19	0.058178995
86	0x3d56c766	0.052436255
87	0xbb92e19a	-0.00448246
88	0x3c4d2b48	0.012522526
89	0x3d0e4620	0.034734845
90	0x3db28327	0.087164216
91	0xbd43df8c	-0.047820613
92	0xbd59e63b	-0.05319808
93	0xbd54fac2	-0.051996954
94	0x3d423c50	0.0474208
95	0x3c572405	0.013131146
96	0x3d1ba452	0.037998505
97	0x3d5e4029	0.054260407
98	0x3c830b43	0.015996581
99	0xbd1b78f4	-0.037957147

running_mean f4 [100]
0	0x00000004	6e-45
1	0x2d89e53b	1.5676896e-11
2	0x3df8c36b	0.12146648
3	0x23807c6b	1.3930481e-17
4	0x3e7c9a39	0.24668206
5	0x3e1037ff	0.14083861
6	0x3e36667f	0.17812537
7	0x00000004	6e-45
8	0x2387aea2	1.471069e-17
9	0x0000204a	1.1583e-41
10	0x3507e303	5.0621765e-07
11	0x00000004	6e-45
12	0x14c15030	1.9519648e-26
13	0x3851a475	4.9982646e-05
14	0x3e4e6f86	0.2015973
15	0x3e206c32	0.15666273
16	0x3e223089	0.15838827
17	0x01ba1aa1	6.836382e-38
18	0x3ca8d84d	0.020610953
19	0x3e064d82	0.13115504
20	0x30b86cb9	1.3418663e-09
21	0x3288602a	1.5876214e-08
22	0x35ac05de	1.2816706e-06
23	0x00ee07bb	2.1859621e-38
24	0x3e03ae1a	0.12859383
25	0x3d9fccf9	0.07802767
26	0x3e5cfdf6	0.21581253
27	0x3e57cbe2	0.21073869
28	0x000005c9	2.075e-42
29	0x19c41967	2.0276185e-23
30	0x00000004	6e-45
31	0x00000004	6e-45
32	0x00000004	6e-45
33	0x3979036f	0.0002374777
34	0x364382b8	2.9133353e-06
35	0x3d646ecc	0.055769727
36	0x3e4736b9	0.19454469
37	0x3ead0895	0.3379561
38	0x3e23d322	0.1599851
39	0x3e412617	0.18862186
40	0x34be5814	3.5454343e-07
41	0x3d8519bd	0.0649905
42	0x00000004	6e-45
43	0x00000004	6e-45
44	0x02ce4850	3.0310485e-37
45	0x3e41bdf7	0.18920122
46	0x00000004	6e-45
47	0x00000004	6e-45
48	0x00000004	6e-45
49	0x3e493d2e	0.19652244
50	0x00000075	1.64e-43
51	0x00000004	6e-45
52	0x3dbfa460	0.09357524
53	0x39123caa	0.00013946244
54	0x3e78fd8e	0.24315473
55	0x3e3ee800	0.18643188
56	0x3e204cb6	0.15654263
57	0x3e3b2ad5	0.18278058
58	0x0e276de7	2.0637255e-30
59	0x00000004	6e-45
60	0x2427111c	3.6226845e-17
61	0x3dc028ec	0.09382805
62	0x2aca15e6	3.5897603e-13
63	0x31504302	3.0306073e-09
64	0x3e9827c2	0.29717833
65	0x3e4422cc	0.19153899
66	0x00000004	6e-45
67	0x3e2dbe9a	0.1696724
68	0x2b399a92	6.593971e-13
69	0x028213b5	1.9113094e-37
70	0x13a08e99	4.053029e-27
71	0x215e50d0	7.532348e-19
72	0x00000004	6e-45
73	0x3e2860d8	0.16443193
74	0x2699d7a5	1.0674958e-15
75	0x3dbea6ba	0.09309144
76	0x3dd8112b	0.105501495
77	0x3dbe30ae	0.09286629
78	0x3de0aec7	0.10970836
79	0x36b403fa	5.364881e-06
80	0x00000004	6e-45
81	0x1ff4b292	1.0363344e-19
82	0x3dfdaf59	0.123869605
83	0x3d9fa727	0.07795554
84	0x00000004	6e-45
85	0x3c92666e	0.017871108
86	0x3d78a346	0.060702585
87	0x3e801618	0.25016856
88	0x00000004	6e-45
89	0x3e38eb9a	0.18058625
90	0x00000004	6e-45
91	0x200120b8	1.0937551e-19
92	0x36ee0c44	7.0943806e-06
93	0x00000004	6e-45
94	0x3c94eaf4	0.01817844
95	0x34322ed3	1.6594576e-07
96	0x3e3a2ab0	0.18180346
97	0x159ef9f0	6.4210024e-26
98	0x3e1fc9dc	0.15604347
99	0x3da1c68c	0.07899198

running_var f4 [100]
0	0x00000004	6e-45
1	0x28877e65	1.5042826e-14
2	0x3c8c2de4	0.017111726
3	0x20183ba6	1.2894637e-19
4	0x3c454523	0.012040409
5	0x3ca94303	0.020661836
6	0x3c7ff823	0.015623125
7	0x00000004	6e-45
8	0x215d77fe	7.503652e-19
9	0x00000024	5e-44
10	0x31cba65e	5.9269913e-09
11	0x00000004	6e-45
12	0x11d1f3e0	3.3124685e-28
13	0x359ed7ea	1.1834757e-06
14	0x3c6c545f	0.0144244125
15	0x3c9f79d6	0.019467276
16	0x3cad7d30	0.021177858
17	0x00078a01	6.92355e-40
18	0x3b8b6639	0.0042541292
19	0x3c7ceeb2	0.015437769
20	0x2b966ba7	1.0688021e-12
21	0x2f86d678	2.4526847e-10
22	0x31252bbb	2.4035518e-09
23	0x00064d67	5.7878e-40
24	0x3c6bc234	0.014389563
25	0x3c221b3a	0.009894187
26	0x3ca3543a	0.019937623
27	0x3c97e4b0	0.018541664
28	0x00000020	4.5e-44
29	0x17ef73d0	1.5474248e-24
30	0x00000004	6e-45
31	0x00000004	6e-45
32	0x00000004	6e-45
33	0x37549289	1.2670303e-05
34	0x32555acc	1.2418877e-08
35	0x3c0f4015	0.008743306
36	0x3cd92b91	0.026510032
37	0x3c86c273	0.016450142
38	0x3c9d7674	0.019221522
39	0x3cda0dfa	0.026617993
40	0x31e4c652	6.6582198e-09
41	0x3bc8b2fe	0.006124853
42	0x00000004	6e-45
43	0x00000004	6e-45
44	0x0013147c	1.752223e-39
45	0x3ca28ade	0.019841608
46	0x00000004	6e-45
47	0x00000004	6e-45
48	0x00000004	6e-45
49	0x3c8bedf0	0.01708123
50	0x00000004	6e-45
51	0x00000004	6e-45
52	0x3c6787fc	0.014131542
53	0x37803c48	1.528686e-05
54	0x3c94ce63	0.01816482
55	0x3ca73cdb	0.02041476
56	0x3c77c78d	0.01512326
57	0x3c9983c0	0.018739581
58	0x0ad94743	2.0923146e-32
59	0x00000004	6e-45
60	0x20e08318	3.8033827e-19
61	0x3c22ddba	0.009940559
62	0x26d9e2c3	1.5118864e-15
63	0x2e87443f	6.151212e-11
64	0x3cdadd8e	0.026716974
65	0x3c998512	0.01874021
66	0x00000004	6e-45
67	0x3c8a9532	0.016916845
68	0x27a771d0	4.6475207e-15
69	0x00086dff	7.74143e-40
70	0x0f95fcc0	1.478989e-29
71	0x1db720bd	4.8473547e-21
72	0x00000004	6e-45
73	0x3ca710d7	0.020393772
74	0x22b64cb1	4.94124e-18
75	0x3c4674de	0.012112824
76	0x3c59e68d	0.0132995965
77	0x3c357a65	0.011076544
78	0x3c9c9b0b	0.019116899
79	0x331d2110	3.658448e-08
80	0x00000004	6e-45
81	0x1c8db990	9.378564e-22
82	0x3c58f5ec	0.013242226
83	0x3c080f62	0.008304449
84	0x00000004	6e-45
85	0x3b886a83	0.004163088
86	0x3c355a34	0.011068869
87	0x3c55a3f9	0.013039582
88	0x00000004	6e-45
89	0x3ca6db04	0.020368107
90	0x00000004	6e-45
91	0x1bb12f8c	2.931292e-22
92	0x3508cc80	5.0961535e-07
93	0x00000004	6e-45
94	0x3b198033	0.002342236
95	0x2f41a8c5	1.7613207e-10
96	0x3c6b29ac	0.014353197
97	0x128956bc	8.667297e-28
98	0x3cee76a1	0.029109301
99	0x3c0c5134	0.008564282
