rae_teacher_forcing_weights.pt (torch_old, 104788 bytes, 9 tensors)

encoder.gru.weight_ih_l0 f4 [192, 1]
000000 61 da 42 3d 62 5e 6e bd 71 ac fb 3c 25 be 1d be
       0.047571544 -0.05819548 0.030721875 -0.15404566
000010 f2 ce e6 bd 85 78 39 bd dd a8 f4 3d 70 1c ec bd
       -0.112699404 -0.045280952 0.119462706 -0.115288615
000020 48 71 99 3d 96 5b 8c 3d fc 66 a3 bd 96 b2 c4 3c
       0.0749231 0.06853406 -0.07978627 0.024010938
000030 50 6f 4d 3d 7d 35 9f 3d c0 8d 8a bd 83 81 58 bd
       0.050154984 0.07773874 -0.06765318 -0.052857887
000040 8f 3a cf 3d 2d be 34 be 0e 8a 8b 3d a7 a2 a8 3d
       0.10118591 -0.17650671 0.06813441 0.082341485
000050 d9 44 36 3d c7 9b 63 3e bb 22 02 3e 41 7d 32 be
       0.044499252 0.22227393 0.12708561 -0.17430593
000060 7d d8 1f 3d 04 54 9a bc 20 8b db bb e8 6c e5 bb
       0.03902482 -0.01883889 -0.0066999346 -0.007001508
000070 35 21 b6 3d 92 05 dd 3d 6c fc 9a 3c 68 0f 4d 3d
       0.088930525 0.10792078 0.018919192 0.05006352
000080 7e b3 a6 bc e6 0f 6f bc a6 3b e4 bd 54 e6 cf 3d
       -0.02034926 -0.014591193 -0.111441895 0.101513535
000090 20 8b cd bd 1a 71 8c 3d ca 79 6a 3c c1 f6 09 bd
       -0.100363016 0.0685751 0.014311263 -0.03368259
0000a0 3b ac e3 bc 6f 17 7c bd 95 3b a3 bd 71 91 7e 3d
       -0.027792087 -0.061545786 -0.07970349 0.062150422
0000b0 37 cb c2 3d e2 25 e4 3d 25 05 3f 3e 9f 4f 28 bc
       0.095114164 0.11140038 0.18654306 -0.010272889
0000c0 9c 1e 83 3c d9 73 a1 bd 96 50 16 3e eb 90 09 be
       0.016005807 -0.07883424 0.14679179 -0.13434188
0000d0 2e 8a be 3d 70 5a b2 3d 96 c1 76 3d 3f 9b 97 bc
       0.093036994 0.08708656 0.06024321 -0.018506644
0000e0 56 fc eb 3c 08 ea c3 bc 77 4b e8 bd 8f 9c e4 bc
       0.028806847 -0.023915306 -0.11342519 -0.027906684
0000f0 76 31 e5 bc 30 93 87 3e 22 a7 0d 3e e6 4e 4a bd
       -0.027977686 0.26479483 0.13833287 -0.04939165
000100 70 ee 10 bd d0 1a a1 bc 8f 69 1b 3d 43 66 e4 bd
       -0.03538364 -0.019666106 0.037942465 -0.111523174
000110 c8 eb 1a 3e b2 60 ae 3b e0 9a 40 3d 43 d5 76 3d
       0.15129006 0.0053215856 0.0470227 0.060261976
000120 b3 6b 04 bd 5f d7 42 be d4 b0 9e 3d e4 a6 d8 3b
       -0.032329272 -0.1902747 0.07748571 0.006611692
000130 f3 17 c1 bb c4 bb e4 bd bb 9e 8d 3d 2a 19 0a be
       -0.0058927475 -0.11168626 0.06915041 -0.13486162
000140 d6 37 8d bb e0 cb 44 bd e6 3a e8 3b ed 29 7c bb
       -0.0043096347 -0.048045993 0.0070870994 -0.0038477138
000150 78 38 07 3c 3d 99 f0 3b 81 d3 79 bd dd 6d 10 be
       0.008253209 0.007342486 -0.06099272 -0.1410441
000160 c5 14 66 3b 22 c6 eb bb 58 91 46 bc 64 b1 c9 bd
       0.0035107594 -0.00719525 -0.012119614 -0.09848288
000170 af 35 fb bd de 91 c0 bd 97 b1 b3 bd 67 f9 84 bd
       -0.12266099 -0.09402822 -0.08774107 -0.06492882
000180 6b ee 71 bc a5 3b 02 be 71 9b 88 bd a1 a5 ea 3c
       -0.014766316 -0.12718065 -0.06670273 0.028643431
000190 f6 0e 68 bc 8f 2f 54 bd 61 8d 96 bd 04 68 60 bc
       -0.014163723 -0.051803168 -0.07351185 -0.013696674
0001a0 07 a3 48 bd b1 ba c8 bd 62 29 b1 ba e6 c5 9d bd
       -0.0489836 -0.098012336 -0.0013516361 -0.07703762
0001b0 ee c6 ee bd 4a a3 f2 bd 68 36 80 3c f8 7b 55 bd
       -0.116590366 -0.11847551 0.015650943 -0.05212018
0001c0 10 b0 a9 bd 49 6a a5 bb 37 7e c5 bd ac b7 c7 bd
       -0.082855344 -0.0050480706 -0.09643214 -0.097518295
0001d0 6b a5 5f bd b3 be 36 be 08 3d a9 3b 0f 31 23 3d
       -0.054601114 -0.17846183 0.005164746 0.039841708
0001e0 f4 fc df 3d b7 8c 8f 3d 76 60 22 3c 4e 8f 06 bd
       0.10936919 0.07009261 0.009910693 -0.03285151
0001f0 b3 69 5f bd 03 27 e8 3c f9 0d 14 bd 2c 05 9f 3d
       -0.054544162 0.028338915 -0.036146138 0.07764658
000200 a4 7e b9 bd 49 2e 63 bd ce 84 60 3e 3e 60 20 be
       -0.09057358 -0.055464063 0.21925661 -0.15661713
000210 90 4f 03 3b df 69 7e 3e b4 85 7c 3c 09 a3 e2 3d
       0.0020036437 0.24845074 0.015412737 0.11066253
000220 68 30 14 3e b7 d1 34 3e 9d ea b7 3c 4e 33 e8 bd
       0.1447159 0.17658125 0.02245074 -0.113379106
000230 c9 5e d2 3d 1a cc 86 bd 0f 24 20 be 0b 63 3b 3e
       0.10271985 -0.06581898 -0.15638755 0.182995
000240 6d e7 10 be 88 5f 8d be 89 59 a5 3d b9 96 c7 3d
       -0.14150782 -0.27611947 0.08073718 0.09745545
000250 1f 5a 83 bd fb 28 27 be d5 41 64 3d c4 21 32 be
       -0.064136736 -0.16324227 0.055726845 -0.17395693
000260 a7 8b 4c 3e f2 62 ce bc 5a e7 72 be a6 f3 cf bd
       0.19975148 -0.025193665 -0.23721066 -0.10153894
000270 f3 ed fa 3d 1c 21 06 be 2e 56 10 3e 5e 04 14 3e
       0.122524165 -0.13098568 0.14095375 0.14454791
000280 80 0a 2e be ab f7 24 3e d9 f5 0c 3d e6 47 44 3e
       -0.16996193 0.16110103 0.034414146 0.19168052
000290 57 34 15 3d 26 ce 7a 3e 51 0e f8 3d 7e 7d 0f 3e
       0.03642687 0.24492702 0.12112106 0.14012715
0002a0 09 53 cd 3d 6e e2 b4 bc 29 49 77 be 67 73 3f 3e
       0.10025603 -0.022080626 -0.24149002 0.18696366
0002b0 e3 af 35 3e e9 f4 4a be 60 b4 2f bd de 0a f9 3d
       0.17742877 -0.19819988 -0.04289663 0.12160276
0002c0 d4 cf 1d be ba 9d 99 3c b1 5f 93 3d e2 19 c5 3d
       -0.15411311 0.018751968 0.07195986 0.096240774
0002d0 29 e6 2a 3e 2f 3e 00 3e 59 bd cd 3b f0 7c 27 3d
       0.16689362 0.12523721 0.0062786755 0.040890634
0002e0 98 39 f2 bc ed d3 93 bd 9d 80 99 bd 7e d0 6e be
       -0.029568478 -0.07218156 -0.07495234 -0.23321721
0002f0 4f a8 3e be 8c 8f 25 be ab 80 b0 3d 97 7d 75 3d
       -0.18618892 -0.1616804 0.086182915 0.059934225

encoder.gru.weight_hh_l0 f4 [192, 64]
000000 e0 05 a2 bd 45 02 de bc 38 e2 80 3d 0d 72 94 bd
       -0.07911277 -0.027100692 0.06293148 -0.07248316
000010 15 43 9c bd 3d 90 0f bd e1 e5 6d 3d 0f 0c c7 bb
       -0.076299824 -0.035049666 0.058080558 -0.0060744355
000020 6e 2f 19 3d 78 64 d8 bd 0d 06 00 be e5 ac 89 bd
       0.037398748 -0.10566038 -0.12502308 -0.0672243
000030 27 f2 27 3d 24 e5 34 be 5c f0 4c bd 8c 63 a3 bd
       0.04100242 -0.17665535 -0.050033912 -0.079779714
000040 41 a3 a9 3d 5f 52 09 3e 21 b3 ab bd 9f 23 f0 bd
       0.08283091 0.13410328 -0.083837755 -0.11725544
000050 13 1c 03 bc cd 86 2c 3d 88 11 c4 3d 3e 36 47 bc
       -0.008002299 0.042120744 0.09573656 -0.012158928
000060 39 1b 4b bc 74 7e cb 3c 82 f0 48 3c fb 64 94 bd
       -0.012396627 0.024840571 0.012264373 -0.07245823
000070 a9 63 41 bd c0 19 c2 3d 51 c4 7e 3d 52 8f f9 bd
       -0.047214184 0.09477568 0.06219894 -0.12185539
000080 0c 99 75 3d d1 48 b0 3d 79 08 01 3e 66 9e 17 be
       0.05996041 0.086076386 0.12600888 -0.14806518
000090 3b c1 da 3b 6e 62 be bb 72 f4 e7 3c cc bc c8 bc
       0.006675867 -0.0058100736 0.028314803 -0.024504088
0000a0 3c df c4 3b 6f 4b e0 bd 4f c3 ae 3c 4b eb ef bd
       0.006008057 -0.10951888 0.021333365 -0.117148004
0000b0 7b 29 03 be 94 48 13 3e 8f 42 a8 3d 21 c5 e4 bd
       -0.12808792 0.14383155 0.0821582 -0.11170412
0000c0 a3 6d a9 3d 4f 08 03 be c1 61 4d 3c df 89 30 3d
       0.08272865 -0.12796138 0.012535513 0.043100234
0000d0 e2 be 06 bd c4 a2 11 be 87 12 80 3b 8e 40 ce 3d
       -0.032896884 -0.14222246 0.0039084586 0.100709066
0000e0 28 80 6a 3c 8c 70 b5 3d 59 ef a8 3d 95 28 b3 bd
       0.014312781 0.08859357 0.08248777 -0.08747975
0000f0 0b 70 1c bd 08 b1 bf bd 8e e3 d0 3d 52 18 87 3d
       -0.03819279 -0.09359938 0.101996526 0.065964356
000100 c7 fb a5 3d c4 53 2c 3d bd 73 db bd 02 69 0b 3d
       0.08104663 0.042072073 -0.10715435 0.03403569
000110 94 e4 dd 3d f8 b4 fe bc b7 c8 cf 3d 23 4a 6b 3c
       0.108346134 -0.031092152 0.10145705 0.014360937
000120 01 f1 dd 3d a7 8f 08 3e 5a 47 cd bd 55 f3 01 3e
       0.108369835 0.13336049 -0.10023375 0.1269048
000130 0f 09 78 bd 6d f0 0b be fd d1 78 3d 33 1f ca 3d
       -0.060555514 -0.13665934 0.060747135 0.09869232
000140 55 7d 05 bd 76 80 1a bd 11 1d 33 3d 21 0b a9 bd
       -0.03259023 -0.037720166 0.04372889 -0.08254076
000150 02 37 a7 bc 13 e0 1e 3d 06 31 d3 3d 90 fd 93 3d
       -0.020411972 0.038787913 0.10312085 0.072260976
000160 82 5a f6 bc 28 05 5e 3d 50 73 fe 3d c0 d5 a7 bc
       -0.030072454 0.054204136 0.12424338 -0.020487666
000170 dc 3a 8d 3d ac 6f a3 3d b3 73 9e 3a 9d 7e f4 bd
       0.06895992 0.07980284 0.0012088924 -0.11938212
000180 e9 32 81 bd 41 e2 2e 3d 6c 95 5a bd d8 6d b2 bd
       -0.063085385 0.04269624 -0.053365156 -0.08712357
000190 18 17 86 3d fb cb bd bd 58 39 03 3e fe e7 d3 bd
       0.065473735 -0.09267422 0.12814844 -0.103469834
0001a0 b2 99 98 bc 06 b2 14 be a3 24 0b 3d 9b 7e 80 3c
       -0.018627975 -0.14521036 0.033970486 0.01568537
0001b0 3d 7d 07 3e 03 dc 6d bd 19 e6 a9 3d 28 46 f5 bd
       0.13231368 -0.058071148 0.08295841 -0.11976272
0001c0 57 fc 02 be bb fd c5 3c 5c 9f 80 bc ab 82 af bd
       -0.12791573 0.02416884 -0.015700988 -0.08569845
0001d0 a3 ae 53 bc ff d7 1a be e4 27 2a be da 16 b7 bd
       -0.012920055 -0.15121458 -0.1661678 -0.089399055
0001e0 d1 4a b5 3d 60 f1 1d bd 80 84 85 bc f2 95 24 bd
       0.08852161 -0.03856027 -0.016298532 -0.04018206
0001f0 ee 2b cb bb 12 58 a6 3d f2 39 31 3d 1f 7e b5 bd
       -0.006200305 0.08122267 0.04326815 -0.08861946
000200 66 20 a4 3c 1b 61 c2 bd ef 87 d5 bd 21 3c 84 bd
       0.02003498 -0.09491178 -0.10426318 -0.06456781
000210 91 b8 86 3d 1b c9 9a bd 7b 2a 4a 3d cd 26 43 3d
       0.06578172 -0.07557889 0.04935692 0.047644425
000220 8a 7d ed 3d c2 a2 aa bd fc 1e 6f bc 5c ff 94 bc
       0.1159621 -0.08331825 -0.01459479 -0.018188171
000230 c4 41 9b 3c f5 90 86 bd 7f 50 9f bd c5 eb 3a bd
       0.018952258 -0.06570617 -0.07779025 -0.045635004
000240 f9 01 a8 3d b2 f2 c6 3c 5c 21 ca bd 07 2a f2 bd
       0.08203501 0.024285648 -0.09869644 -0.11824422
000250 f0 e5 92 3d 03 42 eb 3c b8 6a aa bd a2 99 c8 3d
       0.07172763 0.028718 -0.08321136 0.09794928
000260 ca b2 96 bd 62 26 d0 bd a2 51 99 39 99 93 dd bd
       -0.0735832 -0.10163571 0.00029243255 -0.10819168
000270 a8 5b 96 3d 48 b5 e3 3d d1 b0 41 bd 10 24 c6 3c
       0.07341701 0.11118561 -0.047287766 0.024187118
000280 8b 19 25 bd 74 18 ad 3c 5d 74 46 3d 5b fc 0e 3d
       -0.040307563 0.021129824 0.048450816 0.034908634
000290 50 0f a2 bc dc 4d 2f 3c 9b 6d 3b bd 65 2d 02 be
       -0.019782692 0.010699715 -0.045758825 -0.12712629
0002a0 80 fc 89 bd a4 7c 97 3d a9 11 91 bc 3f b2 53 3d
       -0.06737614 0.0739682 -0.017708616 0.05168366
0002b0 7d e7 e4 bd 5a 0f f5 3d 7d 42 af bd be 2b b7 bd
       -0.111769654 0.11965819 -0.085576035 -0.0894389
0002c0 73 45 1c bc 42 ed c5 3c d5 da 01 bd d4 83 f4 bd
       -0.009538042 0.024160985 -0.031702835 -0.11939207
0002d0 e0 cb 44 bd e3 44 0d be 08 74 0d bd 01 d5 3b bd
       -0.048045993 -0.1379581 -0.034534484 -0.045857433
0002e0 27 a8 1c 3d e1 34 c7 3d ab ef 9b bd 16 ac c9 bc
       0.0382463 0.09726883 -0.076140724 -0.02461819
0002f0 54 dd 81 bd 08 e8 f4 bc d7 38 ed 3d 97 e6 93 3d
       -0.06341043 -0.029895797 0.11583107 0.07221716
000300 c4 0f dd bd ae 56 33 bd 6a e7 92 bd 58 08 62 bd
       -0.10794023 -0.043783836 -0.07173045 -0.05518374
000310 d0 5b d4 3d 16 2f c6 bb e2 02 ca 3d 0f 91 4b 3d
       0.10369074 -0.0060480935 0.09863831 0.049698886
000320 69 82 b8 bd 65 ba d5 bd d5 10 e5 3c 8b 7c 3d bd
       -0.09009249 -0.104359426 0.027962128 -0.04626135
000330 a3 6c b3 3c ea dd f4 bc 17 1e af bc f2 0e a7 3d
       0.021902388 -0.029890973 -0.021376653 0.081571475
000340 f1 31 c9 3d 9a 02 b4 3c 91 28 a0 bd 41 a3 94 3d
       0.09823979 0.021973897 -0.078202374 0.07257701
000350 6d 71 13 bd 11 f5 f1 3d 2e 10 b7 3d a9 6d 13 3e
       -0.035996843 0.11814321 0.08938633 0.14397301
000360 52 75 08 be a0 52 ae bd d8 94 00 3e 39 f0 cd bd
       -0.13326004 -0.08511853 0.1255678 -0.100555845
000370 1d 80 06 bd 28 1f 6d bd 1d c6 90 3d 29 45 90 3d
       -0.032837022 -0.05789104 0.07069037 0.07044441
000380 91 15 70 3d 7e c9 fd bd 71 b1 58 3d a0 23 95 3c
       0.058614317 -0.12391947 0.052903596 0.018205464
000390 f7 af aa 3d 25 ed a3 bb 13 b2 bf 3d 15 e9 b9 bd
       0.08334344 -0.005002635 0.09360137 -0.0907766
0003a0 23 12 4e 3d 30 80 18 bd a6 c5 1a 3d 20 20 a9 bc
       0.050310265 -0.037231624 0.03778615 -0.020645201
0003b0 51 a4 f1 3d bb 1b c4 3d d3 14 19 3b 73 7b f0 b9
       0.11798919 0.09575602 0.002335836 -0.00045868344
0003c0 c2 30 b3 bb 4a 6c 14 be 74 14 61 bc 39 62 13 be
       -0.005468459 -0.14494434 -0.013737787 -0.14392938
0003d0 c0 20 0e 3d bc e8 94 bd 7f 66 4b bd 15 8b a0 bd
       0.0346992 -0.07270953 -0.049658295 -0.07839028
0003e0 28 6c b6 bd 45 8e 31 3b be 42 d8 3d 5b 4d 68 bd
       -0.08907348 0.0027092856 0.10559605 -0.056714397
0003f0 3b c7 cb bc e8 14 1d 3e 35 7f 08 3e d4 2f 29 bd
       -0.024875274 0.15340006 0.13329776 -0.041305378

encoder.gru.bias_ih_l0 f4 [192]
000000 13 f1 ea 3c 3f c1 c5 3d 3b 77 4e 3d d3 65 03 3e
       0.028679406 0.096559994 0.050406676 0.12831812
000010 3e ca 18 bd 86 72 4a bd b8 9e 96 bd 68 61 ef bd
       -0.03730225 -0.049425624 -0.07354492 -0.11688501
000020 47 a1 99 3d 00 51 ca bc 43 e0 3c ba d8 c7 94 bb
       0.07501464 -0.024696827 -0.00072050485 -0.004540425
000030 80 fa da 3c 66 12 0a be 21 99 77 3d 7f 7e a0 bd
       0.026730776 -0.13483581 0.06044877 -0.07836627
000040 b0 0c cb 3d a3 33 0d bd 34 db 8e 3d 03 5d 39 3d
       0.09914529 -0.034473073 0.069754034 0.04525472
000050 f0 b0 1a 3e d5 15 08 be 77 e4 12 3e 96 9b 62 bd
       0.15106559 -0.13289578 0.14344965 -0.05532416
000060 2d 2c e1 bc 39 15 26 bd fd b5 99 bd f4 f1 21 3e
       -0.027486885 -0.040547583 -0.07505415 0.15814954
000070 a2 70 80 bd 79 11 25 bd 8c 78 a3 bd eb 7c ec 3c
       -0.06271483 -0.040299866 -0.07981977 0.02886816
000080 70 3c 1f 3c 90 9a cf 3d ae 12 94 3d 26 15 83 3d
       0.009718999 0.10136902 0.07230125 0.06400518
000090 e6 59 70 bc 3e 94 a9 3c 18 52 1d 3b 1a 4a b9 3d
       -0.014669871 0.02070057 0.002400523 0.09047337
0000a0 4b 88 58 bd 45 dc 3d bc 13 ce ab bd d6 2b b3 3d
       -0.052864354 -0.011588161 -0.08388915 0.087485954
0000b0 07 8a 0f 3e 31 c9 e9 bd 41 e2 41 bd 51 97 71 bd
       0.14017497 -0.11415327 -0.047334913 -0.058982197
0000c0 cf 21 43 bd 7a 59 05 bd d7 a6 b1 3d 03 08 af bd
       -0.047639664 -0.032556035 0.086744 -0.0854645
0000d0 48 40 31 bd b9 79 ab 3d f0 e2 81 3d cd 0d eb 3d
       -0.043274194 0.08372826 0.06342113 0.11477242
0000e0 4d 6d 0b 3d 55 a7 1d 3d fb 28 e1 3d 21 c8 91 3d
       0.034039784 0.03848966 0.109941445 0.0711825
0000f0 46 18 f6 bc c3 fc 31 3d 66 d3 14 3e 46 63 c6 bd
       -0.030040871 0.043453943 0.14533767 -0.09686904
000100 df 7a 03 3d e1 ae cd bd 96 53 ff bd 9c f8 98 3d
       0.0320996 -0.10043121 -0.124671146 0.074692935
000110 61 9c ec bd 6d 27 b1 bc 96 40 9c bc 49 82 64 bd
       -0.115532644 -0.021625245 -0.019073766 -0.055788312
000120 84 e5 79 3d 0d fb 17 3d 74 33 13 be 00 76 63 3d
       0.0610099 0.037104655 -0.14375097 0.055532455
000130 d5 4f 1b 3e 19 88 ad 3d a8 e3 23 be cd 6a 49 bb
       0.15167172 0.08473224 -0.16004813 -0.0030733824
000140 e5 2b c7 bd 78 24 89 be 3f e2 d1 bd 56 79 b8 3d
       -0.09725169 -0.26785636 -0.10248231 0.09007518
000150 71 ea b9 bb 19 09 54 be 34 da 08 3b 9e 62 16 be
       -0.0056736995 -0.20706595 0.0020882012 -0.14686057
000160 c5 86 3b bc 7c 24 a8 bd 96 23 11 3d 74 fc 17 bd
       -0.011445706 -0.08210084 0.035434328 -0.037105992
000170 b6 a3 1e be bb 77 17 3d f1 2f 54 be 2b eb 89 bd
       -0.15492138 0.03697942 -0.20721413 -0.06734308
000180 6a 59 c2 3c 1a 1b ab 3d 27 21 22 be b1 ed c7 3d
       0.023724277 0.083547786 -0.15832959 0.09762133
000190 58 fb 62 bd 82 92 34 3d 3e b3 a4 3d bc a5 7d bc
       -0.05541548 0.044085033 0.08042 -0.015481409
0001a0 6d 33 e4 3c 3f 76 a7 3b 44 8a b5 bc c0 8b 9e bc
       0.027856553 0.0051105316 -0.022160657 -0.019353747
0001b0 56 5d 42 bd 2e 2b e0 bd d8 3c a5 3d 03 47 45 3d
       -0.047452293 -0.10945736 0.08068246 0.048163425
0001c0 9c 12 57 3d 26 d8 1d be 40 c9 63 bd 2e 71 0f 3e
       0.05250798 -0.15414485 -0.05561185 0.14008018
0001d0 d9 8f 5c bd b7 cf c0 bd 7b d9 a6 3d 73 18 77 3d
       -0.05384812 -0.094146185 0.0814695 0.06032605
0001e0 4b 8b db bd 0b 51 1c 3d a0 09 9e bd f2 ed 27 bc
       -0.107199274 0.038163226 -0.077166796 -0.010249602
0001f0 4c 64 38 be ac 29 2a 3d d2 80 85 bc 58 4a 4b 3d
       -0.1800701 0.041543648 -0.016296778 0.049631447
000200 17 49 ea bd 4f 70 d0 3d 64 b0 af bd 02 de 66 bd
       -0.11439722 0.10177671 -0.08578566 -0.056364067
000210 9c 4c 5d 3d 09 d0 fe bc fd 94 90 3d 55 54 ea 3d
       0.05402814 -0.031105058 0.07059667 0.11441866
000220 7b 17 18 bd a2 46 aa bc 1b cc 01 3d b2 cc d7 3d
       -0.037131768 -0.020785633 0.03168879 0.105370894
000230 3d a3 02 be 3d 23 c6 bd 16 c6 65 bd 38 90 27 bd
       -0.12757583 -0.0967469 -0.056097113 -0.040909022
000240 ab 77 e7 bd 7d 63 ad bd 42 0b cf 3d 4f 69 70 3d
       -0.11302122 -0.084662415 0.10109569 0.05869418
000250 85 69 b2 3d 0d a3 88 3d 28 a0 e8 bd c4 c1 d9 bd
       0.087115325 0.066717245 -0.113586724 -0.10632661
000260 f1 da e7 bd 4f 59 b8 bd 74 da c3 3b e1 54 97 bd
       -0.11321057 -0.09001409 0.0059769694 -0.07389236
000270 9e 03 58 3d 13 ae b5 3d c2 5f 86 3c 6b 67 82 bd
       0.052737825 0.08871093 0.016403083 -0.06367382
000280 e4 33 f4 bd 7e 90 52 3c 95 e0 1e 3d c3 ee 99 3d
       -0.1192396 0.012851832 0.038788397 0.07516243
000290 d6 05 c9 3d 84 2b 24 bd 86 5d 88 3d 7f 21 a8 3d
       0.09815566 -0.040080562 0.06658463 0.08209514
0002a0 a6 a7 1c 3d 68 7a f3 bd 79 f9 26 bd 66 8f 86 3d
       0.03824582 -0.118885815 -0.04076526 0.0657032
0002b0 25 70 d3 3d 0e 20 2b ba e8 ca 03 b9 29 3f a6 bd
       0.10324124 -0.0006527909 -0.00012568722 -0.081175156
0002c0 bc 88 ec bc c1 35 ce bd 9e 90 0e be 6b d4 fb bd
       -0.028873794 -0.100688465 -0.13922355 -0.12296375
0002d0 69 cf 00 be f4 17 88 3b cb ec 4e bd e2 7d 50 3d
       -0.1257912 0.004153246 -0.050518792 0.0509013
0002e0 0e 89 54 bd ae 34 22 3d 73 48 c6 3d 6e d0 bf bc
       -0.051888518 0.03960102 0.09681787 -0.023414817
0002f0 3e 8a 6a bd 2f 5d 7a 3d 38 8e 00 3e 61 a9 66 bd
       -0.057260744 0.061124023 0.12554252 -0.056313876

encoder.gru.bias_hh_l0 f4 [192]
000000 35 43 84 3c 73 21 b7 bd 8a 0e ad bd df d3 8f bd
       0.016145328 -0.08941927 -0.08450039 -0.07022833
000010 15 ef 8c bd ec 5b 1a 3e 7e 24 a8 bd 9a 06 d8 bc
       -0.06881539 0.15074128 -0.08210085 -0.026370335
000020 9a 8f 42 3d 99 58 d3 bd 9f c6 a7 3d 6a cb 82 3c
       0.04750023 -0.10319633 0.08192181 0.015966136
000030 b6 7a ce bc b5 59 85 3d d4 30 f1 3d f6 66 93 3d
       -0.025204998 0.06511251 0.11776891 0.071973726
000040 fc d7 8d 3d bf 03 1b 3d 6d 44 da 3c 79 45 1c bc
       0.069259614 0.03784537 0.026643956 -0.009538048
000050 ac 89 fe 3c f8 93 be bd e0 1b b6 3d 21 30 33 3d
       0.031071506 -0.093055665 0.088920355 0.04374707
000060 7e 7c 64 bd 15 c5 ce bd ff 7c 0d bc 5f c1 15 3d
       -0.055782788 -0.10096184 -0.008635758 0.036561366
000070 72 84 41 bd c0 f7 5a 3d 4b a2 8b bd 9e 23 23 3d
       -0.04724545 0.05345893 -0.06818064 0.03982889
000080 17 d9 11 3e c4 4c ab bd 0e fd 8f bd 78 8a 53 bd
       0.1424297 -0.08364251 -0.07030688 -0.051645726
000090 af 38 a9 3d 02 f3 30 bd d3 7a a9 bd f7 cf f7 bc
       0.08262765 -0.0432005 -0.0827538 -0.030250533
0000a0 ab f8 d7 3b d7 5c 1c 3e 6f c6 a6 ba 7a 54 7f bd
       0.006590923 0.1526979 -0.0012723933 -0.062336423
0000b0 b9 54 92 bc 6c b9 30 be 93 7c ca 3d d2 ec fe b9
       -0.017862665 -0.17258233 0.09887042 -0.000486231
0000c0 fb 4e 7d bd b4 16 8a 3d f2 e0 e3 3d 56 b0 8f bd
       -0.0618429 0.067426115 0.11126889 -0.07016055
0000d0 bf 91 36 3d 39 1a 6b bd 31 dc 55 3e 57 a4 c8 3d
       0.044572588 -0.057398055 0.20884778 0.0979697
0000e0 15 0f d8 3d b9 5e 56 3d fb 58 b3 bd a7 84 6d 3d
       0.10549752 0.05233643 -0.08757206 0.057987835
0000f0 5b 73 ed bd f8 0b b4 3c 67 b0 27 3e 8d 25 82 bc
       -0.11594268 0.021978363 0.16375886 -0.015887046
000100 44 6f 2a bd 38 96 6e 3d 8c ae 95 bd 4d b7 15 3d
       -0.041610017 0.05824873 -0.07308683 0.036551762
000110 42 a8 59 3d e0 a1 9f bc 67 c3 5d 3d d3 64 32 bd
       0.05313898 -0.019486368 0.05414143 -0.043553185
000120 eb 7b b5 3c 52 10 d3 bd a3 fb ed bd e1 63 69 3d
       0.022153815 -0.10305847 -0.116202615 0.056980018
000130 5b 0c 68 3d 7b ab c0 3d c4 c5 04 be c5 57 03 3d
       0.056652408 0.09407707 -0.12966067 0.032066125
000140 6f 66 f6 bc 7b cb 37 be 88 5c ff bd 93 12 9a bd
       -0.030078141 -0.17948715 -0.12468821 -0.07523074
000150 66 3c e7 bd 33 ae 31 3b df 87 af bb a5 57 0a be
       -0.11290817 0.0027111887 -0.0053567733 -0.13509996
000160 ad ca b6 3d 06 10 00 be a7 6d 19 bd 73 82 09 bd
       0.08925376 -0.12506112 -0.03745809 -0.03357167
000170 c4 ff 1d bd a7 60 b2 3c 94 8b da bd 43 35 1e 3c
       -0.038573995 0.021774603 -0.10671154 0.009656253
000180 e4 c0 93 3b 22 39 ce bd 40 70 27 be 3d 5f 62 bd
       0.0045090783 -0.10069491 -0.16351414 -0.055266608
000190 98 0a de 3d fa 55 0f be 37 97 48 bd 02 f6 b8 bb
       0.10841864 -0.13997641 -0.048972335 -0.005644561
0001a0 2c 99 07 be 8c e5 1b 3d cd c7 a4 3c 2b 23 3e be
       -0.13242024 0.03806071 0.020114804 -0.18568103
0001b0 33 9a bc 3c 1c d2 04 be ee b6 8f 3d 55 a3 59 bc
       0.023022747 -0.12970775 0.07017313 -0.01328357
0001c0 f2 c2 1a be eb 81 56 bd 7b 4d 91 bd 04 de e4 3d
       -0.15113428 -0.052369993 -0.07094856 0.111751586
0001d0 90 6d e3 3d 13 90 9f bc 75 3a 4c 3d 65 2f af bd
       0.11104882 -0.01947788 0.049860436 -0.08553962
0001e0 29 98 b9 3a 34 3d 0c bd b9 57 cd 3d 15 7c cd bd
       0.0014159727 -0.034238055 0.100264974 -0.100334324
0001f0 f1 27 76 be f3 4b 41 bd 06 1d 9a bd c3 5a d2 bc
       -0.24038674 -0.04719157 -0.07525067 -0.025678044
000200 bc fd cb 3d 53 d7 45 bd d8 ad 86 bd ed 58 0a 3e
       0.09960505 -0.048301052 -0.06576127 0.13510485
000210 6a 9e 9e 3d 3e 1a d7 bb 03 e7 8b 3d 1f d3 ed bd
       0.07745059 -0.0065644076 0.06831171 -0.11612534
000220 db fe f1 3d 28 a6 04 3e 2b 41 e4 bc cf 53 25 3d
       0.11816188 0.12954009 -0.027863106 0.04036313
000230 08 39 d6 bd 7a 44 24 3c 77 35 a6 bc 5e f8 10 ba
       -0.104600966 0.010026092 -0.020289166 -0.00055301737
000240 d6 bd b2 3d af f1 b4 3d 45 1a ff bc d3 b1 9e bd
       0.087276146 0.0883516 -0.031140456 -0.07748761
000250 60 4f 98 3d 50 2e 77 bc 1d e6 87 3c 2e c3 08 3e
       0.074370146 -0.015086725 0.016589219 0.13355705
000260 6b 56 af bd 81 b4 25 3d 34 37 12 3c 1e 8c 87 bc
       -0.08561405 0.040455345 0.008924294 -0.016546305
000270 91 4f 85 bd f4 14 b0 3d f3 01 95 3c 33 fc b0 bd
       -0.06509317 0.085977465 0.018189406 -0.08641853
000280 f9 80 6f bd ee 5e 06 bc 71 a5 a5 3d 8a f7 76 bd
       -0.058472607 -0.008201344 0.08088196 -0.060294665
000290 53 d7 48 3b cd 58 0c 3c 4a bd 09 3e e8 84 99 bc
       0.0030645921 0.008566094 0.13451114 -0.018740132
0002a0 0b 42 2d bd fa 46 4f bd 99 e1 ed 3d ff 32 b3 bd
       -0.04229931 -0.050604798 0.11615295 -0.08749961
0002b0 aa 4d 80 3c 5b 4c 35 bd b0 27 93 3d 48 1d b3 3d
       0.015662033 -0.04426227 0.07185304 0.08745819
0002c0 87 2a fd bd 40 d3 84 3d 8f 8e 86 bd c8 1c 0c 3d
       -0.12361627 0.06485605 -0.0657016 0.034207135
0002d0 f4 10 db 3d a3 d5 bf bd fb 8b 0c be 91 5d d7 3d
       0.10696593 -0.0936692 -0.13725273 0.10515893
0002e0 17 6e 11 be 57 13 63 3c 32 48 0f 3d a9 22 8a 3d
       -0.14202152 0.013859591 0.03498096 0.06744892
0002f0 cb 66 93 3d 4d c0 8c bd 70 ad 02 3e 9c 9f bf 3d
       0.071973406 -0.06872616 0.12761474 0.09356615

decoder.gru.weight_ih_l0 f4 [192, 1]
000000 8a b1 e6 3d 6c ff dc bc 56 bc 87 3e 50 1a d4 3d
       0.11264332 -0.026977263 0.26510876 0.10356581
000010 74 ab f8 bd 72 8a 6f 3e cf b7 2c 3e 3f 26 5f bd
       -0.12142077 0.23392656 0.16866992 -0.054479834
000020 36 0e ff bb 19 b5 9b 3d d2 75 10 be 88 82 66 3e
       -0.0077836765 0.07602901 -0.14107445 0.22510731
000030 2d ea 4f 3e b7 3e ae bd 8b ac 23 3e 5d 3a 42 3e
       0.20304175 -0.08508056 0.15983789 0.18967576
000040 de 69 e5 3b f2 60 a4 3d bf 7d a1 bd 97 11 38 bd
       0.0070011457 0.08026303 -0.07885312 -0.04493865
000050 54 e4 a6 3d 8f 04 4e 3e a4 28 b5 3e e2 70 cb bc
       0.08149019 0.20118926 0.3538257 -0.0248341
000060 d9 da 0b 3c ba 14 6c 3d 05 cb cf 3c 6c 62 57 3d
       0.008536064 0.057636954 0.025365362 0.052584097
000070 fc f7 c0 3d 56 8e 23 3e 8f 0f 29 be 77 ec d2 bd
       0.09422299 0.15972266 -0.16509841 -0.10299008
000080 47 c1 8d bd 54 aa ad 3c 3d a7 cd 3a 43 8a eb 3d
       -0.0692163 0.021199383 0.00156901 0.11500981
000090 b8 94 1c be 7f 42 6f 3b 71 f3 cd 3d 48 ab 02 3e
       -0.15291107 0.003650814 0.100561984 0.12760651
0000a0 33 2f 08 be 7a b6 9a 3c 2a 96 0b bd fb 87 e0 bd
       -0.13299255 0.01888584 -0.034078754 -0.10963436
0000b0 ed 01 84 bd ba 8e bb bd c7 d2 19 3e 76 fd 85 3c
       -0.0644568 -0.09158082 0.15021811 0.016356211
0000c0 9e c2 40 be f0 20 0f be e2 81 ac 3e 53 80 43 bc
       -0.1882424 -0.13977408 0.33692843 -0.01193245
0000d0 e8 24 09 bd 31 cb b7 3d 22 44 3a bd 92 04 0e 3e
       -0.033482462 0.089743026 -0.045475133 0.13868931
0000e0 ee df e4 3e 03 99 93 bd 11 09 8c 3c 63 35 95 3d
       0.44702095 -0.07206919 0.017094167 0.07285573
0000f0 54 f6 ab 3d b2 be 43 3e 78 fe ae 3b 2b 3b 11 be
       0.08396593 0.19115713 0.0053403936 -0.14182727
000100 c9 94 d7 3d cd df 97 3d b5 f4 a0 be 79 4f 25 3e
       0.105264254 0.074157335 -0.31436697 0.16143598
000110 a9 06 81 3c 1d 9a 32 be fa 0b 26 3e 05 3f 38 bd
       0.015750246 -0.17441602 0.16215506 -0.044981975
000120 dc d9 2d 3e ec 51 59 3d 7e d3 fa bd 1f ac 3b be
       0.16977638 0.053056642 -0.1224737 -0.18327378
000130 bd 8e 9c 3d 4a 60 10 3e 09 b5 23 3e ce 7a 38 3e
       0.07644413 0.14099231 0.15987028 0.18015596
000140 10 b2 3a 3b d1 98 6c bd 91 45 e1 bd c7 d6 d4 bd
       0.0028487481 -0.057762925 -0.10999597 -0.10392528
000150 23 6c f5 3d 84 e0 43 be 12 6e 85 be d4 28 23 3e
       0.11983516 -0.19128615 -0.2606054 0.15933543
000160 e3 26 50 3d 70 bd 48 3e 9e c0 86 3d 56 ab e4 3b
       0.050818335 0.19603515 0.065797076 0.0069784326
000170 c9 62 23 3e 92 79 85 bd 0a 77 1c 3e 4d 44 33 be
       0.15955652 -0.06517328 0.15279785 -0.17506523
000180 b9 2f f2 bc d1 cc 5c 3d 4f fd 4f be 32 c8 ce bc
       -0.029563772 0.053906266 -0.20311473 -0.025241945
000190 5e 77 59 be fa 61 86 3d fc 7c 08 3e 65 69 37 be
       -0.21236941 0.06561656 0.13328928 -0.17911299
0001a0 7e bc d3 bd d6 45 d7 bd 06 30 cc 3d ec a3 2b 3e
       -0.103386864 -0.10511367 0.09970097 0.1676175
0001b0 88 1f 90 3d a7 0b fa 3c 2e 21 80 3e 30 4e 83 3d
       0.07037264 0.030523134 0.25025314 0.064113975
0001c0 2e 7a ad bd bd 64 da 3d 18 a0 9c be 4a a4 41 3e
       -0.084705696 0.106637456 -0.30590892 0.18910328
0001d0 ad a5 98 3d ea fc f6 3d 58 46 2d 3d d9 04 73 3e
       0.07453475 0.12059958 0.042303413 0.23732318
0001e0 72 94 c0 be cc 8e ed 3d 22 ab e0 3d c7 4a 13 3e
       -0.37613255 0.11599502 0.10970141 0.14383994
0001f0 ad 0c cc 3c 2b 12 29 be 8e 6e 9b 3d b3 cb d1 bd
       0.024908388 -0.16510837 0.07589446 -0.10243931
000200 b4 34 5c 3d b7 04 38 be 50 93 2b 3e 28 a9 48 3d
       0.0537612 -0.17970549 0.16755414 0.048989445
000210 2c 40 d6 bc 0f 28 69 3e 9d cb 20 bd 0f 92 e7 3d
       -0.026153646 0.22769187 -0.03925668 0.11307155
000220 9a fa e9 bb 0d 19 33 be ef 04 57 3e f7 7f 6a be
       -0.0071404697 -0.17490025 0.20997976 -0.22900377
000230 6c 5e 28 3e 3c 7b 17 be a9 4a 16 3e 6e 34 c9 3d
       0.16442269 -0.14793104 0.14676918 0.09824453
000240 cf fa a9 3d 3c d6 c3 bd 51 d0 86 bd d7 60 12 bd
       0.08299791 -0.09562346 -0.06582702 -0.035736885
000250 81 66 08 be a9 b9 0b be cc 43 32 3e 18 5d 85 be
       -0.13320352 -0.13645042 0.17408675 -0.26047587
000260 29 92 80 3e 71 df 10 bb 71 1b 89 3c 0a ad ba 3c
       0.2511151 -0.0022105838 0.016736718 0.02278759
000270 aa eb 3f be 02 2d 7d bd 8d b9 38 3d 8c 6d e1 bd
       -0.18742242 -0.0618105 0.04509883 -0.110072225
000280 9a da 2d bd 17 ef 26 3d 7a d1 1c be 74 69 1b bd
       -0.042444803 0.040755358 -0.15314284 -0.037942365
000290 98 62 87 be 59 39 37 3e 79 5f 26 3d 02 38 b9 bd
       -0.2644241 0.1789297 0.040618394 -0.09043886
0002a0 1b 74 17 3e 67 ac 02 3e 46 fb 0d be cf 2c 05 be
       0.14790384 0.12761079 -0.13865384 -0.13005374
0002b0 ee 46 60 bd 33 a7 bd 3d b0 91 36 be 72 98 87 3d
       -0.054755144 0.09260406 -0.17829013 0.066208735
0002c0 61 ad bc 3d a8 f5 13 3e c5 17 55 3e a4 b8 3e 3e
       0.09212757 0.14449179 0.20809849 0.18625122
0002d0 c0 bf d2 3d e9 9a 38 be 1c 37 a0 3d 27 9b 64 bd
       0.1029048 -0.18027844 0.07823011 -0.055812027
0002e0 35 cf 97 3e 24 ba 45 be ff 5c bc 3d 01 c3 4b be
       0.29650274 -0.19309288 0.09197425 -0.19898607
0002f0 49 36 15 3d 99 e8 4c be 27 fa 3a be f4 7b 0e bd
       0.036428723 -0.20010604 -0.18259488 -0.03478618

decoder.gru.weight_hh_l0 f4 [192, 64]
000000 59 5c d6 3d fa e1 1f 3e 0e f7 f4 bd bb ef 25 bd
       0.10466833 0.15613547 -0.119611844 -0.040511828
000010 88 6b 27 bd 7b f6 cf 3d 70 74 f6 bb 21 a7 cb 3d
       -0.040874034 0.10154434 -0.0075212047 0.09943987
000020 86 b9 08 be eb cf 59 bd a2 af 09 be 9e 75 e7 3d
       -0.13352022 -0.0531768 -0.13445905 0.113017306
000030 be 86 9b 3c 11 d5 7a bd f3 d3 89 bc ce 15 f8 bd
       0.018985149 -0.061238352 -0.016824698 -0.12113534
000040 1a 17 9d 3c fa 02 8f bd f1 6e 32 bd 19 63 53 bd
       0.019176055 -0.069829896 -0.043562833 -0.05160818
000050 1a 90 27 bd 9a 34 36 bd 15 f5 ef bc 36 3e 44 3d
       -0.04090891 -0.04448376 -0.029291669 0.04791089
000060 b4 f0 dc bd b0 5f 71 ba c8 83 25 3e 9a 71 c4 bd
       -0.10788098 -0.0009207679 0.16163552 -0.0959198
000070 82 e8 c3 b9 3f b0 92 bd 28 e2 8e 3d 84 63 0b bd
       -0.0003736653 -0.071625225 0.0697673 -0.034030452
000080 d3 91 8d 3d dc 58 a8 bc d2 b8 b1 bd 72 f5 a3 3d
       0.069125794 -0.020550184 -0.0867783 0.08005799
000090 cd a0 0b 3d b5 11 ec bd 98 51 14 3e 67 b5 28 bd
       0.0340889 -0.11526815 0.1448425 -0.041188624
0000a0 ba 30 f4 bc 37 44 2d be 8a 00 23 3e 04 6d b0 bd
       -0.02980839 -0.16920553 0.15918174 -0.08614543
0000b0 73 b0 a6 bd fb 04 24 be bb ba 37 3e b6 8c e4 bd
       -0.08139124 -0.16017525 0.17942326 -0.11159651
0000c0 12 58 f4 bd db 54 8d bd 7f 72 d1 bd f0 be 27 3d
       -0.119308606 -0.069009505 -0.102269165 0.040953577
0000d0 54 73 e5 bc 48 f6 93 bc e8 3f 87 bd 36 46 0c bd
       -0.028009094 -0.018061772 -0.06603986 -0.034246646
0000e0 e2 4b 0d be d7 d0 9d 3c c4 91 1a 3e 5c 34 1f bd
       -0.13798478 0.019264622 0.15094668 -0.038868293
0000f0 3a ae 79 bb bc 76 07 be ef 06 3e 3d fc b7 e3 3b
       -0.0038098232 -0.13228887 0.04639333 0.006949423
000100 14 90 1f bc a5 b8 20 3d 79 f6 54 3d 6e da b9 bc
       -0.009738941 0.03923859 0.051992867 -0.022687163
000110 04 5b a2 3d 81 e8 17 bd 74 5a 1a 3e 30 08 0b bc
       0.07927516 -0.037086967 0.15073568 -0.008485839
000120 fa ec 47 3d 99 a8 9a bd 06 29 44 3d 35 52 14 3e
       0.048809983 -0.07551689 0.047890685 0.14484484
000130 e4 2e 31 3d cd a7 2f 3d 13 e2 f3 bd 7c 8e 30 bd
       0.04325761 0.042884637 -0.119083546 -0.043104634
000140 6b 98 1e 3d 61 75 99 bd a3 39 3d 3d e8 c3 a5 bd
       0.038719576 -0.074930914 0.046197545 -0.08094007
000150 08 6d cd bc a2 30 89 3d 36 dc 83 3d 37 de 04 3d
       -0.025076404 0.06698729 0.06438486 0.032438483
000160 d4 ad 0c bc 92 f6 e7 bd 87 9b 0c 3e 3f 31 aa 3c
       -0.008586366 -0.113263264 0.13731204 0.020775435
000170 09 d9 ce 3c 6b 96 90 bd 0f 41 30 3d 8a 78 96 bd
       0.025249975 -0.0705994 0.043030795 -0.0734721
000180 56 3d 03 3d 86 b9 75 bc 7c 7a 81 3c 2e 43 1f 3c
       0.032040916 -0.0149978455 0.015805475 0.009720607
000190 74 ff 93 bc 13 86 2a be 3f 34 05 3e d2 a2 12 3e
       -0.018066145 -0.16652708 0.13008212 0.14319924
0001a0 1b 74 97 bc 63 12 2a bd e5 b8 0f 3d ae 97 ea 3d
       -0.01848798 -0.04152144 0.03508844 0.11454712
0001b0 0b 28 2f 3d d9 e7 3a 3d ef fa 1d bd 10 01 a3 bd
       0.042762797 0.045631263 -0.038569387 -0.07959187
0001c0 55 3c c8 bd 88 ef ca bd d3 ca cd bd 76 bd 09 bd
       -0.097771324 -0.09908968 -0.10048451 -0.03362795
0001d0 a6 0c 02 3d 78 5d fc 3d fd 09 7a 3d 2d ed b0 3d
       0.031750344 0.12322515 0.06104468 0.08638988
0001e0 51 77 5e 3d 30 9e b8 3d 35 b7 76 3d 80 bc ac 3c
       0.054313008 0.09014547 0.060233314 0.021085978
0001f0 bf b4 07 be 21 a9 93 bd 0c e9 8d 3d d7 6f c0 bb
       -0.13252543 -0.07209993 0.06929216 -0.0058727073
000200 e5 1c e3 bd 5a ff 83 bd e3 16 9c 3e ef 6f 0c be
       -0.110894956 -0.06445189 0.3048621 -0.13714574
000210 d1 b4 08 3e eb 3a dd 3d 82 d1 88 3d eb 10 18 3e
       0.13350226 0.10802253 0.066805854 0.14850204
000220 b6 a2 87 3e a2 69 82 3d 63 3d 28 3d eb 9a fc 3c
       0.26491326 0.06367804 0.041074168 0.03083559
000230 9f 35 18 bd c0 0f 62 bd 55 e0 0e be 65 ba 94 3e
       -0.037160512 -0.0551908 -0.13952763 0.29048458
000240 40 66 85 bc ae 6f 88 be af 6e 31 3b a6 f3 4b 3e
       -0.016284108 -0.26647705 0.002707403 0.19917163
000250 e0 05 57 bc 5d df 97 be 92 d8 cf 3d b5 66 1f be
       -0.013123959 -0.296626 0.101487294 -0.15566523
000260 ef c0 44 3e dc bd 7b bd 19 43 b7 be 36 9f 39 be
       0.19214223 -0.06146036 -0.3579338 -0.1812714
000270 23 e9 4e 3d ac 38 bf bd 30 cd ec 3c ab 30 82 3d
       0.050515305 -0.09336981 0.028906435 0.06356939
000280 35 f9 6b be 26 25 f8 3d d9 2d ca 3d 39 fc a5 3e
       -0.23044284 0.121164605 0.09872026 0.32418993
000290 f6 ac 82 bc 0c b6 8b 3e 91 83 2d 3e 36 7b 62 3e
       -0.015951615 0.27287328 0.1694472 0.22117314
0002a0 d0 d5 d2 3d d8 83 cf bc ce d3 ba be fa e2 0a 3d
       0.10294688 -0.025331423 -0.3648972 0.033907868
0002b0 38 53 97 3e 47 4f 7b be d9 34 1d bd 05 f0 f2 3b
       0.29555678 -0.2454196 -0.038380478 0.0074138665
0002c0 5c 45 60 be 61 10 d7 3d 8a de 6d 3d 35 2b dc 3d
       -0.21901459 0.10501171 0.058073558 0.107504286
0002d0 aa 82 86 3e 27 b2 40 3e 18 fe 55 be 58 dd 9d 3d
       0.26271564 0.1881796 -0.2089771 0.077082336
0002e0 5d f4 e1 bd a7 b9 8e bd 89 5b 5b bd 8f 5f 38 be
       -0.11032937 -0.06969004 -0.05355409 -0.18005203
0002f0 98 72 e4 bc 2f 67 80 be 72 b7 52 bc ce 19 f9 3d
       -0.027886674 -0.25078723 -0.01286112 0.12163125
000300 a7 bd ef bc 29 02 c5 3d 10 6b 0d 3d a2 fe 01 3e
       -0.029265238 0.09619553 0.03452593 0.12694791
000310 49 97 62 bd 8a ea e0 3c 28 ab b9 3c 49 25 89 3d
       -0.055320058 0.027455587 0.022664621 0.06696565
000320 ef b4 60 3d a0 38 55 3c 7c 9c cc 3c e3 d1 a8 3d
       0.05486005 0.013013989 0.024976961 0.08243158
000330 f5 af 46 be 8b 1c 98 3b 8c 86 56 3d 3a 6c b4 bd
       -0.1940306 0.0046420745 0.052374408 -0.08809705
000340 66 b5 18 be 8b aa 4d bd 89 1c 25 3e 5d 9c 33 be
       -0.14912948 -0.05021147 0.16124167 -0.17540117
000350 5c 8c 67 bc eb 10 01 bd 31 48 62 bd c9 62 73 bc
       -0.014132585 -0.031510275 -0.05524463 -0.014855095
000360 11 34 02 be cd 5f f4 bd f0 57 23 3e e0 c2 75 bd
       -0.12715174 -0.11932335 0.15951514 -0.0600003
000370 93 92 01 bc 3a f4 76 bd f4 c6 01 3e af c3 54 bd
       -0.007908481 -0.060291506 0.12673551 -0.05194443
000380 a1 15 f3 3c 1b 50 19 3d 8e e4 c8 3d 78 f8 ef 3c
       0.0296734 0.03742991 0.09809218 0.029293284
000390 7c cd 20 ba 6c 0a 35 be ed 16 1b 3e 13 3e e1 3d
       -0.0006134135 -0.17679757 0.15145464 0.10998168
0003a0 ae d3 60 3e c7 30 29 3c 23 32 96 3a db 1e 7f 3c
       0.2195575 0.010326571 0.0011459034 0.015571321
0003b0 a9 20 b6 bd 28 b7 27 be 3f 1a c4 3d c0 32 1c be
       -0.08892948 -0.16378462 0.095753185 -0.15253735
0003c0 ca ba 19 be 15 97 bc bd ee df 04 bd 1e ac 4b bb
       -0.1501266 -0.09208504 -0.03244012 -0.0031077932
0003d0 51 d1 97 bd e6 16 14 bd 6b aa 31 bd d5 b9 31 3e
       -0.07412971 -0.03615465 -0.043375414 0.17356046
0003e0 66 ef c4 3d 14 ec 36 3d 48 7f 45 3d 8b 4b cf 3d
       0.09615974 0.044658735 0.048217088 0.101218306
0003f0 ab f0 a1 bd 4f e7 8a 3d cf 30 7f 3d 92 75 21 3d
       -0.07907232 0.067824 0.062302407 0.039418764

decoder.gru.bias_ih_l0 f4 [192]
000000 10 e5 1e bd 4b e4 da 3c 4f 57 0d 3e 88 ba 17 3e
       -0.03879267 0.026720187 0.13802837 0.1481725
000010 9d ca 9d 3d 9b 83 03 3e 29 82 05 3e 2e d1 17 3e
       0.07704661 0.12843172 0.13037933 0.1482589
000020 21 0b 2b bb 35 4b ed 3d bc 96 83 bd 91 f1 d4 bc
       -0.0026099163 0.1158661 -0.06425235 -0.025994094
000030 74 7b ae 3d 29 77 f6 3d c5 4c 52 3e 9f af 4a 3e
       0.085196406 0.12034447 0.20537098 0.19793557
000040 a8 26 60 3d ff fb 14 3e 88 df 13 bc d1 37 11 3e
       0.054724365 0.14549254 -0.009025462 0.14181449
000050 b4 5f 68 3e 38 9d 15 3e 27 c5 64 3a 90 6b 7a 3c
       0.22692758 0.14610755 0.0008726888 0.015284434
000060 ac dc e1 bc fa 44 0b 3e e4 c3 23 bd f7 48 35 bd
       -0.027571045 0.13600531 -0.039981738 -0.044259038
000070 53 b2 0a 3c ce e0 9d 3d d5 12 bc bc fb 9e 25 3e
       0.008465367 0.07708894 -0.022958199 0.16173927
000080 cf a6 4f 3b b2 48 ae 3d cd d3 a2 bc 11 2b 6a 3d
       0.003168512 0.08509959 -0.019876385 0.057169978
000090 c6 7b 11 3e ee 03 c4 3d e7 3e a3 bd b2 36 7d bd
       0.14207372 0.09571062 -0.07970982 -0.06181974
0000a0 c1 88 5b bd df 78 15 3e dc 2b 23 3e c6 87 89 3d
       -0.053597216 0.1459689 0.159347 0.0671535
0000b0 31 dc 35 3e b4 08 41 3e 56 8e 01 3e d7 f5 f0 3d
       0.17759778 0.18850976 0.12651953 0.1176564
0000c0 d5 1b b0 bc fb 4e 3d bc d0 79 34 3e b9 bf 14 3b
       -0.021497646 -0.011554475 0.17624593 0.0022697283
0000d0 d1 d9 36 3e d9 aa 63 3d d6 3e db 3d 38 12 e2 3c
       0.17856528 0.055582855 0.107053444 0.027596578
0000e0 d9 16 98 bb 0a ec 0b 3e 35 aa 76 3d c7 0e ae 3d
       -0.0046413955 0.1366426 0.060220916 0.08498912
0000f0 73 a5 4f 3e 91 6f 00 3e fd af cb 3c 2f f8 ca bc
       0.20277958 0.12542559 0.024864191 -0.024776546
000100 15 3c cf bd e6 3c 86 bd 10 26 83 3d 2a e9 b7 3d
       -0.101188816 -0.06554584 0.06403744 0.089800194
000110 6f 79 29 be a7 a7 f1 bd c7 82 b2 bd 71 6a 60 be
       -0.1655023 -0.11799555 -0.0871635 -0.21915604
000120 fc e6 35 bc 07 04 41 3d ad 4f a4 bd d2 4a c4 bd
       -0.011102434 0.04712298 -0.080230094 -0.09584583
000130 50 98 61 3d e9 8b 8a bb 1b f5 4c bd b8 0a 30 be
       0.055076897 -0.0042281044 -0.05003844 -0.17191589
000140 cb 9d 80 bc 83 c7 10 bc aa dd 4f bd 0f 59 06 bd
       -0.015700242 -0.00883663 -0.050748505 -0.032799777
000150 65 eb 59 be 29 68 ab bd f1 ad b8 bd 69 06 9f bc
       -0.21281202 -0.08369476 -0.09017552 -0.019412236
000160 65 e5 19 be 32 c7 ff bd ae 42 f7 bd 24 d2 ca bc
       -0.15028913 -0.12489165 -0.12073265 -0.024758406
000170 f3 bc f1 bd ba ee c6 bd cd ff c4 bc 29 07 f4 3c
       -0.11803617 -0.09713502 -0.024047757 0.02978857
000180 9e 61 de 3d e0 1f a3 bd df ec be 3d 59 a3 07 be
       0.10858463 -0.07965064 0.09322523 -0.13245906
000190 f9 36 0e be 50 b4 ae bd 7e eb 59 3d 66 a4 26 be
       -0.13888158 -0.08530486 0.0532031 -0.1627365
0001a0 96 9f 14 bd a4 c8 3f bd 97 38 94 3d 97 91 92 3d
       -0.036285006 -0.046822205 0.07237356 0.07156675
0001b0 5e 77 99 3d 6e 31 82 3c 00 51 b2 bd 70 bf 97 3d
       0.074934706 0.01589271 -0.08706856 0.07409561
0001c0 3a a7 65 3d 06 67 54 bc 9d af 08 be 40 76 db 3c
       0.056067683 -0.012964016 -0.13348241 0.026789784
0001d0 19 54 72 bd db 6f e9 bd 31 a1 8d bd e0 bd 27 bd
       -0.059162233 -0.11398288 -0.069155104 -0.040952563
0001e0 64 82 b7 bd 2b fe af bd 58 dd 3a be f8 c9 64 3d
       -0.08960417 -0.085934006 -0.18248498 0.055856675
0001f0 ee b7 2d be 02 e7 bf 3c bf 41 47 be 3e a3 18 bd
       -0.16964695 0.023425583 -0.19458674 -0.037265055
000200 24 2e 97 3d f9 88 71 3d 71 f8 c9 bb 80 f0 5b 3c
       0.073818475 0.058968518 -0.0061636497 0.013424039
000210 2a 72 ac 3a 98 38 94 3d aa d7 73 bd 9d ac b6 3d
       0.0013156582 0.07237357 -0.059531845 0.08919642
000220 e9 ba e7 bb e0 e9 d1 bc 28 a3 b1 bb ec f2 ab 3d
       -0.007071842 -0.025624216 -0.005421061 0.08395943
000230 44 13 a4 bd 17 80 ef 3b f0 2e 13 bd 7e a7 c6 3d
       -0.08011487 0.0073089707 -0.035933435 0.09699915
000240 14 01 c9 bd ab af 2c bc 7f 53 2b bd 7a d8 a8 3d
       -0.09814659 -0.010539929 -0.041827675 0.08244415
000250 87 43 c6 bd b0 42 b0 3d 15 05 cd bd 93 ee 07 3e
       -0.096808486 0.0860647 -0.10010735 0.13274603
000260 5a 28 8e 3c 3f 01 13 be 4e 83 d2 3b 97 4e bb 3c
       0.017353225 -0.14355944 0.006424344 0.022864623
000270 ff 60 d5 3c 64 0b 82 3d 52 c6 27 3c e3 76 99 bd
       0.026047228 0.06349829 0.010240154 -0.07493379
000280 30 c8 b7 3d c2 6c 01 be 90 2e f1 bd 2a 6b 02 3d
       0.089737296 -0.12639144 -0.11776459 0.03184048
000290 27 1f fd bd 1e a5 02 be 95 58 43 3d f8 9d db 3d
       -0.123594575 -0.127583 0.0476919 0.107234895
0002a0 6a 54 f2 3d 42 55 5e 3d 64 ff d4 bd 09 2c 9c bd
       0.11832507 0.054280527 -0.104002744 -0.076255865
0002b0 71 83 d5 bd e5 52 57 3c d1 b7 df bc 47 bc 0c be
       -0.10425461 0.013142322 -0.02730933 -0.13743697
0002c0 2b 8b 1c 3e d0 ef 99 3d f2 1b 19 3d 33 ca 88 bd
       0.15287463 0.07516444 0.037380166 -0.066791914
0002d0 26 5f d8 bd 3c 51 77 3c 72 94 9b 3d 0e 8f ea 3d
       -0.10565023 0.015095051 0.07596673 0.11453067
0002e0 56 aa c1 bc f0 0a f0 3d b2 50 29 bc 2b 32 c4 3d
       -0.023640793 0.11720836 -0.010334181 0.09579881
0002f0 cb c7 00 bd 50 2a 23 3c 98 8d cf 3d c3 ea a9 bd
       -0.031440537 0.009958819 0.10134429 -0.0829673

decoder.gru.bias_hh_l0 f4 [192]
000000 cd 7d 31 3e 20 c6 e7 3c cf b2 8e 3d 49 15 06 3d
       0.17333145 0.028292716 0.06967699 0.032735143
000010 ea f6 e5 3b 1e 13 95 bd c2 ae e0 3d 14 2c 76 3e
       0.00701796 -0.07279037 0.109708324 0.24040252
000020 3b 39 ad 3d 0b 14 af 3d 1b c9 6d 3d f4 f1 00 3e
       0.084581815 0.08548745 0.058053117 0.12592298
000030 41 a0 40 3e 05 c5 8e bd a6 3b 0c 3e 72 92 41 3e
       0.18811132 -0.06971172 0.13694629 0.1890352
000040 c1 22 4e 3d e2 04 00 3e f2 c6 00 bd 27 ae 3d bd
       0.050326113 0.12501863 -0.03143973 -0.046308663
000050 76 b6 c8 3d 20 c8 8b bc b7 6d f0 3c f3 fc 04 bd
       0.09800427 -0.0170632 0.029349191 -0.032467794
000060 d5 c3 e9 3d 50 a3 0e 3e 28 36 f0 3d 34 10 e3 3d
       0.11414305 0.13929486 0.117290795 0.11087075
000070 16 2d 1e 3e 5e be c6 3b 06 fd 1d 3e 0d 6a 08 3e
       0.15446886 0.006065174 0.15428552 0.13321705
000080 3f 02 2a 3e e4 6c f5 bc 91 0f 3b 3d 0a 3b 39 3e
       0.1660242 -0.02995915 0.045669142 0.18088928
000090 9c 96 0d bd 66 5e 27 3e ca 34 33 3c 9c 87 a0 3b
       -0.03456746 0.16344604 0.010937879 0.0048989784
0000a0 4e 70 be 3d 43 79 35 3e 75 98 34 3e fe 63 0a 3c
       0.09298764 0.17722039 0.17636283 0.008446692
0000b0 98 5c 6f 3d a2 62 a6 3d 20 41 31 bc 61 ce 36 3d
       0.058437914 0.081242815 -0.01081875 0.044630412
0000c0 45 90 a4 3d 10 fa de 3d fa 84 ac 3d a5 c5 49 bd
       0.0803533 0.108875394 0.08423801 -0.049260754
0000d0 f7 e4 97 3d 9d fb 19 3e 75 4d 9e bc 37 27 ce 3d
       0.074167185 0.15037389 -0.019324044 0.100660734
0000e0 a1 ba da 3c 9e d0 19 bd ca e3 28 3e f1 95 64 3e
       0.02670032 -0.03755247 0.16493145 0.22322823
0000f0 ab ee 88 3c ba 65 4b 3e 45 a7 7b 3c 76 ee 62 3a
       0.016715368 0.19863024 0.015359704 0.0008656749
000100 16 0d c4 bd 32 52 10 3d 91 a0 e3 bd 15 f4 94 3c
       -0.095728084 0.035234638 -0.1111461 0.018182794
000110 80 4e 3d bc b1 d3 06 3d 95 b5 fe bd 44 d1 cb bb
       -0.01155436 0.03291673 -0.12436978 -0.0062200148
000120 74 9a a4 bd a7 f6 f4 bd 80 4a 63 bc 5a 63 36 be
       -0.08037272 -0.11961108 -0.013872743 -0.17811337
000130 34 00 4b 3d 96 68 bf 3d d4 94 91 3d 8e c8 15 be
       0.04956074 0.0934612 0.07108465 -0.14627287
000140 d5 08 d8 bc 58 a6 aa 3d 8d f1 a6 3d 93 25 10 be
       -0.026371399 0.08332509 0.08151541 -0.14076833
000150 c5 fc 42 be c0 ca 57 bd 71 93 2b be a2 d4 eb bd
       -0.19041736 -0.05268359 -0.16755463 -0.11515166
000160 3d e8 46 bd 43 1d a8 bd 9c 4b c3 3d 3b 6a bd bc
       -0.048561323 -0.08208706 0.09535906 -0.023121944
000170 99 1c de bd 64 22 1b bd 6b 01 70 bd 49 a3 da bd
       -0.10845298 -0.037874594 -0.058595102 -0.106756754
000180 16 99 b7 3c 56 1b ca bd 0a 3c ec bd 27 b9 f7 bd
       0.022411864 -0.09868495 -0.11534889 -0.12095862
000190 9f 39 0f be 32 1e 4a bd 16 b7 ee bd 47 5e 54 3c
       -0.13986824 -0.049345203 -0.116560146 0.012961931
0001a0 f7 bc f3 3b 93 9a e0 bd 02 01 c5 bd 20 0d 74 bd
       0.007438298 -0.10966983 -0.09619333 -0.05958283
0001b0 38 7b 09 bd 09 12 36 be 97 fa 7e bd 14 e2 68 3d
       -0.033564776 -0.17780317 -0.0622507 0.05685623
0001c0 42 f6 3d be e4 98 8a 3d 90 fd 0d be 2c ae e6 3c
       -0.18550971 0.06767443 -0.13866258 0.028159223
0001d0 74 01 46 3d db 85 07 be a4 53 94 bc 90 65 94 3c
       0.04834123 -0.13234656 -0.01810629 0.018114835
0001e0 f4 e4 94 bd 7d 48 50 bd 67 f9 0d be 1f 10 d0 bd
       -0.07270232 -0.05085038 -0.1386467 -0.10159325
0001f0 b8 f5 82 bd 73 25 a3 bc e2 27 ac bd 16 40 bd bb
       -0.063945234 -0.019915318 -0.084060445 -0.005775462
000200 13 d5 21 3e 6d ce 06 3e 03 fb d9 bd 10 47 95 bd
       0.15803938 0.13164683 -0.1064358 -0.07288945
000210 c9 4b fd 3d 37 f6 13 bd a0 0a 07 bd a8 bc 17 3b
       0.123679705 -0.03612348 -0.032969117 0.002315322
000220 64 25 de 3c ec e1 d2 3a 4c 69 af bd c8 1a cf bd
       0.027117439 0.0016089058 -0.08565006 -0.1011253
000230 fc 3e 9e bb 5f fc f6 3d b4 e9 53 3c 84 23 41 3c
       -0.0048292857 0.12059855 0.012934137 0.011788253
000240 38 77 b3 bd dc 47 05 be 2b bf 0c bd 28 dc 05 be
       -0.087629735 -0.13015693 -0.034362 -0.13072264
000250 5e cc 34 bd 75 6f df 3c 73 36 c2 bc d6 b8 9b bc
       -0.044140212 0.027274827 -0.023707604 -0.019009035
000260 f4 81 bc bd c5 a0 27 bd ac 6a 66 bd 78 67 f9 3c
       -0.09204474 -0.040924806 -0.056254074 0.030444846
000270 d8 42 02 bd 8e f0 b4 bd ba d3 d4 bd f4 b5 78 bb
       -0.03180203 -0.08834945 -0.10391946 -0.003795025
000280 77 a4 17 3e e0 d2 bf bd 7d 0a 2e 3c 20 1c e8 bc
       0.14808832 -0.09366393 0.010622618 -0.028333724
000290 b9 ba af 3c d4 cc 7e 3d ff 0d a9 3d e2 01 86 bc
       0.021451341 0.062207058 0.08254623 -0.01635832
0002a0 5a 3e 43 bd fd ee 68 bc ad c8 d0 bd 55 61 ac 3d
       -0.047666885 -0.0142171355 -0.10194526 0.08417002
0002b0 43 ed b6 bd 63 de e4 bd a4 18 d0 3d 70 2d 9c 3c
       -0.08931973 -0.111752294 0.1016095 0.019064635
0002c0 f9 4b 81 bd 1f 9e 7b 3c a1 d2 f3 bd 9f f4 ea bd
       -0.06313319 0.015357523 -0.11905409 -0.11472439
0002d0 3b d3 e3 3b b0 ef 18 3d d8 37 32 bd 7b 56 76 bb
       0.006952671 0.03733796 -0.043510288 -0.0037588167
0002e0 0f 50 9f 3d 2f 99 bd 3c 75 bd 1d 3d f6 7f 01 be
       0.07778942 0.023144333 0.03851076 -0.1264647
0002f0 52 fc 73 bd f4 ee 88 3c 3f 93 1b 3d 88 e8 2d 3d
       -0.059566803 0.016715504 0.03798222 0.042458087

decoder.fc.weight f4 [1, 64]
000000 6d 3b 72 3d 11 de a5 3d 85 9b ce 3d ac 93 b2 3d
       0.059138704 0.080989964 0.10088257 0.087195724
000010 f4 0f 35 3d ec 28 5d 3b 24 35 22 3e 47 b9 1f 3e
       0.044204667 0.0033746315 0.15840584 0.15598021
000020 12 9a 38 be 5a 45 bf 3d c5 c6 7d bd 83 d5 87 bd
       -0.18027523 0.093394 -0.06195714 -0.06632521
000030 9f 9a 0a be 46 27 e3 3d 07 01 2a be b7 19 31 be
       -0.13535546 0.11091475 -0.16601954 -0.17294966
000040 6e 3f 6e bd 66 e2 62 3d 66 3f 6a 3d 86 ce 2d be
       -0.05816596 0.05539169 0.057189368 -0.16973314
000050 85 3e c7 3d b0 51 32 be ca 56 4a 3d 13 5d 3c 3d
       0.097287215 -0.17413974 0.049399175 0.0459872
000060 70 84 82 bd b4 96 86 bd 57 a8 88 3d bc 63 18 3e
       -0.06372917 -0.06571713 0.06672733 0.14881796
000070 a9 08 17 3e 61 1a b8 bd 3e 69 01 3e fe c6 e3 bd
       0.14749397 -0.089894064 0.12637803 -0.11121939
000080 44 10 1b 3e 21 d9 09 be 37 9c b5 3d f6 df 21 be
       0.15142924 -0.13461734 0.08867686 -0.1580809
000090 83 90 fe 3c 99 6a c1 bd 6b 1d cd bd fe 8b 1f be
       0.031074768 -0.0944416 -0.10015377 -0.15580747
0000a0 e9 59 9b 3d 39 3b 25 3e bb 69 1f 3e ff 3e 09 3e
       0.075855084 0.16135873 0.15567677 0.13402937
0000b0 a7 ac 7e bd d6 be 0b be 38 dc 2a 3e 91 d5 0e be
       -0.062176373 -0.13647017 0.1668557 -0.13948657
0000c0 2b 10 95 bd 85 2e 08 be 11 23 e4 3d 75 97 19 be
       -0.072784744 -0.13298996 0.11139501 -0.14999183
0000d0 e8 bd ed bd 32 af bb 3d fc 8f e4 3d ea 24 e0 3d
       -0.11608487 0.09164275 0.11160275 0.10944541
0000e0 ea bd 5e 3d f6 53 43 3d e0 46 b5 3d 94 a1 26 3e
       0.054380335 0.047687493 0.08851409 0.16272575
0000f0 32 9a fc bd 58 6b 15 bd f2 95 09 3e 0e 7a d1 bd
       -0.12334098 -0.036479324 0.13436106 -0.10228358
