rae_teacher_forcing_weights.pt (torch_old, 104884 bytes, 9 tensors)

encoder.gru.weight_ih_l0 f4 [192, 1]
0	0xbd2209e1	-0.039560203
1	0x3e5a3b63	0.21311717
2	0x3decf726	0.11570577
3	0x3d99dec8	0.07513195
4	0x3e358e64	0.17730099
5	0x3d5c964c	0.05385427
6	0xbb9eff11	-0.0048521836
7	0xbd908ef0	-0.07058513
8	0x3e02df5b	0.12780516
9	0xbd31aeac	-0.04337947
10	0xbd700347	-0.058596876
11	0x3d0d7f15	0.034545023
12	0x3ddfddb3	0.10930958
13	0xbe289451	-0.16462828
14	0x3d0a56d8	0.033774227
15	0x3e17f937	0.14841162
16	0x3dfcc441	0.1234212
17	0x3dd2f0f1	0.10299862
18	0xbe1a8406	-0.15089425
19	0xbdb85ca2	-0.09002043
20	0xbd4467c8	-0.047950536
21	0xbd911ff4	-0.07086173
22	0xbbe42115	-0.0069619515
23	0x3dbe94c9	0.09305722
24	0x3d2b0199	0.04174957
25	0xbcb127ee	-0.021625485
26	0x3df80067	0.12109452
27	0x3dd95c37	0.10613292
28	0x3e1fee9d	0.15618367
29	0x3db5e9ff	0.08882522
30	0x3d273cbb	0.0408294
31	0xbc6c8c2c	-0.014437716
32	0x3cef864e	0.029238846
33	0x3de70f38	0.112821996
34	0x3cb5186f	0.022106377
35	0x3c84fbe3	0.01623339
36	0x3d81a612	0.063305035
37	0x3cbd2458	0.02308862
38	0x3d8893c5	0.0666881
39	0x3d297d7b	0.041379433
40	0xbd13a7bd	-0.03604864
41	0x3c87011f	0.016480027
42	0xbd603f46	-0.054747842
43	0xbd307445	-0.043079633
44	0x3e59dc35	0.21275409
45	0x3c98fb52	0.018674526
46	0xbd8c9b9d	-0.068656184
47	0x3d70e446	0.05881145
48	0x3e0675d3	0.13130884
49	0x3e5934df	0.21211575
50	0x3d416edc	0.047224864
51	0x3d575425	0.05257048
52	0x3d55649d	0.052097905
53	0x3e3c0f83	0.18365292
54	0x3c786836	0.015161565
55	0x3d165a2b	0.036707085
56	0xbb3e1823	-0.0029006086
57	0x3dbc4052	0.091919556
58	0xbc89b5a7	-0.016810251
59	0x3d58fb3c	0.05297397
60	0xbded9777	-0.11601155
61	0x3e606598	0.21913755
62	0x3dc17533	0.09446182
63	0x3da98fc0	0.08279371
64	0xbe1d6885	-0.15371902
65	0xbdb36f14	-0.08761421
66	0xbdd01faa	-0.101622894
67	0x3d7490b0	0.059708297
68	0xbe6e33b2	-0.23261908
69	0xbda72b00	-0.081624985
70	0x3d912c5d	0.0708854
71	0xbe394b25	-0.18095072
72	0xbd7753e6	-0.060382746
73	0xbce1b396	-0.027551454
74	0xbc393748	-0.011304684
75	0xbe84f563	-0.25968465
76	0xbd80ece1	-0.06295181
77	0xbd7fcb4e	-0.062449746
78	0xbdbb3745	-0.09141401
79	0xbd18c827	-0.037300255
80	0xbd23dc3c	-0.040004954
81	0xbe22c6b6	-0.15896115
82	0xbd0d5719	-0.03450689
83	0xbcac842e	-0.021059122
84	0xbda292a4	-0.07938126
85	0xb9ceb7e0	-0.0003942838
86	0xbd2562af	-0.040377315
87	0xbda67fa2	-0.08129813
88	0xbe6f9ad2	-0.23398903
89	0xbe33af7a	-0.17547408
90	0xbe2a4cca	-0.16630855
91	0xbd497323	-0.04918207
92	0xbe286926	-0.16446361
93	0xbca9127a	-0.020638693
94	0xbc27e2b5	-0.010246922
95	0xbe45dc1f	-0.19322251
96	0xbdf19bb0	-0.11797273
97	0xbd8fdc7c	-0.07024476
98	0xbe27efff	-0.16400145
99	0xbd84ddb2	-0.064875975
100	0xbd756fb2	-0.059920974
101	0xbdb020f5	-0.08600036
102	0xbe054d8d	-0.13017865
103	0xbcc150da	-0.023598123
104	0xbe143710	-0.1447413
105	0xbe6c15ab	-0.2305514
106	0x3bc2abd7	0.005940895
107	0xbd0fc27a	-0.035097577
108	0xbe059a72	-0.13047197
109	0xbe4ad7a2	-0.1980882
110	0xbddd0f99	-0.10793991
111	0x3cf0f4a5	0.02941353
112	0x3d50d048	0.050979882
113	0xbe2073cf	-0.15669177
114	0xbe7ca5ee	-0.24672672
115	0xbd10c14b	-0.03534059
116	0xbc4c9447	-0.012486524
117	0xbdade589	-0.08491046
118	0x3d7b3120	0.061326146
119	0xbdfe935c	-0.1243045
120	0xbc6113c5	-0.013737624
121	0x3dd0b5cb	0.10190924
122	0xbd3a1921	-0.04543412
123	0xbbab32fa	-0.0052245827
124	0xbd08a341	-0.033358816
125	0xbdf82c90	-0.121178746
126	0xbe2f6f75	-0.17132361
127	0x3b009f99	0.0019626378
128	0xbe073fa8	-0.13207877
129	0x3e5013fa	0.2032012
130	0x3de32c5a	0.11092444
131	0x3d7e2ea5	0.062056202
132	0xbdec859b	-0.11548921
133	0xbd9a5118	-0.07534999
134	0xbe0abe01	-0.13549043
135	0x3dd67f16	0.104734585
136	0x3dd79216	0.105259106
137	0xbd6d757c	-0.05797337
138	0xbe6c15d5	-0.23055203
139	0x3e0c5109	0.13702787
140	0xbdf48b57	-0.119406395
141	0x3e269e3e	0.16271302
142	0xbd534f3d	-0.05158924
143	0x3e03eba3	0.12882857
144	0xbdc62ea7	-0.09676867
145	0x3db962e5	0.09052066
146	0xbd6e095a	-0.058114387
147	0x3ccc3562	0.024927799
148	0x3e5e0b31	0.21683957
149	0xbe4cda8a	-0.20005241
150	0x3d82623e	0.063663945
151	0x3e43cf9a	0.19122162
152	0xbca07dde	-0.019591268
153	0x3e70baeb	0.23508804
154	0xbc8a71cc	-0.016899966
155	0x3e1c3c56	0.15257391
156	0xbe0de364	-0.13856274
157	0x3c372d42	0.011180224
158	0x3bf27e0e	0.007400281
159	0x3d8431fa	0.06454845
160	0xbe32652b	-0.17421405
161	0xbe2204dd	-0.15822168
162	0xbd5e5b6e	-0.054286413
163	0xbdbcb07a	-0.09213348
164	0x3d6690ee	0.05629056
165	0x3e110923	0.14163642
166	0x3db3a39d	0.08771441
167	0xbce2bb8d	-0.027677322
168	0x3e2e1d0e	0.17003271
169	0x3ddb1786	0.10697846
170	0xbe1f6d4b	-0.15569036
171	0x3e6cfc1b	0.23143046
172	0x3e637e76	0.2221621
173	0x3db08ae1	0.08620239
174	0x3de9f4b1	0.11423624
175	0xbdf0003a	-0.11718793
176	0x3daa3bee	0.08312212
177	0xbe29b6eb	-0.16573684
178	0xbe48e863	-0.19619898
179	0xbdb81a54	-0.08989397
180	0x3e0ac91d	0.13553281
181	0x3dca1fd3	0.09869351
182	0x3e2723b2	0.1632221
183	0xbe61826c	-0.22022408
184	0xbe4e97e0	-0.20175123
185	0xbdbdff4a	-0.09277208
186	0x3dea376f	0.11436354
187	0xbdf4378d	-0.11924658
188	0x3e1fc02d	0.15600653
189	0x3e23ef6a	0.16009298
190	0x3e6b6d0f	0.22990821
191	0xbe48ea8a	-0.1962072

encoder.gru.weight_hh_l0 f4 [192, 64]
0	0xbe2fba05	-0.17160805
1	0x3da98242	0.08276798
2	0xbc84aa94	-0.01619462
3	0xbd8f790e	-0.07005511
4	0xbe1104ec	-0.14162034
5	0xbc23bafd	-0.009993312
6	0xbcc23d58	-0.023710892
7	0xbde26d50	-0.11056006
8	0xbc0055c4	-0.007832948
9	0x3a8ca8a7	0.0010731415
10	0xbe0de38c	-0.13856333
11	0x3d383d59	0.04498038
12	0xbc7c3ed9	-0.015395843
13	0xbcdeadb3	-0.027182436
14	0xbdf8fc6f	-0.12157523
15	0xbce1992d	-0.02753886
16	0xbd8a7215	-0.06760041
17	0x3df47e6c	0.119381756
18	0xbc445af4	-0.011984576
19	0xbc5cab26	-0.013468539
20	0x3e083960	0.13303137
21	0x3d328032	0.043579288
22	0x3d2c1947	0.042016294
23	0x3e4d1ed9	0.20031299
24	0xbd6c0ff7	-0.057632413
25	0x3dfc4a96	0.12318914
26	0xbd07cb13	-0.03315265
27	0xbd0f4bac	-0.034984276
28	0x3b1e1e56	0.0024126968
29	0x3d0294a8	0.03188005
30	0x3c905517	0.017618699
31	0xba761954	-0.00093879295
32	0x3bf28af0	0.0074018165
33	0xbbfea706	-0.0077713756
34	0x3e001442	0.12507728
35	0xbd313b9a	-0.04326973
36	0x3dff84fc	0.12476537
37	0x3c779fe2	0.015113803
38	0x3db75d6b	0.08953365
39	0xbdc68ba5	-0.09694604
40	0xbcc4c198	-0.024018094
41	0x3c747a8b	0.014921795
42	0xbdb32845	-0.08747915
43	0x3e5f50db	0.21808188
44	0x3e198f90	0.14996171
45	0xbc6f17aa	-0.014593044
46	0x3e044b6b	0.12919395
47	0xbc9ffd27	-0.019529892
48	0x3c7b88ac	0.015352409
49	0xbe149503	-0.14509968
50	0xbc79da9b	-0.0152498735
51	0xbb23c9b0	-0.0024992041
52	0x3d55efe7	0.05223074
53	0x3e1ba40f	0.15199302
54	0xbd8c4700	-0.0684948
55	0xbde0f1c6	-0.109836146
56	0xbd1f6ccd	-0.03892212
57	0xbba17cad	-0.0049281926
58	0x3da68b8e	0.08132087
59	0x3c931ee8	0.017959073
60	0x3df7cfe3	0.12100198
61	0x3e064c15	0.1311496
62	0x3e1a35d0	0.1505959
63	0xbdfe2556	-0.12409465
64	0xbd210372	-0.039309926
65	0x3d3ea7e1	0.04654682
66	0xbd601551	-0.05470783
67	0x3dbb981a	0.091598704
68	0xbd650eab	-0.05592219
69	0xbd84cafb	-0.06484028
70	0xbc94b6a0	-0.018153489
71	0xbc88a7d6	-0.016681593
72	0x3e06941f	0.13142441
73	0x3d28cbc6	0.04120996
74	0xbe4094d8	-0.1880678
75	0xbda1bfee	-0.07897936
76	0x3d760aa1	0.06006873
77	0xbc73d7a0	-0.014882952
78	0xbcec8efe	-0.028876778
79	0xbda77854	-0.08177248
80	0xbdd9bbb2	-0.10631503
81	0x3ca7eee9	0.020499663
82	0xbd9bcb12	-0.07607092
83	0xbdb681b8	-0.08911461
84	0x3da51ec0	0.08062506
85	0xbe1cc048	-0.15307724
86	0xbd5854e0	-0.052815318
87	0x3dbf179d	0.09330676
88	0xbe11c89a	-0.1423668
89	0x3c5694ac	0.01309697
90	0xbce52ba6	-0.027974915
91	0x3e208f21	0.156796
92	0x3d963db8	0.07335991
93	0xbd854d8e	-0.06508933
94	0xbd57a5b6	-0.05264827
95	0x3ddbf9ca	0.10741003
96	0x3d50e3ec	0.050998613
97	0xbdfd3579	-0.12363715
98	0xbc500d15	-0.0126984315
99	0xbdc5e3de	-0.09662603
100	0xbd828ab9	-0.063741155
101	0xbd1dde3b	-0.038542014
102	0x3de869d2	0.113483086
103	0xbdb0d3ee	-0.086341724
104	0x3da3303c	0.07968184
105	0xbd86aa2e	-0.06575428
106	0x3d90fe43	0.070797466
107	0x3e2b0a05	0.16703041
108	0x3cde88e4	0.027164884
109	0x3d85efe3	0.065398954
110	0x3d7d2b68	0.061808974
111	0xbcf3222c	-0.02967938
112	0x3d2877f6	0.04113003
113	0xbe2a7799	-0.16647185
114	0xbe1fad94	-0.15593559
115	0x3d827412	0.06369795
116	0xbd30f088	-0.04319814
117	0xbd8b0899	-0.06788749
118	0x3e0c7762	0.13717416
119	0xbd5de53d	-0.054173697
120	0x3cc21dc8	0.023695841
121	0xbdb0b4bc	-0.08628222
122	0xbdb09fff	-0.08624267
123	0x3dafc01c	0.08581564
124	0x3d31b9e4	0.04339017
125	0xbd90fbfd	-0.07079313
126	0x3d1c4c9c	0.038158998
127	0xbd154d33	-0.036450576
128	0xbce1bc42	-0.027555589
129	0x3db152ac	0.086583465
130	0xbd978e51	-0.074001916
131	0xbd44378f	-0.047904547
132	0xbe01e26b	-0.12684028
133	0x3db300eb	0.087404095
134	0x3e25d959	0.16196193
135	0xbe21b7ea	-0.15792814
136	0xbc4b82dd	-0.012421337
137	0xbc2de2c1	-0.010613144
138	0xbc65c0f4	-0.014023054
139	0x3d4800a3	0.048828732
140	0xbe16c17a	-0.14722243
141	0xbe2ec10c	-0.17065829
142	0xbd07bdd0	-0.033140004
143	0x3d8619eb	0.06547912
144	0xbcb3eb50	-0.021962792
145	0x3d941eeb	0.0723246
146	0xbd1613e9	-0.03664008
147	0xbc9b9e5d	-0.018996412
148	0x3c3e97e3	0.011632892
149	0x3dae09c4	0.084979564
150	0x3c3afd45	0.011412923
151	0x3b00c191	0.0019646625
152	0xbdd0769e	-0.101788744
153	0x3e2bd3cc	0.16780013
154	0x3d3ea358	0.046542495
155	0xbd32de90	-0.043669283
156	0xbe607ea2	-0.21923307
157	0xbd617e6a	-0.0550522
158	0xbcbcb566	-0.023035716
159	0x3cc5f551	0.024164828
160	0xbdb8d8f2	-0.09025754
161	0x3d77056f	0.060307916
162	0xbc8ee07a	-0.017441023
163	0xbdaca4c6	-0.084298655
164	0x3d6782fe	0.05652141
165	0x3dcfcfce	0.101470575
166	0x3d901c88	0.07036692
167	0x3cfab2ff	0.03060293
168	0x3c1ce1c9	0.009575316
169	0xbc712899	-0.014719152
170	0xbd2efc2e	-0.042720966
171	0x3db286ec	0.087171406
172	0x3d8dc0f5	0.06921569
173	0x3e1b16ef	0.15145467
174	0x3dec3c92	0.1153499
175	0xbc4c4024	-0.012466464
176	0xbe5914d7	-0.21199356
177	0xbe3ad0af	-0.18243669
178	0x3c2a6645	0.0104003595
179	0xbe2c3965	-0.1681877
180	0xbd7532a7	-0.05986276
181	0x3daa6244	0.08319524
182	0x3d9a1f17	0.07525461
183	0x3d8ffd29	0.07030708
184	0xbc977b2d	-0.018491352
185	0x3d1f9af1	0.038966123
186	0x3d0cc900	0.034371376
187	0xbe2761bf	-0.16345881
188	0xbb2e658e	-0.0026610824
189	0x3da07bab	0.07836088
190	0x3e200450	0.15626645
191	0xbd8624c2	-0.0654998
192	0xbdb6b219	-0.08920688
193	0x3e0891b2	0.13336828
194	0x3e2621d4	0.16223842
195	0x3d208a36	0.03919431
196	0xbe05d255	-0.13068517
197	0x3d461661	0.048361186
198	0xbce8c560	-0.028414428
199	0xbd985b64	-0.074393064
200	0xbdb2a588	-0.08722979
201	0xbc123f74	-0.008926261
202	0xbe1890c0	-0.14898968
203	0xbd071bd7	-0.032985535
204	0x3c79deab	0.015250842
205	0x3d54adb6	0.051923476
206	0x3d78a70f	0.060706194
207	0xbd7319bd	-0.059350718
208	0x3d225757	0.039634075
209	0x3e226f06	0.15862665
210	0xbd7f150f	-0.062275942
211	0x3d8b8db7	0.06814139
212	0x3e36cb99	0.17851104
213	0xbd18a841	-0.037269834
214	0x3dcbadec	0.09945282
215	0x3e30f4db	0.17280905
216	0xbddd68da	-0.108110145
217	0xbd7d6d48	-0.061871797
218	0xbca788ff	-0.020451067
219	0x3c35cdd6	0.011096438
220	0xbdffb729	-0.12486107
221	0xbdcdf4e5	-0.100564755
222	0x3def8588	0.11695391
223	0xbdf3e43f	-0.11908769
224	0xbd2a666f	-0.041601595
225	0x3cc0a2e4	0.023515172
226	0xbd1f01bb	-0.03882001
227	0x3bd924cc	0.006626701
228	0x3cfef718	0.031123683
229	0x3e222d8f	0.15837692
230	0xbdc2d85d	-0.09513924
231	0x3d340c22	0.043956883
232	0x3d9309bc	0.07179591
233	0xbdb187f4	-0.08668509
234	0xbdff27a0	-0.1245873
235	0x3e6686fe	0.22512433
236	0x3d8f50b2	0.06997813
237	0xbd91eefe	-0.07125662
238	0x3e2aa05e	0.16662738
239	0xbe39c821	-0.1814275
240	0xbb80d75a	-0.003931922
241	0xbe19f282	-0.15033916
242	0x3ce2f8cd	0.027706528
243	0x3d560f89	0.05226091
244	0xbb96b69c	-0.0045994055
245	0x3e2df05d	0.16986223
246	0x3dacb425	0.08432797
247	0xbe42590f	-0.18979286
248	0xbe8b372e	-0.27190536
249	0x3c364878	0.011125676
250	0xbcbf572c	-0.023356996
251	0x3db3e096	0.08783071
252	0xbcd1b452	-0.025598679
253	0xbd8278cd	-0.06370697
254	0x3d311ca4	0.043240204
255	0xbe72745e	-0.23677203

encoder.gru.bias_ih_l0 f4 [192]
0	0x3e1c3b66	0.15257034
1	0xbc999367	-0.018747045
2	0x3df8fca9	0.12157566
3	0x3d04ae74	0.032392934
4	0x3d1d785a	0.038444854
5	0x3e10ec30	0.14152598
6	0xbbefb598	-0.007315349
7	0x3de0637e	0.10956477
8	0x3e1b4a50	0.15165067
9	0xbbe38e40	-0.0069444478
10	0x3bba83d0	0.005691983
11	0x3dbb3006	0.09140019
12	0x3e542f70	0.20721221
13	0x3d689d30	0.05679053
14	0x3ddc1cab	0.107476555
15	0x3d588bac	0.052867576
16	0xbcfa2920	-0.030537188
17	0x3e3b7520	0.18306398
18	0x3cfdf323	0.030999726
19	0x3e2b7845	0.16745098
20	0xba695c61	-0.000890201
21	0xbc8ecad5	-0.017430702
22	0x3d4701e6	0.048585795
23	0x3e132304	0.14368826
24	0x3e869b0e	0.26290172
25	0x3d9aa19e	0.07550357
26	0x3e02795c	0.12741607
27	0xbd8a0e78	-0.06741041
28	0xbd969653	-0.07352891
29	0xbce4119f	-0.027840434
30	0x3dfbfac6	0.123036906
31	0x3deeb02d	0.116546966
32	0x3dccd7b8	0.100020826
33	0x3b953c26	0.0045542894
34	0x3d01d346	0.031695627
35	0x3d1b6b0f	0.037943896
36	0xbcd82b55	-0.02638785
37	0x3dde8877	0.10865872
38	0x3debc1a1	0.11511541
39	0x3e67190c	0.22568148
40	0x3d970502	0.07374002
41	0x3e3e170a	0.18563476
42	0x3ca797aa	0.020458061
43	0xbc60f026	-0.013729131
44	0x3bf463a1	0.0074581658
45	0xbd0a09e4	-0.03370084
46	0x3e76a76a	0.24087301
47	0xbd18956d	-0.03725188
48	0x3bfc31ab	0.0076963506
49	0x3df1a122	0.11798312
50	0x3de5ecba	0.11226793
51	0x3d3b8940	0.04578519
52	0x3e124ee9	0.14287914
53	0x3e2abfd7	0.16674744
54	0x3e4cd7d2	0.20004204
55	0xbda745f6	-0.08167641
56	0xbd9d2706	-0.07673459
57	0xbd9823a8	-0.07428676
58	0x3d216f2f	0.039412674
59	0xbd906f59	-0.07052488
60	0x3cf5d6c2	0.030009631
61	0x3d865f1a	0.06561108
62	0x3dee0b45	0.11623243
63	0x3dc94ea4	0.09829453
64	0x3bf98568	0.00761478
65	0xbe406a61	-0.1879058
66	0x3d920900	0.07130623
67	0x3e05f7d6	0.13082823
68	0xbdaec5a5	-0.085337915
69	0xbdd905ae	-0.105967864
70	0x3c59e9d9	0.0133003825
71	0xbe281716	-0.16415057
72	0xbe0c4e1f	-0.13701676
73	0xbd714eef	-0.058913168
74	0xbe2fb086	-0.17157182
75	0xbde0ea3f	-0.10982179
76	0xbb728769	-0.003700698
77	0xbe1002b1	-0.14063527
78	0xbdd43174	-0.10360995
79	0x3e0766e6	0.13222846
80	0xbd227ba7	-0.039668705
81	0xbd33ffe8	-0.043945223
82	0x3d438c58	0.047741264
83	0x3c812369	0.015763955
84	0xbd9b33c0	-0.0757823
85	0xbe14e19a	-0.14539185
86	0xbe080acc	-0.13285369
87	0xbe30ce67	-0.17266236
88	0xbde85063	-0.113434575
89	0xbe398126	-0.18115672
90	0xbde233cf	-0.11045038
91	0xbcb03571	-0.021509858
92	0xbde33ce6	-0.110956
93	0xbd424f52	-0.047438927
94	0x3c395897	0.011312625
95	0xbd94f91c	-0.07274076
96	0x3b626ef8	0.0034551006
97	0xbc43d02a	-0.011951486
98	0x3e0037a7	0.1252123
99	0x3cba3346	0.022729527
100	0xbe069c1c	-0.13145489
101	0x3da4491a	0.080217555
102	0xbe5328c4	-0.2062102
103	0xbd81f2a2	-0.06345107
104	0xbc8e9f19	-0.017409848
105	0xbe2f57cf	-0.1712334
106	0xbb053c90	-0.0020330288
107	0xbe3471a4	-0.17621475
108	0xbdb81c09	-0.08989722
109	0x3d6295b1	0.055318538
110	0xbe251db0	-0.16124606
111	0xbdb5f4f0	-0.08884609
112	0x3cc01b35	0.023450473
113	0xbd9f55a1	-0.07780004
114	0xbe08ce55	-0.1335996
115	0xbe0be7e3	-0.13662677
116	0x3bdbe60c	0.0067107733
117	0xbd513d8e	-0.051084094
118	0xbe28db01	-0.16489793
119	0xbd8a59b4	-0.06755391
120	0xbe1d44cf	-0.1535828
121	0x3e0e21a1	0.13880016
122	0x3b1c1f86	0.00238225
123	0xbc004fdb	-0.007831539
124	0xbd6829ae	-0.056680374
125	0x3d172ae3	0.036906134
126	0xbda9eb0b	-0.08296784
127	0xbe4e1713	-0.2012599
128	0x3de51ef9	0.11187548
129	0x3d90bd8c	0.07067403
130	0x3cd8a0c1	0.026443841
131	0x3da3ba6f	0.07994544
132	0xbde4ef7f	-0.11178493
133	0x3c93e94b	0.018055579
134	0x3d8aa5c2	0.06769897
135	0xbd9fa039	-0.07794232
136	0x3d8afbc0	0.06786299
137	0xbd1822ec	-0.03714268
138	0x3dc61b7e	0.096732125
139	0xbd04c3f9	-0.032413457
140	0xbd379900	-0.044823647
141	0xbdaf867e	-0.08570574
142	0xbd4a5138	-0.049393862
143	0x3d6522ba	0.05594132
144	0xbcfa862c	-0.030581556
145	0x3ac6632b	0.0015135756
146	0x3bf2f84c	0.007414853
147	0x3e20de1f	0.15709732
148	0xbd54237a	-0.051791646
149	0x3d0472e3	0.032336127
150	0xbdd2263a	-0.102611974
151	0x3c52fa32	0.012877034
152	0xbdbdbcbd	-0.092645146
153	0x3de40550	0.11133826
154	0xbd694900	-0.056954384
155	0x3d48f6ff	0.04906368
156	0xbccd7593	-0.025080478
157	0xbd509f14	-0.05093296
158	0xbd730810	-0.05933386
159	0xbb5c64d8	-0.0033629443
160	0x3df5b252	0.119969025
161	0xbc628d16	-0.013827583
162	0x3d30845d	0.04309498
163	0xbe053fb6	-0.13012585
164	0x3dbd3553	0.092386864
165	0xbce03c27	-0.027372433
166	0x3d4b96b5	0.049704272
167	0xbcb5b95a	-0.02218311
168	0x3ccac2a7	0.02475102
169	0xbb90e0fe	-0.0044213524
170	0x3d0bbdcf	0.034116562
171	0xbdb72729	-0.08943016
172	0xbd8a03a4	-0.06738976
173	0xbd9686bf	-0.073499195
174	0x3d253e03	0.040342342
175	0xbd70852e	-0.05872076
176	0xbd6ec667	-0.05829468
177	0x3bb97d32	0.0056606764
178	0xbd3d0a75	-0.04615255
179	0xbd00cdab	-0.03144614
180	0xbe0d8701	-0.13821031
181	0xbd02031d	-0.03174125
182	0xbcbee1c3	-0.023301011
183	0x3c988c7c	0.018621676
184	0x3df43b6b	0.119253956
185	0x3d9381af	0.072024696
186	0xbda9e627	-0.08295851
187	0xbdbd0f87	-0.09231477
188	0x3dbc59a3	0.09196784
189	0xbd25eaba	-0.040507056
190	0x3e08f732	0.13375548
191	0x3d8d1836	0.068893835

encoder.gru.bias_hh_l0 f4 [192]
0	0x3dcecdff	0.100978844
1	0xbd685bac	-0.05672805
2	0x3c97da17	0.01853661
3	0x3de3457b	0.11097237
4	0x3d83e43e	0.06440018
5	0x3dc5c681	0.09657002
6	0x3de3202e	0.11090122
7	0x3d43a1cb	0.04776172
8	0x3cfa1c38	0.030531034
9	0x3ded3a4b	0.11583384
10	0x3e00ce8e	0.12578794
11	0x3d99d492	0.07511248
12	0x3d456d0a	0.04819969
13	0xbb27a72e	-0.0025581825
14	0x3d9de380	0.07709408
15	0xbcb00cdd	-0.021490509
16	0xbabbbeef	-0.001432387
17	0xbd5f7ae4	-0.054560557
18	0xbc687408	-0.01418782
19	0x3e3de5b5	0.18544658
20	0xbd5fa761	-0.054602984
21	0x3dda570b	0.106611334
22	0x3d849bf0	0.06475055
23	0x3e3d4ed4	0.18487102
24	0x3cf310b4	0.02967105
25	0xbc9117b1	-0.017711492
26	0xbc4002b3	-0.011719394
27	0xbc8912dd	-0.016732628
28	0xbd28cc8a	-0.04121069
29	0xbc06c0e4	-0.0082247
30	0x3dc7f0a6	0.09762697
31	0xbdaee436	-0.085396215
32	0x3e338c25	0.1753393
33	0x3d5c4547	0.053777006
34	0x3d82be18	0.06383914
35	0x3cc0d9c6	0.023541342
36	0x3df1d47e	0.11808108
37	0x3d33af9f	0.043868657
38	0xbce574c6	-0.028009783
39	0x3dd8a621	0.105785616
40	0x3de5cc33	0.112205885
41	0x3e697f15	0.22802384
42	0xbc8589b0	-0.016301006
43	0x3da5b3d1	0.08090938
44	0xbd31b9e5	-0.043390173
45	0x3dcd6625	0.10029248
46	0x3caa1508	0.020761982
47	0x3dec5251	0.11539138
48	0x3dfc12dc	0.12308285
49	0x3bd27ae9	0.0064233434
50	0x3d01d5bc	0.031697974
51	0x3e083bdf	0.13304089
52	0x3e0fdbb3	0.14048652
53	0x3d793c76	0.060848676
54	0x3e4978a4	0.19674927
55	0x3d604b2b	0.054759186
56	0x3deaf7e1	0.114730604
57	0x3cda743f	0.026666759
58	0x3d97b530	0.07407606
59	0xbdafb4fb	-0.08579441
60	0x3d234a30	0.039865673
61	0x3d90337e	0.07041071
62	0x3d82d67c	0.06388566
63	0xbd93498f	-0.071917646
64	0x3d6e60df	0.058197852
65	0xbda7210e	-0.081606016
66	0x3dc8f243	0.09811833
67	0xbd51e24a	-0.051241197
68	0xbe36654e	-0.17812082
69	0xbd63575a	-0.055503227
70	0xbe117044	-0.14202982
71	0x3ce453c0	0.027871966
72	0x3ccec0f1	0.025238486
73	0x3e167a1c	0.14695019
74	0xbe0d8024	-0.13818413
75	0xbdf80a91	-0.121113904
76	0xbde243aa	-0.11048062
77	0x3c942da3	0.018088168
78	0xbe520f3d	-0.20513625
79	0x3cd2686a	0.025684554
80	0x3dd6a05f	0.10479807
81	0x3d5eb49e	0.05437147
82	0x3d074a5a	0.03302989
83	0x3cc41773	0.023936963
84	0xba96c074	-0.0011501447
85	0xbd5c54dd	-0.05379187
86	0xbcddd786	-0.027080309
87	0xbe71c16f	-0.23608945
88	0xbe22ede1	-0.15911056
89	0xbc4d9098	-0.012546681
90	0x3d36df06	0.044646285
91	0x3d6b925b	0.057512622
92	0xbe49df62	-0.1971412
93	0xbcf215b8	-0.029551372
94	0xbd81a8e2	-0.0633104
95	0xbd8f154c	-0.06986484
96	0xbd5d4767	-0.054023173
97	0xbe37b0ad	-0.1793849
98	0x3d7e6930	0.062112033
99	0xbde7354c	-0.112894624
100	0x3d768dc3	0.06019379
101	0x3d71762f	0.0589506
102	0xbdc48134	-0.09594956
103	0xbdf35e50	-0.11883223
104	0xbd1fa11e	-0.038972013
105	0xbe45e4c0	-0.19325542
106	0x3de44919	0.11146755
107	0xbe0f739d	-0.14008947
108	0xbe58c866	-0.21170196
109	0xbe371ba4	-0.17881638
110	0xbd491069	-0.049087916
111	0xbe1b198e	-0.15146467
112	0x3d8d6945	0.06904844
113	0xbe28055c	-0.16408294
114	0xbde88995	-0.11354367
115	0xbdc28dfc	-0.094997376
116	0x3db27263	0.08713224
117	0x3d3d9f5c	0.046294555
118	0x3d15fdc4	0.036618963
119	0xbe77f85c	-0.24215835
120	0xbdfa07ed	-0.12208543
121	0x3d1d5353	0.038409542
122	0x3cd25813	0.025676763
123	0xbdb83cbc	-0.08995959
124	0xbd8ca167	-0.068667226
125	0x3b91d73e	0.0044507077
126	0x3d384323	0.0449859
127	0xbd4699ed	-0.04848664
128	0xbdb7de74	-0.089779764
129	0x3e0af0eb	0.13568465
130	0xbdbe54bd	-0.09293506
131	0xbd5af280	-0.053453922
132	0xbdfabbcf	-0.12242853
133	0xbd1c8f9f	-0.038222905
134	0x3d01bcec	0.03167431
135	0xbdcab11e	-0.09897064
136	0x3c532d38	0.012889199
137	0xbda4db9d	-0.080497004
138	0x3cae2fba	0.021262992
139	0x3dfee3e3	0.1244581
140	0xbd4ba790	-0.049720347
141	0xbe0537b5	-0.13009532
142	0xbd9cab98	-0.076499164
143	0xbd5111cd	-0.051042367
144	0x3dd2434f	0.10266744
145	0xbd29de31	-0.041471664
146	0xb8b1397c	-8.450725e-05
147	0x3d80826e	0.062748775
148	0xbdecc4d1	-0.11560977
149	0x3dce898a	0.10084827
150	0xbd8364d2	-0.06415714
151	0x3c4cd29f	0.012501388
152	0x3db04fff	0.08609008
153	0xbd8fcc76	-0.0702142
154	0x3d372eac	0.044722244
155	0xbddae803	-0.10688784
156	0xbddf793f	-0.10911798
157	0xbd43c9bb	-0.047799807
158	0xbdd105cc	-0.10206184
159	0xbda4cacf	-0.08046495
160	0xbc679367	-0.014134265
161	0x3d2516bc	0.040304884
162	0xbcae0532	-0.021242712
163	0x3dc22399	0.09479446
164	0x3de09c29	0.10967285
165	0xbb20203a	-0.002443327
166	0x3ddaa895	0.10676686
167	0x3dc41300	0.095739365
168	0x3d756b50	0.059916794
169	0x3c2133ca	0.009839008
170	0x3da5c320	0.08093858
171	0x3c569131	0.01309614
172	0xbc635337	-0.01387482
173	0x3ddfa647	0.10920387
174	0x3d850f76	0.064970896
175	0x3d86ffc8	0.06591755
176	0xbd915c87	-0.07097726
177	0x3c970302	0.018434051
178	0x3d9001ad	0.0703157
179	0xbc0403a0	-0.008057505
180	0x3b2d0748	0.0026402045
181	0x3dbad6ee	0.09123026
182	0xbd22c71a	-0.03974066
183	0x3de61faa	0.11236508
184	0xbda748f8	-0.081682146
185	0x3d4f41b8	0.050599784
186	0xbda188f1	-0.078874476
187	0xbd49249b	-0.049107175
188	0xbdaa11cc	-0.08304176
189	0x3d9f359f	0.07773899
190	0x3d583b58	0.05279097
191	0x3d62d577	0.055379357

decoder.gru.weight_ih_l0 f4 [192, 1]
0	0x3e314242	0.17310432
1	0x3d647ec9	0.055784974
2	0x3de24b14	0.11049476
3	0xbd9cc0a1	-0.076539285
4	0xbd6384b4	-0.055546477
5	0x3d80bb89	0.062857695
6	0xbc8da529	-0.017290669
7	0x3d5d985b	0.054100376
8	0x3e626b01	0.22111131
9	0x3c9bea06	0.01903249
10	0x3e91e7c3	0.28497133
11	0xbd50ed89	-0.05100778
12	0x3e13a2a0	0.14417505
13	0x3e5006e5	0.2031513
14	0x3ce2959a	0.027659226
15	0x3a2fe770	0.0006710207
16	0x3e121e9b	0.14269488
17	0x3dbb4c35	0.09145395
18	0x3dd2eb13	0.10298743
19	0x3e14eff3	0.14544658
20	0x3d87c550	0.06629431
21	0x3e4e400d	0.20141621
22	0x3e9c519e	0.3053102
23	0x3e6cb0ab	0.23114268
24	0x3e01a52a	0.12660661
25	0x3d4c4078	0.04986617
26	0xbd5636cc	-0.052298352
27	0x3d4af81f	0.049553033
28	0xbe6c2654	-0.23061496
29	0x3d1e9197	0.038713064
30	0x3cd7d08a	0.026344556
31	0x3da89bd0	0.08232844
32	0x3bf7915e	0.007555171
33	0x3dac8d36	0.08425371
34	0x3e5d024b	0.21582906
35	0x3c29189a	0.010320807
36	0x3ceb60ab	0.028732618
37	0x3e33152a	0.17488542
38	0x3e67ccfd	0.2263679
39	0xbd368b12	-0.04456622
40	0x3dc140be	0.09436177
41	0x3d11fae3	0.035639655
42	0x3e5cfcd9	0.21580829
43	0x3ce68dda	0.028143812
44	0x3cc9c3b9	0.02462946
45	0x3e18c39f	0.14918374
46	0x3e5e47b3	0.21707039
47	0x3d95df68	0.07318002
48	0xbd0408e5	-0.032235045
49	0x3e79d7d2	0.24398735
50	0xbda4a207	-0.08038717
51	0x3e428529	0.18996109
52	0xbd47f726	-0.048819683
53	0x3c82c21c	0.0159617
54	0x3d955409	0.07291419
55	0x3e0cc040	0.13745213
56	0xbe0dd1d1	-0.1384957
57	0x3e77e02a	0.24206606
58	0x3d30df98	0.043181986
59	0x3d84e72d	0.06489406
60	0x3dd19c62	0.10234906
61	0x3d045d93	0.0323158
62	0x3dedeb94	0.116171986
63	0x3e5eeb8f	0.21769546
64	0xbdecc20e	-0.115604505
65	0xbda08375	-0.078375734
66	0xbdea003c	-0.11425826
67	0xbdb59ee3	-0.08868196
68	0x3c9cf6d6	0.01916067
69	0xbe13f65c	-0.14449447
70	0xbdfa1954	-0.12211862
71	0xbe42a9d9	-0.19010104
72	0xbe6318c0	-0.2217741
73	0xbde9c3f8	-0.11414331
74	0xbe63ac4f	-0.222337
75	0x3e62eac7	0.22159873
76	0xbe21e27b	-0.15809052
77	0xbdb5d4e7	-0.088784985
78	0xbba414bb	-0.005007354
79	0xbe36165c	-0.17781967
80	0xbe138f21	-0.14410068
81	0x3c1ba09a	0.00949874
82	0xbe839a57	-0.2570369
83	0x3e058233	0.13037948
84	0xbdff69f7	-0.12471383
85	0xbe588d55	-0.21147664
86	0x3dad1a31	0.08452261
87	0xbe94988d	-0.29022637
88	0xbe96a99c	-0.29426277
89	0xbe8509ce	-0.25984043
90	0xbe3fd8b1	-0.18735005
91	0x3c8e05b2	0.0173367
92	0x3e1765f7	0.1478499
93	0xbdffc89d	-0.12489436
94	0xbbd72905	-0.006566169
95	0xbdbf4df5	-0.09341041
96	0x3b619349	0.0034420064
97	0x3de18cb2	0.110131636
98	0xbc7045a2	-0.014665039
99	0xbe06d4d3	-0.13167123
100	0xbd5f83e0	-0.054569125
101	0xbea4b97b	-0.3217276
102	0xbe635ccc	-0.22203368
103	0x3dc851c0	0.097812176
104	0xbe72580c	-0.236664
105	0x3d4e9ad0	0.05044061
106	0xbcaeea80	-0.021352053
107	0xbd5ce9e2	-0.053933986
108	0xbda1a152	-0.078920975
109	0xbe06d70c	-0.13167971
110	0xbe643394	-0.222853
111	0x3e2a1172	0.16608217
112	0xbdf8cd3c	-0.1214852
113	0xbd3e9629	-0.046529923
114	0x3d052cdf	0.032513496
115	0x3dc0d7c7	0.09416156
116	0x3e3e809e	0.18603751
117	0x3bd81ce7	0.0065952423
118	0xbe1b859a	-0.15187684
119	0xbe5d60f0	-0.2161901
120	0xbe2d1fc3	-0.16906647
121	0x3c29a7f4	0.010354985
122	0xbd7eb3ab	-0.062183063
123	0x3d662349	0.056185994
124	0xbd507d9a	-0.050901033
125	0x3e0ea72a	0.13930956
126	0x3ddf9409	0.10916907
127	0xbdba4df0	-0.09096897
128	0x3c19e35d	0.009392587
129	0x3de16dc1	0.11007262
130	0xbdf023fa	-0.11725612
131	0xbd63b7c4	-0.055595174
132	0xbe4e5520	-0.2014966
133	0xbe4c91be	-0.19977471
134	0xbe534260	-0.20630789
135	0x3dd4e84d	0.1039587
136	0xbe1e4b82	-0.15458491
137	0xbc8cc28a	-0.017182607
138	0xbe7605b6	-0.24025616
139	0x3cb90772	0.022586558
140	0xbe741467	-0.23835908
141	0x3d92d0c1	0.07168723
142	0xbe2d7508	-0.16939175
143	0xbe372286	-0.17884263
144	0x3c5e3650	0.013562754
145	0x3e15717a	0.14594069
146	0xbe70f1be	-0.23529717
147	0xbd9c0cad	-0.07619605
148	0x3e7a699e	0.24454352
149	0xbd858b6b	-0.065207325
150	0xbb990578	-0.0046698414
151	0x3e8f4b24	0.27987015
152	0xbea05bf5	-0.31320158
153	0x3e5248d6	0.20535597
154	0xbe10faaa	-0.14158121
155	0x3d9cc525	0.0765479
156	0xbdd08050	-0.10180724
157	0x3e2de483	0.16981702
158	0x3ccb99b9	0.024853574
159	0x3d9719af	0.07377946
160	0xbcb46f08	-0.0220256
161	0xbda399dc	-0.07988331
162	0x3e05733e	0.13032243
163	0x3e5c6fb4	0.21526986
164	0xbe29f4a9	-0.16597237
165	0xbe3de2c0	-0.1854353
166	0xbca2fe01	-0.01989651
167	0x3d30dcb2	0.04317922
168	0xbe63c297	-0.22242199
169	0x3d66800f	0.05627447
170	0xbd01fe4e	-0.031736664
171	0x3e400322	0.18751195
172	0x3e821876	0.25409287
173	0x3de99420	0.11405206
174	0x3e334eb3	0.1751049
175	0xbda7c0a3	-0.081910394
176	0xbd8af911	-0.06785787
177	0xbe44c038	-0.1921395
178	0x3c0adee2	0.008475991
179	0xb97ff4a5	-0.00024409832
180	0xbd879f0e	-0.06622134
181	0x3dd3e3fe	0.103462204
182	0x3dd89be5	0.105766095
183	0xbe3ad0d3	-0.18243723
184	0xbe320f52	-0.17388657
185	0xbc5eb703	-0.013593438
186	0xbb847c0a	-0.004043107
187	0xbd605311	-0.05476672
188	0x3dd6fedc	0.10497829
189	0x3d882b7e	0.066489205
190	0x3e5a3662	0.21309808
191	0xbe3d8a96	-0.18509898

decoder.gru.weight_hh_l0 f4 [192, 64]
0	0x3dd529ae	0.104083404
1	0x3d93eb0e	0.072225675
2	0xbe04b9df	-0.12961529
3	0xbdfe94cf	-0.12430727
4	0xbd39fb67	-0.04540577
5	0xbd516792	-0.051124163
6	0xbe34c8f0	-0.17654777
7	0xbce4e5b4	-0.027941562
8	0x3c44b364	0.012005661
9	0x3d76fcc8	0.060299665
10	0x3d2b840f	0.041873988
11	0xbd6657f6	-0.05623623
12	0x3db76bf1	0.08956135
13	0x3db892a4	0.090123445
14	0xbc84f675	-0.016230801
15	0xbd9490a0	-0.072541475
16	0xbda9e003	-0.0829468
17	0xbe2316be	-0.15926644
18	0xbd213218	-0.039354414
19	0xbd924812	-0.071426526
20	0x3e220e05	0.1582566
21	0x3c1ade6b	0.009452443
22	0xbddb1eaa	-0.10699208
23	0x3dd9d39a	0.10636063
24	0x3e21386e	0.15744182
25	0x3e35bfd8	0.17748964
26	0x3d817ea5	0.06322984
27	0xbc37ddba	-0.011222297
28	0xbdae6f3e	-0.085173115
29	0x3d9309eb	0.07179626
30	0x3cdc89fa	0.026921261
31	0xbd5dccac	-0.05415027
32	0xbcbb4754	-0.02286116
33	0x3dc9e210	0.09857571
34	0xbc203ce2	-0.009780141
35	0xbd9f86bd	-0.07789371
36	0x3d5604dd	0.05225073
37	0x3dcb9d83	0.09942152
38	0xbce0636f	-0.027391164
39	0xbd993197	-0.07480162
40	0xbd934e0a	-0.07192619
41	0xbd994756	-0.074843094
42	0x3d07c8dc	0.03315054
43	0xbca60938	-0.020268068
44	0xbd0cd2d3	-0.034380745
45	0x3dd5c091	0.1043712
46	0x3d5c26a0	0.053747773
47	0xbd60231e	-0.05472099
48	0x3da9ee75	0.08297435
49	0xbe3dce3a	-0.185357
50	0xbe30b75c	-0.17257446
51	0xbbc0a3f4	-0.0058789197
52	0x3d9ef2e4	0.077611715
53	0x3ce4c309	0.027925031
54	0xbd98cf9b	-0.074614726
55	0xbd1f5ea4	-0.038908616
56	0xbde6f9c9	-0.112781115
57	0x3c7eeeba	0.015559847
58	0xbdc5d527	-0.09659796
59	0xbd081669	-0.033224497
60	0x3d94e281	0.07269765
61	0x3d9750ea	0.0738848
62	0x3e0a2bcf	0.13493274
63	0xbe4c8f02	-0.19976428
64	0x3db58db8	0.08864921
65	0x3da665ed	0.081249095
66	0xbde56a35	-0.11201898
67	0x3d0a9d04	0.033841148
68	0xbe811c10	-0.25216722
69	0x3daa884e	0.08326779
70	0xbe1f777a	-0.1557292
71	0x3db3b662	0.08775021
72	0x3dfe3efc	0.12414357
73	0xbd8c677a	-0.06855674
74	0x3cd0fee8	0.025512174
75	0x3c8416af	0.016124098
76	0xbda2f6b1	-0.07957209
77	0x3db55fc2	0.08856155
78	0x3c6163e0	0.013756722
79	0x3c87b064	0.016563602
80	0xbdbc4be9	-0.09194166
81	0x3c55ee2b	0.013057272
82	0x3c89acd4	0.016806044
83	0xbb70ea21	-0.0036760645
84	0x3c230ebb	0.0099522425
85	0xbe06914d	-0.13141365
86	0xbdfa4ff0	-0.12222278
87	0x3e4b7da6	0.1987215
88	0xbdebb4c6	-0.11509089
89	0x3dadb5b7	0.08481925
90	0x3d49fb55	0.049311955
91	0xbcf1f1b7	-0.029534204
92	0xbe6a9d83	-0.22911648
93	0x3defc38f	0.11707222
94	0x39ee45a8	0.00045446795
95	0xbb197de7	-0.002342099
96	0x3db0b2d3	0.08627858
97	0xbe141924	-0.14462715
98	0xbb6b455a	-0.003589949
99	0xbd8f7964	-0.07005575
100	0x3bf34742	0.007424266
101	0xbd95d8ed	-0.07316766
102	0x3e4df8c1	0.20114423
103	0x3d333cbc	0.043759093
104	0x3cbeef5e	0.023307499
105	0x3e3c51a9	0.18390526
106	0x3e166316	0.14686236
107	0x3e4ec9f1	0.20194222
108	0x3e64ff94	0.2236312
109	0x3d5adfa1	0.053435925
110	0x3cbcc596	0.023043435
111	0x3c4f889a	0.012666846
112	0xbe62223f	-0.22083376
113	0xbdc94e53	-0.09829392
114	0xbdef27b8	-0.116774976
115	0x3daeff86	0.08544831
116	0x3d0a7e62	0.033811934
117	0x3da76e87	0.08175378
118	0xbdd79834	-0.10527077
119	0x3a47d08d	0.0007622324
120	0xbd170a17	-0.036874857
121	0x3dfbea8f	0.12300598
122	0xbe0e2ea2	-0.13884977
123	0x3c67c7a3	0.014146718
124	0x3e25e72a	0.16201463
125	0x3bf14e70	0.007364087
126	0x3e057079	0.13031186
127	0x3b86ac61	0.0041099046
128	0x3ddf412b	0.10901102
129	0x3e3c8185	0.18408783
130	0x3c31c4c3	0.010850134
131	0xbd443a5e	-0.047907226
132	0x3d763546	0.0601094
133	0xbd182a0c	-0.037149474
134	0xbe2b5953	-0.16733293
135	0x3cbcaaa4	0.023030587
136	0x3cca448d	0.02469089
137	0x3c142aaf	0.00904338
138	0xbd915ffb	-0.07098385
139	0x3ba5dd1b	0.005061758
140	0x3d81e978	0.06343359
141	0x3df24b9e	0.11830829
142	0xbd1a49e1	-0.037668113
143	0xbdcf0dd6	-0.10110061
144	0x3ca141cd	0.019684697
145	0xbd34446c	-0.044010565
146	0xbdc2da92	-0.09514345
147	0xbdb3ca9d	-0.0877888
148	0xbd69f4c0	-0.057118177
149	0xbe10a172	-0.14124086
150	0xbcdebba4	-0.027189083
151	0xbd450eb0	-0.04810971
152	0x3ddab53f	0.10679101
153	0x3d638fc3	0.055557024
154	0x3d8e2495	0.06940571
155	0xbd9e2371	-0.07721604
156	0x3d4a958c	0.049459025
157	0x3df62139	0.120180555
158	0xbd8e7faa	-0.06957944
159	0x3c9a42ec	0.018830739
160	0xbdd7118d	-0.105013944
161	0x3b7f5688	0.0038961489
162	0x3dd694ff	0.104776375
163	0x3ca941ad	0.0206612
164	0xbb85aacc	-0.0040791985
165	0x3de64367	0.11243325
166	0xbdf1b58d	-0.11802206
167	0x3ceffb0b	0.029294511
168	0x3addb13e	0.0016913784
169	0xbd42b77c	-0.047538266
170	0xbd3f2a02	-0.04667092
171	0x3dde57d3	0.10856595
172	0x3d775ef0	0.060393274
173	0x3c9e3d8e	0.019316461
174	0x3d6127ad	0.05496948
175	0xbda07f5e	-0.07836793
176	0xbda46487	-0.080269866
177	0x3c2de09a	0.010612631
178	0xba9c40b0	-0.0011921134
179	0x3dc3aa35	0.09553949
180	0xbdaf0310	-0.08545506
181	0x3d8b32fc	0.06796834
182	0x3bb0aa4c	0.0053913947
183	0x3bb2d60e	0.005457646
184	0xbd9d0d38	-0.07668537
185	0xbd779323	-0.060443055
186	0xbdc0f480	-0.09421635
187	0xbde68fc9	-0.112578936
188	0x3dd10296	0.10205571
189	0x3ddbfca2	0.10741545
190	0x3d4378dc	0.047722682
191	0xbdb234cd	-0.08701477
192	0x3bd8d517	0.006617199
193	0xbbede411	-0.0072598536
194	0x3d96d5e3	0.073650144
195	0x3d660bc5	0.056163568
196	0xbca45f92	-0.020065103
197	0xbdce80b3	-0.10083141
198	0xbd8ad227	-0.06778365
199	0xbda06a0e	-0.07832728
200	0xbd9cdee4	-0.076597005
201	0xbdb54ea1	-0.08852888
202	0x3b853865	0.0040655606
203	0x3e3d7fea	0.18505827
204	0x3d6644c4	0.056217924
205	0x3daefa6c	0.08543858
206	0xbc9c7cee	-0.01910254
207	0x3cabbd48	0.02096428
208	0xbe1d0c40	-0.15336704
209	0x3e17523d	0.14777465
210	0xbd5a6eeb	-0.053328436
211	0x3e1c33f1	0.15254189
212	0xbb1ef4d9	-0.0024254827
213	0x3daa2ce8	0.083093464
214	0xbcbffb9f	-0.023435412
215	0x3d54ff84	0.05200149
216	0xbe1460fc	-0.14490122
217	0x3dfc07eb	0.12306198
218	0x3d85daff	0.06535911
219	0xbd02439f	-0.03180277
220	0xbd46d8cf	-0.04854661
221	0xbdaaa7cb	-0.08332785
222	0xbdfd3bd6	-0.123649284
223	0xbc8ddd41	-0.017317416
224	0xbd2e0ea4	-0.04249443
225	0xbe36a210	-0.1783526
226	0x3de31c94	0.11089435
227	0xbd8395b4	-0.06425038
228	0xbdddab86	-0.10823731
229	0xbd0f95ab	-0.035054844
230	0x3d841f90	0.064513326
231	0x3e267656	0.16256079
232	0xbd94e008	-0.07269293
233	0xbd94888d	-0.072526075
234	0xbbac0c0b	-0.005250459
235	0xbd845f4c	-0.06463489
236	0x3e5b0ca2	0.21391538
237	0xbd934621	-0.071911104
238	0xbdae04ad	-0.084969856
239	0xbd06f085	-0.03294422
240	0x3d496f51	0.049178425
241	0xbd31f1ce	-0.043443494
242	0xbe522bd3	-0.2052453
243	0xbe2f0a3c	-0.17093748
244	0xbc22c239	-0.009934002
245	0x3e2a9ae2	0.16660646
246	0x3db8282b	0.089920364
247	0xbe358376	-0.1772593
248	0xbdb63cf8	-0.088983476
249	0xbd96536f	-0.073401324
250	0x3da4e8bb	0.08052202
251	0x3d9c8935	0.07643358
252	0xbce2652e	-0.027636137
253	0x3cb572cb	0.022149464
254	0x3e1a3598	0.15059507
255	0xbe06cd11	-0.13164164

decoder.gru.bias_ih_l0 f4 [192]
0	0xbdcec386	-0.10095887
1	0x3cf19f10	0.029494792
2	0x3d2aedef	0.041730817
3	0xbdf31385	-0.118689574
4	0x3cecba8b	0.028897544
5	0xbd48cf1f	-0.04902565
6	0x3da132ce	0.07871018
7	0xbd971cfb	-0.073785745
8	0x3e21b632	0.15792158
9	0x3da38ed8	0.0798623
10	0x3e122e15	0.14275391
11	0x3da4790a	0.08030899
12	0x3df5a2f9	0.11993975
13	0x3e480733	0.19533996
14	0x3d89fb0e	0.06737338
15	0x3dc56535	0.09638444
16	0x3d2fadf1	0.042890493
17	0xbd27e981	-0.04099417
18	0x3d57e1cd	0.052705575
19	0xbd6e8c5d	-0.05823933
20	0x3e0eff65	0.13964613
21	0x3e0a6353	0.13514452
22	0x3c9fab61	0.0194909
23	0xba46abce	-0.00075787015
24	0x3e53479a	0.20632783
25	0x3d7a53d0	0.061115086
26	0xbdaca591	-0.08430017
27	0x3dd00763	0.10157659
28	0xb99c2c5e	-0.00029787695
29	0xbdb1717e	-0.08664225
30	0x3de0b921	0.109728105
31	0xbd288dc8	-0.041150838
32	0x3db18dc4	0.08669618
33	0xbd9ae8ae	-0.075639114
34	0x3d9e39e4	0.077258855
35	0xbd5b411e	-0.053528897
36	0x3d9e1e85	0.07720665
37	0x3cbef323	0.023309296
38	0x3d5c3323	0.053759705
39	0x3cdfcf5a	0.027320553
40	0x3e1c4d5b	0.15263884
41	0x3d07e077	0.03317305
42	0xbb8ac1e6	-0.0042345403
43	0x3e24689d	0.16055532
44	0x3dc5f85c	0.096665114
45	0x3d26da31	0.040735427
46	0x3dfbc5d0	0.12293589
47	0x3cd6ce0c	0.026221298
48	0x3da6ab89	0.081381865
49	0x3dbae9af	0.09126603
50	0x3c1cac35	0.009562542
51	0xbd895ebb	-0.067075215
52	0x3adedf37	0.0017003779
53	0x3c973d59	0.01846187
54	0xbbefba70	-0.0073159263
55	0x3e05e203	0.13074498
56	0xbd5798d3	-0.05263598
57	0x3cc9c2ba	0.024628986
58	0xbd6301da	-0.055421688
59	0x3dbbda5d	0.09172509
60	0x3dfca87e	0.12336825
61	0xbbed3c3f	-0.007239848
62	0x3cf19d2f	0.029493896
63	0xbd19bff2	-0.03753657
64	0x3d349e33	0.044096183
65	0xbdcebff9	-0.1009521
66	0xbde0eec4	-0.10983041
67	0xbdbf4b97	-0.093405895
68	0xbe3c1158	-0.18365991
69	0xbe2cb4c3	-0.1686583
70	0x3bb9148e	0.0056482023
71	0xbd9bc415	-0.07605759
72	0x3b540824	0.0032353485
73	0x3daa8489	0.0832606
74	0xbe39008f	-0.1806662
75	0x3d327b77	0.043574777
76	0xbcf87ca4	-0.03033287
77	0xbd6162be	-0.05502581
78	0xbdfc0d4a	-0.12307222
79	0xbe044952	-0.12918594
80	0xbdafc284	-0.08582023
81	0x3d283987	0.041070487
82	0xbe485129	-0.1956221
83	0xbc8fb4c4	-0.01754225
84	0xbd8cf5ef	-0.068828456
85	0xbcbd8010	-0.023132354
86	0xbe059579	-0.130453
87	0xbe3d1c91	-0.18467928
88	0xbe1ab521	-0.15108158
89	0xbe5c54c0	-0.21516705
90	0xbd87b72e	-0.06626736
91	0x3e1aecbe	0.15129372
92	0x3e02706c	0.12738198
93	0xbdb96b7f	-0.090537064
94	0x3d942082	0.07232763
95	0xbd56a285	-0.052401084
96	0x3db72c79	0.08944029
97	0x3c78cea0	0.015185982
98	0xbd8fffa7	-0.07031184
99	0xbe00ceb9	-0.12578858
100	0xbd99c7ca	-0.0750881
101	0xbd43cb6c	-0.04780142
102	0xbdb973a5	-0.090552606
103	0x3dedaeab	0.11605581
104	0xbe10e5b6	-0.14150128
105	0xbd749744	-0.05971457
106	0x3e2d0111	0.16894938
107	0xbc81882a	-0.015811998
108	0xbe602dc1	-0.21892454
109	0x3c94fe0d	0.018187547
110	0xbe312d30	-0.17302394
111	0x3e01f9c0	0.12692928
112	0x3c88f3b3	0.016717767
113	0xbe6d729e	-0.23188254
114	0xbd4348f8	-0.04767701
115	0xbda05cfa	-0.07830234
116	0xbd3283e1	-0.0435828
117	0xbdad9f9c	-0.08477709
118	0x3d4c9eb9	0.049956057
119	0xbda02dd3	-0.0782124
120	0xbd3092b0	-0.043108642
121	0xbe19e30a	-0.15028015
122	0x3d8656d0	0.06559527
123	0x3e098126	0.13428172
124	0xbce187f2	-0.027530644
125	0x3d866c12	0.065635815
126	0xbc3b98c8	-0.01145
127	0xbdfcf315	-0.12351052
128	0x3ba367c1	0.0049867337
129	0x3d8320db	0.06402751
130	0xbd1144b0	-0.035465896
131	0x3dc05ca0	0.09392667
132	0x3dc36f3e	0.09542702
133	0x3dc06442	0.09394123
134	0xbd61cfa6	-0.05512967
135	0x3c6e3dd0	0.014541104
136	0x3db45456	0.08805148
137	0x3b662202	0.0035115485
138	0x3cfd0951	0.030888231
139	0xbd907ab8	-0.07054657
140	0xbddffaf7	-0.109365396
141	0x3d4389c3	0.0477388
142	0x3db6e230	0.089298606
143	0xbc919cea	-0.017775018
144	0x3d26c252	0.040712662
145	0xbd119040	-0.03553796
146	0x3b8d16d2	0.004305699
147	0xbd0305c0	-0.031987906
148	0x3d2c7590	0.042104304
149	0xbd4852ef	-0.048907217
150	0xba4784cf	-0.00076110376
151	0x3dc9c179	0.09851355
152	0x3d511ed0	0.051054776
153	0x3d936aa8	0.071980774
154	0x3cf668f1	0.030079337
155	0x3bf21e9d	0.0073889033
156	0xbcf7e1d8	-0.030259058
157	0xbca6052b	-0.020266136
158	0xbd3ce939	-0.046120856
159	0xbd02e09a	-0.031952478
160	0xbdcc53de	-0.09976934
161	0x3d51cf04	0.051222816
162	0x3d7b4282	0.061342724
163	0xbda6c63d	-0.0814328
164	0x3dd35926	0.10319738
165	0x3ca8e526	0.020617079
166	0x3d703f6a	0.058654226
167	0x3d17cf83	0.037063133
168	0x3cf4bddb	0.029875686
169	0x3da2142e	0.07914005
170	0x3d893d34	0.06701127
171	0xbd8386ee	-0.0642222
172	0x3d47fbdf	0.048824187
173	0xbcd6b9ca	-0.026211638
174	0x3d4ba373	0.049716424
175	0xbd9ecce6	-0.07753925
176	0xbd3b8235	-0.045778472
177	0xbc7326ea	-0.014840821
178	0xbd6ee283	-0.058321487
179	0x3daa8b97	0.08327406
180	0x3dd0f913	0.10203757
181	0x3dce030c	0.10059175
182	0xbc917ab7	-0.01775871
183	0xbc37e746	-0.0112245735
184	0xbd430674	-0.047613576
185	0x3b2e3335	0.0026580815
186	0x3cd3049a	0.02575903
187	0x3d1e7716	0.038687788
188	0xbd820092	-0.06347765
189	0x3d41363e	0.04717087
190	0xbdd0a245	-0.101872005
191	0xbd99d58d	-0.07511435

decoder.gru.bias_hh_l0 f4 [192]
0	0x3d8dbd8e	0.0692092
1	0x3e305938	0.17221534
2	0x3d5e1728	0.054221302
3	0x3da8057b	0.0820417
4	0x3d79bf87	0.06097367
5	0xbd33cb0d	-0.043894816
6	0x3dbaa883	0.09114172
7	0x3cf0bad4	0.029385962
8	0xbc8fe962	-0.01756734
9	0x3def89b6	0.11696188
10	0xbd32874d	-0.043586064
11	0xbdcaf4f6	-0.09910004
12	0xbbbc69b0	-0.0057499036
13	0x3e0e5db1	0.13902928
14	0x3dbaf4a8	0.09128696
15	0x3c587047	0.013210363
16	0x3e002650	0.12514615
17	0x3d4e8c2d	0.05042665
18	0xbc1e6998	-0.00966873
19	0x3dee8f5d	0.11648438
20	0x3dbd046c	0.09229359
21	0x3d284d2c	0.04108922
22	0x3e329bc4	0.17442232
23	0x3e00ec44	0.12590128
24	0x3e150543	0.14552788
25	0x3e00b1e3	0.12567858
26	0xbde9535f	-0.11392855
27	0xbd8cee69	-0.06881411
28	0xbd8c8361	-0.06860996
29	0x3d48ef3a	0.04905627
30	0x3c249405	0.010045056
31	0x3cc98157	0.024597807
32	0x3dfb5dca	0.12273748
33	0x3c6cd631	0.014455364
34	0xbdd5de86	-0.104428336
35	0xbdcc1ace	-0.0996605
36	0x3c4d09c1	0.012514533
37	0xbacc8665	-0.0015604018
38	0x3e43a56b	0.1910607
39	0xbe108a7a	-0.14115325
40	0x3e560718	0.20901144
41	0xbda20bb7	-0.07912391
42	0x3d944497	0.07239645
43	0xbd7cc5f1	-0.06171221
44	0xbd06f079	-0.032944176
45	0x3a1dab61	0.0006014612
46	0x3dbcb0c1	0.09213401
47	0xbd5e75e6	-0.054311655
48	0x3d9d199b	0.076708995
49	0x3e2062e1	0.1566272
50	0x3e22d091	0.15899874
51	0x3db00995	0.085955776
52	0xbdc52596	-0.096263096
53	0xbda22b00	-0.07918358
54	0xbc238841	-0.009981216
55	0x3dd04408	0.10169226
56	0x3deecddd	0.11660359
57	0xbb3a4b97	-0.0028426403
58	0x3dc2f2f0	0.09518993
59	0x3d3d2079	0.046173546
60	0x3db25edf	0.087095015
61	0x3dde9465	0.10868148
62	0xbcfe122f	-0.03101453
63	0x3c9c3cf5	0.019072035
64	0xbd1092dd	-0.03529631
65	0xbe03c4d2	-0.1286805
66	0xbdf77392	-0.1208259
67	0xbd6cab7d	-0.05778073
68	0x3d0504e8	0.032475382
69	0xbddd3a90	-0.108021855
70	0xbe50ddcb	-0.20397107
71	0xbbcb3b34	-0.006202126
72	0xbdb709ed	-0.0893744
73	0x3e1fa88d	0.15591641
74	0xbdf6982f	-0.120407455
75	0x3d8a20fa	0.06744571
76	0xbe045e0e	-0.12926504
77	0xbcbeb425	-0.023279259
78	0xbe752dea	-0.23943296
79	0x3d3979a2	0.045282014
80	0x3d460d11	0.048352305
81	0x3dbff971	0.09373749
82	0xbe1b2c8e	-0.15153715
83	0x3c4132e8	0.011791922
84	0xb73cdbc0	-1.1256838e-05
85	0x3d8e126e	0.06937109
86	0xbe07c7c6	-0.13259801
87	0xbe4c9229	-0.1997763
88	0xbd950e09	-0.072780676
89	0xbd6f94a8	-0.05849138
90	0xbe21f625	-0.15816553
91	0x3d5e4b66	0.054271124
92	0x3db3935c	0.08768341
93	0xbc3ac31a	-0.011399055
94	0xbdee727c	-0.1164293
95	0xbbe9d1ef	-0.0071356217
96	0xbda4de8d	-0.08050261
97	0xbc8ce661	-0.017199697
98	0xbdfed9b3	-0.124438666
99	0xbe803bbf	-0.25045583
100	0xbdd48501	-0.10376931
101	0xbe4b5cc9	-0.19859613
102	0xbd148af3	-0.036265325
103	0x3dcf6941	0.101274975
104	0xbd9ac6bb	-0.07557436
105	0xbda042ba	-0.07825227
106	0xbd8e8a42	-0.06959964
107	0xbd29e577	-0.0414786
108	0xbe69963e	-0.22811219
109	0xbdaaf2fd	-0.083471276
110	0xbe2c4bd2	-0.16825798
111	0x3da5e34c	0.08099994
112	0xbd74b992	-0.059747286
113	0xbdeb6dee	-0.11495577
114	0x3da6c3fd	0.081428505
115	0x3da67bb4	0.08129063
116	0x3d448793	0.047980856
117	0x3d05da23	0.032678735
118	0xbda4e9aa	-0.080523804
119	0x3c8a296f	0.01686546
120	0x3c4fbe34	0.012679625
121	0x3d8f1cbe	0.06987904
122	0x3e14ef0f	0.14544319
123	0xbd4e667b	-0.0503907
124	0xbcb20c22	-0.021734301
125	0xbd59784c	-0.05309324
126	0xbe2e9db9	-0.17052354
127	0xbb83c86f	-0.0040216963
128	0x3dfa8f3c	0.12234351
129	0x3d433a92	0.04766328
130	0xbda4dcdb	-0.08049937
131	0x3dc27d23	0.09496524
132	0xbc960b22	-0.018315855
133	0xbde978cb	-0.113999926
134	0x3c95f6d0	0.018306166
135	0x3dd25187	0.10269456
136	0xbe17e56c	-0.14833611
137	0x3d848532	0.064707175
138	0xbd1046b5	-0.03522368
139	0xbd989b05	-0.07451443
140	0xbdbcbb0f	-0.09215366
141	0x3ce8c10c	0.028412364
142	0xbdd35387	-0.10318666
143	0x3daffb0e	0.08592807
144	0x3d5e5fd8	0.054290622
145	0xbd1c1d49	-0.038113866
146	0xbd080be5	-0.03321447
147	0x3db4574c	0.08805713
148	0xbd77013a	-0.060303904
149	0xbc33d142	-0.010975184
150	0xbcd08bdd	-0.025457317
151	0x3de040d0	0.10949862
152	0x3d1570a8	0.03648439
153	0x3d935356	0.071936294
154	0x3ce10295	0.027467052
155	0x3d1a5ada	0.0376843
156	0x3dc35bf3	0.09539022
157	0x3dc2bdce	0.095088586
158	0xbd9ff42a	-0.078102425
159	0x3ddf31b0	0.10898149
160	0xbde7db91	-0.11321176
161	0x3dbb30c7	0.09140163
162	0x3de5bc9e	0.112176165
163	0xbc200431	-0.009766624
164	0xbc5b8da7	-0.013400472
165	0xbda09c8d	-0.0784236
166	0x3c82d40e	0.015970256
167	0xbdc48a65	-0.09596709
168	0xbce2edbf	-0.027701257
169	0x3bd86f48	0.0066050626
170	0x3dd6019c	0.10449526
171	0x3d5e58c0	0.054283857
172	0x3e02c3f0	0.12770057
173	0x3d8d9488	0.06913096
174	0xbd0af420	-0.033924222
175	0xbd9f8df4	-0.07790747
176	0xbdcdd6eb	-0.10050758
177	0xbe072a32	-0.1319969
178	0x3da9d09c	0.08291742
179	0x3dee8f34	0.116484076
180	0xbd8540ce	-0.06506501
181	0x3cbc698c	0.022999547
182	0xbc61a62e	-0.0137725305
183	0xbe002387	-0.12513553
184	0x3d3bdf86	0.045867465
185	0xbcd7ef6d	-0.026359284
186	0x3cd64f20	0.026160777
187	0x3d8bf1cd	0.06833229
188	0xbdcb6720	-0.09931779
189	0xbcfd639f	-0.030931292
190	0x3db0988e	0.086228475
191	0x3bfec38e	0.007774777

decoder.fc.weight f4 [1, 64]
0	0x3d9e54aa	0.07730992
1	0x3db1400f	0.08654796
2	0xbdc23048	-0.09481865
3	0xbde44080	-0.11145115
4	0xbe64767e	-0.22310826
5	0xbe78a81d	-0.2428288
6	0xbe2e2c24	-0.17009026
7	0x3e2adc31	0.16685559
8	0xbe2848f4	-0.1643408
9	0x3d91d4fb	0.07120701
10	0xbe4610f6	-0.19342408
11	0x3d18e771	0.037330095
12	0xbde7b7f7	-0.113143854
13	0x3d8b98fe	0.0681629
14	0xbe62b307	-0.22138606
15	0xbe4ad8ca	-0.19809261
16	0x3dabc66a	0.08387454
17	0x3d5e3437	0.054249015
18	0xbdf3fd6d	-0.119135715
19	0xbc88c78e	-0.016696718
20	0x3e7668df	0.24063443
21	0xbe2960db	-0.16540854
22	0xbca74517	-0.020418687
23	0x3dff01ce	0.12451516
24	0xbe3c010e	-0.18359777
25	0x3e0eff96	0.13964686
26	0xbe442365	-0.19154127
27	0xbcde2599	-0.027117537
28	0xbe084262	-0.13306573
29	0x3e2458e0	0.16049528
30	0x3d999207	0.07498556
31	0x3e283f2e	0.16430351
32	0x3d0c0be8	0.034191042
33	0xbdac6027	-0.08416777
34	0x3dda5e42	0.106625095
35	0x3dde94fb	0.108682595
36	0xbdbf7aa5	-0.093495645
37	0xbe48fa6b	-0.19626777
38	0xbcca32b4	-0.02468238
39	0xbc39fe93	-0.011352199
40	0xbdcff1e3	-0.10153558
41	0x3dd6ccea	0.10488303
42	0x3d231e40	0.03982377
43	0x3e2734d8	0.16328752
44	0x3e07cc68	0.13261569
45	0x3db45ea0	0.08807111
46	0x3dafd50e	0.08585559
47	0x3c85d4cd	0.016336823
48	0xbb2548c4	-0.0025220374
49	0xbe315bad	-0.17320128
50	0xbdd7c88d	-0.10536299
51	0x3c490ea7	0.01227156
52	0xbdc4ad4e	-0.09603368
53	0xbad7472b	-0.0016424408
54	0x3e1ca93c	0.15298933
55	0xbe035d3a	-0.12828532
56	0xbe84bf9b	-0.25927433
57	0x3d157acf	0.036494073
58	0xbc3062d4	-0.01076575
59	0xb92347e4	-0.00015571673
60	0x3dee4068	0.11633378
61	0x3d060f1a	0.032729246
62	0x3e3037df	0.17208813
63	0xbdc5a9cc	-0.09651527
