metrics_best_runs/enc_dec_windowed/0171.model (torch_old, 446518 bytes, 27 tensors)

weight_ih_l0 f4 [400, 1]
00000000: 13be 7d3f c7fe a7bc 1650 fc3c 0d46 40be
00000010: b924 6bbf dad9 b23f c813 d33e 897b 8f3f
00000020: 4f87 383e 408d f93e 5df0 2f3d 6225 fc3f
00000030: 2390 0e3d b56d 14bf 8423 a7bf 0c73 2b3f
00000040: e52f 74be f454 fb3e f6a6 523f 08b0 7abf
00000050: dc47 4a40 5d27 273f 35b2 21c0 3bc0 98be
00000060: b502 e93f b82e b83f a4b8 f4bd 870d 123e
00000070: 3f03 963e 21f8 f2be e934 613d 2000 30bf
00000080: 4bb7 bc3f ac0b 073f 168f 6a40 19ac d2be
00000090: 0049 a13f b796 86bf 09a6 85be dead a7bf
000000a0: 06af 063e 6b03 1f40 81b1 263f d96b bb3e
000000b0: 6a56 e03f 3e1d babc 4c13 f53d fa9c 9240
000000c0: 34eb dd3e 4e59 173f d395 d93f cc57 9340
000000d0: e92a 86bf b5c6 e3bd 553f 73bf f2e9 37bf
000000e0: e300 8c3f e6f0 e13f 8a26 853e f5c6 1c3f
000000f0: 244f 88bf 41ff d4be 9062 913f 47b6 8b3d
00000100: 0c5e 103d a0bf 07bf 4854 4c3e 6c46 0e3d
00000110: c987 f4bf e6c7 233f 970d a43e 70fd 31bf
00000120: a93b 1fbe e68c 513f b02d a2bd 1e6c c6bf
00000130: 9029 f23f ee29 4b3f 7d09 05be aa25 87bf
00000140: a665 acbd 9ec8 87bf bc9a dcbe c01e 3a3f
00000150: e44b 2140 3694 88bf b262 d83f 59c3 64c0
00000160: 665e 733d 00ee 29bf 6158 4ebf 7b3a 3340
00000170: d128 5ebf d9bc 323d 7af5 063f 69ad 343f
00000180: 1db0 8640 888a 46be e7af 80be c009 4140
00000190: a071 dabd deb3 e93f 1116 88bd 8118 01bf
000001a0: 052e 84bf 29e3 213f 82ff 6d3d 0607 a5bd
000001b0: d638 233e c42c 1e3f d3ac a53b b9bf dbbc
000001c0: 0833 2fbf 1bad a0bc 4b17 163f b269 913e
000001d0: edce 533f 36b4 863f 8852 803e 749a 55bf
000001e0: 96c5 503e 0277 41be fb07 9cbe 58ff b2bd
000001f0: f380 a93f ecae 6b3f 0460 d0bd 1e63 613f
00000200: 5992 7f3d e6ac 06bf ffb5 03bf 8a5a 03bf
00000210: 74d3 0abe 990f 273e 9449 853f 1bfe bdbf
00000220: b061 4f3f 0ca7 f5be 0d5f cf3f a44e 9bbe
00000230: 2b0f 883f 6373 0d40 887f 43bf af63 9fbe
00000240: 3ab1 853f 65b2 b2be fe2b a53e 3c78 0a40
00000250: 59e1 3e3f 5891 a0bd d9e7 a33f e563 9d3f
00000260: b707 0fbf 07fc 463f 5f2d d7be d6f2 1dbf
00000270: 1682 c03f 2941 513f 31c9 cf3e 943f 47be
00000280: b8f7 39be ccce 41bf 7833 953e 205f 0e3c
00000290: 9e39 3cbf 1b0c 753f a6f8 5940 0520 563e
000002a0: 0d63 bcbf fde1 ac3f 023c cabb b6e1 51bf
000002b0: c576 95be fb17 dfbd dd7c 8e3e 0aa0 40be
000002c0: ab5f 853f d69b d33e 4ce0 babe ac82 aebf
000002d0: 486b a9be 4f98 afbe e237 c4bd 2a90 b33f
000002e0: b13b 893f f1d7 7bbf eae3 3f3c 8f99 9f3d
000002f0: 4656 4ebf 0a0d 003f f767 84be 7127 c23f
00000300: 76a8 35bf b531 623f d91a 273f 16d2 1d3e
00000310: c0bf 3c40 bf8c b73f 36b4 7ebd d3b3 1240
00000320: 4c12 473e d75b 593f 0309 753d 623c 563d
00000330: 9a24 cebe 2893 19bf 84c9 67be 2cfa 183f
00000340: 526e 47be a12d d33e 1129 7f3f 9100 9f3f
00000350: d4da 9a3f eb07 233f 4998 0e3f a8f6 03bf
00000360: 122c a3bc c435 3f3f 1db6 7e3e e1f0 ed3e
00000370: 3593 d33f 5c0e cdbe a119 9dbf 17b0 133d
00000380: 8afa 133f 3252 3b3f f4bb ca3e 9ae8 c53c
00000390: 4d1c eb3e 7177 9e3e f4a3 28be 8156 b13f
000003a0: eceb 1fbf 7140 123d 4ae1 c33f e951 c63e
000003b0: 3064 893d 5704 c9be ac59 d7bf 01b1 94bf
000003c0: b05f 82be 7120 c0bf ea02 bbbd e54c 37bd
000003d0: c588 99be 3e16 093f 66aa 513e 8994 2740
000003e0: 0f3d 52be 958c 783f bdec a7bf c92a e03f
000003f0: 0580 dfbe ab33 6c3d 3d6f 253f 909d 12bf
0.99118155 -0.02050723 0.030799907 -0.18776722 -0.9185291 1.3972733 0.4122603 1.1209575
0.18020366 0.48740578 0.042953838 1.9698908 0.03480543 -0.579799 -1.3057714 0.6697242
-0.23846395 0.49088252 0.8228601 -0.9792485 3.160636 0.6529444 -2.526502 -0.2983416
1.8203951 1.4389257 -0.1194928 0.14262973 0.29299352 -0.47454932 0.0549821 -0.6875019
1.4743437 0.52752185 3.6649833 -0.41146925 1.2600403 -1.0514745 -0.26103237 -1.3099935
0.13152704 2.4845836 0.651146 0.3660572 1.7526371 -0.022719022 0.11966571 4.581662
0.43343508 0.59120643 1.6998848 4.6044674 -1.0481845 -0.11121885 -0.9501851 -0.7184135
1.0937771 1.7651641 0.26005965 0.61241084 -1.0649152 -0.41600993 1.1358204 0.06821876
0.03524594 -0.5302677 0.19954026 0.03473513 -1.9103938 0.63976896 0.32041618 -0.6952734
-0.15550102 0.8185562 -0.079188704 -1.5501745 1.8918934 0.79360855 -0.129919 -1.0558369
-0.084178254 -1.0608099 -0.43086803 0.7270317 2.520257 -1.067023 1.690512 -3.574423
0.059416197 -0.66378784 -0.80603606 2.8004444 -0.8678103 0.04363713 0.5271832 0.705771
4.208998 -0.19388783 -0.25134203 3.01622 -0.106662035 1.8258016 -0.06644834 -0.50428015
-1.0326544 0.63237244 0.058105 -0.0805798 0.1593965 0.61787057 0.0050560026 -0.026824819
-0.6843724 -0.019613793 0.5862929 0.28400952 0.8273762 1.0523746 0.25062966 -0.834388
0.20387873 -0.18893054 -0.3047484 -0.08740109 1.3242477 0.92063785 -0.101745635 0.88041866
0.062395427 -0.5260757 -0.5144958 -0.51310027 -0.13557225 0.16314544 1.0413079 -1.4843172
0.81008434 -0.4797901 1.6200882 -0.30333436 1.0629629 2.2101676 -0.7636647 -0.3113074
1.044471 -0.3490173 0.32260126 2.1635885 0.74562603 -0.07840222 1.2805129 1.229611
-0.55871147 0.77728313 -0.42026803 -0.61698663 1.5039699 0.8174005 0.40583184 -0.19457847
-0.18160903 -0.7570617 0.2914083 0.008689672 -0.73525417 0.95721596 3.4058013 0.20910652
-1.4717728 1.3506466 -0.0061717043 -0.8198503 -0.29192176 -0.10893246 0.27829638 -0.1881105
1.041982 0.4132983 -0.3649925 -1.3633628 -0.33089662 -0.3429589 -0.09580971 1.402837
1.0721341 -0.98376375 0.011712054 0.07792961 -0.8060039 0.50019896 -0.2586057 1.5168287
-0.70960176 0.88357097 0.6527534 0.15412173 2.9492035 1.4339827 -0.06218358 2.2922256
0.19440573 0.8490576 0.059823047 0.05230368 -0.402623 -0.5999017 -0.22635466 0.5975673
-0.19475678 0.4124575 0.9967204 1.2422048 1.2098031 0.63683957 0.5570112 -0.5154824
-0.019918475 0.74691415 0.24874158 0.4647284 1.6529299 -0.40050018 -1.2273446 0.036056604
0.5780417 0.73172295 0.39596522 0.024158765 0.4592003 0.30950502 -0.16468793 1.3854524
-0.62469363 0.035705987 1.5303128 0.38734367 0.067085624 -0.39261124 -1.6824241 -1.1616517
-0.2546363 -1.50099 -0.09131415 -0.044751067 -0.2998716 0.53549564 0.20475158 2.6184409
-0.20531105 0.9708951 -1.3119122 1.7513057 -0.4365236 0.057666462 0.6462286 -0.5727167

weight_hh_l0 f4 [400, 100]
00000000: d488 06be b882 7abc 417a 303e 84d3 95be
00000010: 7adb 17bf e313 9d3e ca2d a1bd b0c0 8c3d
00000020: e619 373e 46e2 5bbe 0478 bbbe 5b45 093e
00000030: 8b8c 01be 66f3 0a3d 2473 c73e b1a4 a4bd
00000040: 2aba 823e 860c 11be ca9a a1bb 6fdf bebe
00000050: 7b2c f53e e1d4 b33d 8cb4 24bf 044a 2abd
00000060: bf1a b23e 615d 223f 4030 ce3e 028f 04bf
00000070: fc77 94be eebe cd3c c54d 723e de2d 2d3e
00000080: 5c44 063d ea80 203e 054c 59be e5de 2e3f
00000090: 58d7 dcbe 042f 74bd b1f6 9a3d c6d4 29be
000000a0: a0cb 15bf 6d23 c83e e77d ebbe 5cc1 5bbd
000000b0: cde9 a63e 08dc cf3e 3f08 163e 15e0 b0be
000000c0: 0a90 653d 5348 5cbe 79ef d63e ccf8 06be
000000d0: 7d10 0b3d e0c4 0e3e 1b02 91be 146a efbe
000000e0: 7c8c d33e 58d8 cd3d 30dd ddbe e5a1 26be
000000f0: 735c c1be 3533 7e3e 42c4 d33e 14c9 153f
00000100: 0e33 063d 91c0 90be 2520 503e fa23 75be
00000110: 1d87 f4be 3f4d 9bbe c5e8 76be 2066 2ebe
00000120: 5bef 56be 18bd 5abe 59ce e1be 1993 16bf
00000130: d78a 68be 827d d63e b25a b13e fdd0 273d
00000140: 97c5 9dbe bc54 973c 9d49 24be c17c aabe
00000150: 221f 1f3f 696c 2f3d 0a74 bc3e e37e 9bbe
00000160: 0caf 9c3e 53ec 75bc a4c4 de3e 0ba5 493e
00000170: d365 a63e 5b9f b03e d77c 04bf 5753 a0be
00000180: fc8b 293e a908 96be 95f5 443d 168a 6abe
00000190: 3adf b6bc f2b3 bd3e e1fd d0be 2248 b33d
000001a0: 925b 1ebf 2209 143d 55bf 48be 2a29 c2be
000001b0: 4431 5ebe 97eb ce3d c4b8 b1bb 311a a0be
000001c0: 2e70 3e3f bb96 d83e 8078 2cbf 6eb0 a43e
000001d0: 2cbd 563e 0bba ba3e 3001 c4be 2633 dfbe
000001e0: aaef b03e 0579 80be d4b9 263e bd1f 7abe
000001f0: b995 2e3f 2b59 e1bd 44af 1bbe 57f7 313e
00000200: 2b5c b7be c448 873e 594e 66bd cf37 ccbd
00000210: 8801 5d3e 9942 bf3e ad09 453f ada9 163f
00000220: ef15 89be e8f0 1b3e 7370 4f3f 0b61 e73b
00000230: 23ba 94be 3fff fa3e d384 af3d 94e8 eab9
00000240: 2536 46bf e0aa ccbd 4f05 ecba 7bc4 95bd
00000250: 2057 ed3e 6845 0a3e 4bdb 2f3f 6663 4a3f
00000260: 4439 4c3f df58 803d 0e06 753e 3e8d e33e
00000270: 1b2c aa3d ff15 f63e 6f43 893e b0ce 5d3f
00000280: 38c4 9fbe 02ce 093f 0b6d 813e 7ee5 2fbf
00000290: 99b9 3d3f ecc9 11be 8a53 263e 4a96 8e3c
000002a0: 6d1d e23e 91d9 d7be 6261 573e da6b 1cbf
000002b0: 6b1c 97bd 098d 88be cb4c c0be ed61 b6be
000002c0: 3b77 573e 1a87 35be 137d ea3e c9a2 69bd
000002d0: 5c15 e73e c276 733e f709 cabe 1c90 6e3e
000002e0: e173 ef3e 71eb 71bd cb68 533e 36b9 1f3f
000002f0: 1dc0 dfbd e994 00bf 5816 6dbe f15b cbbd
00000300: 92ae e33d f996 11be 0808 313d 7f9c 253e
00000310: 2294 603c 3d96 593e 2bf9 91be b182 8b3e
00000320: 7572 a4be f9c5 803f bd84 063e ad26 7bbe
00000330: a56d b6bf dba2 8f3e 7cbe 6fbe abe8 6dbf
00000340: 7d0a 53bf 45a9 523e a224 c43e 7d1b 013f
00000350: b29c f33c 4607 c43f ed0e f13d 7c6a cebe
00000360: ea6f 3e3f 4ca0 a0bd 237b 9b38 cef5 67bf
00000370: 7ec6 0fbf f61e 5c3e 3980 10be 0928 883e
00000380: 9ea9 833d f2b3 c6be c835 493e 9b36 733c
00000390: a8af f1be 4c26 ab3e 51f2 70be adce 613e
000003a0: 425b 1a3f 115a c13e 2a72 973e 5a05 963f
000003b0: f8b8 18be a426 99be 4b2c bbbe 048f 51be
000003c0: fd28 d5be 820c bdbe 86d8 79be dab2 cfbd
000003d0: 316a 7fbe 3993 09be 122a f4be 51e8 a03e
000003e0: aa45 d0be e62a 1ebe 50e6 943f 47ff 453c
000003f0: 9668 28be 6529 84bd 8d4a b33e 0927 aa3d
-0.13138133 -0.015289955 0.17234136 -0.29262936 -0.5931927 0.30679235 -0.07870062 0.0687269
0.17880973 -0.21473035 -0.36615002 0.13405363 -0.12651269 0.03392353 0.38955033 -0.08039225
0.25532657 -0.14164934 -0.0049317824 -0.3727984 0.47885498 0.08780838 -0.6433799 -0.041574493
0.3478603 0.63423735 0.40271187 -0.5178071 -0.2899779 0.025115456 0.23662479 0.16912028
0.032780036 0.15674177 -0.21220405 0.6830886 -0.43133044 -0.05961515 0.07566584 -0.16585073
-0.5851383 0.39089528 -0.45994493 -0.0536512 0.3260025 0.40597558 0.14651583 -0.3454596
0.05604557 -0.21511964 0.41979578 -0.13180846 0.03395127 0.1394229 -0.2832192 -0.4676062
0.4131812 0.1005103 -0.43332815 -0.16272695 -0.37765846 0.24824221 0.4136067 0.58509946
0.032763533 -0.28271917 0.20324762 -0.23939505 -0.47759333 -0.30332372 -0.24112232 -0.17031145
-0.20989744 -0.21361196 -0.44102743 -0.58818203 -0.22709213 0.4189263 0.34639508 0.04097079
-0.30814812 0.018473022 -0.16043706 -0.33298305 0.6215688 0.042827997 0.3680728 -0.30370244
0.306023 -0.015009957 0.435094 0.19691865 0.3249956 0.3449658 -0.5175299 -0.31313583
0.16557306 -0.29303482 0.048085768 -0.22904238 -0.02232324 0.3705135 -0.40818694 0.087539926
-0.61858475 0.036141522 -0.19604237 -0.3792203 -0.21698481 0.10103529 -0.005423637 -0.31269982
0.7438992 0.42302498 -0.6737137 0.32165855 0.20970601 0.36470065 -0.38282156 -0.4359371
0.3455785 -0.2509233 0.16281825 -0.2442617 0.6819721 -0.110033356 -0.15203577 0.17379509
-0.35812506 0.26422703 -0.056227062 -0.09971582 0.21582615 0.37355497 0.7696789 0.58852655
-0.26774547 0.15228617 0.8103096 0.007061129 -0.2904826 0.49022862 0.08570256 -0.00044805242
-0.7742637 -0.09993529 -0.0018006953 -0.07312866 0.46355534 0.13503039 0.6869399 0.7905792
0.7977488 0.06266951 0.23928091 0.44443697 0.08309194 0.48063657 0.2680926 0.86643505
-0.3120439 0.5382997 0.25278506 -0.6870955 0.74111325 -0.14237183 0.16242805 0.017405648
0.44163075 -0.42158177 0.21033242 -0.6110207 -0.07378467 -0.266701 -0.37558588 -0.35621586
0.21041577 -0.17727318 0.4579855 -0.05704001 0.45133483 0.23775771 -0.39460728 0.23297161
0.46768096 -0.059062425 0.20645444 0.62391984 -0.109253146 -0.5022722 -0.23153055 -0.09929646
0.11117281 -0.14217748 0.04322055 0.1617298 0.013707193 0.21248718 -0.28510413 0.27248147
-0.32118574 1.0060416 0.13136573 -0.24526472 -1.4252211 0.28053936 -0.23412508 -0.9293315
-0.8243788 0.20572384 0.383092 0.5043257 0.029737804 1.531472 0.11770425 -0.40315616
0.7438952 -0.07843074 7.413912e-05 -0.90609443 -0.5616225 0.21496186 -0.14111413 0.26593044
0.06428836 -0.38809162 0.19649422 0.014844562 -0.47204328 0.33427656 -0.23529936 0.22051497
0.602955 0.37764028 0.29579288 1.1720383 -0.1491431 -0.29912293 -0.3655723 -0.20464712
-0.41632834 -0.36923605 -0.24399003 -0.10141535 -0.24942853 -0.13435067 -0.47688347 0.31427243
-0.4067815 -0.15446052 1.1632786 0.012084789 -0.16446146 -0.06453208 0.35017815 0.083082266

bias_ih_l0 f4 [400]
00000000: 974e 07bf 0579 a5bb 87b8 b4bc 946a 253e
00000010: b8dd 453e ebb7 b83e 2c8f f3bd 43e1 19bc
00000020: 9837 cd3e dcba 163f 6570 af3d eb15 8cbc
00000030: e2af a5bd 57ec e33d cbfc 2abe 5e54 7b3d
00000040: 80dd 99be 1f8f 66be 857e c13d 4f5a c5bd
00000050: 31b9 c9bd 8f7d d5bd adbd a8be 4b73 1abd
00000060: 10df f3bd 0976 2dbe 01ca 31be 8862 683e
00000070: 2c34 b43d 0569 223e d82c c3be 7385 8a3e
00000080: 59ba 44bd 6adc 5bbc 368c 61bb 5001 02be
00000090: a49d 55bc 3bb1 bc3d fce3 373e ed28 343e
000000a0: 9296 b13e 920e d13e bd7e 62bf bbfc 4abe
000000b0: 33e0 1ebe 8858 9cbe 629b e93e c079 c7be
000000c0: 0ae1 2cbe 0742 fbbc e07e 8fbe cc5b bdbd
000000d0: ca4f 32be 9862 5ebc e01c 84bd 01a0 9e3e
000000e0: c4dd 12bd 4167 223d 6371 873e e087 a1be
000000f0: bd16 0dbd 3c49 303f f8d3 80bd 04c3 a8bd
00000100: 86b3 8ebe d9e2 03bd 2d91 88be dabd 58bf
00000110: 94bd bfbe 838e 453d 80fa 463e ee7a 363e
00000120: ec24 ccbe b06c 543d decf 2a3f 83e8 98bd
00000130: 349c 803e fb3a a43e aea0 083f cdf1 3f3d
00000140: 8973 f43e 0e26 b73e c4ac 803e db54 c13e
00000150: d6fe b7be 8bad 0b3d 11c4 c8be afc2 f4bd
00000160: e012 fabe b431 bcbe ce39 39be 087a 8d3d
00000170: 73c6 843e 150c 923d 9e49 293f c068 723d
00000180: e2aa 26be 38d6 a53d 7927 6b3e 907a 44be
00000190: ea2a 0d3f 3f54 76be 8259 bd3c 1cd6 093e
000001a0: 0149 183c ddba b43e d51c 3d3e 7471 8c3e
000001b0: 55df 273e e05e d73d a06a 0b3e 9ab4 ca3d
000001c0: 958b 393e e319 773e 95a6 69be d17e aa3e
000001d0: 88b4 8cbd 34ae 0b3f 8f1b 213f cf67 f73d
000001e0: 3262 b13e bb4e 1d3e 3287 db3b f23d 333d
000001f0: 04ae 8b3e da63 0cbd cdf9 89be 08a5 6bbb
00000200: 8f96 4bbe d6fb 2f3e b87a 973d 8843 923b
00000210: e75c aa3d db48 4d3e 7e65 d13d 7a1f 9fbd
00000220: 8247 1fbc 297f 0e3e b674 b1bd 8622 073e
00000230: a9ea 5fbd f4d1 3d3e a304 843e d62a 043f
00000240: 56df 7a3e d333 1f3f ad61 693b 48d0 23be
00000250: 4350 2c3e 145c c93e 3c16 893e 5d70 a83e
00000260: 1fe6 ae3d fd63 39bd 0eef c33c 17bb bd3d
00000270: 5535 4f3d 1d54 103e 4a18 033e 0bc8 583e
00000280: 7ef6 933d b738 173e 9fab 413e 5737 893d
00000290: a752 583d b345 a73e 2385 a33d f742 3a3d
000002a0: 3212 f63d 2728 c03d 50b4 d4bd 92df 043e
000002b0: 3337 233e 4529 1a3d 4e92 6d3e 86f7 043e
000002c0: 2ba6 283e a1fb 8a3e 3a19 b93e c9c6 913e
000002d0: 721f 2dbe 957e 0f3e e74a 753d 2819 8c3e
000002e0: 0280 fabd ed33 a43e 8a31 023f a416 0a3e
000002f0: a772 96ba 3002 713e 023e 653d c334 de3d
00000300: 1f08 2b3e 24d4 81be 05f2 d13e 8b0b 7d3d
00000310: 290c 853e 0245 563e 8e0f ad3e ffda efbd
00000320: 959c 18bd 954a 5ebe 601f 33be efa3 b7be
00000330: 585d 08be 0ef8 febd c80f 82be 4eca 8e3e
00000340: 1431 863d 29e0 64be 3ac7 4abe 2d9e 703e
00000350: 21e8 06be 54e5 b43e c6a4 bd3e 0e53 b83e
00000360: 4562 e43d 53da 213e a9ab c43e c9be 80be
00000370: 543e 49bd 7db5 0abe e0d4 903c 1bf3 ddbd
00000380: a4ba 543d d0d2 583e ce99 e83e 96bc c2be
00000390: d315 65be c95e 57bc 4403 9c3d 311e e33d
000003a0: 2529 2d3c 0e68 81be 90e0 74bd 57c2 7dbd
000003b0: 1cdd ecbc 664e b93d 26fc d03e ac33 95be
000003c0: 5ee0 b5be 2091 c33e 861e 383d 2997 a73d
000003d0: e14f 423e 359d 033e 7bc3 e53d 9537 2dbf
000003e0: 36a9 4cbb caba 5f3e 4a83 7c3e b8f4 2ebe
000003f0: ec26 db3e c4ca 963e 9f1e 4cbe 0cb8 5abe
-0.52854294 -0.005049827 -0.022060646 0.16153938 0.1932286 0.36077818 -0.11892542 -0.0093920855
0.40081477 0.58878875 0.085663594 -0.017100295 -0.080901876 0.111290626 -0.16697995 0.061359756
-0.30051804 -0.22515534 0.0944796 -0.096363656 -0.098497756 -0.10424339 -0.3295721 -0.03770761
-0.1190778 -0.16939558 -0.17362215 0.22693837 0.087990135 0.15860374 -0.3812015 0.2705494
-0.048029277 -0.01341925 -0.0034415848 -0.12695813 -0.013038073 0.092134915 0.17958063 0.17593737
0.3468519 0.4083143 -0.8847464 -0.19822972 -0.15515213 -0.30536294 0.4562636 -0.38960075
-0.1688272 -0.030671133 -0.28026485 -0.092460245 -0.1741325 -0.013573311 -0.0645082 0.30981448
-0.035856023 0.03964925 0.26453695 -0.31548977 -0.034445513 0.68861747 -0.0629043 -0.08240321
-0.2787134 -0.03219876 -0.2667326 -0.8466469 -0.37449324 0.048231613 0.19431496 0.17820331
-0.3987192 0.051861465 0.6672343 -0.07466223 0.25119174 0.3207625 0.5337018 0.04686146
0.47744396 0.3577122 0.2513181 0.37760052 -0.35936612 0.03410105 -0.39212087 -0.119511954
-0.48842525 -0.3675667 -0.18088457 0.06908041 0.25932655 0.07131211 0.66127956 0.05918193
-0.16276124 0.080974996 0.22964276 -0.19187379 0.55143607 -0.24055575 0.02311397 0.13460582
0.009294749 0.35298815 0.1846803 0.27430308 0.16393788 0.10516143 0.13614893 0.09897728
0.18119653 0.24130969 -0.22817452 0.33299878 -0.06870371 0.5456269 0.62932676 0.12080347
0.3464523 0.15362065 0.006699466 0.043760248 0.272812 -0.034274913 -0.26948395 -0.003595652
-0.19881652 0.17185912 0.073964536 0.0044636168 0.08318501 0.20047323 0.10224436 -0.077696756
-0.009721639 0.13915695 -0.08664839 0.13196763 -0.05466715 0.18537122 0.25784788 0.5162786
0.24499258 0.6218845 0.0035611198 -0.15997422 0.16827492 0.39328063 0.26774776 0.32898226
0.08539986 -0.045261372 0.023917701 0.092642 0.05058797 0.14094587 0.12802234 0.2117006
0.07224749 0.14767729 0.18913125 0.06700008 0.0528132 0.32670364 0.07984378 0.04547402
0.12015189 0.093826585 -0.103859544 0.1297591 0.15939026 0.037637014 0.23200342 0.12985048
0.16469638 0.27145103 0.3615206 0.28471974 -0.16906527 0.14013131 0.059885886 0.27362943
-0.12231447 0.32070866 0.5085684 0.13485199 -0.0011478261 0.2353599 0.05596734 0.10849907
0.16702317 -0.25357163 0.4100496 0.061778586 0.2598584 0.20924762 0.3380093 -0.11711692
-0.037258703 -0.21708138 -0.17492437 -0.3586726 -0.13316858 -0.124496564 -0.25402665 0.2788872
0.0655233 -0.22351135 -0.19802561 0.2349784 -0.13174488 0.35331213 0.37039775 0.36000866
0.11151556 0.1580594 0.38412216 -0.25145558 -0.049131706 -0.13545795 0.017679632 -0.10837384
0.051935807 0.21174169 0.45429844 -0.38034505 -0.22371607 -0.013145157 0.0761781 0.11089743
0.010568892 -0.252747 -0.059784472 -0.061952915 -0.028914027 0.090481564 0.40817374 -0.29140985
-0.3552274 0.3819666 0.044950984 0.081831284 0.18975784 0.12852938 0.112189256 -0.67662936
-0.0031228787 0.21848598 0.24659458 -0.1708554 0.42803133 0.29451573 -0.19933556 -0.21359271

bias_hh_l0 f4 [400]
00000000: f286 0bbf 6016 babd bebb 593c 1721 a73e
00000010: ad5e 503e 5036 953e 6fbe e4bd 4862 78bd
00000020: bd39 b33e 2cad 293f 310c c43c 1144 48bb
00000030: a87f 41bd 2ea3 993d 67a7 3abe e198 853d
00000040: ca2c 61be 9608 29be c84f 763d 1eca 173d
00000050: 02e6 0cbe c2fd 69be a185 f9be 8aba 96bc
00000060: a853 2abe 2c7c 8bbe e695 a3be a72e 893e
00000070: aabd 333d 8ff9 8b3e 1d03 93be 382d 9f3e
00000080: c7bb b3bc 23c6 783d 0135 2f3d 73bb 17be
00000090: a0da fabc d726 c93d e680 433e a22c 623d
000000a0: 353d d63e c997 d73e 77fc 72bf f930 66be
000000b0: 210e 0dbe 1c89 dbbe c42d 013f c84d c7be
000000c0: c912 aabe abaf 93bd ad9e 97be 124b 65bd
000000d0: 1a81 24be 7a39 733d 2088 60bd 074f 103e
000000e0: 8fb5 393d c60c f0bc 4742 2f3e d8d5 80be
000000f0: 655c 4dbd 57a3 403f 2de9 d5bd e168 26bd
00000100: b0ed e0bd 1714 18be 55d1 87be ed8e 55bf
00000110: cfcd ebbe 403b d7bc 851e f73d 4390 ee3d
00000120: a215 c8be fd62 0bbe 4b07 313f 6fde 54bd
00000130: 264d 693e e5f7 fc3e 0c5b ee3e cb27 913d
00000140: 3222 de3e 5f47 023f cf83 c73e 179b bc3e
00000150: 75b5 d2be 4aad 763d 9a48 ddbe a7ea 92bd
00000160: e4d7 04bf 4011 83be 9665 adbd 4fdd 63bc
00000170: 3b22 d73e babc 1f3d e2e1 283f 3959 08bc
00000180: d188 30be 2ce5 c43d d99d 853e 0826 3bbe
00000190: d949 173f ddf0 e4bd 98b9 1c3e b1d1 1e3d
000001a0: 2659 583d 2965 4e3e c192 9a3e b4dc 923e
000001b0: 9b38 3e3e d143 e33d f016 ba3d 0956 bc3b
000001c0: c154 253e 95cd ee3d 492b 1dbe f4d8 7d3e
000001d0: 73c6 e3bc ac70 0a3f 9de0 0a3f 64a0 b7bc
000001e0: 66b4 a43e 258d a83e 7a35 14be 5467 353d
000001f0: 384d 7e3e e105 ebbd 5704 00be caf3 15be
00000200: 0e21 33bd af5a 5b3e 0b1e 9fbd 8a59 94bd
00000210: 59a7 233e a20c 753e e7c0 693e b144 b5bc
00000220: 38f4 1dbd cb7e 3a3e 5dbf 693d 3e11 9f3e
00000230: 8f6c b7bc f785 073e 7020 8f3e 09c6 0c3f
00000240: 3602 703e d366 103f e05d 333e 0894 a1be
00000250: 3e57 343e d100 e73e f558 803e 07c0 963e
00000260: 609d 143e 6c7a 9b3d c8b9 52bd 4d2d 8ebc
00000270: e720 3b3b 943c ec3d a490 013e d262 aa3e
00000280: cabf 443d 15a6 5e3e ed03 123e dc4b bf3c
00000290: b7ef 993d afc4 213e 7a5d 2d3e b327 8abd
000002a0: a71e 2b3e d8a9 51bd 9663 fbbd 2755 183e
000002b0: 75f5 2c3e b577 e13d 5893 413e a6b5 3b3e
000002c0: c66d b83d 343b cb3d 7d6c 843e 5cab a93e
000002d0: 56f0 27be 67ab e93d 03f4 943d ec30 883e
000002e0: da3e 95bc 6363 5f3e a6e3 f83e 7cb1 483e
000002f0: 803e 563c 03aa c93d 3c3d c23d df67 733e
00000300: d407 653e b2d8 50be 144b bf3e 1430 3b3e
00000310: b450 7d3e 6308 6b3e dc84 eb3e af6f 9bbd
00000320: 14d6 bc3d 8aa3 42be fe8e 58be a71b bcbe
00000330: de49 c03c be82 10be 324b 96be cdf2 833e
00000340: e544 d23d ac09 70be 3fd2 27be 6c4e 3d3e
00000350: 7243 70bc b41d a63e cd61 933e 0ca0 c03e
00000360: bbab 403d 1114 0e3e 1bfa c13e b900 c4be
00000370: 71db c8bd e051 93be 1a60 053e 7a4e 15be
00000380: 7447 3c3e 1c01 893e fbd6 a63e 83be b5be
00000390: ecb8 8dbe 10c1 14be 5b0c eabd 6838 883d
000003a0: 9f50 8e3d 565b 06be ea62 b8bd df84 0cbe
000003b0: 3d8a e2bd d6d0 513d e39a a53e dc1e 76be
000003c0: e348 98be b1a8 4f3e 0818 2dbb 0192 fe3d
000003d0: b001 803d f1fb 563d 319a 3b3d e442 3dbf
000003e0: 1779 b73d 0408 933e 2a91 843e 1774 f2bd
000003f0: 43cf a03e fa6f 7b3e e658 13be 705b 80be
-0.54502785 -0.09086299 0.01328939 0.32642433 0.20348616 0.29143 -0.11169135 -0.060640603
0.35004988 0.66279864 0.023931595 -0.003055815 -0.047240883 0.07501827 -0.18227921 0.065233
-0.21989742 -0.16507182 0.06013468 0.03705799 -0.13759616 -0.22850707 -0.48734763 -0.018399496
-0.16633475 -0.27243173 -0.319503 0.26793405 0.04388205 0.27338836 -0.28713313 0.31089187
-0.021940125 0.060735833 0.042775158 -0.148176 -0.030621827 0.09821861 0.1909214 0.055218346
0.41843572 0.4210799 -0.9491648 -0.22479619 -0.13774921 -0.42878044 0.5046046 -0.3892653
-0.33217457 -0.072112404 -0.29613248 -0.055979796 -0.16064873 0.059380986 -0.05481732 0.14092647
0.045339163 -0.029302966 0.17115127 -0.2516315 -0.050136942 0.75249237 -0.104448654 -0.040627364
-0.10982835 -0.14851414 -0.26526895 -0.8342121 -0.46055457 -0.02627337 0.12066368 0.116486095
-0.39079005 -0.1361198 0.69151753 -0.05196994 0.22783336 0.4940788 0.46553838 0.07087668
0.43385464 0.50890154 0.3896775 0.36837074 -0.41154066 0.060223855 -0.43219453 -0.07173663
-0.5189192 -0.25599098 -0.084666416 -0.013907745 0.42018303 0.038998343 0.6596967 -0.008322054
-0.17239691 0.096140236 0.2609699 -0.18276227 0.5909706 -0.111787535 0.15305173 0.038774196
0.052819394 0.20155777 0.3019009 0.28684008 0.18576281 0.11096919 0.09086406 0.005747561
0.16145612 0.116603054 -0.15348543 0.24789792 -0.027804589 0.54078174 0.5424898 -0.022415347
0.32168883 0.32920185 -0.14473525 0.044287995 0.24834144 -0.11475731 -0.12501656 -0.1464378
-0.043732695 0.21421312 -0.07769402 -0.07243641 0.15981807 0.239306 0.22827493 -0.022127481
-0.038562983 0.1821243 0.057067264 0.31067842 -0.022390632 0.13234697 0.27954435 0.5498968
0.23438343 0.564069 0.17516279 -0.3155825 0.17611405 0.4511781 0.2506787 0.2944338
0.14513159 0.075917095 -0.051446706 -0.017355585 0.0028553547 0.11534992 0.12652832 0.3327852
0.048034467 0.21743043 0.1425931 0.023351602 0.07516425 0.15797685 0.1693019 -0.06745853
0.16710912 -0.051187366 -0.12274854 0.14876233 0.1689051 0.110091604 0.18903863 0.18331012
0.090053126 0.099234015 0.2586402 0.3313855 -0.16400275 0.114096455 0.07273104 0.26599824
-0.018218447 0.21815257 0.48611182 0.19598955 0.013076425 0.0984688 0.09484336 0.23770092
0.22366267 -0.20395163 0.37361968 0.18280059 0.24737817 0.22952418 0.459998 -0.07589661
0.0922052 -0.19007698 -0.21148297 -0.36739847 0.023472723 -0.14112374 -0.29354244 0.2577118
0.10267047 -0.2344119 -0.16388796 0.18486947 -0.014664518 0.32444537 0.28785554 0.37622106
0.047038775 0.13874842 0.37886128 -0.382818 -0.0980748 -0.28773403 0.13024941 -0.14580718
0.18386632 0.2675866 0.32585892 -0.3549691 -0.27680147 -0.14526772 -0.11428138 0.06651384
0.06948971 -0.1312078 -0.09003241 -0.13722561 -0.11061523 0.051224552 0.32344732 -0.2403521
-0.29743108 0.20279194 -0.0026412029 0.12430192 0.06250322 0.052486364 0.045801345 -0.7393019
0.08958643 0.28717053 0.25892 -0.11838549 0.31408128 0.24554434 -0.14389381 -0.2506976

weight_ih_l0 f4 [400, 1]
00000000: 1b41 b9bf 39bd 21bf 99b6 293e 4d3e bf3f
00000010: d6d5 993e e14c 2dbe 26cc d43e f699 bf3e
00000020: 3f48 923e b04a de3d 2a79 a6bf 7378 b03e
00000030: 0c5a debf 20e6 f03e bfe3 883e dbf4 13be
00000040: e9ae 42be 19e2 143e 6a0f 93bf 521a d6be
00000050: 9989 263e d6b4 13bd 5515 233e f2ed 15bf
00000060: b476 1840 ebb7 82c0 95ee 1a40 714b 703f
00000070: 93bb a23e 013f 293f d2fc 7d3e bb97 743d
00000080: 1371 c6be 5205 013e f789 543f d059 543e
00000090: 0f2e d03e 1f31 f1be f202 c1bd a4fc e73d
000000a0: 70a7 cbbf 207b 993f a0a6 8d3e 1c44 9fbe
000000b0: 7a1a babe 2a22 a73f 6e97 20bc 13d8 febc
000000c0: 2fdb 4dbf d323 993e 8e84 95be a182 233d
000000d0: 6bdd 87bf 64f9 ccbf f7b2 53bf 50e3 393f
000000e0: e974 34c0 a155 fd3f e3dc 143f eb08 58be
000000f0: 54b2 17bf cdc9 22be 91f5 113f 776b d6bf
00000100: 4da9 f43f b960 25bd cfe1 83bf 99e8 fa3e
00000110: 16f0 8b3f 4cae bbbf a555 833e 0065 5e3f
00000120: 8fcc 2abe 1e3a db3c a4c3 6e3f 64a3 5dbe
00000130: 85a7 6f3e 0301 703f 8c99 dbbe 36b8 0a40
00000140: 9fe2 993e 3f63 f93d 5d6c d03e 1ba0 3e3e
00000150: 4de3 583f f335 fe3e 11a9 233f 2164 e9bf
00000160: 1269 603e a0cd b2be f3f9 92bf 5ea1 f3bd
00000170: 2bd3 073f ab9f debe 9351 743c 9518 1ebf
00000180: 9dc4 36bf b69d 1dbd 8c5d 8e3f 5271 abbd
00000190: 97ea 67bd b35c 4abf 7092 8e3f 4af9 e93f
000001a0: 0f58 463f c2b7 853e 09ce 843f 3f68 613f
000001b0: 3d1f b33d 9c00 c33e b61a 5bbf c6c6 0cbf
000001c0: b039 1cbf b138 9abf a684 30bf 2912 ddbd
000001d0: 8b5c 7abe 7dce d7bf be98 b8bc 868b 833f
000001e0: bedd 323e 0972 c53e 26a6 b93e e3e9 a4be
000001f0: 94c2 b43e f592 2ac0 12f6 bd3f 48b9 7d3f
00000200: dd57 673f d8a0 373e 61c9 a53e b4a5 3b3c
00000210: 1d0d 0c3e b05e 1ebd 258b 293f 0b33 0b3f
00000220: dea1 8c3f f2c3 b2be ba76 ddbe 6fe6 573e
00000230: f922 333e 3a75 413f fb54 cc3e 56cd 1fbf
00000240: 9a5e 58bf c7e8 8a3e d1c9 183f ea32 e03e
00000250: 55ae 77be 97b3 d53e 3ec8 aebe 0890 48be
00000260: fbd5 0ebf 57b5 1cbf a690 0dbf c70e 603d
00000270: c0e5 053f 992a 3e3f b95e 273f b80e 02bf
00000280: 2b19 b7be aa80 ac3f bcf3 a73e 5903 f5be
00000290: 0324 1340 9d16 073e f46e 08be b2a8 b53e
000002a0: 62ea de3c 248f 05bf a6b1 1d3e b6f9 163f
000002b0: 6dbc b73e fe6f 823e edb7 573f f456 893f
000002c0: a8a0 c73e 0c0d 2740 a0dd e33d 3b45 603f
000002d0: e79d 06be bfcf 9b3e 9e67 9e3e 3925 163e
000002e0: ae40 10bc 1597 5b3f a69c 373f 1466 66bf
000002f0: 84c9 b93e 245d b2be 1a14 8ebe a9f8 e8be
00000300: b85c d53e e957 4dbf a295 34bf 9a95 40bf
00000310: 9ad4 4ebd ac28 08bf e7a3 533f 5809 753f
00000320: fd25 26bf 685a 993e f08c 013f 9a77 fdbe
00000330: ea6e d2be 23a6 21be 6410 44be 3db7 8ebe
00000340: 704d 803e cada 0d3f 3326 c7be c1f8 f73e
00000350: 31fa 16bf 9c79 353f 08cd 0d3e f536 243e
00000360: 2b11 37be 6442 293f 5565 2f3f 0344 4cbf
00000370: 952e ca3e 72be f8be e63c c3be 9ab4 613e
00000380: cb89 6b3f 34d1 cbbf 6af0 86bf ccff 91be
00000390: 52fb 183f 5a43 f4bb 7cdb 903e 707d d23e
000003a0: 80a9 4fbe 1bbc f23e 4071 c73e 4f84 bf3e
000003b0: 2060 263f 6a6a e9be 8835 9cbe 202f c2be
000003c0: 2603 1d3f e260 c2be 789b abbe 9b50 da3e
000003d0: 0bec 1fbf 7119 6a3d 8ac9 bcbe d046 9a3e
000003e0: 3621 12bf 5774 ad3e 25f7 aabe 0be7 6b3e
000003f0: 1609 01bf b4e6 90bf 29ec 99be 9614 91be
-1.4472994 -0.63179356 0.16573562 1.4940888 0.30045956 -0.16923858 0.41562003 0.3742215
0.28570744 0.10854089 -1.3005726 0.34466895 -1.737123 0.4705057 0.26736256 -0.14448874
-0.19012035 0.14539374 -1.1489079 -0.41816956 0.16263427 -0.03606113 0.15926106 -0.585662
2.382245 -4.084951 2.420812 0.93865114 0.31783733 0.6611176 0.24803475 0.059715014
-0.38758144 0.12599686 0.8302302 0.20737386 0.4066014 -0.4710779 -0.0942439 0.11327484
-1.5910473 1.19907 0.27666187 -0.3110665 -0.36348325 1.3057301 -0.009801729 -0.031108892
-0.8041257 0.29910144 -0.29202694 0.0399195 -1.0614446 -1.6013608 -0.82694954 0.72612476
-2.8196356 1.9791757 0.58149546 -0.21097152 -0.5925648 -0.15897293 0.5701533 -1.6751546
1.9114166 -0.040375445 -1.0303286 0.49005583 1.0932643 -1.4662566 0.2565128 0.86872864
-0.16679595 0.02676111 0.93267274 -0.2164436 0.23403747 0.93751544 -0.42890584 2.1674933
0.3005571 0.12177133 0.40707675 0.18615763 0.84721833 0.49650535 0.6392985 -1.8233682
0.21915081 -0.34922504 -1.1482528 -0.11896013 0.5305659 -0.43481192 0.014912027 -0.6175626
-0.7139376 -0.038480483 1.1122298 -0.083712235 -0.056620207 -0.790477 1.1138439 1.8279202
0.77478117 0.2611676 1.0375377 0.8804969 0.087461926 0.38086402 -0.8558763 -0.54990804
-0.61025524 -1.2048551 -0.68952405 -0.107944794 -0.24449365 -1.685989 -0.02253377 1.0276954
0.174674 0.38563564 0.36259574 -0.3220969 0.353047 -2.6652195 1.484072 0.9911084
0.90368444 0.17932451 0.32380202 0.011453081 0.13676877 -0.03866452 0.6622794 0.5437476
1.0986898 -0.3491512 -0.43254644 0.21083997 0.1749381 0.755695 0.39908585 -0.6242269
-0.8451935 0.2713072 0.5968295 0.43788844 -0.24187596 0.4173858 -0.34137148 -0.19586194
-0.5579526 -0.612142 -0.5529884 0.054701593 0.52303696 0.7428375 0.6537891 -0.5080371
-0.3576139 1.3476765 0.32803142 -0.47854117 2.299073 0.1319222 -0.13323575 0.35480267
0.027211372 -0.5217154 0.15399799 0.5897478 0.35885945 0.25476068 0.84265023 1.0729661
0.38989758 2.6101713 0.11126256 0.8760564 -0.13146172 0.30431935 0.3093843 0.14662637
-0.008804483 0.8577741 0.717234 -0.8999951 0.36286557 -0.34836686 -0.2774971 -0.45502213
0.416723 -0.80212265 -0.7054082 -0.75228274 -0.05049572 -0.5318706 0.8267197 0.9571738
-0.64901716 0.29951787 0.5060568 -0.4950531 -0.41100246 -0.15786032 -0.19146878 -0.27874175
0.2505908 0.5541197 -0.3889633 0.48431972 -0.5897551 0.70888686 0.13847744 0.1603659
-0.17877643 0.6611693 0.68513995 -0.7979128 0.39488664 -0.48582798 -0.381324 0.2204155
0.9200713 -1.5923219 -1.0542119 -0.2851547 0.59758484 -0.007454318 0.28292453 0.41111326
-0.20279503 0.47409138 0.3895359 0.3740563 0.64990425 -0.45589 -0.3050959 -0.3792658
0.6133293 -0.3796454 -0.3351705 0.42639622 -0.6246955 0.05715317 -0.36872512 0.3013215
-0.57081926 0.33877823 -0.3339168 0.23037355 -0.5040449 -1.1320405 -0.30062988 -0.28336018

weight_hh_l0 f4 [400, 100]
00000000: cd0d 1abe 78e9 de3c 0b29 72be 2e88 37bc
00000010: 13a7 78bd 7610 333e e089 f73e e010 663e
00000020: 3544 17bf c16a d03e 3002 0a3e d8e7 2c3f
00000030: 118f 47be f6e8 e73c 47dc c43e 21e3 133f
00000040: bc7f 593d e486 8bbe 92bc 553e 9fb0 4cbd
00000050: 32ad ad3e adf5 22bf cfd6 1fbe f9a3 96bf
00000060: 0ed9 b0be e002 e73d a962 b4be 02a7 84be
00000070: f5a2 c23e 6ea4 ffbe 785a f23d d98d 1b3e
00000080: 7187 32bc 15b5 d23e 5edb d8be e25f d83e
00000090: b3c6 a33d d637 c7bd f7fd b13d 821e 02bf
000000a0: df8f 87bc fd9f 343e ce00 77be 70b3 8a3e
000000b0: a0db de3d 1568 9fbe 4419 bcbe a6eb 7a3f
000000c0: 6749 9dbd 0723 c3be c721 ed3d 3f21 12bf
000000d0: 2bb0 f6be 6b08 41bf 633c 81be 2b76 15be
000000e0: 3299 97be c78f dd3e c511 543e 89e7 86bb
000000f0: 28c8 f43e 94f9 6ebe 25da 053e ed82 c83e
00000100: a17f 7b3d d218 12bf 87f9 51be c6e4 343d
00000110: fda5 10be c36f 8dbe bd9f e63e c3f4 29bf
00000120: e74f f43e ac5a 9f3d 28bf a5be cacf 12be
00000130: 6268 25ba 8b3d 64bd b656 4c3e 758c 363f
00000140: c83d 763d 646b 85be 8d70 a33b f18b 113e
00000150: 660a bcbe 98e4 5b3f dc06 a43e 8d3f 493e
00000160: 1fe9 763f 5fc3 35bf 210b 9bbe b2ca cd3d
00000170: ee50 ec3c 5e12 67be b7db 9ebd 017e 26be
00000180: 86b6 fb3e bc85 393e 86ab 8d3e 6c33 20bf
00000190: f334 963e 8f72 d73d 6d7f 79be 6034 773e
000001a0: 21b6 8bbe ff52 453e 4091 97bd 916b b2be
000001b0: 004e ca3b 9ca3 c8bc 0770 433e 8e35 b13e
000001c0: 9fc4 8abd 6ef0 81ba 56cd 82be 0e57 3d3e
000001d0: a899 0c3f 928a 6b3e 37ac 6abe dc10 cbbd
000001e0: 66b9 693e cccc 76bd 6406 35be 8400 b0be
000001f0: 01f3 0dbe 935c c13d a6a9 613d e9ec 963e
00000200: 8d1b a9bd d0cb 403e 580f a03e e484 963c
00000210: fd2c 89be 00c0 533e 1ea9 843e cf26 823d
00000220: 246d 493d 5f42 c2bd 631a bdbd 4d1a 84be
00000230: e800 98be 694a 3abd 229b 99bd 67b2 8dbd
00000240: e200 bcbd 8a37 0f3f cf78 3abd 6e7c 773e
00000250: f313 c3be 4f03 4c3e d130 92bd 8d6a a4bd
00000260: e579 37be 1a7d b83d 1fc5 8ebc 4267 c6bd
00000270: 33fe 593e cc89 593d ff61 1a3d e240 003e
00000280: 6d4b 2b3d f489 e4bd 0a47 193e e605 71bd
00000290: 63fe 813e 6b5e 7fbc b478 103e 1b52 96bd
000002a0: bbf5 613c dbe1 663d 068b 16be d656 3bbd
000002b0: 700d 07be 8b95 c5be e537 3dbe ef4f 53be
000002c0: b623 523e 0c3d 293e 773d 61be 8f37 973d
000002d0: bd13 273d c510 3ebe 4aac 02bb 7716 cd3d
000002e0: 86d1 a03d 0210 563d a9fd 2c3d b438 53be
000002f0: 89e4 e4bd 73c0 4fbe 5b2b 503d 3a19 653d
00000300: a58f d73c 5570 1d3d c140 303e 39a9 813d
00000310: ac59 903e 1d9b e8bd 20f8 36be 2804 973c
00000320: b496 073e 85b6 4bbd 042f ea3d 0e46 1c3e
00000330: 9280 a73b e4ce 563c 68bc 0dbe 1404 e7bd
00000340: 7eaf ba3e e1dc 733f 0df8 12bf 1f75 d9be
00000350: 3932 8f3e 5224 c7be c4fe 08bf 7d26 4b3d
00000360: 1af8 a0be 4d3f a2be 1cd2 9bbc 5999 e9bd
00000370: 8d7a 39be 37a3 ca3c ab1c babd 4748 8fbd
00000380: 7a4c e53e c988 9cbe bfd0 b43e c888 673e
00000390: cc6d f3bd c41d 04bc 164c 973d f580 8bbe
000003a0: 7e2b b13e 2b02 fc3f 373b 8b3e d205 29be
000003b0: d4d2 a13d 69b3 5bbf e3e5 1b3e b499 9d3e
000003c0: 79a5 eebd cd63 81bd c4c4 9e3c 6911 bcba
000003d0: ff14 5f3e 5472 a9be 2307 4b3d 323e dd3c
000003e0: fe5d d23e 8884 82be 28f1 5c3e df8c 88be
000003f0: d92d d5be f63b 193f 7eea 20bf 0e05 36be
-0.15044327 0.027210936 -0.23648469 -0.011201901 -0.06070621 0.17486748 0.48347378 0.22467375
-0.5908845 0.40706447 0.13477397 0.67541265 -0.19488169 0.028309327 0.38449308 0.57768446
0.053100333 -0.2725135 0.20872715 -0.049973127 0.339212 -0.6365612 -0.15609287 -1.176879
-0.345406 0.11279845 -0.35231522 -0.25908667 0.3801495 -0.49930137 0.11833662 0.1519083
-0.01089655 0.4115378 -0.42354864 0.42260653 0.07996883 -0.09727447 0.08691018 -0.508278
-0.016548095 0.17639156 -0.241214 0.27090025 0.10881734 -0.31134096 -0.36738026 0.9801582
-0.07680016 -0.3811266 0.11578708 -0.5708198 -0.4818128 -0.7540347 -0.25241384 -0.14595859
-0.29609066 0.43273756 0.20709904 -0.0041169566 0.47808957 -0.23337394 0.13071497 0.39162388
0.061401013 -0.5706912 -0.20505343 0.044163488 -0.1412582 -0.2762433 0.45043746 -0.663891
0.4771721 0.07780966 -0.32372403 -0.14337078 -0.0006309805 -0.055722754 0.19954953 0.7130807
0.060117513 -0.26058495 0.0049877823 0.1421354 -0.36726683 0.8589568 0.32036483 0.19653149
0.96449465 -0.7100124 -0.30281928 0.10048427 0.028847184 -0.225656 -0.07756751 -0.16259004
0.49162692 0.18117422 0.27669924 -0.62578464 0.29337272 0.10519897 -0.24365015 0.24141073
-0.2728739 0.19269942 -0.07400751 -0.34847692 0.006173849 -0.024492078 0.19085704 0.3461117
-0.06775784 -0.0009913573 -0.25547284 0.1849024 0.5492196 0.23002079 -0.22917257 -0.09915325
0.2282463 -0.060253903 -0.17678219 -0.34375393 -0.1386223 0.09441485 0.05509343 0.29477623
-0.08257208 0.18827748 0.31261706 0.018373914 -0.26792136 0.20678711 0.25910276 0.063550584
0.04917635 -0.094853155 -0.092335485 -0.25801316 -0.2968819 -0.04548112 -0.07500292 -0.06918793
-0.09179856 0.5594412 -0.04552537 0.2416856 -0.38101158 0.19923137 -0.07138217 -0.080281354
-0.17917593 0.09008236 -0.017427979 -0.096876636 0.21288376 0.05310993 0.037691113 0.12524751
0.04181998 -0.11159125 0.14968506 -0.058843516 0.25389394 -0.015586476 0.14108545 -0.07339879
0.013791497 0.056367736 -0.1470147 -0.04573711 -0.1318872 -0.38590655 -0.18478353 -0.20635961
0.20521435 0.16527194 -0.21996103 0.07383644 0.04079031 -0.18561085 -0.0019939118 0.100140505
0.078524634 0.05226136 0.042234097 -0.206271 -0.11176402 -0.20288257 0.050822597 0.05593226
0.026313612 0.038437206 0.17212202 0.06331105 0.28193414 -0.113577105 -0.1786809 0.018434599
0.13241082 -0.04973461 0.11434749 0.15261099 0.0051117623 0.01311085 -0.13841403 -0.11280075
0.36462015 0.9525891 -0.57409745 -0.4247217 0.27968004 -0.38894898 -0.5351374 0.049597252
-0.31439286 -0.3168892 -0.019021086 -0.11406202 -0.18113156 0.02473603 -0.09087499 -0.06996208
0.4478491 -0.3057311 0.3531551 0.22610772 -0.118861765 -0.008063737 0.07387559 -0.27246824
0.34603494 1.9688162 0.27193615 -0.16506127 0.079015404 -0.85820633 0.15224414 0.3078133
-0.11652655 -0.063178636 0.019380935 -0.001434845 0.21785353 -0.33095038 0.049567353 0.027007196
0.41087335 -0.25491738 0.21576369 -0.26669976 -0.4163654 0.5985712 -0.62857807 -0.17775366

bias_ih_l0 f4 [400]
00000000: 6bc4 c63e 7d74 01be aaf6 68bd d422 06be
00000010: 6e64 8dbe 5ab3 c2be 34fd f8bd 170f 53be
00000020: 39ad 24be 860d c33e db81 b9be f47e 0bbd
00000030: 2238 bfbe 50dd cfbb f614 09be 349e 4fbe
00000040: c540 64be c846 653d fe96 123d bfe2 cc3e
00000050: ccb9 e0bd 7888 84bd cded 70be 6a87 4bbd
00000060: c8f9 a43b de05 143e f26d b3bd a7cb e4be
00000070: 46f7 83be 2741 a2be 20b8 88bd 3fcf fbbd
00000080: e393 ffbd 0a40 49bc c42b b6be cb1a 26be
00000090: 5c7a 7bbe bf35 9c3e 55be 9cbe e38e 17be
000000a0: e73a 29bf b13f b8be 7936 e3bd bdfb 92be
000000b0: 64f1 d53d de8b 5bbe 474f 08bd c138 64bd
000000c0: deae 8cbc 3cd0 77bc e1c0 9dbe 218f b9be
000000d0: d843 0abc 7a37 20be 51e1 89be 0c5a c0be
000000e0: e349 babc aa6c 1abf 3da8 5fbe f02e 99be
000000f0: 8ca9 913d 3a54 dc3e 1a6c d2be 2217 c7bd
00000100: 771f 623e aa75 a8be 7a73 b2bd b142 c5be
00000110: 0f87 443e b62c 083c 35bc 9ebe ccdb 23be
00000120: c192 99be cf40 7ebe 41b4 113d 1d3b 9cbe
00000130: 7c84 abbe f7a8 443e b3d2 cfbd 3a93 e1be
00000140: f0b6 c4be 8c72 07bd 652a 00bf 63a4 9fbe
00000150: 941e 58be e861 98be 2ea6 8abe 9781 b2bd
00000160: 501a 5abe 87b9 35be 3857 2c3f 6aeb 77bd
00000170: cbf5 34ba d176 eebd a175 b8bd 5830 5abe
00000180: 9826 303c 57cb 97be 5665 bebd 0a43 ad3e
00000190: 18ec abbc cb3a 35be b522 b8bd bea6 b9be
000001a0: 0a58 30be 8899 17bd c485 71bd 7809 29be
000001b0: ba3b 3b3f a80e 21bf 8ed1 74be 0bfd 71bd
000001c0: f86b 8fbe fe65 65bd 3a6d 29bc aeb9 14bb
000001d0: 4570 20bd c40c 013f 9e02 aebd 4f8b 11be
000001e0: badc 92bd c144 dbbc 1b20 713c bb2a 4bbe
000001f0: 0198 76be 8eb2 3dbf e683 79be b499 7fbe
00000200: d55e 56be 6798 60be 58d9 3ebe e1f3 30bd
00000210: 8f09 bc3c 244c e3bd 06ef 19be 2732 6abe
00000220: 693f bfbc 33ae 093d 2c58 2abe 997e 1fbe
00000230: bca9 d5be 1e01 25be e9b6 2b3d 631c 46bd
00000240: 997c bcbd add4 5dbe d7c5 953c cea9 80bc
00000250: 44ba ecbe 769e 40be 2160 113c 2d49 093f
00000260: a18b 92be 41a4 72bc 87a0 a2bd 5fb5 4ebe
00000270: 2bf6 20bd 8645 03be 2ce3 69be 49af eb3c
00000280: dd37 65be 7923 34bf b551 9bbe bf25 2dbf
00000290: d355 9cbe c004 cc3e 1892 b13d 8122 cd3c
000002a0: 3f86 dbbe 3f6a 72be 6f72 c03e fbc6 42bc
000002b0: 1047 733d 2612 df3d 2138 893c 5c7c 0e3e
000002c0: 46f7 d6bd 68b5 d4be 8ceb b8be c5f1 02be
000002d0: 8e36 babd 25c6 1cbd f03f 59be a926 943e
000002e0: b2c1 5ebe 8aa3 74be f8b5 9fbd 2953 23bd
000002f0: 93fc b7be 8e27 703b 5e90 40be 1b6b 833c
00000300: bc6d 06bd 3e1c 84bd 09b7 38be 6396 89bd
00000310: 2351 cbbd 95e4 c73c 99bf abbd b8ff 18be
00000320: 0153 4bbd 4c22 0e3d c20a a0bd 6a99 5e3d
00000330: cea0 9cbd dd2b 4ebc e7a8 943d 12a1 763b
00000340: 8096 a6bd 61c9 9cbc f2b9 94bd bd3c 5e3d
00000350: 8f56 563d 2a57 d33d 60ad de3d 1144 2abb
00000360: 7be1 94bc eeef 2e3d 943a 463d 9d72 c63d
00000370: 2c24 513b 1891 88bd 82f8 01bd a86d aabc
00000380: beac 3a3c 60d6 c5bc 58ca 24bc 1ab2 85bd
00000390: cc3e 983d fa23 90bc 2d68 0fbd 022d 0e3d
000003a0: 1441 693c 196b 413d 2943 70bd b90e 9e3c
000003b0: 2803 883d 005c e5bd b34f 51bc 161f 833d
000003c0: 8246 28bd 6d62 393d 9529 56bd 1af1 373d
000003d0: 6d9f 8fbd 25be 62bd b1e5 9abd 2bdb 663d
000003e0: ec71 98bd 3ac4 693c ec85 05bd 5138 f2bc
000003f0: b322 e5bc e399 26be a0c8 32bd 588b c9bc
0.3882173 -0.12642093 -0.056875862 -0.13099223 -0.27615684 -0.3802746 -0.1215767 -0.20611225
-0.16081704 0.38096255 -0.36231884 -0.03405662 -0.37347513 -0.006343521 -0.13386902 -0.20275193
-0.22290333 0.055975705 0.03578853 0.40016744 -0.10972938 -0.06471342 -0.23528214 -0.049689688
0.005034659 0.14455363 -0.08761205 -0.44686624 -0.25774592 -0.31690332 -0.06675744 -0.122953884
-0.12479379 -0.0122833345 -0.35580266 -0.16221158 -0.24558395 0.30509755 -0.30613962 -0.148006
-0.661055 -0.35986093 -0.11094374 -0.28707686 0.10446432 -0.21440074 -0.03327873 -0.055718187
-0.017173227 -0.015125331 -0.30811217 -0.3624201 -0.008439027 -0.15646163 -0.26929715 -0.375687
-0.02274031 -0.6032206 -0.21841522 -0.29918623 0.071124166 0.4303301 -0.410981 -0.09721209
0.22082315 -0.3290227 -0.08713432 -0.38527444 0.19192146 0.008311441 -0.31002966 -0.16001815
-0.29994777 -0.2482941 0.035572294 -0.3051385 -0.33499515 0.1920508 -0.101476096 -0.44057637
-0.3842082 -0.033068225 -0.5006469 -0.31180105 -0.21105415 -0.29762197 -0.2707991 -0.087161236
-0.212991 -0.17746554 0.67320585 -0.060527243 -0.0006903081 -0.11643756 -0.09006811 -0.21307504
0.010751389 -0.29647323 -0.09296672 0.3384021 -0.020986602 -0.17698209 -0.08990995 -0.36260027
-0.17221084 -0.037011653 -0.05896546 -0.16507518 0.7313801 -0.6291299 -0.23908064 -0.05907921
-0.2801206 -0.05600547 -0.010340983 -0.0022693682 -0.03916957 0.50410104 -0.08496593 -0.14213298
-0.071710065 -0.026766183 0.014717127 -0.19840519 -0.24081422 -0.7410058 -0.24366722 -0.24960977
-0.20934613 -0.21933137 -0.18637598 -0.04320133 0.022953777 -0.11098507 -0.15032586 -0.22870694
-0.023345666 0.033613395 -0.16635197 -0.15575637 -0.4173106 -0.16113707 0.041922484 -0.048366915
-0.092034526 -0.2166316 0.018282814 -0.01570597 -0.4623586 -0.18810448 0.008873017 0.5362728
-0.28622153 -0.014809669 -0.079407744 -0.20186375 -0.039297264 -0.1281949 -0.22840565 0.028770106
-0.22384591 -0.70366627 -0.30335775 -0.6763572 -0.3053423 0.39847374 0.08670443 0.025040867
-0.4287586 -0.23673342 0.37587306 -0.011888261 0.059393942 0.108921334 0.016750397 0.13914627
-0.104963824 -0.41544652 -0.36117208 -0.1278754 -0.09092437 -0.038274903 -0.21215796 0.28935745
-0.21753576 -0.2389051 -0.0779838 -0.03987423 -0.35934886 0.003664467 -0.18805072 0.016042283
-0.032819495 -0.06450699 -0.18038572 -0.06718137 -0.09927585 0.024400989 -0.08386154 -0.14941299
-0.049639706 0.034700677 -0.07814552 0.054345526 -0.076478586 -0.0125837 0.07258778 0.0037632626
-0.08134174 -0.019138994 -0.07262029 0.054257143 0.052328642 0.103193596 0.108729124 -0.0025980512
-0.018173924 0.042709284 0.04839571 0.096898295 0.003191243 -0.066682994 -0.031731136 -0.020804241
0.011393724 -0.024150074 -0.010058008 -0.06528111 0.074338526 -0.01759528 -0.03501146 0.03471089
0.014236707 0.047221277 -0.0586578 0.01929413 0.06641227 -0.11199188 -0.012775349 0.064024135
-0.041082866 0.04525988 -0.05228575 0.044907667 -0.0701283 -0.055357117 -0.075633414 0.05636136
-0.07443604 0.014267975 -0.03259842 -0.02956787 -0.027970647 -0.1626964 -0.043648362 -0.024602577

bias_hh_l0 f4 [400]
00000000: 4629 aa3e f538 0dbe 3997 42be 5147 18be
00000010: b1ce 99be 0afd aabe b859 6cbe dc5f 14be
00000020: 201e 9fbe cd14 d03e a117 81be 97f6 42be
00000030: 95c5 b6be 0091 613d 9611 67be 29f8 20be
00000040: 50cc b0be a335 503e 762c b53d 82ef 8b3e
00000050: 07e9 d3bd 389d 9fbd 4fed 21be 56c8 d1bd
00000060: 72a9 833d c016 473e 08e8 1ebd 9678 93be
00000070: a538 84be 7d22 7dbe 108c f5bd b9b8 99be
00000080: 8bf0 1bbe 8cda 8d3c 7cfc 8cbe 4b67 a1be
00000090: a840 58be 9232 a03e 70fe 53be 38df 88be
000000a0: ac6f 1fbf b2cf 05bf a71e 57be 4571 95be
000000b0: 23f5 f0bc 8595 24be 2ede 9ebb f903 c5bd
000000c0: 6574 2d3e f0e4 08be 4289 a6be 3d8d abbe
000000d0: 1d81 e1bc fd15 743c 6afa 58be d01a dbbe
000000e0: 2432 fabd 37ec 26bf a7fa 59be b34e 82be
000000f0: 2672 1c3d 839d 083f 885b fcbe c639 63bd
00000100: bfcb 453e c310 ccbe 8837 0ebe d806 adbe
00000110: aaa1 ef3d 1481 e83c d874 4ebe 5ebb 71be
00000120: 2526 a3be 877a 8dbe 00a6 c4bc b814 81be
00000130: 1635 7dbe 5a71 d63d 5949 21be 0c6e dcbe
00000140: b996 7cbe 0557 5dbd 867d eabe 5b99 c0be
00000150: 7e7e 5cbe 282c dcbe 2b7d 87be 96ad cabd
00000160: f813 5ebe d52e c5bd 49bb 033f 63ae 06be
00000170: 2962 c03c 7763 e1bd 358b 77be 3fc1 39be
00000180: c068 c93d 95ef 92be cca0 3b3d ea76 363e
00000190: e906 8fbd 7eb5 eabd 8c1d a23c 3a02 9bbe
000001a0: 431f 06be fd93 983d 714f 52bd 6719 26bd
000001b0: f974 213f 0b08 30bf bdba 4bbe 814c eebd
000001c0: cea3 79be acc0 62be f323 dd3d b500 b4ba
000001d0: 9813 873d 6875 e33e 7fc8 6dbe 218a 8ebe
000001e0: d898 cb39 279d e7bc ba96 343c c903 82be
000001f0: 0c6c b8be 644f 19bf b182 a5be 8a42 95be
00000200: 045f 3fbe 2b02 64be eb1e 91bd a3aa 063d
00000210: 154e c83b a76b 9a3b 450c dfbd dc20 85bd
00000220: 2fa5 46be 8a53 113d 2a26 28be 269a f0bb
00000230: 1876 b3be e53f 48be f933 08bd 065a 18be
00000240: 27b5 16be 62e9 d8bd 3c12 15be c244 893d
00000250: 6829 09bf 10bf 88be e6a2 44bc d67c 183f
00000260: f171 8abe 6c98 cc3c bbe8 33be f68f 66bd
00000270: e6c7 43be 9496 8dbe fe45 08be 0d40 413d
00000280: b621 cdbe d09d 33bf d752 b8be 280c 07bf
00000290: a36f f6be d3b2 ca3e cfb7 98bc 6cbd 913d
000002a0: 9f44 d3be 83be 4abe 9b6d a93e 1d63 b43a
000002b0: 39ea 99bd 9cef c53d 59c9 443d 879e d23d
000002c0: 112c c5bd 7c91 acbe fd3e a3be 6045 50be
000002d0: 5dee 1abe 1e16 e03b d7d1 a9bd 013f a33e
000002e0: 9823 aabe d469 92be 6861 ddbc 1cb9 91bd
000002f0: ecbe 9cbe 93fc 093e 9271 87be f0a2 aabd
00000300: 416e 803d f056 3bbe cc8e 8abe 3adb 15be
00000310: 8348 45be f015 89bc d6aa 67be 5bc3 fabd
00000320: 5e69 b4bc 4922 af3c 6daa 5d3d 3c4a f5bd
00000330: cd27 8b3d b089 eabc 6e31 cfbc e7a8 78bd
00000340: 2d86 773d c950 aa3a 56fb 7c3c 9f93 adbc
00000350: 1b35 94bd d886 46bd 3232 54bd 0e47 713d
00000360: e1d4 1d3c 94b1 d6bc 1bc7 dfbc 6871 b7bb
00000370: a097 513c b099 663d d08c 543c 6549 a83d
00000380: e89b 893d 24d4 0b3d 477c a93d 9d98 b63d
00000390: 8f7f 3bbd ac13 7f3d 2a86 7e3d 37d2 b5bb
000003a0: 858f c4bb 208c 56bc ac42 5f3d 2e5c 6dbb
000003b0: 6f59 6abc ae17 0d3c 3687 f33c bdda 23bd
000003c0: db5e 113c 7687 46bd c4a2 323d 8041 933d
000003d0: 667b 80bd 0ae9 583c ee17 c63c 0beb 6dbc
000003e0: 23c0 563c f03a 913c 7f05 563c 5424 593d
000003f0: 5ed0 ff3c 51c8 6ebe fab8 b7bb 3cd2 453d
0.33234614 -0.13791259 -0.19003 -0.14870955 -0.30040506 -0.33396178 -0.230811 -0.14489692
-0.3107767 0.4064087 -0.2521334 -0.19039379 -0.35697618 0.055069923 -0.22565302 -0.15719666
-0.34530878 0.20332961 0.08846371 0.27331167 -0.10347181 -0.07793659 -0.15813182 -0.10243289
0.064288035 0.19442272 -0.0387955 -0.28802937 -0.25824466 -0.24720187 -0.119896054 -0.30023745
-0.15228479 0.017316125 -0.2753638 -0.3152412 -0.21118414 0.31288582 -0.20702529 -0.26732802
-0.6227977 -0.5227004 -0.21007787 -0.2918798 -0.029413765 -0.16072662 -0.004848263 -0.09619898
0.16938932 -0.13368583 -0.32526594 -0.33506194 -0.027527386 0.014897821 -0.21189275 -0.42793894
-0.12216595 -0.65204185 -0.21287023 -0.25450668 0.038194798 0.53365344 -0.49288583 -0.05547502
0.19316004 -0.39856538 -0.13888371 -0.33794284 0.11700757 0.028381862 -0.2016176 -0.23606631
-0.3186504 -0.27632543 -0.024004936 -0.2521112 -0.24727282 0.10470839 -0.15750636 -0.4305271
-0.24666871 -0.054038066 -0.45798892 -0.37617 -0.21532628 -0.4300244 -0.26462683 -0.0989639
-0.21687305 -0.09628073 0.5145765 -0.13152461 0.023484306 -0.110052995 -0.24174197 -0.18140124
0.098344326 -0.28698412 0.045807645 0.178188 -0.0698374 -0.11460398 0.01978948 -0.30275136
-0.13097863 0.074501015 -0.051345292 -0.04055157 0.6306911 -0.6876227 -0.19895454 -0.11635686
-0.24378893 -0.22143811 0.107978724 -0.0013733121 0.06595534 0.4442551 -0.23221014 -0.2783976
0.00038833055 -0.028273178 0.011022264 -0.25393513 -0.36019933 -0.59886765 -0.32326272 -0.29152328
-0.1868859 -0.22266452 -0.07085975 0.032877576 0.0061128237 0.00471254 -0.10891012 -0.06500408
-0.1939895 0.03548006 -0.16420808 -0.0073425947 -0.35051036 -0.19555624 -0.03325269 -0.14878091
-0.14717542 -0.10591389 -0.14557737 0.06702568 -0.53578806 -0.2670827 -0.012001729 0.59565485
-0.27040055 0.024975024 -0.17569248 -0.056289636 -0.19119224 -0.27653944 -0.1330795 0.047180224
-0.40064782 -0.7016268 -0.36000702 -0.52752924 -0.48132047 0.39589557 -0.018642334 0.071162075
-0.4126329 -0.19799237 0.33091435 0.0013762448 -0.075153776 0.096648425 0.048043583 0.10284143
-0.096275456 -0.33704746 -0.31883994 -0.20338964 -0.15129991 0.006838574 -0.08291977 0.31884006
-0.3323028 -0.28596365 -0.027023986 -0.07115385 -0.30614412 0.13475256 -0.26453835 -0.08331859
0.06271029 -0.18294883 -0.2706207 -0.1463441 -0.19265942 -0.016734093 -0.22623762 -0.12244292
-0.0220229 0.021378653 0.05411761 -0.1197705 0.06794701 -0.028630108 -0.025292125 -0.060707953
0.060430694 0.0012994047 0.0154407825 -0.021188555 -0.072366916 -0.04846844 -0.051805682 0.058905654
0.009633274 -0.026207723 -0.02731662 -0.005598236 0.012792498 0.05629891 0.012973025 0.08217124
0.0671919 0.03413786 0.08275657 0.089158274 -0.045775946 0.06227462 0.062139668 -0.005548741
-0.005998554 -0.013094932 0.054506943 -0.0036218273 -0.014303549 0.008611603 0.02972756 -0.040003527
0.008872713 -0.04846903 0.043612257 0.071902275 -0.062735364 0.013239155 0.024181332 -0.014521371
0.013107332 0.017728299 0.013062834 0.05301316 0.031227287 -0.23318602 -0.0056067677 0.0482962
