metrics_best_runs/simple_rnn_windowed/0177.model (torch_old, 277186 bytes, 22 tensors)

weight_ih_l0 f4 [400, 1]
00000000: 7101 5fbd f6e6 593e ebfc 353e 9f71 69be
00000010: 03f0 05bf 1258 5f3f b052 753d 40cb 423f
00000020: 034f 7f3d 1f9d 3e3f 549d c53e eca7 94be
00000030: 1497 e13a 6936 0b3e a75a 973d 32be 8a3e
00000040: c322 a73f 1e08 253e 0172 9c3e 686a 7ebd
00000050: 7c2e bd3f 5af9 233f c1d2 d63e ef0b 27bd
00000060: c44c 93be 21eb 7e3d ce1b cfbe 515e 363f
00000070: 8342 893e 6200 b1bc 2ddf 6abf 88a5 28be
00000080: 7ab0 6fbd 885e b3be 8b27 543e f170 f93c
00000090: f687 c83e 22b4 f83c 1991 e93e bff9 25bf
000000a0: 99c4 043f 0972 0340 9cb0 ea3e ff86 633f
000000b0: 439a 0ebd 4a64 9b3d baea 07bf c0fb df3d
000000c0: 5d0e 153f e976 3e3f 45b1 543f e597 2c3f
000000d0: 3149 a93d 6c82 bcbd fba5 203e 7966 fcbe
000000e0: d960 06bf c2a6 0c3f 6b45 d13e 3d07 b83e
000000f0: 12dd 04be d171 cabd 87d7 273e 429a ddbd
00000100: ab2e 9c3e 4053 7a3e d844 313f eece ff3d
00000110: cccf bbbf ae6d a63e f39a 08be 599c 453e
00000120: a483 093f 4720 78bf 36d3 753e 4304 aebc
00000130: 2c93 af3e a0c0 cebd 80b5 70bf a01f 533f
00000140: 5869 babd bf6e a7be 3b72 bcbf 922f 33bd
00000150: acad 1b3e 66f5 d43d babc 853e 2d2f c83c
00000160: 664c fc3e af2d 31be 2fb8 b9bc 640d 953e
00000170: 628c afbf 076e 6c3d 93d4 313e 2432 aebe
00000180: 763d 1ebe 137e dc3b fd14 80be 9c52 fd3d
00000190: 65af 10be 0332 5f3e 06f6 f93e afd7 abbc
000001a0: c6c8 913d 170e fa3e 0403 363e 810e 453f
000001b0: 6fce fcbb 5886 e83e 8e2a 5e3d 0b10 55bc
000001c0: c482 fdbd 1d44 e73e 6393 a53d 9540 acbe
000001d0: 453b 053f 0880 d33f 3512 843f 251a dd3d
000001e0: b32a 60be 2a3f ad3d ff41 293d e6c8 61be
000001f0: ad52 fbbd 1c30 b4be 9f38 63bd ae58 b43e
00000200: c2aa 85be f085 9d3d 5271 2fbf 2bd2 efbe
00000210: 8937 80bd 5c0b 75be d6b6 823e 02e1 1fbe
00000220: 3ad3 babd 617e d9bd 354e 1ebf ce7c 91be
00000230: 3340 2a3e dafb 7b3f a681 483f 7522 0e3f
00000240: 380e ae3d 8fd2 a33e 16c2 a73d bbf3 00bd
00000250: 8564 6abd eaa0 5c3f 19fb 193f cec4 913e
00000260: 12f5 3e3e c5ff 763e 2dcb e23e 3a54 f4be
00000270: 5189 1fbd 58f2 693e 793b 9b3e 4438 92bd
00000280: fdfe a0be 88af fe3d 9d29 6abe 79ac a4be
00000290: f177 4cbe a693 9dbc 785d 883e 377f 173e
000002a0: 4e0d 71bf 1e0a 2d3e 48a8 2d3d 54bc a63d
000002b0: f75e 6b3e 501c 75be c1a1 4a3f 5418 4f3e
000002c0: fce6 ed3e 28cf 0ebe bcb5 973f 67b4 143f
000002d0: c1a9 1b3d 5fee 653d 0c10 cb3e 2e05 00bc
000002e0: 3ec6 2b3f 643b b23c 7ce7 093f b59a 8fbc
000002f0: 31cd f23e 9951 80be 4a22 913e 6e61 9dbe
00000300: 64a7 bfbf 2501 a5bb e8fe be3d 36d4 80be
00000310: bdaa 903e f356 23be f20d aebe dc24 07be
00000320: 7a9c b43d 1923 d43e f6c4 383f 71ba b43e
00000330: b357 383d 6ba1 233f d894 45bf b941 06bf
00000340: d062 0bbe bcb3 95bf ca67 ebbe 14e8 b6be
00000350: 1a68 5f3d 4f60 113e 3a64 3a3d 8896 efbe
00000360: 880a 72bf fe6a 9240 8356 5c3f 61e7 fd3e
00000370: 69b6 0d3e 3354 91be cd69 91bd 4ab1 3dbe
00000380: 8422 003f ae59 adbe 091f acbe 4de3 1e3f
00000390: c5d1 df3e eb34 3ebe de1e 403f 12e4 85bb
000003a0: 5c7e aabe 48cf 573d febc 8f3e 7c0a e0be
000003b0: 3800 82bd a447 45be ee79 d5be f7b3 16bf
000003c0: 8d11 c53e 6e09 44bf 889c 3ebf f6af 833f
000003d0: abfb fdbe b0e0 b9bd 9063 793e 2037 7fbb
000003e0: b463 2abf bf3b 073f 9fef 43bf 05e5 123f
000003f0: c35d 41be d4e1 02bf 48ed e0bd aebf db3d
-0.054444734 0.21279511 0.17772262 -0.2279725 -0.52319354 0.8724376 0.05989331 0.76091385
0.06233121 0.744585 0.38596594 -0.29034364 0.0017211162 0.13594975 0.073903374 0.27098233
1.3057483 0.16116378 0.30555728 -0.062113196 1.4779811 0.64052355 0.41957667 -0.040782865
-0.28769505 0.062235955 -0.404509 0.71237665 0.26808557 -0.021606628 -0.9174679 -0.16469395
-0.05851791 -0.3503306 0.2071821 0.030449362 0.3916623 0.030359332 0.45618513 -0.6483421
0.51862484 2.0538352 0.45837867 0.8887786 -0.034815084 0.07587488 -0.5309254 0.109366894
0.5822504 0.7440019 0.8308299 0.6741927 0.08265913 -0.092045635 0.15688317 -0.4929693
-0.5249153 0.5494195 0.40873274 0.35943022 -0.12974957 -0.0988499 0.16390811 -0.10820438
0.30504355 0.2444582 0.6924567 0.124906406 -1.467279 0.32505554 -0.13340358 0.19297923
0.5371649 -0.9692425 0.24006352 -0.021242267 0.3429197 -0.10095334 -0.9402695 0.8247013
-0.09102124 -0.3270168 -1.472236 -0.04374654 0.1520297 0.103983685 0.2612055 0.024436558
0.49277037 -0.17302583 -0.022670833 0.2911178 -1.3714716 0.057722118 0.17366247 -0.3402263
-0.15453133 0.0067288964 -0.25016013 0.12369272 -0.14129408 0.21796422 0.48820513 -0.02097687
0.071183726 0.48838875 0.17774588 0.76975256 -0.0077150385 0.45414996 0.054239802 -0.013004313
-0.12378457 0.45169154 0.080847524 -0.33643022 0.52043563 1.6523447 1.0318056 0.10796002
-0.21891288 0.08459313 0.041322704 -0.22049293 -0.122716285 -0.35192955 -0.05547392 0.35223907
-0.2610684 0.07691562 -0.6853229 -0.46840033 -0.062605925 -0.23930115 0.25530118 -0.15613177
-0.091223195 -0.10619808 -0.61838084 -0.2841553 0.16626053 0.9843117 0.7832283 0.5552133
0.08498806 0.3199658 0.08191316 -0.03148244 -0.05722477 0.86183035 0.6014877 0.28470463
0.18648174 0.24121006 0.44295636 -0.4772051 -0.038949315 0.22846353 0.30318812 -0.07139638
-0.3144454 0.12435824 -0.22867437 -0.32162836 -0.19967629 -0.019235443 0.2663381 0.14794622
-0.94160926 0.1689839 0.042396814 0.081413895 0.22985445 -0.23936582 0.79153067 0.20224124
0.4646529 -0.13946211 1.1852336 0.5808777 0.038003687 0.05613553 0.3966068 -0.007813735
0.6709937 0.021756835 0.5386884 -0.017529825 0.47422174 -0.25062254 0.28346473 -0.30738395
-1.4972959 -0.005035537 0.09325963 -0.25161904 0.28255263 -0.15951137 -0.33995014 -0.13197654
0.08818908 0.41433027 0.7217554 0.35298494 0.04500551 0.6391818 -0.7718024 -0.52444035
-0.13611913 -1.1695476 -0.45977622 -0.35723937 0.05454264 0.14196895 0.04550574 -0.46794534
-0.9454732 4.5755606 0.86069506 0.4959059 0.13839115 -0.2838455 -0.07100258 -0.18524662
0.50052667 -0.33857483 -0.33617428 0.62065583 0.4371473 -0.18574874 0.750471 -0.004086026
-0.3329953 0.052687913 0.28073877 -0.43758 -0.06347698 -0.1926561 -0.41694587 -0.58868355
0.38489953 -0.7657689 -0.744576 1.0288074 -0.4960607 -0.09076059 0.24354386 -0.003894277
-0.66558385 0.5282554 -0.7653751 0.57380706 -0.18883424 -0.51125836 -0.10982758 0.107299194

weight_hh_l0 f4 [400, 100]
00000000: 496f 58bd 5b17 123e 3dfb 7c3b 3200 66be
00000010: 4e16 3bbe fa0b 01be 7a11 123d 14d7 11bc
00000020: 606d 1abd 9a28 d1bd b52b 0bbe 5840 3a3e
00000030: 3df3 0b3e 9598 713d 52cb 73be 2778 273d
00000040: 784b 53be 9131 bebe fc1a b83c 3196 243d
00000050: c401 a4bd dee1 55be bcfb e0bb 01f1 703e
00000060: c59c 0d3e 1782 21be 7e60 bf3d 2c6d 1c3d
00000070: daa7 12bc 33a6 5ebe 0372 0bbe 5d57 6cbe
00000080: 7f22 ba3c 3529 bc3d bfa7 d8be 468a 9ebd
00000090: 1438 d9bd 9f13 b33e 09b8 493e a03e 893e
000000a0: d867 563e ad36 533d 5ebc 063e 35eb c33d
000000b0: 8a83 5c3e 7d4c 00be 2e17 34be fa40 72bb
000000c0: 9016 e63b 4745 15bd 837b 8cbd 8c4d 1d3e
000000d0: f5cf 3abb 22c9 e9bc 1a0a 303e 8b0a e3be
000000e0: 6100 763e 948e c2bd f622 94bc 65c5 9cbd
000000f0: 0a0d 54be 3b0b f93d e1dd 61be cb6c 663e
00000100: f771 23be 4999 6fbd 93a7 1d3e ae89 043e
00000110: e74c 80be ef30 21be 4f8d 133e b5bd 5bbd
00000120: 2d2d 723e dcd8 9cbe d0e7 203d 349c a83d
00000130: b6ef 35bb 2182 7b3c ae38 c33e 44f3 efbd
00000140: 50ec 39be 09df df3e 8d22 693f dbab f2bd
00000150: 6d22 093e 7d09 b3bd 0edf 5ebd 6b1c 3ebe
00000160: 4108 07be 6cfe f8bd a29c 55be 59ae efbd
00000170: 7aa9 68be adc8 5b3e eda4 483d 6ede 16bc
00000180: 65f8 d93d e63e 703e 1c79 203f 3514 f9bd
00000190: 1a69 91bd 5dda 903e 6804 bebe 3ff8 fa3d
000001a0: 8b01 2cbe a9f4 38be 2f6e b63d ae43 4cbd
000001b0: b0b8 de3d 65f0 443e f2b8 013e 32b3 cabe
000001c0: 7839 c7bc 4d8c 86be 411d aebc 7556 c9bd
000001d0: 9f64 6e3d fcfe db3d 39ea 8bbe e09c dfbd
000001e0: dd45 94bd 0948 96be bf54 8e3d 713a 67bf
000001f0: fe6b fabd 1e52 06bd 569c 0cbf b039 b4bd
00000200: 9d08 d6bd 41ba 6a3e 7394 05be b681 043e
00000210: b668 8e3e 0351 b6be a9d9 903f 18f1 1cbe
00000220: 9a1e 153e 670f b1be e235 18bf 16cb ff3d
00000230: 6792 f0bc 45b2 b83e f7dd 113e 05ca 573e
00000240: 023d 993e 3ad7 cf3e 2f4d 673e 8dba b5bc
00000250: e3d2 b93d c425 08be f6b5 0f3c 3c75 033e
00000260: 4ab8 2e3d 1a56 e8bc cefa 90bd a455 d8bd
00000270: 6245 5e3e 6d75 ff3d 1312 5a3e 8f13 5b3c
00000280: 18ff 013e f134 bebd 9ae6 01be 78f3 82be
00000290: 22c4 7b3c 7203 633d 5418 203d 402a b8bd
000002a0: b7c3 b93d 5bc6 38bd dcdf 10bf d08a 0dbc
000002b0: feb0 1dbe e36f b4be e9d9 febc 2b63 933e
000002c0: 79ee bc3c b8fe c43d 5e0d 65be eef4 babd
000002d0: 975b 503e 31a0 243e 6e02 28bf 040c dc3c
000002e0: 5405 0abe 3f65 ad3e 3ca2 8a3d cff2 c93d
000002f0: 6306 123e bb00 44be 1026 0e3e 6df7 4e3e
00000300: d45d bbbe c579 1cbf 2197 2bbd 90c6 4bbe
00000310: b292 893c 2915 bfbe 0a87 02bf fadc 743e
00000320: 1d8c c13e d4b1 a0be 25e9 f23d cffa 043e
00000330: 43ad 4f3d 85b2 86bd 5c92 26bd 14de 9bbd
00000340: 2f6f 043d 9c49 59be d354 b93e fdfe d5be
00000350: 2f11 d9be b00e 4cbe 4f09 bd3e 0185 c03e
00000360: 53f2 a03e 0598 8bbe ad91 f03c f4a5 1c3e
00000370: cf5a 6dbc 63e3 b13e b827 553e ca41 2ebe
00000380: 9142 8cbe 3cd7 2b3e f6fb 87be bc36 7dbe
00000390: c40e 63be 1c7d 853e d8c4 f43e fdc1 d63e
000003a0: dcc1 d6bd 71d2 ebbd 3956 343f 8071 9f3e
000003b0: 39c1 63bc 65de e2be d550 d2bd 93e1 56be
000003c0: fd28 cfbe 84d9 33bd fd6f 85bd 32ca 83bd
000003d0: bec7 d0bc c274 8d3e e3dd 47bc 4d67 57be
000003e0: d171 5f3d e540 313e 80d9 6b3e 361e 4fbe
000003f0: b8b9 a83e 3720 503d 10ca 90be c5b5 8d3e
-0.052840505 0.14266722 0.0038601898 -0.22461012 -0.18270227 -0.12602225 0.0356612 -0.008901376
-0.037701964 -0.10212822 -0.13590892 0.18188608 0.13667007 0.058983404 -0.2380803 0.04088607
-0.20634258 -0.3714719 0.022473805 0.040182296 -0.08008149 -0.20886943 -0.0068659466 0.23529436
0.13829334 -0.15772282 0.09344576 0.038190052 -0.008951152 -0.21743087 -0.13617711 -0.23080201
0.022721527 0.09187547 -0.4231548 -0.07741217 -0.10606399 0.34975907 0.1969911 0.26805592
0.20938051 0.051565815 0.13157794 0.095663466 0.21534553 -0.12529178 -0.17586967 -0.0036964999
0.0070217326 -0.03644302 -0.068594955 0.15361613 -0.00285053 -0.02853829 0.17191353 -0.4434398
0.24023582 -0.09499851 -0.018083077 -0.076548375 -0.20708099 0.12160345 -0.22057296 0.22502439
-0.15961443 -0.058495793 0.15395956 0.12943146 -0.25058672 -0.15741323 0.14409374 -0.053647716
0.23650046 -0.306342 0.039283574 0.082329184 -0.0027761287 0.015350849 0.3812918 -0.11716321
-0.18156552 0.4372485 0.91068345 -0.11849185 0.13392039 -0.08742044 -0.05441194 -0.18565528
-0.13186742 -0.12157902 -0.20860532 -0.11703176 -0.227209 0.2146327 0.04898541 -0.009208305
0.106430806 0.23461494 0.626848 -0.12162057 -0.07100125 0.28291598 -0.37112737 0.122543804
-0.16797464 -0.1806208 0.089077346 -0.049869232 0.1087507 0.19232328 0.12668207 -0.3958984
-0.024319395 -0.26278916 -0.021254184 -0.098309435 0.05820143 0.10741994 -0.27327135 -0.109185934
-0.07239888 -0.29351833 0.06949758 -0.9032355 -0.12227629 -0.032793157 -0.5492605 -0.088000655
-0.104508616 0.22922613 -0.1304491 0.12940106 0.27814263 -0.35608682 1.1316425 -0.15326345
0.14562455 -0.34582064 -0.5945722 0.124899074 -0.029366685 0.3607351 0.14244829 0.21073158
0.29929358 0.40593892 0.22588037 -0.02218368 0.090734266 -0.13295656 0.00877141 0.1283769
0.04265622 -0.028361369 -0.07079087 -0.1056321 0.21706155 0.12473569 0.21295957 0.013371362
0.12694967 -0.092874415 -0.12685624 -0.25576377 0.015366586 0.055423208 0.0390857 -0.089924335
0.09070533 -0.04511104 -0.5659158 -0.0086390525 -0.15399548 -0.35241613 -0.031109767 0.28786597
0.023062931 0.09618896 -0.2236838 -0.09128748 0.20347439 0.16076733 -0.6562871 0.026861198
-0.13478595 0.33866307 0.06769225 0.09860765 0.14260249 -0.19140904 0.13881707 0.20211573
-0.36595023 -0.61123306 -0.041892175 -0.19899964 0.016793583 -0.3732083 -0.50987303 0.23912421
0.3780221 -0.31385672 0.11860875 0.12986301 0.050702345 -0.06577019 -0.040666923 -0.076107174
0.032332595 -0.21219486 0.36197528 -0.41796103 -0.42395923 -0.19927478 0.36921164 0.37601474
0.3143488 -0.2726442 0.029366339 0.15297681 -0.0144869825 0.34743795 0.20815933 -0.17017284
-0.27394536 0.16781324 -0.26559418 -0.24727911 -0.22173601 0.26072013 0.4780643 0.41944876
-0.104861945 -0.11514748 0.70444065 0.3114128 -0.013901048 -0.443103 -0.10269324 -0.20984487
-0.4046096 -0.04390861 -0.06515501 -0.0643505 -0.02548587 0.27628142 -0.012198898 -0.210355
0.054551903 0.17309912 0.23032188 -0.20226368 0.32954192 0.050811972 -0.2827916 0.27677742

bias_ih_l0 f4 [400]
00000000: 05c1 0bbe 76c1 32be 674c a6bd 9d57 a4be
00000010: 4c96 d3bd 8fc1 5cbe a724 2c3d 8da5 04be
00000020: 5eeb 24be ce2f 143d 55f4 36bc 23ed 2bbd
00000030: 0421 d73c d150 ce3d be97 153d 01be 21bd
00000040: 26a4 f2bc 8e90 c13e 2eea 773d 5599 09be
00000050: a820 b9be 1e25 8a3d b9d5 8bbd 0245 5dbe
00000060: 5ac6 013e d58c 5d3d 6d6e 61bd b124 363e
00000070: e2e2 edbd 0a38 e23c a745 15bf f9c9 5a3d
00000080: 9609 d6be 505d 82be 8aae 51be 75f5 8dbd
00000090: 362f 91bb 8398 193e c9dd 82be 306e ffbd
000000a0: f37d 093e ab8d 353d 256d a8bd 9afc bf3d
000000b0: a20e b1be 2db6 983d de5d 4dbe 38bd f13c
000000c0: e209 043e 6d18 ccbd 2212 9a3e a88f d63d
000000d0: f509 02be ff03 40be 0c57 1bba 503e 29be
000000e0: bc04 92be f89e abbc a58e 06be bf8e de3d
000000f0: ed08 113e 1cf4 8bbe 2ffd 7fbe 9562 5cbe
00000100: b058 863b 27a5 e83d dd5a 6e3e bb29 453e
00000110: c562 f8bd 5d20 85be bc94 833d 6b9e 903e
00000120: b9e6 a03e 7d79 32be c8d7 b7be b518 94bd
00000130: f0cf e23d 7947 82be a124 c93c 1f43 c6be
00000140: f34e 61bd c6a8 7b3d 33d9 3f3e 8553 cebe
00000150: 89b5 bc3d f43b 90bd 6cfc 9bbd 461e 2cbe
00000160: 513f 663d 995f 77be f32d a9be e50a 933d
00000170: 643e 0fbe f405 433e 1db4 c93c 55c5 84be
00000180: 95c0 8fbe e22c 6d3d a357 ecbc 6ba2 acbd
00000190: 4848 463e 928d 3e3e 29e2 94be c0ce e83d
000001a0: ac23 353e c728 59bd 261f 77be dbc2 9abe
000001b0: f685 80bd e8b6 99be d4e2 2f3c dc7b 063e
000001c0: 2563 9c3e 7a28 8e3d 48dd 373e 8d60 db3d
000001d0: 4c04 dabe 4118 db3d 7409 dbbe a81d 44be
000001e0: 418a 363f 803f ce3e 6d68 a3bb cd17 3a3c
000001f0: 72d8 55bc 3e60 dd3d 63db 33bc 68e2 523e
00000200: 32d7 c03d 35d7 623e 42d4 ad3e daf8 363e
00000210: 1f63 e5bc 9121 20be 7985 fbbd fc1c 5b3e
00000220: e463 883d 8b3a 4c3e a482 3a3c e8c9 81bc
00000230: 307c 2c3e 863b adbe ceda 9bbd 5dbc 0c3e
00000240: a35f b7bc e306 1e3e a852 113d 4335 393e
00000250: 9656 753d 344d 223e 9d12 683e d753 8b3e
00000260: b4f3 33be 8f5c 29be ad95 8e3d 3373 823e
00000270: e1f6 8cbe dcdf 4b3d 49b3 413e 25c9 773e
00000280: 90c2 6a3e e591 023e b3ac 583e 18f9 863d
00000290: 598a 2a3b cafd c93d 7782 913e 8260 223e
000002a0: ec97 b03c 0867 43bd cafc 01be 33a0 593e
000002b0: 80ba 2d3e 3ced 1ebd 76f5 bdbd 8a5f 983c
000002c0: ba99 5f3d 8d35 86be 47d9 8b3e afa2 3fbe
000002d0: 94e7 cd3d 2715 693e c26a c6bd 8f7b 683d
000002e0: 1afe 8f3e 8174 14be 479c 083d bcb0 9cbd
000002f0: 42af 5e3e d12a bebc f987 20be 8174 db3d
00000300: e913 e6bd 0ed5 dc3d a1fd 3b3e 42e6 9cbd
00000310: a1b7 1cbe 87c2 73be 5b39 c9bb 6f85 5b3e
00000320: 4104 80bd 964b 333e 9c64 22be 8fcc a93b
00000330: 7698 90bc 0a39 e0bc 2d90 603e 4d23 503e
00000340: 3360 e73c 21a5 453e e95d dcbd 6224 143e
00000350: 2d81 e93d dffb 0e3e d3cd acbd f07a c5bd
00000360: a176 e03d bee7 2a3d a9ad 23be 249a 24be
00000370: 5463 ee3d 0b96 4b3d 669d 21be bd69 953e
00000380: 483a 043e 5769 af3c 975f 6e3e e35d 8f3d
00000390: ee25 9bbd 262a 51bd 8793 3b3e 7b74 52be
000003a0: 3a87 823d 26c2 89bd ec91 97bc a18c 9939
000003b0: 160a 0a3c f7f1 073e e7e1 463b e204 013e
000003c0: aedc 3d3e 7279 ca3d 8acd 16be 2c63 5d3d
000003d0: 9cdf 3c3d 2a7d 6abe f142 043e 30b9 f23d
000003e0: 3f47 44bd a588 6e3e 4ae3 15be dca2 423e
000003f0: a488 4ebe 32b7 5e3e 477c 273e 6c37 63bd
-0.1364785 -0.17456612 -0.08120041 -0.32098094 -0.10331401 -0.21558212 0.042027142 -0.12953778
-0.1610541 0.036178403 -0.011166652 -0.041974198 0.02626086 0.10074008 0.036521666 -0.039487842
-0.029619288 0.378056 0.060526066 -0.13437398 -0.36157727 0.06745361 -0.06827874 -0.21608356
0.12673321 0.054089386 -0.05503695 0.17787434 -0.1161554 0.027614612 -0.58309406 0.053415272
-0.41804188 -0.25461817 -0.20476738 -0.06931583 -0.004430677 0.14999585 -0.25559834 -0.124721885
0.13426952 0.04432456 -0.08223943 0.09374352 -0.34581476 0.07456622 -0.20055339 0.029509172
0.12894395 -0.09965596 0.3009196 0.10476619 -0.12699111 -0.18751524 -0.0005925752 -0.16527677
-0.28519237 -0.020949826 -0.13140352 0.108670704 0.14163561 -0.27334678 -0.24998926 -0.21521981
0.004099928 0.11359625 0.23276849 0.192542 -0.12128214 -0.26001254 0.06424853 0.28245863
0.31426027 -0.17429157 -0.35906816 -0.07231275 0.11074817 -0.25445154 0.024553599 -0.38723084
-0.055006932 0.06144025 0.18735199 -0.40298095 0.092143126 -0.07042685 -0.07616505 -0.16808423
0.056212727 -0.24157561 -0.3304287 0.07179812 -0.13988644 0.1904524 0.024622018 -0.25931802
-0.28076616 0.05790413 -0.028850382 -0.08429416 0.1936351 0.18608692 -0.29078797 0.113675594
0.17689389 -0.053017404 -0.24132976 -0.30226788 -0.06275551 -0.3002236 0.010735232 0.13133186
0.3054439 0.06941314 0.17955506 0.10711775 -0.42581403 0.106979854 -0.4278065 -0.19151938
0.7130471 0.40282822 -0.0049868138 0.011358214 -0.013052093 0.10809372 -0.010977599 0.2059418
0.09416045 0.22152407 0.33951002 0.17868367 -0.028001366 -0.15637805 -0.12281317 0.21397775
0.066596776 0.19944207 0.011383686 -0.015843347 0.16844249 -0.33834475 -0.07610093 0.1374373
-0.02238447 0.15432315 0.035479218 0.18086724 0.059897028 0.15849763 0.2266335 0.27212402
-0.17573434 -0.16539215 0.06962142 0.25478515 -0.27532104 0.049774036 0.18916048 0.24197824
0.22925782 0.12750967 0.2115963 0.065904796 0.0026022403 0.098628595 0.2841985 0.15857127
0.021556817 -0.04770568 -0.12694088 0.21252517 0.16965675 -0.038800463 -0.092753336 0.018600244
0.054589964 -0.2621273 0.27314207 -0.18714403 0.10053936 0.22761975 -0.09688331 0.05675846
0.28123552 -0.14497568 0.033352163 -0.07650897 0.21746543 -0.023213776 -0.1567687 0.10715581
-0.11234266 0.107828245 0.1835847 -0.07661106 -0.15304424 -0.23804675 -0.0061408705 0.2143762
-0.06250811 0.17509302 -0.15858692 0.005181856 -0.017650824 -0.027370948 0.21929999 0.20325966
0.028244114 0.19301273 -0.107600994 0.14467004 0.114015914 0.13963269 -0.08437695 -0.09642589
0.10960127 0.041724913 -0.15984215 -0.16074425 0.11640039 0.04970364 -0.15782699 0.29182234
0.12912858 0.021412535 0.23278652 0.07000329 -0.07575594 -0.051065587 0.18317996 -0.20552246
0.06373449 -0.06726484 -0.018502198 0.0002928721 0.008425256 0.13275896 0.003034705 0.12599519
0.18541214 0.09886445 -0.14726844 0.054049656 0.046111688 -0.22899309 0.12916161 0.11851728
-0.047919508 0.23294313 -0.14637485 0.19007438 -0.20169312 0.21749571 0.16356002 -0.055472776

bias_hh_l0 f4 [400]
00000000: 1da0 e7bd 4ed4 06be e8f2 213d 970d b5be
00000010: 4cb2 efbd 4852 15be bdc1 033e 330f 1cbe
00000020: f4d4 35be e289 ff3b b6e5 d53c 34e2 d13c
00000030: 8022 843d c886 2b3e c417 bc3c fe16 10bc
00000040: eb4c 8ebd f301 f53e 2e01 2f3e eca9 ecbd
00000050: d6ca f5be 7e53 133d 0007 c6bc 0ddd 8cbe
00000060: f6b2 963d 602e 183d 1c87 263c cb0b 8e3d
00000070: 267d 9dbd bade dbbc 3739 f5be 259d c93d
00000080: c6ea bbbe 74a6 babe d52b 76be 7ca6 75bb
00000090: 3dce 87bd cd08 3b3d c904 a6bd 6353 3dbe
000000a0: 8aa0 2c3e 2a47 8b3d 8b79 24be 1700 9e3d
000000b0: e02d 2abe 6afc 7b3c a1c3 9fbe 4b32 4e3d
000000c0: 0e0d 8ebd 86a9 bcbd 7583 883e fc44 8c3e
000000d0: 1b60 2ebd 41c3 3ebe 3df1 babd cb6a a3be
000000e0: 7762 b7be c85c 013e 2d56 5bbe 47c9 6a3e
000000f0: 5bfc b83d 97a1 99be 3755 75be b282 55be
00000100: 32ef 0c3d 7310 1f3e 52e4 1b3e e08b 323e
00000110: d66a 9fbd 4d70 2fbe c92a 8c3d 380a 653e
00000120: 7a46 8f3e 586e 00be 87d4 a5be 7b0a b0bc
00000130: 5913 5abd 7d3f 5bbe bea0 4fbd f6d4 aebe
00000140: 6f82 a9bb 10ef dc3d ef15 f13d 86ba a6be
00000150: 7dd9 61bd f0ce fbbd 2d61 d5bd d2ea 41be
00000160: f59c 3d3e c9fd c9be 56b5 9ebe 6562 c83d
00000170: ec8d 28be d7e1 b13e 07cd dfbb 8ac9 8ebe
00000180: f7c8 82be 53fc 3e3d c413 203d 0685 983c
00000190: 5132 623e ce2a 6e3e 49c0 99be 1d32 a53d
000001a0: b675 1d3e 481d ffbd 4ba1 a0be afbf 71be
000001b0: 95bd cdbd e986 89be a6c8 d63d 9265 2b3e
000001c0: 9e11 683e 2e0d cbbd 5d9c 1e3e 11db 1f3e
000001d0: 2148 b6be 6699 363e 9cc3 c3be 898c 35be
000001e0: b2fb 163f 2350 7e3e 77b3 413d 15ea 943d
000001f0: 5695 453d b29e b53d 6341 173d cd30 563e
00000200: 0a06 713e a37f c03d e433 bc3e 310e 493e
00000210: 3599 7b3c 79e7 d9bd a792 47be 4c3e 5b3e
00000220: 1b23 583e 0d3c d23c 70b6 4c3b 2bb2 8abd
00000230: 7c91 933e 4004 bfbe 5d39 1c3c cee7 e33d
00000240: 4249 a93d 78c5 c93d 57a2 b53c 53d8 043e
00000250: 9986 b93d 15be eb3d a267 703e ec30 a23e
00000260: 3a5f f3bd d5f1 d6bd d96d c03d 2b49 893e
00000270: 202a 39be 13ca 023e eeec 433e 681c b33d
00000280: 56e7 5b3e 4247 943d 2223 863e 9673 363e
00000290: 66df 403d 70bb f23d b99d 943e 40eb 073e
000002a0: c4bd 1cbd 66ad 36be d62f b5bc f665 d53d
000002b0: 8eb6 973e 13f0 6c3d 819e 8fbd 61d4 1f3c
000002c0: 8188 783d cfd0 42be 4153 783e f382 88bd
000002d0: 45aa 5dbd a9f4 923e 18e9 42bd a29a febb
000002e0: 1912 993e cfa1 55bd d099 b6bc be70 a3bd
000002f0: cd5e 343e 66ea 32be 260e f7bd 5aa7 9d3d
00000300: 6df6 2dbe 7a93 c83d f776 573e 35a0 a73d
00000310: f5cc d3bd 01fc 97be 559b 6dbd 61ac 383e
00000320: 17c0 cfbc fb60 343e cc6a 25be 020e cebd
00000330: 8e0b 9e3c 40bb 24be 84a4 4c3e c9e1 763e
00000340: 9126 95bb 1c33 783e 9127 0d3a 22c9 2e3e
00000350: bc4c dd3d 030b 843e 947b e2bd 2425 32bd
00000360: 2b75 933e 40ef 00be 953b 75be 21c4 6cbe
00000370: dbb9 433d 1613 a63d 309e 09be 23f7 903e
00000380: b5f4 e43d 4f63 a6bc 896d 2f3e 33a8 3e3e
00000390: 5476 26bc 2f61 07bd 1510 1c3e 85f8 28be
000003a0: 5276 49bd 0740 41bd 7aa6 07be b4f1 df3c
000003b0: 0fa5 79bc 6e06 5c3e dbe7 f33d 3751 4a3c
000003c0: 2ddf f03d 2e3b 4d3d aa2e 0dbe dc57 903c
000003d0: cbe0 ee3d a378 53be f26f e33d 6fce 6a3e
000003e0: 0cf6 223c b5db 3c3e babe 47be ac3f 343e
000003f0: 0bb9 84bd 6f60 843e 5a42 ba3d c1a3 78bd
-0.11309836 -0.13166925 0.039538294 -0.3536193 -0.11703929 -0.14582169 0.12866874 -0.15240173
-0.17757016 0.0077984193 0.026110511 0.025620557 0.06451893 0.16750634 0.022960551 -0.008794544
-0.06948265 0.4785305 0.17090294 -0.115558475 -0.48006314 0.035968296 -0.02417326 -0.27512398
0.07358353 0.0371536 0.0101640485 0.06935843 -0.07689886 -0.026839603 -0.47895214 0.09844426
-0.36702555 -0.3645512 -0.24040158 -0.0037483266 -0.06631134 0.04566269 -0.081063814 -0.18488841
0.16858116 0.06800683 -0.1606199 0.07714861 -0.16619062 0.015380004 -0.3120394 0.05034093
-0.06936084 -0.092120215 0.26662794 0.2739638 -0.042572122 -0.18629171 -0.09128044 -0.31917414
-0.3581731 0.1263305 -0.21419592 0.22928344 0.09032508 -0.30006096 -0.23958288 -0.20850638
0.034407802 0.15533619 0.15223816 0.1743617 -0.07784049 -0.17132683 0.06844098 0.2236718
0.27983457 -0.12542093 -0.32388708 -0.021489372 -0.053241108 -0.21410938 -0.050690405 -0.3414685
-0.0051730196 0.10787785 0.117717616 -0.3256418 -0.055139054 -0.122953296 -0.104189254 -0.18937233
0.18516906 -0.39451435 -0.30997723 0.09784392 -0.16460389 0.34742615 -0.006829861 -0.27888137
-0.2554395 0.046627354 0.03908135 0.018618118 0.22089507 0.23258516 -0.30029514 0.08066199
0.15376934 -0.12456757 -0.31373057 -0.23608278 -0.100459255 -0.2686074 0.104874894 0.16737965
0.2266297 -0.09914623 0.15489335 0.15610911 -0.35601905 0.17831954 -0.38235176 -0.17729391
0.58977807 0.24835257 0.04729029 0.0727121 0.04823812 0.08868159 0.036927592 0.20917054
0.2353746 0.09399345 0.3675834 0.1963432 0.015356352 -0.10639853 -0.19489537 0.21410483
0.21107142 0.0256634 0.003123667 -0.06772264 0.28821933 -0.3730793 0.009535161 0.111281976
0.08265926 0.09852117 0.022172136 0.12973146 0.090588756 0.11510865 0.23477033 0.3167795
-0.118833974 -0.104953445 0.09395952 0.26813635 -0.18082476 0.12772398 0.1913335 0.087456524
0.21474966 0.07240154 0.2619868 0.1781753 0.04708805 0.11852157 0.29026583 0.13273335
-0.038266912 -0.17839584 -0.022117537 0.10419838 0.29631466 0.05784614 -0.07012654 0.009755225
0.060677055 -0.19024967 0.24250509 -0.066656016 -0.05411746 0.28702286 -0.047585577 -0.0077698985
0.2989662 -0.052156266 -0.02229014 -0.07980488 0.17614289 -0.17472228 -0.120632455 0.076979354
-0.16988535 0.09793754 0.21041475 0.08184854 -0.10341827 -0.2968445 -0.058009464 0.18034507
-0.02536015 0.1761512 -0.16154021 -0.100612655 0.01929262 -0.16087055 0.19984633 0.24109568
-0.0045517166 0.24238247 0.0005384619 0.17068914 0.108056515 0.2578965 -0.11058727 -0.04349245
0.2880033 -0.12591267 -0.2394851 -0.23121692 0.047784667 0.08109109 -0.1343925 0.2831355
0.11179487 -0.020311026 0.17131628 0.1861885 -0.010160048 -0.033051666 0.1524051 -0.16501053
-0.049185105 -0.0471802 -0.132471 0.027336933 -0.015237107 0.21486828 0.11909457 0.012348465
0.117613174 0.050105266 -0.13787332 0.01762002 0.116639696 -0.20651488 0.11105336 0.2293031
0.009946357 0.18443187 -0.1950635 0.17602414 -0.06480607 0.25854823 0.09094687 -0.060703043

weight f4 [100, 100]
00000000: 1575 9d3d 4089 62bd ce75 0a3d ec97 14bd
00000010: 927a 8fbd 000c 11bc b25e 81bd 7c22 fa3c
00000020: ff6e b53d 1a28 8fbd 7d5b a13d e8b7 d8bc
00000030: a439 0abd 56b6 603d acf4 a93c f6b1 053d
00000040: 7e74 acbd 321f 293d c886 94bc 238f bc3d
00000050: 8324 c7bd fa15 163d 7922 8a3d 3608 5d3d
00000060: f31b 6cbd 6cce 0fbd b0bd 4cbc da1a 6d3d
00000070: 19ac c93d a88a c73c cdb7 bcbd 42c3 80bd
00000080: 74dd fdbc f2aa 0e3d 8c99 d9bc 2810 63bc
00000090: 006d 68bd a37f b7bd 1e38 753d aaa8 43bd
000000a0: 4000 673c f51d 83bd 6d03 c5bd 89f3 9b3d
000000b0: c313 47bd 50c3 5c3c 86c3 a9bd 3040 d03b
000000c0: 28df 663c 9823 8fbd f130 843d 55fa 8a3d
000000d0: 8393 66bd d77c 5abd 58e9 69bc d262 583d
000000e0: cb4f cabd 4680 533d 48f8 c93c a03f eabb
000000f0: 306d 26bc 9c2f e63c 9851 cfbc d97c 823d
00000100: 4ba9 c43d 7a5c 153d 64a6 e63c 2296 2c3d
00000110: a861 4a3c ec8a f53c 4159 823d 9411 80bd
00000120: c6f6 07bd 53d2 ba3d ae72 9cbd 0335 b2bd
00000130: f7b5 45bd fecb 7e3d 9798 4dbd 47d0 2fbd
00000140: 53b9 873d ea18 5cbd d467 c43c 1d8f c33d
00000150: 0ba6 9dbd 0098 7d38 2855 263c 34ed 07bd
00000160: 4ef6 6a3d 06fa 063d d02d 023c b28e c0bd
00000170: 9ffc a23d 221f 5e3d 9f0a 923d 4067 493b
00000180: 5d38 4ebd 3a44 9bbd 3462 83bc 31e7 963d
00000190: 8631 5fbd 36ca 663d d3f3 d83b 1c02 50bd
000001a0: 633a e33d 6108 c23c 16ed c6bd 1d8b 8f3b
000001b0: 79a0 21bd 61a7 24bc ddbd ae3b f9eb 8ebd
000001c0: 01b3 6cbd 21ca 27be 3524 97bd 4cae ad3d
000001d0: 44c7 b7bd d9b9 3cbd a810 ef3d ad6a 24be
000001e0: 67ce 223d fc82 a23d 2c21 a83d ab81 a2bc
000001f0: fe1d 8a3d 4a05 07bc f4b9 1fbd 5e69 3dbc
00000200: 496a 5ebd 84f2 fb3d a568 e6bc 93c9 023e
00000210: 54a7 963c a54c 6e3d 0b19 99bd b51d b43d
00000220: 045f 803d 834a e2bd b808 b43c d3d8 1ebe
00000230: 3fc6 52bd 9396 b9bd cdc6 b4bd a2fd d23c
00000240: c084 c93d 23cb 8c3d d9d9 e33b 42ed 2dbd
00000250: 4503 1c3e 1f38 793b 24f7 b43d e507 993c
00000260: c230 1d3d 35c7 1e3e 91fa 7ebd 98a2 633c
00000270: 6b3e 8bbd 6e5a c13d 4d55 7e3d 50bd e83d
00000280: b452 183e 9354 aa3d 635f a33d 1a83 ca3d
00000290: bd67 d53d f3a7 df3c 97a6 8abb e2fb ea3a
000002a0: 42e4 5f3d 2df0 edbc 16fb d4bd 6e3b e93d
000002b0: d967 25bd 7975 0f3d 73ab 3d3c 465b 953d
000002c0: 56eb 63bd 8266 cbbd ed95 433d 24c6 eabd
000002d0: 261b 413e ac5f 30be b836 d43d 9339 2c3e
000002e0: b4dd b43c 277c 563d 46cd 4abd b486 2bbd
000002f0: 55ba 9bbc 201c 683d 9db8 8bbd b14f 373d
00000300: 6c5a abbd 73a0 09be 171c ffbc 7a73 92bc
00000310: 149c d6bd 7491 5abd acc1 8d3d fa79 c53d
00000320: 54b4 053d d792 5fbd f39d b53d 6d4b a53d
00000330: 668b 693d 807d d3bd 9125 dcbd fa8e 193d
00000340: 5806 c9bd a6f7 08be dfdc 3c3d 4940 a7bd
00000350: 8b76 cb3c 96cf 04be e5cb 183e 44e4 113c
00000360: ab5c 00bd 107e 94bd 8343 0f3d e2b6 083b
00000370: 7a07 ff3c 1227 3dbd 1203 d83d ebc6 3ebe
00000380: d823 f6bd ab8f 033e 5773 fd3d 2384 f8bb
00000390: 1fb2 08bd c757 2dbc 3eb9 82bc 3a29 993d
000003a0: 6f45 663c f6c7 fc3c d23f a3bd 1287 51bd
000003b0: ed4c 2f3e f7ac 9cbd 66f0 093d 48b5 493c
000003c0: 7c26 a0bd b9cb ee3c cc45 f0bd da02 08be
000003d0: 957e 1dbd fe9f 023e 644f ec3d 4057 e83d
000003e0: 316d 913d 638b 0a3c 732e d63d 1dff 253d
000003f0: 7db8 e6bb 5688 96bd d9c7 32be b2f5 6f3c
0.07688347 -0.055306673 0.033803754 -0.036277696 -0.070058 -0.008852959 -0.0631689 0.030534022
0.088590614 -0.06990071 0.07878778 -0.02645488 -0.033746377 0.05486139 0.020746551 0.03264042
-0.084206566 0.041289516 -0.018130675 0.09206989 -0.09723761 0.036642052 0.067448564 0.05396291
-0.057643842 -0.03510897 -0.012496397 0.057886936 0.09847278 0.024358109 -0.09214745 -0.062872425
-0.030989386 0.034830995 -0.026562475 -0.013858832 -0.056744576 -0.08959892 0.05986797 -0.047768272
0.014099181 -0.06402198 -0.09619794 0.0761481 -0.04860283 0.0134743005 -0.08289246 0.006355308
0.0140912905 -0.06989211 0.06454647 0.06786028 -0.056293022 -0.053341713 -0.014276825 0.052828617
-0.098785006 0.051636003 0.024654523 -0.007148698 -0.010157868 0.028098874 -0.025307462 0.06371469
0.096026026 0.036465146 0.028155513 0.042135365 0.012352385 0.02997347 0.0636468 -0.06253353
-0.033194326 0.091221474 -0.07639061 -0.087015174 -0.04826924 0.06220626 -0.05019435 -0.042923238
0.06627145 -0.053734697 0.02397529 0.09548781 -0.07697686 6.046146e-05 0.010152139 -0.0331852
0.0573638 0.032953285 0.007945493 -0.09402217 0.0795834 0.05422891 0.07130932 0.0030731708
-0.05034672 -0.075813726 -0.016038038 0.07368315 -0.05449059 0.056345187 0.006620863 -0.05078326
0.11095121 0.023685636 -0.09713189 0.0043805973 -0.03945968 -0.010049672 0.005332692 -0.06978602
-0.0577879 -0.163857 -0.07379953 0.0848051 -0.08973554 -0.046075676 0.11673099 -0.16056319
0.039747622 0.079351395 0.08209452 -0.019837221 0.06744002 -0.008241007 -0.038995698 -0.011560766
-0.05430058 0.123021156 -0.02812607 0.12772207 0.018390335 0.058178563 -0.0747548 0.08794729
0.06268123 -0.11049368 0.021976814 -0.155124 -0.051458593 -0.09061923 -0.08826981 0.025755707
0.09839773 0.06874683 0.0069534597 -0.042462595 0.15235622 0.0038027836 0.08836201 0.018680522
0.038376577 0.15505679 -0.062250677 0.013893746 -0.06799015 0.09441076 0.062093068 0.113642335
0.14875299 0.083169125 0.07977178 0.09888287 0.10420177 0.027301764 -0.004231285 0.001792785
0.054661043 -0.029045189 -0.10399453 0.113882884 -0.04038224 0.03502414 0.011576521 0.072928
-0.055644356 -0.09931661 0.047750402 -0.114635736 0.18858013 -0.17223996 0.10361999 0.16818838
0.022078373 0.052364495 -0.04951217 -0.04187651 -0.019009748 0.056667447 -0.068223216 0.044753734
-0.08366856 -0.13440113 -0.031141324 -0.01787733 -0.10478988 -0.05336137 0.069217056 0.09642406
0.032642677 -0.054583397 0.08868017 0.08071027 0.057017706 -0.103266716 -0.10749353 0.03748987
-0.09815663 -0.1337572 0.046109077 -0.08166558 0.0248368 -0.12969813 0.1492153 0.00890452
-0.031338375 -0.07250607 0.034976494 0.002086096 0.031131495 -0.04617984 0.105474606 -0.18630569
-0.120185554 0.12847774 0.12375515 -0.0075841113 -0.033372995 -0.01058001 -0.015957471 0.074785665
0.01405464 0.030857068 -0.07971157 -0.051154204 0.17119189 -0.07650178 0.033676527 0.012311287
-0.0781984 0.029149877 -0.11732063 -0.13282338 -0.038450796 0.12756345 0.1153858 0.113447666
0.07100905 0.008456084 0.10458078 0.040526498 -0.0070410357 -0.07350223 -0.17459048 0.014645981

bias f4 [100]
00000000: 535d 64bd a7ae d93b c511 103d 17a4 91bd
00000010: cc06 19bd 006b 14be 4c92 9bbb fcc2 6bbc
00000020: 41d9 033d e604 b53d 068b 983d cbe7 e9bc
00000030: 5d22 5abd 6575 963e 1d5f 8f3e b5e9 bfbe
00000040: 7d89 0ebe 80a6 07be 4363 c43d 11b1 bebd
00000050: a1d6 25be bfdf 2abd eb57 b5bd 9467 e2bd
00000060: 5dec 1dbe a376 ffbd 4577 54bd 0abc 28bd
00000070: 87b6 613d 9ed1 e5bd 4303 b3bd ac80 86bd
00000080: d7d8 18bd e85f 313e 3b42 67be f1d9 173e
00000090: fb87 2c3d 9c2d 88bd 4745 20be 9081 3b3e
000000a0: ef09 8abc a9bb 03bd a435 9f3e a41a a23d
000000b0: 51d8 13bd 1c13 2abe 47b2 b1bd bfc6 0ebd
000000c0: 8b03 1b3e bc93 fc3e 709b 05be 5823 44bc
000000d0: 1bf4 b23d ea8d 0dbd 42c8 36be a72e ca3c
000000e0: 2874 203d 704f 533e f0be e73d a8f3 223e
000000f0: aa49 6a3b 8a0f 723e 9f41 a8bd 6648 8dbb
00000100: c5c8 103d cfe8 ecbd f5e4 b33d b8cb 87bd
00000110: eb35 363e 7817 563e 306b 973e 67d7 ab3b
00000120: 10b1 1dbc cc75 77bd 8d94 d03c 7af4 89bc
00000130: 7e21 80bd 92ad 473d b4e8 bcba b169 43bd
00000140: 6ba3 883c e0b3 7a3e 99b8 fb3b 2cd0 35bc
00000150: 2ac3 acbd 2f1f bfbd 47a8 ddbd 7661 473c
00000160: cbaa bbbd ce19 ab3d 060d 8d3d e6c0 863d
00000170: ade1 fa3b e694 fbbd 29e0 f0bd 853b 7d3d
00000180: 8781 353d 9a6f 5fbd 5791 0fbe 4e72 1ebe
-0.055753063 0.0066431346 0.035173196 -0.07111376 -0.037359998 -0.14493942 -0.0047476646 -0.01438975
0.03218961 0.08838825 0.074483916 -0.02855291 -0.053255428 0.2938644 0.28002253 -0.37482992
-0.13919635 -0.13247108 0.09589245 -0.093111165 -0.16195156 -0.041717287 -0.0885466 -0.11054912
-0.15422197 -0.124738 -0.051871557 -0.041194953 0.055105712 -0.11221622 -0.087408565 -0.06567511
-0.03731617 0.17321742 -0.22583859 0.14829232 0.04212187 -0.06649324 -0.15651427 0.18311143
-0.01685044 -0.03216139 0.31095612 0.079152375 -0.036094967 -0.16608852 -0.08676582 -0.034857508
0.1513807 0.49331462 -0.13047576 -0.011971317 0.08737966 -0.034559168 -0.1784983 0.024680449
0.039173275 0.20635772 0.11315715 0.1591326 0.0035749474 0.2363874 -0.08215641 -0.004311609
0.03534772 -0.11567842 0.087839045 -0.06630653 0.17794006 0.2090739 0.29573965 0.005244184
-0.0096247345 -0.060415074 0.02546146 -0.016840208 -0.06256388 0.048749514 -0.0014412613 -0.047708217
0.016679486 0.2448268 0.007681918 -0.011096995 -0.08435662 -0.0933212 -0.10823112 0.012169233
-0.091634355 0.08354531 0.0688725 0.06579761 0.007656297 -0.122842595 -0.11761505 0.06182434
0.04431298 -0.05454979 -0.14020287 -0.15473291

weight f4 [100]
00000000: c412 563f f324 143f 430c 823f 0f9e 83bb
00000010: a368 c93e ec5c bd3e d2d1 dd3e 6772 7b3f
00000020: a35a d03e 1d10 713f bcae 4e3f a21a 0f3f
00000030: b379 2e3f 331e 3c3f da04 723f d531 4e3e
00000040: 86e4 133f ebd3 a73e 1298 543f ed9f 533c
00000050: a1af 303f d175 aa3e 45cf 3f3f cf03 503f
00000060: 37c5 963e ac7b 163f 0864 383e 3491 4f3f
00000070: be9e d53e 3bc8 783e 0dc9 453f bd16 403f
00000080: dc69 143f 1f56 e33d a6f4 243d ffd7 223d
00000090: e173 353f 9464 f33e e7a4 4b3f 5c71 8f3f
000000a0: 83d6 623f 05e7 673e 52c9 403f 06a9 0b3f
000000b0: 865b 693f d441 4d3f 13a1 f43e b924 783d
000000c0: 98d8 7a3f 3c45 9a3f 1ae9 353f 25e3 e23d
000000d0: 647f 883e a18b 2e3d 4b1b 9d3e b9c9 8f3e
000000e0: e0c0 5b3f d2a5 013f e012 f33e 44ed 593f
000000f0: 7fcd 3b3f d335 e83d e314 193f 9489 6c3f
00000100: e80f 3a3d 1c03 d83d d0f9 6d3f bd21 1b3d
00000110: a606 d33e 4965 cc3d d9f6 773f f435 0a3f
00000120: ce90 d33d 6198 5a3f fadf 99b9 02f8 b53c
00000130: 3a8d 133f e10e 6c3d 97fe 303f ad86 1e3f
00000140: 46e4 6c3f 3acf 2a3c 5832 db3e 8b4e 7a3d
00000150: d182 803f 11f0 e73e ef0b 013f 1865 643e
00000160: 5649 063e 28f7 3e3f 3645 3e3f a819 7f3e
00000170: 689a 333f 32c9 303d 3fd2 993b a838 76bf
00000180: a679 583e 9205 c13e f521 433f 50eb 953f
0.83622384 0.5786888 1.0159992 -0.004016645 0.39337644 0.36984956 0.43324143 0.9822144
0.4069415 0.9416521 0.80735373 0.55900013 0.6815445 0.7348358 0.9453865 0.20136197
0.57770574 0.32778868 0.8304454 0.012916547 0.6901799 0.33293012 0.74925643 0.8125581
0.29447338 0.5878246 0.18006909 0.8108094 0.41722673 0.24295132 0.77259904 0.75034696
0.5797403 0.11100411 0.040272377 0.03975677 0.7087994 0.47537673 0.79548496 1.120647
0.8860857 0.2264672 0.7530719 0.54554784 0.9115528 0.8017857 0.4777914 0.060581896
0.97986746 1.2052379 0.7105881 0.11078481 0.2665969 0.04261363 0.30684885 0.2808359
0.8584118 0.50643647 0.47475338 0.85127664 0.7336044 0.11338391 0.59797496 0.9239743
0.045425326 0.10547468 0.9295931 0.037873972 0.4121601 0.09980256 0.96861035 0.53988576
0.10330354 0.8538876 -0.0002934931 0.022212986 0.5763737 0.057631377 0.69138473 0.6192425
0.9253582 0.010425383 0.42811847 0.06111006 1.0039922 0.45300344 0.50408834 0.22304189
0.13113913 0.7459588 0.7432436 0.24912131 0.7015748 0.043160625 0.0046942527 -0.961802
0.21140155 0.37699562 0.7622369 1.1712437

bias f4 [100]
00000000: 1745 5fbc 6e0e 743b 8d20 163b aeec d3bd
00000010: 6e78 87bb cab5 e5bd 4653 84be 996e 343b
00000020: 172c ecbb 7655 96be 6ace 1f3b 6713 22bc
00000030: 9844 8ebe 4440 4bbe 3067 acbd 6322 de3c
00000040: 12cf c43c 0173 b43b 47b8 4f3c e9db dbbd
00000050: 680b b23d ae61 cabb e7d6 3dbe d003 f93d
00000060: 4cf4 c9ba 67cc 48bc 8b15 20ba a8e8 1ebb
00000070: 74be 8a3c c0aa 80bc 94bf ffbd 9c62 0dbb
00000080: 8689 0cba deb6 d5bb d142 833c 3b91 09be
00000090: cab3 343e ecf8 c9bd 8608 01be d771 413d
000000a0: e163 603e 1b98 35be f840 713d 3333 853d
000000b0: fdf1 823e 5f34 22bd 9574 29bd 5a97 893b
000000c0: 5b54 52bc ebf2 51be a75a 53be f3b5 72be
000000d0: a895 b5bb 3e6c 69be 4b9d ee3a 31f3 80bc
000000e0: 57c7 ec3a ada4 383e 6dac 04be be4e 89bd
000000f0: 3807 db3b 647b 8dbc 31c7 713c 64e0 57bc
00000100: b418 853b e002 0bbe 350b 83be 0b94 9dbc
00000110: e137 b4be ad49 073e 7260 2b3c 34a8 9cbd
00000120: 1df7 f73d 3eec dd3a c4cd 933c 487b 4fbc
00000130: 8e69 dd3a c14a 87ba ba9a e2bc f109 b4bd
00000140: 3c0d d3b9 3867 69bb 0f34 fc3b ca87 5bbe
00000150: 7dbd 1d3c 52b7 69be 7ee6 6bbe 9b84 b0bb
00000160: db84 973c de81 80be a128 093c e4d5 b83a
00000170: 36b7 b43b aacb 3bbc 8e52 103c 5076 4cbe
00000180: 6c54 85be 3057 6f3b d5dd 3dbe 0067 033c
-0.013627312 0.0037240046 0.0022907585 -0.103478774 -0.0041342294 -0.11216314 -0.25844783 0.0027531742
-0.0072074044 -0.29362077 0.0024384507 -0.009892321 -0.27786708 -0.19848734 -0.08418119 0.027116006
0.02402452 0.0055068736 0.0126782125 -0.10735304 0.08693582 -0.006176195 -0.1853901 0.1215893
-0.0015407889 -0.012255765 -0.0006106726 -0.002424756 0.016936518 -0.01570642 -0.124877125 -0.0021573668
-0.0005361069 -0.0065220436 0.016023071 -0.13434307 0.17646709 -0.09861931 -0.12600908 0.047227707
0.21913101 -0.17733805 0.05889985 0.06503906 0.25575247 -0.039600726 -0.041370947 0.0041989507
-0.012837495 -0.20502822 -0.2064005 -0.2370222 -0.005541522 -0.22795197 0.0018204836 -0.015740963
0.0018064779 0.18031569 -0.129564 -0.06704472 0.00668421 -0.017270751 0.014756964 -0.0131760575
0.0040617827 -0.13575315 -0.25594488 -0.019235631 -0.35198882 0.13211699 0.010460006 -0.0764927
0.1210768 0.0016931368 0.018042453 -0.01266367 0.001689242 -0.0010321961 -0.02766167 -0.08790959
-0.00040254917 -0.0035614502 0.0076966356 -0.21438518 0.009627697 -0.22823837 -0.23037145 -0.0053869016
0.018495968 -0.2509908 0.008371503 0.001410183 0.0055150045 -0.0114621315 0.008808745 -0.19967008
-0.2604097 0.0036520474 -0.18541653 0.008020163

running_mean f4 [100]
00000000: 0000 0000 0400 0000 0400 0000 0400 0000
00000010: 0400 0000 0400 0000 0475 0940 0400 0000
00000020: 0400 0000 110b 853f 0400 0000 0400 0000
00000030: 0400 0000 2c74 cd3f 2854 5b3f 0400 0000
00000040: 0400 0000 0400 0000 6e44 a23f 0400 0000
00000050: 8ff3 633f 0400 0000 0400 0000 a778 e23e
00000060: 0400 0000 0400 0000 470c f421 0400 0000
00000070: 0400 0000 0400 0000 0400 0000 0400 0000
00000080: 0400 0000 c8ba 9d3f 0400 0000 b6d4 ec3f
00000090: c10b 2440 0400 0000 0400 0000 b687 9c3f
000000a0: 0400 0000 0400 0000 df03 b53f aa21 853f
000000b0: 0400 0000 0400 0000 4896 a23f 0400 0000
000000c0: 0400 0000 8cd5 a93f 0400 0000 b76e 473f
000000d0: 0400 0000 0400 0000 0400 0000 0400 0000
000000e0: 0400 0000 13a1 a53f 0a19 223f b4fc 7b3f
000000f0: 0400 0000 c666 223f 0400 0000 0400 0000
00000100: 0400 0000 0400 0000 8bbc 893f 0400 0000
00000110: 8dd0 bb3f 3813 573f 1daf b33f ffa9 643f
00000120: 0400 0000 0400 0000 9567 d93f 0400 0000
00000130: 0400 0000 0400 0000 bf82 c33f 0400 0000
00000140: 0400 0000 c70d a43f 0400 0000 8fe8 ab3f
00000150: 0400 0000 5da9 d73f 0400 0000 0400 0000
00000160: 0400 0000 8089 863f 0400 0000 0400 0000
00000170: 8e89 683f 0400 0000 0400 0000 f1b8 d33f
00000180: 429d 523f 0400 0000 0400 0000 0400 0000
0.0 6e-45 6e-45 6e-45 6e-45 6e-45 2.147767 6e-45
6e-45 1.0394002 6e-45 6e-45 6e-45 1.6051078 0.8567529 6e-45
6e-45 6e-45 1.2677133 6e-45 0.89043516 6e-45 6e-45 0.44232675
6e-45 6e-45 1.6537333e-18 6e-45 6e-45 6e-45 6e-45 6e-45
6e-45 1.2322626 6e-45 1.8502414 2.5632174 6e-45 6e-45 1.2228916
6e-45 6e-45 1.4141806 1.0400898 6e-45 6e-45 1.2702112 6e-45
6e-45 1.3268294 6e-45 0.7790331 6e-45 6e-45 6e-45 6e-45
6e-45 1.2939781 0.63319457 0.9843247 6e-45 0.6343807 6e-45 6e-45
6e-45 6e-45 1.0760664 6e-45 1.467302 0.840137 1.4037815 0.89321893
6e-45 6e-45 1.6984736 6e-45 6e-45 6e-45 1.5274276 6e-45
6e-45 1.2816705 6e-45 1.3430346 6e-45 1.684856 6e-45 6e-45
6e-45 1.0510712 6e-45 6e-45 0.9083489 6e-45 6e-45 1.6540815
0.82271206 6e-45 6e-45 6e-45

running_var f4 [100]
00000000: 0400 0000 0400 0000 0400 0000 0400 0000
00000010: 0400 0000 0400 0000 45af 283e 0400 0000
00000020: 0400 0000 bfd4 583e 0400 0000 0400 0000
00000030: 0400 0000 57a0 1f3e f3a7 8f3d 0400 0000
00000040: 0400 0000 0400 0000 1865 9c3d 0400 0000
00000050: a85d a13d 0400 0000 0400 0000 9781 1e3e
00000060: 0400 0000 0400 0000 7f60 e01d 0400 0000
00000070: 0400 0000 0400 0000 0400 0000 0400 0000
00000080: 0400 0000 ccf6 a63c 0400 0000 66e8 2b3e
00000090: 9329 dd3d 0400 0000 0400 0000 da99 9a3d
000000a0: 0400 0000 0400 0000 6965 073e 3fe9 c43d
000000b0: 0400 0000 0400 0000 13c1 693d 0400 0000
000000c0: 0400 0000 c973 153e 0400 0000 fb27 243e
000000d0: 0400 0000 0400 0000 0400 0000 0400 0000
000000e0: 0400 0000 546b 083e a4b2 463e 5287 973d
000000f0: 0400 0000 c604 ac3c 0400 0000 0400 0000
00000100: 0400 0000 0400 0000 c440 d83d 0400 0000
00000110: f1a1 fd3d 7ab8 413e cfbb 1f3e 411e 463e
00000120: 0400 0000 0400 0000 ad21 373e 0400 0000
00000130: 0400 0000 0400 0000 149d fb3d 0400 0000
00000140: 0400 0000 cd64 1b3e 0400 0000 5451 6e3d
00000150: 0400 0000 22f7 553e 0400 0000 0400 0000
00000160: 0400 0000 ca1f 903e 0400 0000 0400 0000
00000170: 23dc d23d 0400 0000 0400 0000 8ca3 3b3f
00000180: 7636 d83d 0400 0000 0400 0000 0400 0000
6e-45 6e-45 6e-45 6e-45 6e-45 6e-45 0.1647311 6e-45
6e-45 0.21174906 6e-45 6e-45 6e-45 0.15588509 0.07014456 6e-45
6e-45 6e-45 0.076364696 6e-45 0.07879192 6e-45 6e-45 0.15479122
6e-45 6e-45 5.939208e-21 6e-45 6e-45 6e-45 6e-45 6e-45
6e-45 0.020381354 6e-45 0.16787872 0.10798945 6e-45 6e-45 0.07548876
6e-45 6e-45 0.13222279 0.09614801 6e-45 6e-45 0.057068896 6e-45
6e-45 0.1459495 6e-45 0.16030876 6e-45 6e-45 6e-45 6e-45
6e-45 0.13322192 0.19404083 0.07398857 6e-45 0.02099837 6e-45 6e-45
6e-45 6e-45 0.10559228 6e-45 0.123844035 0.18918028 0.15598987 0.19347478
6e-45 6e-45 0.1788394 6e-45 6e-45 6e-45 0.1228582 6e-45
6e-45 0.15175171 6e-45 0.05818303 6e-45 0.20895055 6e-45 6e-45
6e-45 0.28149253 6e-45 6e-45 0.10295894 6e-45 6e-45 0.7329643
0.105572626 6e-45 6e-45 6e-45

weight f4 [100, 100]
00000000: b18f b43d 1991 dfbd fa2a fcbc 45ea 223e
00000010: 5b33 1abd 0c79 1f3e 5962 dabd bcca d93d
00000020: 0d27 83bd bf02 42bf 2536 923d f771 0c3e
00000030: d9c5 383e 309d 1a3f 1dae 9f3e b25a b83d
00000040: 483d efbd f3c7 bbbd f701 8bbe d6c3 ec3d
00000050: 4bcd 843d 3f9e a03d bbdb 5c3e 9210 b03e
00000060: 4327 c3bc 5e33 cf3d 730d 083e 8be7 163d
00000070: e41d 1abe d8e4 3f3e ee99 dd3d f4ec 8f3d
00000080: ab62 123e de22 a7bd c63b 2ebe b1af 113e
00000090: a2ca b7be 12de c93c 2a49 143e c09e e4be
000000a0: 1eb9 d1bd 4458 d83d 7320 0cbf 88c2 b6bd
000000b0: 46d8 30be a3ef 213e 11d6 d7bd 1f3a 24be
000000c0: 83b5 053e f4af 003f 752c 553e 8ea8 4e3e
000000d0: 6891 8f3d 8d46 473e ba46 e63d 6e46 3d3c
000000e0: 3fe9 f1bd 4178 133f 4e9c cf3e bbed dfbe
000000f0: 8ae4 60bd 8c79 a1bd e1ed 86bd 943e e93d
00000100: 51cd 03be 69c9 263e d386 9b3c 3f8b 56bc
00000110: 1c2a 4aba d5f8 b2bc 0570 02bd 9400 3d3f
00000120: 445a 07be 45c3 13be 61d7 fdbd 4a55 4c3d
00000130: 9b36 8bbd a501 8abd 530e 873e 872f 3b3e
00000140: cbb4 d93b 3794 6d3d cabe f4bd 2304 093e
00000150: c0ef 593e b097 f0bd b077 3e3e 8f12 b23d
00000160: 0685 eebd 6cf5 643d 0fd7 c3bd e8f8 bebc
00000170: ec70 d53d 6b51 353e 3b9b 0dbe 6a4c 953e
00000180: 6217 933d 04a8 34bd dccd eb3d be3a 8abe
00000190: 7296 abbc 022d 893d 7d69 02bd 886b e4be
000001a0: 5eef 4dbe 0577 7cbe 20ea 5dbf 2a4a 553b
000001b0: d6a3 f93d 18c4 94be 7c69 e7bd bd00 a7bd
000001c0: 77bb d4be 8fea 763e f5a6 e53d e0a4 05bd
000001d0: a9a1 d43c b191 86be 703d 22be f72e 74be
000001e0: 91d1 9abe 8f93 c5be e528 e8be 62ff 06be
000001f0: 1547 38be 36e3 aeba 7a0e b93d dc53 a4bd
00000200: 9bc9 07be 6efc 6cbd fc7d d1be 2709 a2be
00000210: a64f 1b3b a1f4 0abe a861 d13e 0b72 a5be
00000220: 9e56 b43e 97df 81be dc74 ebbe 9b2a 3c3e
00000230: 5464 aa3e e446 a4be d40e f33d 55c2 adbe
00000240: 6a4d b63e c316 7fbe ba45 5c3e d485 0f3e
00000250: 5506 ff3b 31f7 bc3d 7afb d2be 686d 61bf
00000260: bb22 1bbe 82ad 9ebe 072a 5abe fb47 e5bd
00000270: 9da5 013c e129 243e 23dd 38bd 9801 a8be
00000280: 4058 1f3a e36f eebd ddc1 2d3e 8cff 91be
00000290: fd75 8e3d 3987 87be e1d4 b93c c88c 98bd
000002a0: 8d36 3dbe 718b cc3c 31d7 babd d5d3 a93e
000002b0: 5b0e a93e 8ed5 97bd 7f4f ae3e 311b 1bbd
000002c0: 1972 7cbd f760 95bd 96f6 88bd 1cf3 81be
000002d0: fa6c 103d e827 e3be 2821 68bb cf96 eabe
000002e0: 94af 65bd 01e5 cbbe fec2 7ebe 74b9 46be
000002f0: d1db a13e 1ce2 67bd d22d 773d 26c9 573d
00000300: dbdf 243c eaf4 d6be fa55 ef3c 143a 873e
00000310: 3b8b d7bd 2955 2cbd c2c7 88be 5fc2 e73d
00000320: 0618 19be 344e 13be bb23 903e db32 053f
00000330: 4087 563e 7873 e13e 3df8 813e 3db9 95bc
00000340: 37f6 883e 84a8 d9be 7456 9abe 0bc0 b1bd
00000350: a2a2 053f 4f3d 87bd 571e 473e f68f 143d
00000360: b311 883e df2e 983d 2b9c 1b3e 98b4 cd3e
00000370: 25a6 c8be 7b62 033e ea83 ce3e cb54 693e
00000380: a01c 74bd 2aa8 b93d 2ca2 1d3c 15d5 633d
00000390: bd5d 32be 2f35 923e 7473 a63e 90cb a8bd
000003a0: 2872 703e 09d3 43bd c941 4cbe a549 943e
000003b0: 6df4 75be 2cdd ce3e 31f8 db3e 6131 103d
000003c0: c1e0 04bf fd05 de3e 4dd5 cc3e 6954 98be
000003d0: c3b1 10bf c7bd da3d 51b2 22be 2cc2 e8bd
000003e0: 663d b1be f42c 3cbe 0a3b 163f 12d9 b43e
000003f0: 77de b63d b0c0 153f d9c0 ba3d 23f5 0cbe
0.088164695 -0.10916347 -0.030782212 0.15909679 -0.037646633 0.1557352 -0.106632896 0.10634372
-0.06403933 -0.7578544 0.071392335 0.13715349 0.18044223 0.603961 0.31187525 0.09001674
-0.1168161 -0.09168997 -0.27149937 0.1156079 0.06484469 0.07842683 0.21568196 0.34387642
-0.023822432 0.101172194 0.1328638 0.03684191 -0.15050465 0.1873964 0.108203754 0.07027617
0.14295451 -0.08160947 -0.1701499 0.14227177 -0.35896784 0.024642024 0.14481035 -0.44652367
-0.102403864 0.1056371 -0.54737014 -0.08923823 -0.17270002 0.1581407 -0.10538877 -0.16037796
0.13057522 0.50268483 0.2081774 0.20181486 0.07010156 0.19460507 0.11243959 0.011552436
-0.11812066 0.5760537 0.4054894 -0.4373606 -0.05490545 -0.07884511 -0.065883406 0.11388889
-0.1287129 0.1628777 0.018985188 -0.013094722 -0.0007711963 -0.021847168 -0.03184511 0.7382901
-0.13218027 -0.14429958 -0.12394596 0.049886025 -0.067975245 -0.06738595 0.26378116 0.18279849
0.0066438667 0.058002677 -0.119504526 0.13380484 0.21282864 -0.11747682 0.18600345 0.08694946
-0.11646466 0.055898115 -0.095625035 -0.023312047 0.10421929 0.1770684 -0.13828747 0.29159862
0.07182194 -0.044105545 0.11513874 -0.26997942 -0.020945761 0.06698038 -0.031838883 -0.4461329
-0.20110843 -0.24654777 -0.8668537 0.0032545426 0.12189452 -0.29055858 -0.112994164 -0.08154438
-0.41549274 0.24112915 0.11213485 -0.03262794 0.025955992 -0.2628303 -0.15843749 -0.2384604
-0.3023801 -0.3858914 -0.453437 -0.13183358 -0.17995866 -0.0013342861 0.09035964 -0.080238074
-0.132605 -0.057857923 -0.4091643 -0.31647608 0.0023698597 -0.13569881 0.40894818 -0.3231357
0.35222334 -0.25365898 -0.45987594 0.18375628 0.3327967 -0.32085335 0.118680626 -0.33937326
0.35605937 -0.24911027 0.21510974 0.14015895 0.0077827373 0.092268355 -0.41207486 -0.88057566
-0.15149967 -0.3099175 -0.21305095 -0.1119537 0.00791302 0.160316 -0.045132767 -0.32813716
0.0006078519 -0.116424344 0.16968484 -0.2851528 0.06956098 -0.26470354 0.022684516 -0.07448727
-0.1847784 0.024968835 -0.09123076 0.33169428 0.33018765 -0.07413779 0.34045026 -0.03786773
-0.06163225 -0.07293885 -0.066876575 -0.2538079 0.03526018 -0.44366384 -0.0035420153 -0.45818183
-0.056075647 -0.39823154 -0.24879071 -0.19406682 0.3161302 -0.05661212 0.060346432 0.052682064
0.010063137 -0.4198373 0.029215802 0.26411498 -0.10524603 -0.042073403 -0.26714903 0.1131637
-0.1495057 -0.14385301 0.2815226 0.52030724 0.20950031 0.44033408 0.25384703 -0.018276805
0.26750347 -0.4251138 -0.30144083 -0.086792074 0.5220128 -0.066034906 0.19445167 0.036270104
0.26576003 0.07430815 0.15196292 0.40176845 -0.39189258 0.12830536 0.40335017 0.22786252
-0.05959761 0.09065278 0.009621184 0.055623133 -0.17418571 0.285562 0.3250996 -0.082419515
0.23481047 -0.04780868 -0.1994697 0.28962436 -0.24019022 0.40403116 0.42962793 0.03520334
-0.5190545 0.43363944 0.40006486 -0.297519 -0.5652124 0.106807284 -0.15888335 -0.1136516
-0.34617156 -0.18376523 0.58683836 0.35321862 0.089291506 0.5849714 0.09118814 -0.13765387
