metrics_best_runs/enc_dec_freezed/0090.predictor.model (torch_old, 100312 bytes, 18 tensors)

weight f4 [100, 100]
00000000: 102b df3d 0e10 0abd 7d89 c13d 4823 733d
00000010: a26e e33d 6ae8 8f3d f29e 93bc 754c 35ba
00000020: 49df 983d 82d5 843d c7d0 6bbd f85c ecbc
00000030: 57fe b2bd 0f2d b73d 0b2c 783b 8c30 2e3c
00000040: df68 5b3d 9a5f b23d 673c 9bbd 114e 893d
00000050: fb51 c43d 3173 90bd 343f 173c db82 c3bd
00000060: 0c8e 99bc fe8b 2d3c 42bc adbd 9ac9 11bd
00000070: 6dcc 9e3c 7971 3cbd 95e9 cabd 984b 76bc
00000080: 089d 003d 8655 9c3d 3e34 3abd 78ce 76bd
00000090: 5fb8 7a3d 7cc4 603d 7f36 243d ac3b c73d
000000a0: 3a01 583b 5a70 c43b 7f46 22bd f99c 8cbd
000000b0: e5a8 d0bd 185d 833d 308f 3dbd c592 8cbd
000000c0: 35a1 a23b e35c 94bc 5c07 213d 0c7c 95bc
000000d0: 6e82 183d 5427 e3bc 0aea 9ebc df35 18bd
000000e0: 1a61 aa3d 0b18 e7bb be26 ca3d 1a93 973c
000000f0: e29e 54bd 1119 00bd c5d0 5cbd f212 5fbd
00000100: 67b2 cabd 7ca1 003e 48ea 043e 42f5 a4bd
00000110: 0d35 153d bf5b c23d 0232 1fbd c4e3 91bc
00000120: 8471 17bc 6f99 febc be0f 9dbd a8aa 28bd
00000130: 8084 a3bd 944a 093d edd6 3cbd 0774 453d
00000140: 68b5 80bd 2b47 76bd 92f8 8f3d 95d2 473d
00000150: 9f31 13bd 3a9f 09be 2b28 803d ab43 363d
00000160: 0adf f3bc 1de6 b43c 0e7f a3bd 6c5f 1bbe
00000170: 15ea 74bd aa4a e6bd 9dbf 9d3d 79a3 ec3d
00000180: 3e0a 53bd 832f 123c 73a5 7abd 2b69 bf3d
00000190: a18b 993d 4494 b33b 6833 88bd 9c3d 69bd
000001a0: e29a 063d c322 193e 871e 633d 5677 88bb
000001b0: 2af7 3d3e d64e d93c b69b de3c 9b3b b13d
000001c0: bd7c 7bbc 4e66 ffbc 66f6 153e e5df e93d
000001d0: e0e4 acbd ad23 703d 75b8 2bbd 8c6e b3bd
000001e0: 5d8c 65bd b032 8b3d 9ed4 d3bd 1927 9e3d
000001f0: 0bb5 d9bd f7fe 52bd b9c8 8f3c c14b 45bd
00000200: 03f4 ccbd 7610 1abd 6d17 cdbc 6aee 04bd
00000210: 583a dabc eea5 123e 5670 a63d 9494 083c
00000220: 908e 83b9 142e c23d d265 203b 307b c5bd
00000230: 6596 06be 8d97 ce3c cafc 043e 0cfc 9cbd
00000240: 8d01 dabd 6126 0e3e 834d c93c b7a2 02be
00000250: 5a98 513d 2cbb 30be 8ffa 303e 000d b63d
00000260: 9332 c5bc a014 08bd a4e6 0c3d 0d22 44bd
00000270: 9032 d3bc 882c 223c d33f 123c c2f0 ce3c
00000280: cb6d 133e c5f5 cebc 5a5d d13d 0efc fb3c
00000290: 8cb1 0b3d d082 07bd 914b f13d 467d 6b3b
000002a0: 118a 703c a8d2 513d 4740 fe3d 1d78 b5bd
000002b0: 0e09 17bd 7cc1 ea3d 2b04 023e a6c6 8abd
000002c0: e3fc 713d b79a 94bc 38d8 f6bd 9264 bd3d
000002d0: af4f c5bd a959 333d d165 57bd 671e b0bb
000002e0: 83c8 61bd 1837 663d 6a66 c6bd 9780 b3bd
000002f0: 109f 38be 35f7 62bd e95e a7bd bbac f33d
00000300: 5a88 96bd 6c26 4a3c 4005 bebd b526 d33d
00000310: bef5 ec3d 482a 90bb 254f 0c3d 82e2 83bd
00000320: 006a 903c 3aa6 42bd 0d06 44bd 4f37 d23d
00000330: a736 853c 74bc b8bd b230 ca3b 24e6 ef3c
00000340: 2d9d 82bd 03e4 efbb 6bd2 46bd 8851 5abc
00000350: 7194 abbd 5f99 363c e723 60bd 40dd 8ebc
00000360: 408a 9abd 5f92 06be 9854 d43d 07c5 1a3e
00000370: af94 b93c f8bf 4bbd c505 4f3d ff89 72bd
00000380: 5456 d73c 1497 89bd a698 e63d e77b 953a
00000390: 247b 57be 19fb 20bc d4c7 363d c906 133d
000003a0: 8e6d c0bd 6d64 fdbd 92f1 f1bc 6b0c a03d
000003b0: c984 56bd 6759 2a3c e9aa 0e3d 64b2 d43d
000003c0: 65bc 74bc 997f ac3d 0133 98bd c18f e53c
000003d0: f35d edbc 2b37 dfbc 7ef6 b5bd 9b8e be3d
000003e0: b312 413c 20a6 35bd 92ba a6bc 9466 f73d
000003f0: f8d9 e13d 4baa 45bd 5a7d cc3d e588 333b
0.108968854 -0.033706717 0.09450052 0.05935982 0.11105086 0.07026751 -0.018020127 -0.0006915995
0.07464463 0.06486036 -0.057572152 -0.028852925 -0.08739918 0.08944141 0.0037868049 0.010631692
0.05356681 0.08709641 -0.0757988 0.06704343 0.09585949 -0.07053221 0.009231377 -0.09546443
-0.018744491 0.010592459 -0.08483173 -0.035592653 0.019384587 -0.046006653 -0.099078335 -0.015032671
0.031399757 0.076335 -0.04545998 -0.060255498 0.061210986 0.054874882 0.040091034 0.097281784
0.0032959715 0.0059948387 -0.03961801 -0.06865878 -0.10188464 0.064142406 -0.046279132 -0.068639316
0.004963065 -0.018110698 0.03931366 -0.018247627 0.037233762 -0.027728714 -0.019398708 -0.03716075
0.08319302 -0.0070524267 0.09870671 0.01850276 -0.051909335 -0.031273905 -0.053910036 -0.054461427
-0.09897309 0.12561601 0.12979996 -0.08054592 0.036427546 0.094901554 -0.03886605 -0.017808802
-0.009243373 -0.031079022 -0.07669018 -0.041178375 -0.07984257 0.03351839 -0.046103407 0.048206355
-0.062846005 -0.060126465 0.07029833 0.04878481 -0.035935994 -0.13439646 0.062576614 0.044498127
-0.02976944 0.022082383 -0.07983218 -0.1517312 -0.05979355 -0.1124471 0.07702563 0.115546174
-0.05152344 0.0089224605 -0.06119294 0.09346231 0.07497335 0.005480321 -0.0665043 -0.05694352
0.03286255 0.14954667 0.055449035 -0.0041646166 0.18551317 0.02652685 0.027173858 0.08653947
-0.015349564 -0.031176712 0.14644775 0.114196576 -0.08442092 0.058627773 -0.04192396 -0.087613195
-0.056042064 0.06796777 -0.10343288 0.07722301 -0.10630234 -0.051512685 0.017551767 -0.048167948
-0.10007479 -0.037613355 -0.025035584 -0.032453932 -0.026639149 0.1432111 0.08126895 0.008336205
-0.00025092484 0.09481445 0.0024474752 -0.09642637 -0.13143308 0.02521875 0.12987056 -0.076652616
-0.10644827 0.13881828 0.024573093 -0.12757383 0.051170684 -0.172589 0.1728308 0.08889198
-0.024071967 -0.033222795 0.034399644 -0.047884036 -0.025780946 0.009898312 0.00892635 0.025261287
0.14397351 -0.025263676 0.102228835 0.030759837 0.03410487 -0.033083737 0.11781991 0.0035932823
0.014681355 0.051226288 0.12414604 -0.088608004 -0.03687387 0.114626855 0.12696902 -0.067761704
0.059079062 -0.01814018 -0.12052959 0.09247698 -0.09634339 0.04378668 -0.052587334 -0.005374718
-0.055122864 0.056204885 -0.09687503 -0.08764761 -0.18029428 -0.055411536 -0.081723996 0.1189818
-0.07350226 0.012338262 -0.09278345 0.10310117 0.11570309 -0.0043995716 0.034255166 -0.06439687
0.01762867 -0.047521807 -0.047857333 0.102644555 0.016261412 -0.090203196 0.0061703557 0.029284544
-0.06377635 -0.0073208823 -0.048540514 -0.013325103 -0.08377922 0.011144965 -0.05472174 -0.017439485
-0.075459 -0.13141774 0.103676975 0.15114222 0.022653906 -0.049743623 0.05054261 -0.059213635
0.026286282 -0.06718269 0.11259584 0.0011404724 -0.21043068 -0.009825491 0.044624165 0.035895143
-0.09395896 -0.1237267 -0.029534135 0.078148685 -0.052372728 0.010397292 0.03483096 0.10385588
-0.014937495 0.08422775 -0.07431603 0.028022649 -0.028975463 -0.027247986 -0.08884905 0.093045436
0.011784243 -0.044347882 -0.020352636 0.12080112 0.11027902 -0.048258107 0.099848464 0.0027394828

bias f4 [100]
00000000: 0246 8d3d ae6c a2bb 9350 503d d81e 533a
00000010: 14bf 63bd 3dd6 53bd f007 10bb 4333 13bd
00000020: ae82 a8bd a108 21bd 7f70 15bd 888b 06bd
00000030: 8c19 a4bc 8b85 863b bd1b dbbd d579 c8bd
00000040: f524 afbc 5787 b8bd bcae f83c e49c 61bb
00000050: 0055 023d 8a6a b83c 162d 91bd e999 dcbd
00000060: f082 583d 62fd ba3d 3562 013d ad82 8c3d
00000070: c98a 513d cc72 e8bc 0615 93bd 1d86 97bd
00000080: 8c51 42bd 2011 1abe 4706 fd3c ce86 a7bd
00000090: afd8 783d 7066 1f3d dcf1 4ebd 75a7 8dbd
000000a0: 6944 85bd a3d9 573c f677 443d 5016 d03a
000000b0: 848d 47bc 6210 a83d 9ee0 e43d 6832 ff3c
000000c0: 2ffc cdbc 1ccb edbd 126b 993d 9e9d 863d
000000d0: 4cfa 523d 364e 823c f7d0 033d 92bb 1e3c
000000e0: f376 943d f205 40bd 29e5 92ba c23a 733d
000000f0: 4c04 9dbc 7813 d6bc 4895 19be 1514 673c
00000100: e875 a5bc ed9b 90bd b19e 07bd 9ded 803c
00000110: 2e68 8abc bc1b 29bd 90d3 93bd f8cc 8ebd
00000120: 23d7 783d 2d1f e33d 75c4 663d 61fa 94bd
00000130: 883c a4bd 3ec4 7f3d 2774 a0bd e693 293d
00000140: 3e85 a73d 3c4b 993c 46fd 89bd c85d 3d3d
00000150: 3bb8 a5bd a9a4 4ebe da11 823c e456 d0ba
00000160: 5d7a 4d3d 8431 b4bd 8775 573c 0936 ae3d
00000170: 2552 1dbd e537 9dbd 04b3 70bd 04a6 febd
00000180: b438 0bbc 6f62 943d 443f 453d 75b1 aa3d
0.068981186 -0.0049568033 0.05085809 0.00080536073 -0.05560215 -0.051717985 -0.0021977387 -0.03593756
-0.0822805 -0.03931487 -0.036484238 -0.03284791 -0.020031713 0.004105275 -0.1069865 -0.097888626
-0.021379927 -0.09010189 0.030356757 -0.003442579 0.031819344 0.02251174 -0.070886776 -0.107715435
0.052859247 0.0913036 0.0315878 0.06860862 0.051157746 -0.028375052 -0.07181744 -0.07398627
-0.04744105 -0.15045595 0.030886782 -0.08180009 0.06075352 0.03891605 -0.050523624 -0.069167055
-0.06507189 0.013174447 0.047965966 0.001587579 -0.012179736 0.0820625 0.11175655 0.031151965
-0.025144665 -0.11611006 0.07491125 0.06573032 0.051508233 0.015906435 0.032181706 0.009688275
0.0724925 -0.04688067 -0.0011207211 0.059382208 -0.019167088 -0.02613233 -0.14998353 0.014103909
-0.020197824 -0.070609905 -0.033110324 0.015738303 -0.01689538 -0.041286215 -0.07218087 -0.069726884
0.060752045 0.11089931 0.0563397 -0.072743185 -0.08019358 0.06244301 -0.07834654 0.041400813
0.08179711 0.018712632 -0.06737761 0.046232015 -0.0809178 -0.2018 0.015877653 -0.0015895036
0.050165523 -0.08798507 0.013150579 0.085064 -0.038408417 -0.07676677 -0.058764473 -0.12434009
-0.008497406 0.07245337 0.048156038 0.083346285

weight f4 [100]
00000000: 36b7 0f3d 8cce d83d 8514 6b3e 13dc 443e
00000010: fe45 1a3e 2f18 a33c d56c 203e 3144 183e
00000020: 9772 403f f95a a03e 710b 4c3f c6c6 6a3f
00000030: 68c3 cf3e d8fe 1f3f 5689 803c 94fa 043f
00000040: 7b13 c33d 5834 663f b0c0 343e 55fe 393f
00000050: 7ae8 d13d 5fa7 283f 4ffd 733f 84d7 4f3f
00000060: 78d0 b63e 1616 043f 9cc1 953d 4233 233f
00000070: ba1a c53e 64dd cf3e c206 c43e 5ddd a03e
00000080: c48e 3b3e 96f6 523f 5a97 6b3e 4855 663f
00000090: 3938 683f e01a 103f e98b 3f3f 807b 6c3f
000000a0: 4d77 b53e 3851 a93d 2b09 9d3e b613 a83e
000000b0: d1d5 203f 802f 873e 4ba3 d93e c26a 543e
000000c0: 2ec0 f53e 7a93 053f 693b 423f 8c41 ef3d
000000d0: 64c0 d93e f69c 603f e5ab a73e 2562 7c3f
000000e0: 6864 4c3f 82fa 223c 1488 903e 84ac 8a3e
000000f0: 15ed cf3d 54e7 3f3e 51da 043f 5a80 203f
00000100: 67d9 5f3e 30eb 053f 1ff2 973e 096b 093f
00000110: 25d4 683f 5dcf 713f 4e3d 533f 3ec8 663e
00000120: fd5d a53d d10a 9a3f b82a 3d3e 1b05 1d3f
00000130: 9fbe c63e cd1c 593f 216e 093f 736e 863e
00000140: 0bff 133e ce82 d03d 6fcc 473f 4c27 0f3f
00000150: f02d 0bba 975b c33e f862 1c3f cb79 f73e
00000160: 47d4 013d 8f97 213f 2afe 1c3f a3b4 2f3f
00000170: 5ec3 453f 42db d83e ef4e 2b3f 38e5 593f
00000180: 9b8c 043e 1571 553e 76cd 553c ae8f 503f
0.035086833 0.10586271 0.22957046 0.19224577 0.15065762 0.019908993 0.15666516 0.14869763
0.7517485 0.31319407 0.7970496 0.91709554 0.4057877 0.62498236 0.015690487 0.5194485
0.095252 0.8992362 0.1765163 0.72653705 0.102494195 0.6588039 0.95308393 0.81188226
0.35705924 0.515962 0.07312319 0.6375009 0.38496953 0.40598595 0.38286406 0.31418887
0.1831618 0.8240751 0.23006955 0.8997388 0.9071079 0.5629101 0.7482286 0.92375946
0.35442582 0.08267444 0.30671057 0.32827538 0.6282626 0.26403427 0.42507395 0.2074385
0.47998184 0.52178156 0.758719 0.11682424 0.42529595 0.87739503 0.32748333 0.98587257
0.7984071 0.009947421 0.2822882 0.27084744 0.10152642 0.18740588 0.51895624 0.6269585
0.21860276 0.5231199 0.2967691 0.5367895 0.90948707 0.94457036 0.8251542 0.22537324
0.080745675 1.2034551 0.18473327 0.61335915 0.38817307 0.8480957 0.5368367 0.2625614
0.1445276 0.10181199 0.78046316 0.5591934 -0.00053092744 0.38155815 0.61088514 0.48335108
0.031696584 0.63121885 0.61325324 0.68635005 0.7725123 0.4235478 0.6691732 0.85115385
0.12944262 0.20843919 0.013049474 0.8146924

bias f4 [100]
00000000: c92f 803d d83d 263c 930b 49bd 5ceb d63c
00000010: a027 633c 69ec 763d c5d3 7cbc 4966 2e3d
00000020: ab52 4dbc b2a0 9c3d af23 7bbd f5a7 d33c
00000030: 29ff 17bc 4d91 3a3c 0fc1 7dbd ff80 0d3a
00000040: 8fd8 513a 8069 5d3d e20b 643d 3ccb 063d
00000050: d0d8 0abd 50fe 0cbc 5e68 a7bd 919a 953c
00000060: 6ab6 2dbc 2f3e 963c 9eaa 9d3b 8fc6 263d
00000070: ed13 22bd 745e 54bd 43bf 7d3d 662c a3bc
00000080: 7d67 44bc c9c2 e1bc 7632 273e 781f f7bd
00000090: cb62 7f3d 5013 85bc 6001 adbd f504 69bd
000000a0: 7110 15bd 6981 183c 1c13 0a3d 49f0 c4bc
000000b0: e31a 233d 15de d73c 8737 41bd a792 abbc
000000c0: 4d7a 913d a955 383c 3da4 22bd 1463 93bd
000000d0: d1cc 213c 9b72 b33d 5d6f 4bbb 1612 a23c
000000e0: feef 50bd 9d13 ddbc fa45 0e3d 7f14 843d
000000f0: 65bf a83d 2ab0 db3c e8be ce3d fcea 9abc
00000100: acc3 b1bc fda2 ba3d 4a08 043d 5937 41bd
00000110: 70cf 9abd c81e e6bc 339b 8e3d 3979 b03d
00000120: 6c08 ccbc bc75 1abd 6eec cfbb 84af 63bd
00000130: 8631 94bb 72b6 e53c d1b3 95bd 3fe0 4abc
00000140: a061 c43b 3f43 a03c 91e7 0d3e d6ec 403b
00000150: 0faa 84bd d311 283d 7e78 15bd e8ab e7bb
00000160: 4e5a 493c 36ee b3bb 34ea b83d 8ae9 3abb
00000170: 6fb8 883d fc1f a73d 3515 933d 84fc 26bc
00000180: 4e19 aa3d 73f4 b53c 9a8d a3bd 0577 253d
0.06259114 0.010146581 -0.049083304 0.026235275 0.013864428 0.060284052 -0.015431349 0.042578015
-0.012531917 0.07647838 -0.061313327 0.025836924 -0.0092771435 0.0113871815 -0.061951693 0.0005397945
0.0008004987 0.05405569 0.055675395 0.032908663 -0.033898175 -0.008605555 -0.08174203 0.01826218
-0.010602573 0.018340198 0.004811599 0.040716704 -0.039569784 -0.05184789 0.06194998 -0.019918632
-0.011987564 -0.027558701 0.16327843 -0.12066549 0.062350076 -0.01624456 -0.08447528 -0.056889493
-0.036392633 0.009308198 0.03370963 -0.024040358 0.039820563 0.026351014 -0.047172096 -0.020943953
0.07103405 0.011250892 -0.03970741 -0.07196632 0.009875492 0.08762094 -0.003104172 0.019784015
-0.051010124 -0.026986891 0.034734704 0.06449222 0.082396306 0.0268174 0.10095006 -0.018910877
-0.021699749 0.09113119 0.032234468 -0.047171924 -0.07559097 -0.02809085 0.06963196 0.086168714
-0.02490636 -0.037709936 -0.0063453233 -0.055587307 -0.004522505 0.028041098 -0.07309688 -0.012382566
0.005993083 0.019563315 0.13857867 0.002943804 -0.064777486 0.041032623 -0.036491863 -0.0070700534
0.012289597 -0.0054910434 0.09029046 -0.0028520548 0.06675803 0.081603974 0.07181779 -0.01019204
0.08305608 0.022211289 -0.07985993 0.04039671

running_mean f4 [100]
00000000: 0885 f73e 02a9 9b3e 62e0 033f b200 8539
00000010: 0123 e539 2c81 603f 5291 4525 ed0d 933a
00000020: 9505 0000 3c13 c61e d527 5d3f f4a3 8711
00000030: 0aea aa39 bf81 0c3f eb47 ef39 0000 0000
00000040: e1d8 ec39 a664 6f39 5386 643a 248a d939
00000050: 0793 023f 8cae 3e3e e944 6e3e 4400 0000
00000060: 4bfa 8d3a e27a 723a 47db cd39 8097 713a
00000070: 2c91 dc3e e117 a13e 0000 0000 91d9 c439
00000080: 72cc a90a eb7b ac33 de4f 253a 0000 0000
00000090: 0863 a53a cb57 cc3d 28e4 eb38 0000 0000
000000a0: ac13 0000 8370 263f 04ed b33e eb64 7139
000000b0: a2a0 f839 f760 4e3a 6590 e23e 3384 fd3a
000000c0: c7cf 1b3a 2b11 0000 aee7 d13e 9b0a e43e
000000d0: 6d47 353e 8102 9f3a e6f6 dc39 2b35 5f3e
000000e0: 433a 843f 6095 033f 0a37 1c3f 4451 253a
000000f0: 7f21 403a 0000 0000 1985 723a 25db 8a3e
00000100: 61fa 4c3f 0000 0000 500a 2f3f 86cd f83e
00000110: 79f7 8d3e a627 063f d087 9e39 ae39 ad04
00000120: 4b49 603f eb29 2b3e 9923 4c3f 21e8 a93e
00000130: c285 2930 2503 973a 6257 b53e 78fc 1f3f
00000140: 7fb1 0e3f 9443 543a 8933 033a 5ce9 313f
00000150: 4b00 2800 6de4 8736 b54c a600 9872 ab3a
00000160: 795a c33e 5f97 9931 7e84 2f3a a634 863e
00000170: 952d f438 0000 0000 8040 ac3a cdbf ad39
00000180: bbc2 e43e 4c14 a83a 3271 353a afc6 3d3e
0.48343682 0.3040238 0.51514256 0.00025368255 0.00043704364 0.876971 1.7136263e-16 0.001121936
2.002e-42 2.097202e-20 0.86388904 2.1400288e-28 0.000325993 0.54885477 0.00045639215 0.0
0.00045175015 0.0002283031 0.00087175256 0.00041492388 0.51005596 0.18621272 0.23268475 9.5e-44
0.0010832039 0.00092498783 0.0003926402 0.00092159957 0.43079507 0.3146353 0.0 0.00037546133
1.6351012e-32 8.031915e-08 0.00063061516 0.0 0.0012618015 0.09977683 0.000112481706 0.0
7.057e-42 0.6501543 0.35141766 0.00023021146 0.00047421927 0.0007872725 0.4425079 0.0019341767
0.0005943742 6.159e-42 0.4099707 0.4453934 0.17703028 0.0012131484 0.00042145624 0.21797626
1.033028 0.51399803 0.6102148 0.000630636 0.000732921 0.0 0.00092514005 0.2712032
0.8006955 0.0 0.6837511 0.48594302 0.2772787 0.5240425 0.00030237297 4.0725075e-36
0.87611836 0.16715209 0.7974182 0.33184913 6.1671923e-10 0.0011521323 0.3541823 0.6249461
0.5573959 0.0008097228 0.0005004933 0.69496703 3.673525e-39 4.049906e-06 1.527221e-38 0.0013080416
0.38154963 4.470095e-09 0.0006695463 0.26212043 0.00011643317 0.0 0.0013141781 0.00033140034
0.44679818 0.0012823432 0.00069214695 0.18532823

running_var f4 [100]
00000000: 4c6f 8e3b 82d7 363b f59e 1a3b 5e35 bd37
00000010: 6c98 8c38 961b ed3b 6891 be22 bc55 e739
00000020: 8f12 0000 c34c 7f1a 411c 0e3c dadd 670d
00000030: d720 1c38 d43f 533b 9c8f 9938 5612 0000
00000040: 16e9 9538 bf24 9937 15ba 8b39 19e9 7c38
00000050: 0cf0 293b b2ab de3a 9c5e 9b3a 5a12 0000
00000060: 27a6 d739 b63c 9d39 1c71 6238 d820 9c39
00000070: d81c bc3a c4ff ee3a 5612 0000 d7af 4f38
00000080: e784 0708 6dcb d430 ff3f 1239 5612 0000
00000090: 0155 123a a8bc 1c3a 6ef7 9536 5612 0000
000000a0: 6812 0000 29df 833c 51eb 853b 2f58 9c37
000000b0: 9f8a a538 c6bc 6339 9a97 973b 88d9 ab3a
000000c0: 13d2 0139 c712 0000 8a1c 263b 8682 b43b
000000d0: 51e0 123a b233 073a b380 8238 339b 773a
000000e0: c818 183c cc53 bc3b 67d3 833b 9438 1239
000000f0: 8889 4539 5612 0000 96a7 9d39 fb27 053b
00000100: 2920 483c 5612 0000 d44f ec3b 564d 8b3b
00000110: 21a5 3b3b 1a5d 953a f015 0738 8dd9 fb00
00000120: d4df 883c 5e6e 5b39 c064 db3b 79bb c73c
00000130: 43e4 4d2a 97e0 f339 ec6f ac3b d7b6 743b
00000140: fd20 1f3b 32e3 7039 a798 b838 1135 833c
00000150: ad76 0200 8d3b 3732 761c 0100 f991 1d3a
00000160: cefc 583b 2d31 0b2c 13d7 2439 309c c53a
00000170: 6e8e 9f36 5612 0000 32ba 1e3a b288 2238
00000180: 8835 1d3c d912 173a 13fe 2f39 4a31 203b
0.0043467637 0.0027899449 0.002359328 2.2555407e-05 6.704111e-05 0.0072359545 5.165356e-18 0.0004412363
6.658e-42 5.2794772e-23 0.008673728 7.1449415e-31 3.7223883e-05 0.003223409 7.322358e-05 6.578e-42
7.148289e-05 1.8256133e-05 0.00026650788 6.029857e-05 0.0025930433 0.0016988425 0.0011853757 6.583e-42
0.0004113179 0.00029990607 5.398794e-05 0.0002977911 0.0014351858 0.0018234183 6.578e-42 4.951641e-05
4.078131e-34 1.5482847e-09 0.00013947485 6.578e-42 0.00055821246 0.00059790397 4.4693506e-06 6.578e-42
6.603e-42 0.016097622 0.00408689 1.8637713e-05 7.893633e-05 0.0002171873 0.0046262266 0.0013111094
0.00012380657 6.736e-42 0.00253466 0.0055087237 0.0005602884 0.00051575445 6.222855e-05 0.0009445429
0.009283252 0.005747294 0.004023004 0.00013944722 0.00018838618 6.578e-42 0.00030070235 0.002031802
0.012214699 6.578e-42 0.0072116647 0.0042511625 0.002863236 0.0011395544 3.220694e-05 2.3128752e-38
0.016708292 0.00020926583 0.00669536 0.024381386 1.8286852e-13 0.00046515904 0.0052623656 0.0037340426
0.0024281137 0.0002297282 8.8022374e-05 0.016016515 2.26244e-40 1.0665542e-08 1.02045e-40 0.00060108263
0.0033109668 1.9780386e-12 0.0001572038 0.0015076455 4.7551503e-06 6.578e-42 0.0006054967 3.8751117e-05
0.009595282 0.00057630014 0.0001678395 0.002444344

weight f4 [100, 100]
00000000: b6ed 1bbd 7538 f23d 1b52 a7bd 637b 093e
00000010: c29f d43d 63da ab3d 8a0d 2b3b aaea 793d
00000020: b0d6 9cbd d4e8 d13d ab92 40bd 99ff 0a3d
00000030: 8790 293d e1ab 6b3d ee62 00be b6a1 07bd
00000040: d10d b03d 1723 993c d9ff 003d 1dd5 893d
00000050: 27c4 ff3c 7032 50bc bf64 b33d 67b0 163d
00000060: ea00 643c db10 3b3d 2123 f33c 65f2 663d
00000070: 4fe2 5abd 1243 07bc 373f fb3c d76f e4bc
00000080: 59ea 03be aa47 e03b f09b 5e3c 3cc8 a7bd
00000090: dfdf 83bd bc82 5abe 1d7b 28bd e593 4abd
000000a0: c53e 62bd bb07 103d 6f8b 4cbd c848 2b3d
000000b0: a24a 8a3d cd23 d4bc ec68 383d dfba 933d
000000c0: 9f60 0d3d dc10 923d db4f 703c f031 333d
000000d0: 8417 e83b f1ca 213a caac ccbd 00db 933d
000000e0: 71eb 6b3c ddf4 b23d 2675 1abd b16c 53bc
000000f0: 5fa1 1f3d acc0 3f3d c69e 0cbe 5102 453c
00000100: 87af 633c 7bee 7a3d c016 b53d 57e2 c13c
00000110: ed90 603b 61e9 0abe c0ae 2cbd a1ff e7bc
00000120: 9718 353d 30d0 8d3c 60d3 f43d 7fcd db3d
00000130: 622f 10bd 8730 04be cf90 b63d 1ce0 61bd
00000140: e9f5 89bd 8f95 4f3c fafc 2fbb 6572 233c
00000150: 28d2 423d 9a65 a43d eebf 06bd 2355 94bd
00000160: 3890 663d 18f5 3b3c ed9d 03bd 1cab 51bc
00000170: 56fa 8dbd 270f 733d 0310 45bd 0d34 763c
00000180: bbb9 073e edac 2c3d 07ce 0d3b 211f 263d
00000190: e073 f83c 8c67 d73d a845 93bd bc92 d0bb
000001a0: ed99 cbbc 82eb a6bd e9d2 98bc 81f4 fb3c
000001b0: b379 603d 3580 0c3c fde9 19bd 3080 4a3d
000001c0: cbc8 5e3d bdc6 e1bd dfef 413d de1c ed3d
000001d0: 4fe7 903b ac35 893d b6d6 90bb 7d68 85bd
000001e0: e2ac 763d 8304 123d 6344 263e 3436 673d
000001f0: 1005 a8bd cff5 9cbd 8c55 8b3b 39ef 943d
00000200: 0c44 bd3c aa52 16bd 6149 06be 7af3 a1bd
00000210: 7d55 913d d0a0 b33d 2265 90bd beaa fc3c
00000220: 8197 07be 4f2b ba3d 9180 dc3d 7d6e 9dbd
00000230: 9fbf 103e 6139 c2bd 8950 bd3d 6a2c 233d
00000240: 95a7 d03d b0ac 603b 5e8e 17bd a4f0 733d
00000250: 0139 8abd 83cf eabd d3b4 3e3d 21fa c1bd
00000260: 05cf 393d 4483 c9bd 1585 e9bc 4ed1 b33b
00000270: 3671 b53c 0b0d f43c ae37 013d d2f5 9c3d
00000280: cdd9 adbd 8931 803d 7a08 97bd b33e 98bd
00000290: 74e9 383d 84dc 52bd f098 363d bf32 45bc
000002a0: a5c9 06bd 9c34 2f3b 6588 9bbd 011b a4bd
000002b0: 31e3 13be b2a6 753d 4889 893c 0c0f f83d
000002c0: f3c2 f7ba 2cf9 bf3c c595 b9bd 08b8 d3bd
000002d0: 76d2 613d 02a8 6d3d faa5 80bc 4830 d2bc
000002e0: 45c2 8a3c 5f42 2bbe 3991 0c3d 291a 0b3d
000002f0: e4cb a6bd d022 fd3c 94ac 29bd 3517 343e
00000300: f9be f0bd f393 19bd 97f0 18bd e985 cabb
00000310: b581 f43c af87 d2bc d450 933c 3995 823c
00000320: edce c2bc 6db5 163c 8f20 89bc 2efb 8a3c
00000330: 055c 883d 0650 ddbd 9c25 9d3d 83c3 22be
00000340: 0e40 263d b5aa b4bd ba12 51bc 00cc 083c
00000350: 0a6b bc3d 7da8 2ebd 9710 d63d eadb 85bd
00000360: b6cc fdbc 8d01 3f3b 684e ebbd 790f ce3c
00000370: 4789 c7bd 32e3 d93c 9b1a 3d3e 90e5 46bc
00000380: 7a68 58bd 41f1 843d 2ef1 dbbb 4695 a0bd
00000390: a5d9 5b3d 5c22 073e 5093 c7bc dea1 723d
000003a0: f7bc 393d b7a7 0e3e f8ba 2bbe c515 4c3e
000003b0: 322f eabc d24d 9b3d 3af7 803d 54fd 653d
000003c0: e326 2e3c 61a2 f43d 0652 95bd 522e 2abd
000003d0: b13c 1f3d fe39 babd 6730 adbc eb3c d53d
000003e0: 9bc1 933d 468d 4abd e9c8 893d 9a93 ac3d
000003f0: c73e 8fba 3b7a d1bd 110b 7f3c 273d df3d
-0.038068496 0.118271746 -0.08169957 0.13425975 0.10382034 0.08391263 0.00261006 0.06101481
-0.07658136 0.102494866 -0.047014873 0.033935163 0.041397598 0.057536963 -0.12537739 -0.033113204
0.08596385 0.01869349 0.031493995 0.06730101 0.031221462 -0.012707338 0.0875945 0.036789324
0.013916234 0.04567037 0.029679837 0.05638351 -0.05343848 -0.008255737 0.030669792 -0.02788536
-0.12882365 0.0068444805 0.013586983 -0.081924886 -0.064391844 -0.21338934 -0.041133035 -0.04945745
-0.055235643 0.035163622 -0.04993766 0.041817456 0.06752516 -0.025895977 0.045021936 0.07213377
0.034515973 0.07132122 0.0146674765 0.043748796 0.0070828814 0.0006171903 -0.099938944 0.07219505
0.014399395 0.0873811 -0.037709378 -0.012904332 0.038972255 0.046814606 -0.13732442 0.012024478
0.013896829 0.06126259 0.0884223 0.023667498 0.003426607 -0.1356559 -0.042158842 -0.028320136
0.044212904 0.017311186 0.11954379 0.10732555 -0.035201438 -0.12909137 0.08914339 -0.055145368
-0.06736357 0.012669935 -0.0026853667 0.009976004 0.047563702 0.080271915 -0.032897882 -0.07242801
0.05628988 0.011472009 -0.03213303 -0.012797143 -0.069325134 0.059340622 -0.048110973 0.015027058
0.13254444 0.042157102 0.0021637694 0.04055703 0.030328691 0.10517797 -0.0719102 -0.0063651484
-0.024853671 -0.08150388 -0.018655257 0.030756237 0.05480356 0.008575489 -0.037576664 0.049438655
0.05439071 -0.110242344 0.0473479 0.115777716 0.0044221054 0.0669969 -0.004420127 -0.0651407
0.060223468 0.035648834 0.16237025 0.056448177 -0.082040906 -0.07664072 0.0042521413 0.072721906
0.023103736 -0.03669993 -0.1311393 -0.079077676 0.07096384 0.08770907 -0.070505396 0.030843135
-0.13241388 0.09090292 0.107667096 -0.076870896 0.14135598 -0.094836004 0.092438765 0.03983728
0.10188214 0.0034282617 -0.037001006 0.059555665 -0.06749154 -0.11465361 0.046559166 -0.094715364
0.045363445 -0.0983949 -0.028505841 0.0054875975 0.02214871 0.029791376 0.03154724 0.07664074
-0.08488808 0.06259448 -0.07374664 -0.07433834 0.045144513 -0.05147983 0.044579446 -0.012036025
-0.032907147 0.0026734238 -0.075943746 -0.08012963 -0.14442135 0.059973426 0.016789094 0.12112245
-0.0018902704 0.023434244 -0.090617694 -0.103378356 0.05513235 0.058021553 -0.015704144 -0.025657788
0.016938338 -0.16724537 0.034318183 0.033960495 -0.08144358 0.030900389 -0.04142435 0.17586978
-0.11755175 -0.03749461 -0.03733882 -0.006180514 0.029847005 -0.025699465 0.017982878 0.015940296
-0.02378031 0.009198529 -0.016739158 0.016965475 0.06658176 -0.10806279 0.07673189 -0.15894894
0.04058843 -0.08821622 -0.012760812 0.008349419 0.092001036 -0.04264115 0.10452383 -0.06536086
-0.030981403 0.0029145211 -0.11489564 0.025153862 -0.097429805 0.026597593 0.1846718 -0.012139693
-0.05283401 0.06491328 -0.0067121005 -0.07840972 0.05367436 0.13196701 -0.024362236 0.0592364
0.045346227 0.13931166 -0.16770542 0.1993018 -0.028586958 0.075832024 0.06297155 0.056149796
0.0106293885 0.11945034 -0.07291035 -0.04154808 0.03887624 -0.090930924 -0.021141244 0.1041201
0.07214662 -0.049451135 0.06727774 0.0842659 -0.0010928743 -0.10228392 0.015566603 0.10900336

bias f4 [100]
00000000: 203a 9e3d 2596 e1bd adcf 1cbe 1741 dbbd
00000010: d764 6abd a2b3 97bd 9a09 f9bc eb6d 703d
00000020: 4820 2fbe 458b 44be 6324 b93c 2767 fabd
00000030: 7f68 d6bd 55aa 45be aa85 0a3e 3af6 a73d
00000040: e48e 373e fcb0 26bd 9b6e 12bc f69f adbd
00000050: c202 2ebe 7fbb b4bd 5940 95bd 25e4 fc3d
00000060: 0c02 dd3d 0f82 d6bd 2bd1 fabb 395a 33be
00000070: f796 6a3d 344a 58bc b331 e7bc f459 e23c
00000080: 3ffd 1e3d b058 073e e0ff 123e c3ec 033d
00000090: 36de 563c f55a 94bd 5368 efbd ebb8 c9bc
000000a0: 910a 693d e937 3dbe 09d0 96bd 1d3c 9cbd
000000b0: 6676 35be 3931 bfbd 1fce 84bd dbd1 92bd
000000c0: ba26 88bd 7827 66bd 8085 5ebd 3a4f 003e
000000d0: 25e6 47bc 6c8e 2dbd 2c31 a7bd 2545 353c
000000e0: 9200 13bd c0aa 07be b028 c43c d756 523d
000000f0: 3fbf cdbd 0dab adba effd 293d abd8 a03d
00000100: 7911 65bd 5b80 41be a3ee 773d 4b8d f5bd
00000110: 25ab 22bd 1d13 053d 3e1d 113c b15a fd3d
00000120: 4b55 19bd 1421 2cbd 5d61 ecbd 876e 87bd
00000130: 9f5b 82bd 9547 883d 01af 2e3e 19fc 733d
00000140: 616d 993c d426 f3bd 3b96 2fbc 477b adbd
00000150: b2b3 a43d 522b 5dbe aa7c b63b e6a6 9e3b
00000160: 9fde 11bd 49b5 0bbd 208c d13a 207f 95bd
00000170: 8207 c63d 5097 18bd 2ff1 87bd fb37 9a3d
00000180: c358 883c 21a2 92bd 317e 4abd 74a4 843d
0.0772593 -0.11014966 -0.15313597 -0.10705774 -0.057225075 -0.07407309 -0.030400086 0.058698576
-0.17102158 -0.19193752 0.022600358 -0.12226706 -0.1046915 -0.19303258 0.13527551 0.08201261
0.17925602 -0.04069613 -0.008937503 -0.08477776 -0.1699324 -0.088248245 -0.07287664 0.123482026
0.10791406 -0.104740255 -0.0076543293 -0.17514886 0.057272878 -0.013201285 -0.02822194 0.027630784
0.038815733 0.13217425 0.14355421 0.032208215 0.013114503 -0.07243911 -0.1168982 -0.024624309
0.056894843 -0.1847836 -0.07363898 -0.07628653 -0.17720947 -0.0933556 -0.06484627 -0.07168933
-0.066480115 -0.056189984 -0.054326534 0.12530223 -0.012200867 -0.042372152 -0.08163676 0.011063849
-0.035889216 -0.1324873 0.023945183 0.05135235 -0.10046243 -0.001324983 0.041501936 0.07853826
-0.055924866 -0.1889662 0.060530316 -0.1198984 -0.039713997 0.03248893 0.00885707 0.12370814
-0.037434857 -0.042023733 -0.11542008 -0.06612878 -0.063651316 0.06654278 0.17058946 0.05956659
0.018728914 -0.1187264 -0.01071697 -0.08470779 0.08042087 -0.21598557 0.0055690603 0.004841673
-0.0356127 -0.034108434 0.0015987195 -0.07299638 0.09669401 -0.037253678 -0.06637799 0.07530209
0.016643887 -0.0715983 -0.04943675 0.064766794

weight f4 [100]
00000000: 43d7 c63d e350 0c3f 0d2f 703f de0b 5e3e
00000010: 60e6 4e3f 2938 3d3f 6df5 9b3e 6558 573e
00000020: f6b1 a13e c8b4 8c3e f8a3 1a3f 2dad 883e
00000030: 4b4b 8f3e 270b 853d 0755 3f3f 6507 c33e
00000040: 2314 343f 150a 0d3f e49c 1b3f 71e8 c63e
00000050: 41ec 8b3e 6e13 883f ef5f f93e 2408 fe3e
00000060: a078 4b3e 0083 383f 0022 353f f2a0 bb3e
00000070: 5f75 b43e 041b b33e bbe4 d03e 9979 c73e
00000080: 90b6 d83e af5e 643e be4f 2c3f 704e 423f
00000090: 2481 333f d492 423f e531 d13e 2f06 053f
000000a0: d006 f03e 1513 d13e 39d9 0e3e d77f dd3e
000000b0: 4e9a b43e c3c8 563f c717 e13e a19d af3e
000000c0: a06c 7c3f 5f9e e53d dca5 bb3e 46f1 e33e
000000d0: 809f 423f aa19 573f c1b8 8b3f 8f97 b83e
000000e0: 54de 233f 6d80 e23e b68f 833f 05e6 543e
000000f0: afac 5a3e 11da 513f afac 4b3e 6ba0 7a3d
00000100: c830 433f a367 093f 498e 093f 9720 6e3e
00000110: 9116 f63e e284 693f 35b9 743f 4de0 db3e
00000120: 1f86 933e 8964 583f ef36 153f c66d 403f
00000130: 29b9 543f 6b1e 183f 8474 403f 8958 1b3e
00000140: 9a03 1b3f ec76 3a3f 1236 3c3f fae1 4d3f
00000150: 05ed 213f 9772 1a3f a37e 3d3f 92c1 f43e
00000160: 0ff6 6e3f 9900 423f ab02 093f c2c7 6d3f
00000170: 66ae 253f c12f 943e d5c5 c43e 3321 833f
00000180: 875f 353e 464f 853f 4977 443f 332a 7a3e
0.09709027 0.54810923 0.93821794 0.21684214 0.80820274 0.7391382 0.30460683 0.21029814
0.31581086 0.27481675 0.60406446 0.26694623 0.2798713 0.06496268 0.74739116 0.3809158
0.70343226 0.5509351 0.6078627 0.38849214 0.27328685 1.063093 0.48706004 0.49615586
0.19870234 0.7207489 0.70755005 0.3664623 0.35245797 0.3498155 0.40799507 0.3895996
0.42326784 0.22301744 0.67309177 0.75900936 0.7011893 0.7600529 0.4085838 0.5196256
0.46880198 0.4083487 0.13950051 0.43261597 0.35273975 0.8390009 0.43963453 0.3429995
0.9860325 0.112118475 0.36649978 0.44520015 0.7602463 0.84023535 1.0915757 0.3605313
0.6401112 0.44238606 1.0278232 0.2079087 0.21354936 0.8197337 0.19890092 0.061188143
0.7624631 0.5367376 0.53732735 0.2325462 0.48064092 0.9121839 0.95595104 0.42944565
0.28813264 0.84528404 0.58286947 0.751675 0.8309503 0.59421414 0.7517779 0.15170492
0.6055237 0.7283771 0.73520005 0.8042294 0.6325229 0.603311 0.7402136 0.47803932
0.93344206 0.7578216 0.53519696 0.9288293 0.64719236 0.28942683 0.38432184 1.0244507
0.17712222 1.0414817 0.76744515 0.2443016

bias f4 [100]
00000000: 277b 3e3f 9df5 b23e 03ac 87bc 16a6 5e3f
00000010: 3cba bebe 686d 6c3a 0837 0ebe 10ab 53bf
00000020: d348 bfbe 0d47 e53e f090 80be 7aa6 753f
00000030: 7e30 0cbd 07df 61bf add8 50be 9300 1d3f
00000040: 948b e33e 4f10 033e 26d3 88bd 79da 8b3e
00000050: 589a 39bd ebeb 673e c6b4 833e 7f3a df3e
00000060: 4841 18bf b55d 3f3c 20f4 bd3d 4f1f 8d3d
00000070: 089c bf3e ef37 933e 963b 8e3e f0a0 b7be
00000080: 60a6 c23e 7ea2 e2be 8f59 e73e 1067 d6bd
00000090: 3c1f 32be c7f0 c6bc f6d8 bdbe 7652 0ebf
000000a0: 25a5 b4bd 7e26 303e 9470 f03e 3bc1 bc3d
000000b0: 4247 0f3e 6c5e a5be dee4 f13e 9109 423e
000000c0: cabe c23e b3f1 543f a6d2 a73e aa1b ee3d
000000d0: 9c9d 233e 8464 f6bc 8e52 883e ab4a cdbd
000000e0: ec08 74be b5e6 0fbf 3ed5 0e3e 9ae8 b53e
000000f0: 88bc 913e d674 85be bfcc 133f 989e d5be
00000100: 316e 5ebc 29d3 443e 3333 243f 21db a6be
00000110: 9406 343e 3845 fe3e e99a e1bc 8a1b 1f3e
00000120: f532 1f3f f421 91bc e411 973e 14b7 843e
00000130: 08d7 5fbe 86a5 a8bd fa7b 233e 9653 4f3f
00000140: 9486 433c 284d 9abe f512 7d3e 109a da3e
00000150: a5b4 0dbf c676 053f 94dd 853d 8bbf dfbe
00000160: 6ba9 923e 8241 563e a247 da3e a3e8 623e
00000170: 2b64 5abe 18c0 38be e8f6 1a3e a1f4 fa3e
00000180: 7070 fa3e b0fa 893e 231c c53e 02b5 083f
0.74406666 0.34953013 -0.016561514 0.8697218 -0.3725146 0.00090189883 -0.1388818 -0.82682896
-0.37360248 0.4478077 -0.2511058 0.9595715 -0.034225933 -0.8823094 -0.20395155 0.61329
0.44442427 0.1279919 -0.06680898 0.2731512 -0.04531321 0.2264859 0.25723857 0.43599316
-0.5947461 0.011680056 0.09275079 0.06890737 0.3742373 0.2875361 0.27779835 -0.35864973
0.3801756 -0.44264597 0.45185515 -0.10468876 -0.17394727 -0.024284733 -0.3707959 -0.55594575
-0.08820561 0.17202184 0.4696089 0.09216543 0.13992026 -0.322986 0.47244924 0.18948962
0.38036186 0.83181304 0.327779 0.1162637 0.15978092 -0.030077226 0.26625484 -0.100240074
-0.23831528 -0.56211406 0.13948533 0.35529023 0.2846415 -0.260657 0.5773429 -0.4172256
-0.013576076 0.19221176 0.64140624 -0.32589057 0.17580634 0.49662185 -0.027539687 0.15537849
0.6218713 -0.017716385 0.29505837 0.25920928 -0.21859372 -0.08234696 0.15965262 0.80986917
0.011933941 -0.3013699 0.24714263 0.42695665 -0.55353767 0.5213436 0.06536403 -0.43700823
0.2864488 0.20923427 0.42632776 0.22159056 -0.21327274 -0.18042028 0.1513325 0.49014762
0.48913908 0.26949072 0.3849803 0.53401196

running_mean f4 [100]
00000000: 0a98 3e3e be3c a53d 3456 1a3d c3ff d33c
00000010: 3603 f63d 42b0 bb3d 5f20 073e faf5 423e
00000020: 3beb 0a3e 896c 4f3c 25f3 2b3e fe56 6d3d
00000030: 4ada a23d 594c 843c f7e9 8f3e 012c 1f3e
00000040: e6c5 b03e 2105 363e 6762 d43d 50bc c73d
00000050: 9bae c63c d55d ca3d 0395 fa3c b11f d33e
00000060: c5d0 603e 40ff fb3d a70c 583e 3e08 003d
00000070: f12f 4a3e 6aa1 a63d e323 c83e b0bf 333e
00000080: a4ff 6d3e ba54 883e f6f3 9e3e d3dc 203e
00000090: a797 033e 1d1d 233e 1b44 e33c 896a ec3d
000000a0: da43 873e 2d75 923c ae69 193e 0ee1 773d
000000b0: 76c4 c93c c591 733d 7e8c fd3d 6e04 8e3d
000000c0: 6aa4 aa3d a668 ce3d d53f 1e3e a577 883e
000000d0: 15f7 073e 68bc 113e 12fc 173e dbaa c93d
000000e0: f203 ed3c 8cd7 d53c 2dce d53d 60f5 4c3e
000000f0: df59 483d fef3 df3d 7081 713e 661a 6e3e
00000100: dd2d 6f3e ab70 8533 7fbb 813e 9fbc 6f3d
00000110: 7f04 8e3d f58b 1d3e cd07 0b3e 3e7b 853e
00000120: a302 353e e2e8 dd3d f01e 8a3c 7460 a93d
00000130: 7552 8a3d 43b9 2d3e d1cb c83e f586 8e3e
00000140: 3de9 dc3d 645b 253d 67d4 123e 9ad4 f63d
00000150: 858f 673e 0d21 f93c 09af 413e 1222 813e
00000160: 52a1 533d 2ee2 1b3e 0c05 663e 960a e33d
00000170: a0b7 a23e 09b3 8b3e 70ce 0f3e 9d0a 633e
00000180: ad1a 403e e2c2 423e 0060 f73d c48a 2d3e
0.18612686 0.08068226 0.037679866 0.025878793 0.12012331 0.09164478 0.13195942 0.19039145
0.13566296 0.012660154 0.16791971 0.05794429 0.079517916 0.016149687 0.2810819 0.1554413
0.34525985 0.17775394 0.10370331 0.09752715 0.02425318 0.09881178 0.030588632 0.41235116
0.2195464 0.123045444 0.21098576 0.03125786 0.1974485 0.08136256 0.3908988 0.17553592
0.2324205 0.2662714 0.31045502 0.15709238 0.1285082 0.15929075 0.027742436 0.115437575
0.26418954 0.01787814 0.1498172 0.060517363 0.024629813 0.05946519 0.123803124 0.06934439
0.08332141 0.10078554 0.15454037 0.26653782 0.13277848 0.14232028 0.14842251 0.09847041
0.028932545 0.026103757 0.104397155 0.20015478 0.048913833 0.1093521 0.23584533 0.23252258
0.23357339 6.213789e-08 0.2533836 0.058529492 0.06934451 0.1538542 0.13577195 0.2607059
0.17676787 0.108354345 0.016860455 0.0827035 0.06754009 0.16965203 0.39218 0.2783734
0.10786674 0.04037036 0.14338838 0.12052269 0.22613342 0.030411268 0.18914427 0.25221306
0.05166752 0.15223 0.22462863 0.110860035 0.3178072 0.2728503 0.14043593 0.22172017
0.18760176 0.19019654 0.120788574 0.16947466

running_var f4 [100]
00000000: 2134 5c3d 6edc f83c 7a76 223c ed4c f03b
00000010: 8f8f 123d ee58 033d e7d2 6c3d 97d2 a43d
00000020: 150c 263e 5aaf 8a3b 7ca1 923d d0c5 df3c
00000030: 188a 0d3d da58 d83b b8c7 a53d ba70 893d
00000040: 13c6 b53d 9357 d03d 815c 273d e56c c63d
00000050: 7b54 ea3b ace8 503d fc59 363c 751b 803e
00000060: 0d32 b63d edb1 733d a6f4 f23d 8892 313c
00000070: 9a7f b63d c8b7 b13c 9ea4 f13e a9f8 823d
00000080: 842a 0f3e 411c 933d e7d5 ce3d 556a 9b3d
00000090: edec 1e3d c6ee c93d 8eca 183c 8afb 693d
000000a0: 8a77 c33d b09c 953b 2a6a e93d 86b4 d13c
000000b0: cb98 4e3c 6057 1e3c 5136 6c3d a9c9 a93c
000000c0: ee92 063d cc6a 0c3d fcbc 7d3d 00d9 9c3d
000000d0: f1cb 743d 588e 8e3d 43f7 d33d c3a2 093d
000000e0: 0766 8d3b 3f6b e33b 4392 4d3d f5a1 e73d
000000f0: 270d 5c3c 858a e43c bc3d ab3d 0a38 453d
00000100: 796f 043e 13e7 8030 c512 8d3d 716b 093d
00000110: 3626 ad3c 3e9d e53d c267 993d 2d3b 603d
00000120: d41d a83d cd2b 563d 661c 893b dc54 fc3c
00000130: c2eb 483c f2f2 4f3d c429 d53d efdb aa3e
00000140: d233 293d 0696 7a3c 80ba 8d3d 9373 893d
00000150: 9c0c 8f3d 9ff9 103c d2e3 773d 5f59 553d
00000160: 0f7a 4b3c 03a8 ac3d 8ff7 0e3e c9f0 2e3d
00000170: 3ca5 fc3d 48dd 633e c7fb 653d 901e 133e
00000180: 2227 5d3d 77e3 b33d ea1d 783d f00e 923d
0.05376065 0.030378547 0.009915942 0.007333389 0.03578144 0.03206723 0.05781832 0.08047979
0.16215546 0.0042323293 0.07159707 0.027316004 0.034555525 0.006602389 0.08094734 0.06710954
0.0887567 0.101729535 0.040859703 0.09688739 0.007151184 0.051003143 0.011129852 0.25020948
0.08896265 0.059495855 0.11863069 0.010838158 0.08911057 0.021694079 0.47195905 0.063950844
0.13981062 0.071831234 0.100993924 0.075886406 0.03880017 0.098599955 0.009325637 0.057124652
0.09544285 0.0045657977 0.11397202 0.025598776 0.012609671 0.0096643865 0.057668988 0.020726042
0.032854967 0.034281537 0.061947808 0.07658577 0.059764806 0.06960744 0.10349896 0.033602487
0.004315141 0.006940275 0.050188314 0.11310188 0.01343087 0.027898083 0.08361384 0.048149146
0.12933148 9.378901e-10 0.06888346 0.03354973 0.021136384 0.11211632 0.07490493 0.054743934
0.08208814 0.052287865 0.0041842936 0.030802183 0.01226324 0.0507688 0.10408357 0.3337092
0.041309185 0.015294557 0.06920338 0.06711497 0.06984827 0.008848577 0.06052 0.052087184
0.012419238 0.08430483 0.13961624 0.0427101 0.123362035 0.22252381 0.056148317 0.14367127
0.053992398 0.0878362 0.060575403 0.07131755

weight f4 [7, 100]
00000000: 1ef1 c6bd e1ab 293d eeb8 d2bc 7dd6 4bbe
00000010: 9209 333c 59fc 25bd bc8d 943b 29ff 083e
00000020: 9528 f7bd 7fa6 35be 5c31 883c e02e d1be
00000030: 995d b6bd 73e6 773e cf64 eb3d 75f2 c63c
00000040: d142 bdbd e9e8 9a3d cccb 77be dba1 f1bb
00000050: dadd 8c3e 21f0 88be 3a53 113d e514 21bd
00000060: 444e 2d3d 5cf9 08be c07c b43d ef42 15bd
00000070: 8f90 a33d bc6b 03be 5628 38bd d617 463d
00000080: daaf 103c bbaa 173e d2f2 46be ff78 733d
00000090: 14b6 bebc 8d34 95be 034f 12bc b875 bf3d
000000a0: 1c6f 113d 4adf 97bd 7957 aebe 771d fcbc
000000b0: e4e9 9f3d 5856 18be 303c 50be aae2 52be
000000c0: fa39 d8bd 5c0b 8dbe d398 48be 9405 f4bc
000000d0: 3a63 8fbd 5b42 0e3d 5226 93be e919 92be
000000e0: 479a 853d 496e 0f3b 191f 3fbe 5adc 3d3c
000000f0: 3a40 1abe a64e b13d d524 33be 988c 913c
00000100: 9000 8b3d b546 4abd 8797 d13c ab10 bd3e
00000110: 7d08 023e 1181 71be 1f10 933d 8955 40bd
00000120: 5f06 4bbd e92a de3d d31e 3fbe 944a 35bd
00000130: abb0 15be ddc3 01bc 807e c73c f49f cebe
00000140: a20e b73d 96bb ed3b 0203 77be 529f 71be
00000150: 1590 e23d 4372 f73b ddff b4bc fe51 f6bc
00000160: 4b3c b8bd f68a 893d 7365 c9bd 34c1 8e3d
00000170: 4980 843d 25da af3c c275 5dbc b244 8abe
00000180: c757 94bd ea76 00ba 2622 00bd 5c87 913c
00000190: 51cf 1bbd 5c2f 01be 7dc8 3ebd cdd2 57be
000001a0: f5bc 2cbd 58a6 613d 4768 073d 4e40 593d
000001b0: ee2c e93d 1c63 49bd a892 9abc f0d7 6cbd
000001c0: 68c8 0fbe 596c 983e ecd8 fcbc 608d 85bd
000001d0: 4e7f a1bd 636a 323e 99ea e83b fbd1 5abd
000001e0: 251a d7bb 5451 4f3d d453 373c 1f84 94bd
000001f0: a986 5e3b ffa5 28be ddd0 4dbd 3841 84bd
00000200: a88a a5bd 4d04 00bd 3ef1 173d 984b c2bd
00000210: 23d9 773c 6dfa bdbd eead c13b 91ea a93d
00000220: e642 53bd e233 d13d 1395 773d 8049 a0bc
00000230: 7344 e7bb eaa8 1cbd 8c81 dd3c c3fe 9ebd
00000240: 706d 52bd 1bc6 ccbc e9f2 67bc e145 83bd
00000250: 36ec 75bd f507 8dbb 63d2 8dbc e12b a2bd
00000260: 9eba ad3d 8db7 f83b 2760 9c3d 2bbd 71bb
00000270: af2d 953d 4b0b f73c 482b f83d f993 26be
00000280: f7e6 3f3e 5378 ba3d 5414 04be 5cad 5c3d
00000290: eba1 263d c2ff 693d 480c 15be 71e1 f23c
000002a0: b77f 1e3e e0f1 e03c 9d56 41be ab42 c5bc
000002b0: 0519 d0bd 2f14 c93d 8b89 3a3d be11 8b3d
000002c0: 10a9 453d 1ff4 163e 26c8 01bc f48e 19bd
000002d0: 33ed af3d 910a b03d 6a9c 413c 0101 a53d
000002e0: 5c1b c5bd 486a 73be 8d7f 813d aff9 d73d
000002f0: 2c31 7c3c 5c18 8b3d c8b3 ebbc 07e1 16bd
00000300: 8b07 3bbd 67f3 b9bb 60bf 82bd 011c 75bd
00000310: eda6 493c 7239 a83d 0931 143e 28e9 bd3b
00000320: 3199 263d 7175 a5bd 1c72 fd3c d5f9 c5bd
00000330: 3dd6 923d 7e7f 80bd 306b a03d 4a87 b8bd
00000340: cc49 43bb c7ce cc3c d7a7 4dbd 0a3e db3d
00000350: 0157 0bbd aae7 c83d 661f a9bc 90b4 10be
00000360: 2f1e a53d dc12 2ebe 041a 613d fa6a 2e3b
00000370: 4d72 ea3c 069a ea3c 57d8 733d b1dd 523d
00000380: 3790 203d 683b c2bb 4b22 383e 014e c6bd
00000390: db17 17bd 8662 383d d796 503d ff5c 8fbb
000003a0: ef0c e7bd f83e 73bd 45e4 fc3a d506 523c
000003b0: acb0 0bbe 43be f83d 734d c43d 34b3 253d
000003c0: c44e 57bd 91f7 1b3e 01bf 2fbd 3ccd 78bd
000003d0: 727c 2d3d 43c2 813c c4fa 12bd 0939 cc3d
000003e0: d037 b3bd e313 f6bd 4c12 b4bd 1995 c2bc
000003f0: acb4 1dbd 016b 503c f52c c23d dad8 d03c
-0.09713958 0.041423682 -0.025722947 -0.1990604 0.010927575 -0.04052386 0.0045334976 0.13378586
-0.12068287 -0.17739294 0.016625099 -0.40856075 -0.08904571 0.24209003 0.11493837 0.024285534
-0.0924126 0.07563955 -0.24198836 -0.007374031 0.2751301 -0.26745704 0.03547976 -0.039326567
0.042310968 -0.13376373 0.08812857 -0.036440786 0.07986557 -0.12834066 -0.044960342 0.048362575
0.008830989 0.14811222 -0.19428566 0.059441563 -0.023280181 -0.29141656 -0.008929971 0.09348625
0.035506353 -0.07415636 -0.3405111 -0.030775769 0.07808283 -0.14876688 -0.2033546 -0.20594278
-0.10557933 -0.2754773 -0.19589548 -0.029787816 -0.07001348 0.03473125 -0.28740174 -0.28535393
0.06523567 0.0021885803 -0.18664207 0.01158818 -0.15063563 0.08657579 -0.17494519 0.017767236
0.06787217 -0.049383838 0.02558495 0.3692678 0.1269855 -0.23584391 0.07180809 -0.046956573
-0.049566623 0.10848028 -0.18664102 -0.044260576 -0.14618175 -0.007920233 0.024352312 -0.4035641
0.08938338 0.007255028 -0.24122241 -0.23595932 0.11062638 0.007551463 -0.022094661 -0.030068394
-0.08995875 0.06715958 -0.09833803 0.06970444 0.06469781 0.021466324 -0.013516845 -0.27005535
-0.07243305 -0.0004900532 -0.031282566 0.01776474 -0.03803951 -0.12615722 -0.04657792 -0.21076508
-0.04217239 0.05509028 0.03305843 0.05303984 0.11385523 -0.049166784 -0.01886876 -0.05782312
-0.14041293 0.29770163 -0.030865155 -0.06521106 -0.078856096 0.17423396 0.0071080443 -0.05342291
-0.006564396 0.05061467 0.01118942 -0.072517626 0.0033954775 -0.16469572 -0.050248016 -0.06457752
-0.08083087 -0.0312541 0.0370953 -0.094870746 0.015127453 -0.092762806 0.0059106266 0.08296693
-0.05157747 0.10214974 0.060444903 -0.019566298 -0.0070577203 -0.038247027 0.027039312 -0.07763436
-0.0513739 -0.024996808 -0.014157035 -0.06409813 -0.06003972 -0.004303927 -0.017312234 -0.079185255
0.0848286 0.0075902403 0.07635527 -0.0036886435 0.07284104 0.030156752 0.1211763 -0.16267385
0.1874045 0.09104981 -0.1289838 0.053876266 0.04068176 0.057128675 -0.14555466 0.029648514
0.15478407 0.027459085 -0.18880697 -0.024079641 -0.10161022 0.09818303 0.045541327 0.067904934
0.048256934 0.14741562 -0.007921254 -0.037489846 0.08590164 0.085957654 0.011817077 0.08056832
-0.09624359 -0.23771012 0.063231565 0.1054567 0.015392583 0.067917556 -0.02877225 -0.036835697
-0.04566149 -0.005674768 -0.06384158 -0.05984116 0.012307865 0.08214082 0.1447183 0.0057956167
0.04067344 -0.08079041 0.0309382 -0.09666792 0.07169769 -0.06274317 0.078329444 -0.09010179
-0.0029798625 0.025000943 -0.050208893 0.107051924 -0.03401852 0.098098114 -0.020644855 -0.14131379
0.08062398 -0.16999382 0.05495645 0.0026614056 0.028618956 0.028637897 0.05953249 0.051480953
0.039200034 -0.005927492 0.17981832 -0.09682847 -0.036887985 0.045015834 0.050925102 -0.0043750997
-0.11281764 -0.059386224 0.0019294104 0.012819012 -0.13641614 0.121456645 0.09585085 0.040454105
-0.05256535 0.15231158 -0.042906765 -0.0607426 0.04235501 0.015839702 -0.03588368 0.09971816
-0.0875088 -0.12015512 -0.08792552 -0.023752736 -0.03850238 0.012720824 0.09481231 0.025494028

bias f4 [7]
00000000: e0fb 0dbf fcdc 9dbe 89b3 c8bd a323 8fbe
00000010: c07d 9abe 237e bbbe 93dd 08bf
-0.55462456 -0.3083266 -0.097998686 -0.27956876 -0.30174065 -0.36619672 -0.53463095

weight f4 [7]
00000000: fe4f c33f 006e a93f bece 833f 525e 913f
00000010: d310 9d3f 4782 963f 8eca a53f
1.5258787 1.3236694 1.0297468 1.1356909 1.2270759 1.1758507 1.295244

bias f4 [7]
00000000: 9750 8cbe bdbf d3bb 0add 853e da8f b43d
00000010: b18d 513d 17ee bd3b 13a6 0abe
-0.27405235 -0.006462066 0.26145202 0.088165 0.051160518 0.005796205 -0.13539915

running_mean f4 [7]
00000000: ee01 103d 54f4 573e 0acc b93e 1848 8b3e
00000010: 22d0 ca3e cc45 bd3d eba0 d83c
0.03515809 0.21089298 0.36288482 0.2720344 0.39611918 0.09241828 0.02644392

running_var f4 [7]
00000000: 6018 583a bbad 5a3b dc9e 353b 046b 883b
00000010: d19a ca3b 5cd9 393b c521 463a
0.0008243378 0.0033367712 0.0027713096 0.004163148 0.0061830063 0.0028358316 0.00075581326
