metrics_best_runs/enc_dec_freezed/0090.autoencoder.model (torch_old, 348848 bytes, 9 tensors)

weight_ih_l0 f4 [400, 1]
0.39927098 -0.06170434 -0.20871267 0.14269249 0.2891943 0.14562526 0.19676125 -0.07930667
0.013676062 0.20574813 -0.007785627 0.49132812 -0.32364106 0.49093622 -0.14364316 0.19193308
0.2715579 0.007399716 -0.2684686 0.14522246 -0.24222861 0.103045955 0.33037084 0.21513328
-0.4494376 -0.008371258 -0.08493698 0.5129633 0.028255662 0.44762084 0.32365385 0.25391692
0.100468606 0.027815867 0.31440923 -0.18620355 0.201909 0.18328041 0.26250586 -0.37132353
0.40492368 0.12582555 0.17315626 0.17220457 0.2606613 0.5276114 -0.14131035 -0.006385262
-0.23578012 0.0147592705 -0.22680205 0.22486424 -0.459105 -0.046193514 0.12709999 0.20115788
0.10936962 0.31978127 -0.15169042 0.058542635 0.24655174 0.23546234 0.19380344 0.34730726
0.045307998 0.065177724 0.21176425 0.03576765 0.31162694 0.2806933 -0.010553832 0.010217275
0.08109061 -0.33916885 0.043921493 0.07115686 -0.3607783 0.35684663 0.34053653 -0.10756709
0.32397652 0.39758652 0.26624507 0.2616757 -0.013697406 0.115506336 0.22641322 0.19221345
-0.06552544 0.244028 -0.13163884 0.12124219 0.15375522 0.324883 0.06722218 0.21424487
0.023705088 -0.46646816 -0.0010357816 0.058163997 0.33165988 -0.06418068 -0.24364443 0.22936906
0.30106756 0.30259007 0.21113665 -0.10950573 -0.10739792 0.3378903 -0.00046092304 0.3950741
-0.25745535 0.38398105 -0.11939078 -0.0078926375 0.39878717 0.16278343 -0.26410726 0.27273676
-0.27023217 0.01921415 0.32842615 0.5404408 -0.27656752 -0.0713812 -0.14301154 0.39142144
-0.05423278 0.37760317 0.083561905 0.3591841 0.063311286 0.033605102 0.4134286 -0.27164975
0.12900423 0.10475969 0.091657534 -0.543449 0.35910463 0.32544127 0.18987232 0.1307807
0.23985717 0.47957376 -0.0930815 -0.09519717 -0.017519834 0.20499656 -0.1599158 0.1614569
-0.42277756 -0.07557661 0.44641346 0.39467838 0.08027849 0.07752375 -0.16233024 0.008472085
0.078014836 0.25472072 0.2219804 0.3046219 0.14054349 0.2480121 0.15599336 0.2009173
0.52338195 0.38066977 0.12778099 0.06714359 -0.049651492 -0.17401826 0.035926536 0.051690802
-0.28338882 0.46647885 0.4020332 -0.19718687 0.32772675 0.40208554 0.20641121 0.286722
0.32387352 0.34267426 0.14307842 0.28925696 -0.13376889 0.27247882 -0.24535762 0.5366801
0.07331399 0.52175194 -0.08268508 0.19182196 -0.26096877 -0.40148234 0.04144559 0.08367241
0.38277912 0.2914928 -0.09257917 0.16150689 0.35295123 0.004985868 0.29638833 0.0025239752
0.18115054 0.23873933 0.11296749 0.17752095 0.05710117 0.20354815 0.50827897 0.10725447
0.06393707 0.38510653 -0.08483558 0.38385525 0.14633927 0.1882781 -0.24551089 -0.23578471
-0.2509571 -0.5020287 -0.3428832 0.21058634 -0.13481356 0.123638265 0.22512217 -0.10826519
0.26723078 -0.0104289185 0.20975314 -0.05709842 0.13870563 -0.15752693 -0.22616234 0.21710569
-0.3043483 -0.20391811 0.28264052 0.17784034 -0.2270497 0.22878078 0.12135177 -0.04704333
0.03681773 -0.09408538 0.13582446 0.14474197 0.1890116 0.106598474 0.33207113 -0.06979569
00000000: 3f6d cc3e b1bd 7cbd c6b8 55be fb1d 123e
00000010: 4611 943e ca1e 153e c87b 493e 896b a2bd
00000020: 9011 603c a3af 523e 931e ffbb 5c8f fb3e
00000030: 48b4 a5be fe5b fb3e 3117 13be 1b8a 443e
00000040: a309 8b3e 5179 f23b b774 89be 32b5 143e
00000050: c70a 78be c209 d33d 5e26 a93e e64b 5c3e
00000060: af1c e6be 9a27 09bc 70f3 adbd 9051 033f
00000070: 6b78 e73c 8f2e e53e f5b5 a53e 6601 823e
00000080: 7cc2 cd3d 1ade e33c 3ffa a03e 25ac 3ebe
00000090: 3cc1 4e3e dcad 3b3e 2b67 863e 1e1e bebe
000000a0: 2852 cf3e 6ad8 003e e04f 313e 6556 303e
000000b0: 6675 853e 8a11 073f a9b3 10be 763b d1bb
000000c0: 5870 71be ded0 713c cc3e 68be d042 663e
000000d0: d00f ebbe 6935 3dbd 8026 023e 55fc 4d3e
000000e0: 2efd df3d 5fba a33e bc54 1bbe 67ca 6f3d
000000f0: 0f78 7c3e 0a1d 713e 6974 463e 42d2 b13e
00000100: e194 393d e67b 853d bad8 583e 1981 123d
00000110: 918d 9f3e 08b7 8f3e fbe9 2cbc 5b66 273c
00000120: d512 a63d 8aa7 adbe 06e7 333d b0ba 913d
00000130: efb7 b8be 9ab4 b63e ce5a ae3e 224c dcbd
00000140: 40e0 a53e 7690 cb3e 4651 883e 5bfa 853e
00000150: 166b 60bc 968e ec3d ded8 673e 9ad3 443e
00000160: 3432 86bd 7ae2 793e 55cc 06be d34d f83d
00000170: 0272 1d3e 1157 a63e c8ab 893d 0263 5b3e
00000180: 2c31 c23c ead4 eebe 10c3 87ba 5f3d 6e3d
00000190: 53cf a93e 2971 83bd ed7d 79be b9df 6a3e
000001a0: 8725 9a3e 16ed 9a3e 3534 583e 8a44 e0bd
000001b0: 71f3 dbbd f5ff ac3e 0ba8 f1b9 2747 ca3e
000001c0: 30d1 83be 2a99 c43e 2783 f4bd 1f50 01bc
000001d0: d52d cc3e b3b0 263e 1139 87be 27a4 8b3e
000001e0: df5b 8abe fe66 9d3c 7927 a83e 545a 0a3f
000001f0: 429a 8dbe 4e30 92bd 9e71 12be 6468 c83e
00000200: 3123 5ebd 3455 c13e 8122 ab3d fae6 b73e
00000210: 59a9 813d 81a5 093d eaac d33e ad15 8bbe
00000220: af19 043e 408c d63d f2b6 bb3d 791f 0bbf
00000230: 90dc b73e 3da0 a63e e46d 423e 60eb 053e
00000240: 1e9d 753e b18a f53e 83a1 bebd bcf6 c2bd
00000250: c185 8fbc 9eea 513e f8c0 23be f554 253e
00000260: 4d76 d8be e9c7 9abd 4e90 e43e 4913 ca3e
00000270: 0d69 a43d c6c4 9e3d e639 26be 80ce 0a3c
00000280: 3ec6 9f3d c16a 823e d44e 633e 67f7 9b3e
00000290: a2ea 0f3e e2f6 7d3e b9bc 1f3e 44bd 4d3e
000002a0: 5cfc 053f 26e7 c23e 05d9 023e 9482 893d
000002b0: 5d5f 4bbd d831 32be b427 133d bcb9 533d
000002c0: 5718 91be 51d6 ee3e 4cd7 cd3e 5beb 49be
000002d0: cdcb a73e 28de cd3e 765d 533e 3acd 923e
000002e0: c0d2 a53e 0073 af3e 2683 123e 7d19 943e
000002f0: b6fa 08be 5882 8b3e 073f 7bbe de63 093f
00000300: a525 963d 8991 053f cc56 a9bd fa6c 443e
00000310: b39d 85be 188f cdbe dac2 293d 715c ab3d
00000320: a0fb c33e 8b3e 953e 269a bdbd 1062 253e
00000330: 06b6 b43e 7e60 a33b 36c0 973e 4769 253b
00000340: 877f 393e 1578 743e 805b e73d 0dc8 353e
00000350: ebe2 693d ed6e 503e 921e 023f 3ba8 db3d
00000360: 70f1 823d af2c c53e 47be adbd ad88 c43e
00000370: f6d9 153e f9cb 403e 3567 7bbe 8c71 71be
00000380: 737d 80be f484 00bf 638e afbe f2a3 573e
00000390: 910c 0abe 0f36 fd3d 6d86 663e 24ba ddbd
000003a0: 79d2 883e 0ede 2abc 87c9 563e 08e0 69bd
000003b0: d908 0e3e bd4e 21be 1a97 67be f450 5e3e
000003c0: 8ad3 9bbe e9cf 50be 42b6 903e c71b 363e
000003d0: b77f 68be 8245 6a3e 4787 f83d 82b0 40bd
000003e0: 30ce 163d d6af c0bd 9115 0b3e 3d37 143e
000003f0: 428c 413e 4d50 da3d 3a05 aa3e 0bf1 8ebd

weight_hh_l0 f4 [400, 100]
0.0436169 0.043019235 -0.086049035 0.11295604 0.10989315 0.014889117 0.112786986 0.108287156
0.024203753 0.016195742 0.11010184 0.0670784 -0.0045023276 0.13816085 -0.13782042 0.1227791
0.0525948 -0.12234612 -0.00070509606 0.062743396 0.0658934 0.14679927 -0.0153791215 0.025569938
0.13010187 -0.07167918 -0.018495351 0.050804276 -0.055929564 0.023915514 -0.08521244 -0.054964457
0.009351423 -0.018797921 0.1236565 0.118009314 0.11383974 -0.08090243 -0.047725406 -0.07914296
-0.09315572 -0.111231536 0.03538756 0.030576194 0.073792346 0.09954162 0.003733209 -0.10426723
0.07368678 -0.20648177 -0.06685974 0.07055693 -0.1563604 -0.024326699 0.027917083 0.017328018
-0.10057575 0.07787266 0.0464327 0.037759416 0.03653206 0.14045422 0.034436986 -0.0030835015
-0.14400326 0.050426066 0.14319769 0.09836843 0.15068664 0.046331044 0.102343045 -0.03266443
0.14974125 -0.054211877 0.10734275 -0.17559615 0.095762745 0.029620484 -0.12235665 0.00049832003
-0.010648046 0.114122406 0.03579219 0.05953885 0.112593606 -0.03944554 -0.0459132 -0.13587877
0.031093543 0.067550585 0.01160965 -0.06912251 -0.14761671 -0.0064439187 0.022587195 0.017918125
-0.12729472 -0.1914517 -0.19139676 -0.08230791 0.18557443 -0.0066572423 -0.21355347 0.11522819
0.15973786 -0.2827095 0.10026888 0.18188637 0.16490851 0.16107634 0.017636567 0.14695369
-0.25433844 0.049460202 -0.09215882 0.18201703 0.1621399 0.08104055 -0.13686754 0.14312339
0.116988085 0.1916101 -0.2300077 -0.23420052 0.19572848 0.06009988 -0.05301551 0.23952726
0.072040886 0.21714143 0.19759908 -0.2567271 0.024258373 -0.20195864 0.22731225 0.17580065
0.03703776 -0.12157131 -0.11169565 -0.19832347 -0.16808096 -0.05617201 0.055318594 0.21812062
-0.10693532 0.26210237 -0.02255013 0.03613997 -0.04410791 -0.09915639 -0.22924578 0.120111205
-0.25858533 0.058422647 0.055008132 -0.1467663 -0.12924185 -0.09284011 0.097163744 -0.0060730255
0.07158102 0.11248313 -0.29460713 0.052851684 -0.033982046 -0.0057741837 0.11965985 -0.060798038
0.14677785 0.2502305 0.20523122 -0.09815833 -0.0022658836 -0.06249934 0.015524352 -0.07881698
0.09793734 0.23244117 -0.32194185 0.2248538 -0.076947756 0.24402654 0.15000337 0.21864425
-0.030912263 -0.1539894 -0.113893196 0.004034261 0.054665647 0.22337572 -0.08951661 -0.21437202
-0.043078285 -0.004347025 -0.041903995 0.017647462 -0.031899117 -0.15330376 -0.19713925 -0.028604537
0.09983384 0.00655248 0.070352554 0.11927508 0.0029831876 -0.052914165 0.02590634 0.051085215
-0.14711827 -0.078404926 -0.041314878 -0.02695223 -0.1034344 0.17627726 -0.004157485 -0.03449172
0.019272245 -0.048755646 -0.06731906 0.053820714 0.020962724 0.0889452 -0.009616756 -0.068254106
0.022931011 0.09969825 0.16072786 0.07389988 -0.03745586 0.04113301 -0.022440426 -0.112751275
-0.02700357 0.0002394937 -0.062928855 0.13446124 -0.06517407 0.037027936 0.034091342 -0.15692724
0.010007174 0.09997531 0.014472715 0.03240728 -0.06697993 0.07619209 -0.15674639 -0.055765916
-0.05125592 0.050870765 -0.04212057 0.09653092 0.07027344 -0.028259387 -0.04067301 0.037601724
00000000: a2a7 323d f034 303d 7a3a b0bd 7f55 e73d
00000010: a90f e13d 7cf1 733c ddfc e63d a8c5 dd3d
00000020: f346 c63c efac 843c 137d e13d 6660 893d
00000030: 4388 93bb 0a7a 0d3e cc20 0dbe 9c73 fb3d
00000040: a56d 573d 9a90 fabd 32d6 38ba 9c7f 803d
00000050: 1ef3 863d 8c52 163e b6f8 7bbc 0c78 d13c
00000060: 6d39 053e 89cc 92bd 9083 97bc 2518 503d
00000070: 6616 65bd 78ea c33c dc83 aebd 6922 61bd
00000080: b636 193c 19fe 99bc 9e3f fd3d deae f13d
00000090: cf24 e93d 2cb0 a5bd b77b 43bd b415 a2bd
000000a0: 6dc8 bebd 5ccd e3bd 8cf2 103d ed7a fa3c
000000b0: 7120 973d 7adc cb3d dba8 743b 0f8a d5bd
000000c0: 18e9 963d f56f 53be c2ed 88bd 2780 903d
000000d0: f11c 20be c948 c7bc 5eb2 e43c 7df3 8d3c
000000e0: a9fa cdbd b37b 9f3d 3730 3e3d 9ea9 1a3d
000000f0: a4a2 153d 3bd3 0f3e cc0d 0d3d 9214 4abb
00000100: 9775 13be 908b 4e3d 6aa2 123e 6375 c93d
00000110: 994d 1a3e 9fc5 3d3d 3b99 d13d 23cb 05bd
00000120: c555 193e 460d 5ebd 84d6 db3d 7acf 33be
00000130: 421f c43d a8a6 f23c 2096 fabd b1a1 023a
00000140: 2475 2ebc 02b9 e93d d59a 123d 02df 733d
00000150: 7a97 e63d a691 21bd 7b0f 3cbd ce23 0bbe
00000160: e3b7 fe3c f657 8a3d 6736 3e3c 1a90 8dbd
00000170: d628 17be 8227 d3bb c808 b93c 08c9 923c
00000180: 8c59 02be ea0b 44be 83fd 43be 0d91 a8bd
00000190: 3907 3e3e ff24 dabb c3ad 5abe c2fc eb3d
000001a0: 5292 233e 4dbf 90be c559 cd3d 6c40 3a3e
000001b0: c7dd 283e 32f1 243e 907a 903c 077b 163e
000001c0: a638 82be c896 4a3d c3bd bcbd ac62 3a3e
000001d0: 0008 263e 96f8 a53d 0127 0cbe f08e 123e
000001e0: 7397 ef3d 7035 443e 2387 6bbe 43d2 6fbe
000001f0: 0c6d 483e 4b2b 763d cb26 59bd a246 753e
00000200: 2c8a 933d 535a 5e3e 6a57 4a3e bc71 83be
00000210: 7fb9 c63c 3fce 4ebe 8bc4 683e 1605 343e
00000220: e8b4 173d 61fa f8bd b0c0 e4bd 4f15 4bbe
00000230: 6a1d 2cbe 9f14 66bd c095 623d 035b 5f3e
00000240: e800 dbbd 4832 863e 0dbb b8bc 8107 143d
00000250: 7faa 34bd 8112 cbbd 68bf 6abe ddfc f53d
00000260: 4c65 84be 964c 6f3d 3550 613d e849 16be
00000270: fa57 04be f522 bebd c9fd c63d 3b00 c7bb
00000280: 1299 923d 8e5d e63d bfd6 96be 027b 583d
00000290: c230 0bbd 5d35 bdbb 3910 f53d 5d07 79bd
000002a0: ef4c 163e 361e 803e 2228 523e 3c07 c9bd
000002b0: 387f 14bb 4fff 7fbd da59 7e3c cc6a a1bd
000002c0: 5f93 c83d 0f05 6e3e 90d5 a4be 1340 663e
000002d0: c996 9dbd 18e2 793e 7c9a 193e 47e4 5f3e
000002e0: b73b fdbc 66af 1dbe d640 e9bd d631 843b
000002f0: 16e9 5f3d 9bbc 643e 7c54 b7bd 5784 5bbe
00000300: db72 30bd 7d71 8ebb 86a3 2bbd 6991 903c
00000310: a6a8 02bd a9fb 1cbe dfde 49be 1054 eabc
00000320: af75 cc3d 30b6 d63b 0015 903d 7e46 f43d
00000330: 9581 433b 86bc 58bd 8839 d43c bb3e 513d
00000340: 2ca6 16be c392 a0bd ca39 29bd ecca dcbc
00000350: 6ad5 d3bd 0782 343e 833b 88bb 3147 0dbd
00000360: d4e0 9d3c 00b4 47bd 93de 89bd 1c73 5c3d
00000370: 05ba ab3c e728 b63d 998f 1dbc cfc8 8bbd
00000380: d1d9 bb3c 992e cc3d d895 243e d258 973d
00000390: 516b 19bd 167b 283d fcd4 b7bc 24ea e6bd
000003a0: 9736 ddbc 9a20 7b39 d8e0 80bd 35b0 093e
000003b0: fc79 85bd 9baa 173d 5da3 0b3d 89b1 20be
000003c0: 21f5 233c dbbf cc3d f71e 6d3c 7fbd 043d
000003d0: c62c 89bd 990a 9c3d 2082 20be cd6a 64bd
000003e0: baf1 51bd dd5d 503d 9e86 2cbd 01b2 c53d
000003f0: 85eb 8f3d 3b80 e7bc be98 26bd 4404 1a3d

bias_ih_l0 f4 [400]
0.15628834 0.08499058 0.022632768 0.12794577 0.029141175 -0.07376484 0.10115552 -0.09616977
0.00549832 0.019085078 0.0025718424 0.15989345 -0.03574966 -0.07954984 0.18881612 -0.044546023
-0.054065846 0.0333871 0.030065939 0.10157878 -0.03365494 0.009642036 0.057989765 0.059967306
0.08327306 0.23901874 0.10804867 0.080182225 0.02731116 -0.049314264 -0.0036825736 0.035312217
0.12167132 0.065705106 -0.0010734496 0.068047985 0.01367505 -0.033823047 0.05795139 -0.07613291
0.1875598 0.124960534 0.092335925 0.028041242 -0.0718272 0.10233352 -0.07166249 0.05742667
0.044247545 0.11886436 0.10721396 0.038103193 -0.014583434 -0.096883714 0.062859714 0.00634665
-0.024792954 0.06394258 0.0974188 -0.025531972 0.041379143 0.11259192 -0.15736108 0.07382404
0.07509971 0.06568227 0.027995447 0.1525049 0.02366771 0.030556697 0.11711374 -0.04867163
0.12890963 0.011009602 0.020806182 -0.03286801 0.04976967 0.071773335 -0.038560577 0.021451946
0.06451616 0.0800327 0.113727786 -0.006867864 0.24742104 0.16822447 0.0461041 0.18024118
0.026522353 0.065755434 0.071142726 0.019792244 -0.05905986 0.08006766 0.022908311 0.18549033
0.05414735 -0.07931381 0.09096228 0.08191526 -0.045469828 -0.1459137 -0.021219494 -0.016185487
-0.025183618 -0.10965486 -0.101266965 0.06768864 0.07737212 -0.057225943 -0.041614003 -0.0029366896
-0.03607465 -0.07958866 -0.11860031 -0.06478045 -0.013863181 -0.09718159 0.078803904 0.062043954
-0.004825054 0.011941928 0.04839845 -0.024749229 -0.037307583 -0.09466189 -0.10425903 0.07746491
0.019945487 0.07777421 0.041050944 0.03151127 0.1190732 -0.030168016 0.03613021 -0.046702843
-0.044271246 0.0846286 0.11328773 -0.06553552 -0.029361997 0.06342783 -0.008021331 -0.026041932
-0.03611657 0.014757927 0.09484589 -0.024879366 0.05305316 0.11601993 -0.010669113 -0.08478962
-0.06380102 0.025201803 0.054541387 0.07352825 0.09815025 -0.008262272 -0.06675075 0.04062422
-0.0049932436 -0.0031238596 -0.07819057 0.06617885 0.08700926 -0.10166443 0.016322993 0.0110522425
0.08985227 0.05781384 -0.0904344 -0.11945597 -0.096597254 0.05588957 -0.0730153 0.0862314
0.041176237 0.105785295 0.013536502 0.053253464 -0.06223785 0.018929899 -0.016903242 -0.088491715
0.034795653 -0.121297166 0.039726716 0.1038083 -0.106429115 0.13423036 -0.05726204 0.06678681
0.04277541 -0.09515904 -0.00576176 0.035999075 -0.07494887 -0.082993194 0.08200713 0.08556845
0.11866536 -0.024302328 -0.085817836 0.13737069 0.04407686 -0.06750152 0.0065263445 0.036293365
0.06870083 -0.062491138 -0.047605198 -0.0090464875 -0.016456112 0.07751552 0.028247042 -0.035077475
0.08614586 -0.05721044 -0.05774515 -0.077780634 -0.016853329 0.032595303 0.014205384 -0.0043211775
-0.08562983 0.050347738 0.06718696 0.0037777834 -0.100204505 0.12593128 0.018546758 -0.035555717
0.022618253 0.017180419 0.001635319 0.0823286 0.050846737 -0.046399888 -0.04429681 -0.07884701
0.015564216 0.012598109 -0.03590207 0.06552537 -0.0032420955 -0.039395973 0.054712016 -0.006179578
0.028825352 -0.13960087 -0.07249251 -0.0010188164 -0.08254438 -0.04583687 -0.06300174 -0.1250173
00000000: 0d0a 203e 8b0f ae3d 5b68 b93c 3704 033e
00000010: 79b9 ee3c 0512 97bd a02a cf3d a8f4 c4bd
00000020: 402b b43b 4f58 9c3c 5b8c 283b 1cbb 233e
00000030: 3c6e 12bd 07eb a2bd 0359 413e e475 36bd
00000040: 2674 5dbd e9c0 083d d84c f63c 8908 d03d
00000050: c3d9 09bd a1f9 1d3c ad86 6d3d 47a0 753d
00000060: 118b aa3d 54c1 743e 9f48 dd3d 9436 a43d
00000070: a7bb df3c c1fd 49bd 5557 71bb 8ba3 103d
00000080: d02e f93d 6690 863d feb2 8cba be5c 8b3d
00000090: 510d 603c 098a 0abd 705e 6d3d 92eb 9bbd
000000a0: ad0f 403e 4feb ff3d 9e1a bd3d bfb6 e53c
000000b0: 241a 93bd 3d94 d13d c9c3 92bd 3a38 6b3d
000000c0: ea3c 353d 286f f33d fe92 db3d 1812 1c3d
000000d0: 5bef 6ebc f86a c6bd 98bc 803d 8ff7 cf3b
000000e0: 981a cbbc 54f4 823d 8283 c73d 6d28 d1bc
000000f0: 2d7d 293d 9896 e63d 4323 21be 0f31 973d
00000100: e0cd 993d 6d84 863d b556 e53c 3f2a 1c3e
00000110: c9e2 c13c 0a52 fa3c 54d9 ef3d e75b 47bd
00000120: e300 043e 9e61 343c ba71 aa3c 9ba0 06bd
00000130: 48db 4b3d e6fd 923d b2f1 1dbd febb af3c
00000140: 0c21 843d 2fe8 a33d 1dea e83d d20b e1bb
00000150: f15b 7d3e 0943 2c3e a7d7 3c3d 2591 383e
00000160: 6845 d93c c9aa 863d 47b3 913d 5823 a23c
00000170: c0e8 71bd 83fa a33d 36aa bb3c 2df1 3d3e
00000180: 9dc9 5d3d 476f a2bd 6f4a ba3d 30c3 a73d
00000190: 923e 3abd 676a 15be 81d4 adbc 6d97 84bc
000001a0: e04d cebc ba92 e0bd 0e65 cfbd 57a0 8a3d
000001b0: 4675 9e3d c065 6abd 7273 2abd 7a75 40bb
000001c0: 03c3 13bd 61ff a2bd b8e4 f2bd 9dab 84bd
000001d0: 6522 63bc 2407 c7bd f163 a13d cd21 7e3d
000001e0: 7d1b 9ebb 14a8 433c 743d 463d e5be cabc
000001f0: d6cf 18bd 18de c1bd c285 d5bd eca5 9e3d
00000200: b864 a33c 1648 9f3d 0925 283d f611 013d
00000210: a6dc f33d ea22 f7bc 45fd 133d 7b4b 3fbd
00000220: c455 35bd c251 ad3d 6603 e83d 7d37 86bd
00000230: 9288 f0bc 73e6 813d e76b 03bc e455 d5bc
00000240: f8ee 13bd 3bcb 713c 903e c23d d0cf cbbc
00000250: 454e 593d db9b ed3d 81cd 2ebc 2ea6 adbd
00000260: 1caa 82bd 0374 ce3c ca66 5f3d fb95 963d
00000270: 0003 c93d 7b5e 07bc 9eb4 88bd 9565 263d
00000280: 5d9e a3bb abb9 4cbb 6122 a0bd c788 873d
00000290: e931 b23d 7135 d0bd ccb7 853c 7714 353c
000002a0: 7804 b83d 35ce 6c3d ac35 b9bd 55a5 f4bd
000002b0: c8d4 c5bd 76ec 643d 0c89 95bd 179a b03d
000002c0: 6aa8 283d f6a5 d83d 34c8 5d3c 4e20 5a3d
000002d0: 1eed 7ebd e012 9b3c ab78 8abc 253b b5bd
000002e0: e385 0e3d a66a f8bd 7bb8 223d 7299 d43d
000002f0: 82f7 d9bd af73 093e 9a8b 6abd 86c7 883d
00000300: 4535 2f3d bee2 c2bd 25cd bcbb c473 133d
00000310: cb7e 99bd 56f8 a9bd 5bf3 a73d 833e af3d
00000320: d306 f33d ad15 c7bc 43c1 afbd e7aa 0c3e
00000330: f089 343d 3d3e 8abd f2da d53b 5aa8 143d
00000340: 05b3 8c3d b5f6 7fbd abfd 42bd b837 14bc
00000350: f8ce 86bc 75c0 9e3d 5766 e73c 66ad 0fbd
00000360: 3e6d b03d 7f55 6abd 2e86 6cbd 744b 9fbd
00000370: fe0f 8abc a782 053d b3bd 683c aa98 8dbb
00000380: b15e afbd 6e39 4e3d 5199 893d b094 773b
00000390: 0538 cdbd 21f4 003e 5fef 973c dfa2 11bd
000003a0: ea49 b93c f3bd 8c3c 3358 d63a e69b a83d
000003b0: ab44 503d cf0d 3ebd 9270 35bd 8b7a a1bd
000003c0: 0e01 7f3c 4d68 4e3c 0d0e 13bd 2a32 863d
000003d0: 5679 54bb ac5d 21bd b519 603d 0f7e cabb
000003e0: 2523 ec3c 88f3 0ebe f476 94bd ce89 85ba
000003f0: 070d a9bd 71bf 3bbd 0e07 81bd 8904 00be

bias_hh_l0 f4 [400]
0.117446356 -0.03381383 0.031714715 0.11581299 0.15429927 -0.02840658 0.10473738 -0.023950342
0.121304974 0.08249684 -0.08620878 0.048164506 0.023350367 0.06335053 0.24804035 0.014399683
0.07459927 -0.009473517 0.014104328 0.17786352 0.004260285 0.1419927 0.06657673 0.05713707
0.012620626 0.2521116 0.17924656 0.06781951 0.006716043 0.05865082 0.011832199 0.006277789
0.15590902 -0.0018740065 0.034649458 -0.08407732 0.050697204 -0.046418563 0.03293287 0.06256676
0.18960252 -0.031090455 0.10430944 0.023818802 -0.016842688 0.108546965 -0.07253767 0.010835138
-0.13446018 0.13265264 0.07949052 -0.049124494 -0.09462798 -0.08771253 0.008307184 0.193436
0.0879016 0.12776941 -0.014269836 -0.022362096 0.07303575 0.050225716 -0.13069367 -0.03548332
0.05767438 0.22305326 -0.0078124665 -0.0044780658 0.054743316 0.025393872 -0.050330292 -0.030798301
0.09612156 -0.08895249 0.116378725 0.14667007 -0.021577824 0.107603505 0.014657944 -0.06439057
0.06229071 0.088503726 0.09198922 0.064055346 0.10685859 0.14702961 -0.017515559 0.07105324
0.015867887 0.025178352 0.0012249383 0.017591216 -0.00030112156 0.17028186 0.024479145 0.0016372389
0.09231651 -0.10351604 -0.05113103 0.10093827 0.06022444 0.009883512 -0.025612758 0.014601531
0.054614868 0.029273715 0.07196702 0.0031348786 0.01505221 0.048552796 -0.008786218 0.1293839
-0.03139424 0.04975175 -0.1105176 -0.008835217 0.06721974 0.056758944 0.09369498 -0.08036009
0.040046252 0.11158476 0.012617481 -0.13825908 0.020827474 -0.048604254 -0.07768257 -0.071389556
-0.003234462 0.0015243632 -0.12632367 0.02177376 -0.073288426 -0.0037387686 0.08408104 -0.062429868
-0.036298316 -0.052337494 0.06121358 0.023532268 0.0624063 -0.11503262 0.12838277 -0.09111114
-0.007520308 0.053226624 0.08144459 0.0032312078 -0.08684857 0.13425109 -0.05855416 -0.036909137
0.017701654 -0.060257815 0.03480719 0.15128215 -0.064110175 -0.059383914 0.063059404 0.034437127
0.08834571 -0.021382378 -0.09907707 -0.0050735394 0.085784964 0.052563537 0.08559192 0.035342928
0.07468044 -0.019051969 -0.12482356 0.053712666 -0.09915112 -0.06723619 -0.05161917 0.121784255
0.044701204 -0.027170356 -0.07420396 0.040720243 -0.014994513 0.028695116 -0.0070761726 -0.053214848
0.032184985 -0.12263537 0.0024347974 0.12021327 0.056972716 0.0058688466 0.11736475 -0.05030881
0.09898869 0.077683605 0.038040247 -0.0699893 -0.11625473 -0.048466943 -0.03613293 -0.012863663
0.02471477 -0.0679323 0.028327676 0.13185653 -0.03692356 -0.008082044 0.08888418 -0.03012145
-0.07213262 0.0547828 0.10346433 0.07941704 -0.04538934 0.11962072 -0.049739692 0.08617138
0.136206 -0.0019609707 0.05639194 0.060205065 0.033991884 0.031381644 -0.079907775 0.060888346
0.0020376758 -0.015119413 0.05525575 0.13456504 0.07395703 -0.026741683 -0.0026628547 -0.1470941
-0.023434212 -0.044014614 0.108617656 -0.03421142 0.060025815 -0.022803208 -0.09762453 -0.028204905
-0.06931648 -0.03816665 0.08437944 -0.036610667 0.09241742 0.050602533 -0.06672486 -0.017143657
0.059695978 -0.07388472 0.022746282 0.064134255 -0.03497974 -0.090016074 0.023850834 -0.06865847
00000000: b787 f03d 5f80 0abd 4ae7 013d 5c2f ed3d
00000010: a100 1e3e ebb4 e8bc 8d80 d63d 8233 c4bc
00000020: be6e f83d 1af4 a83d 3b8e b0bd 2548 453d
00000030: 4549 bf3c ecbd 813d 4afe 7d3e a6ec 6b3c
00000040: 81c7 983d cf36 1bbc d715 673c db21 363e
00000050: dc99 8b3b 8966 113e 6159 883d 8f08 6a3d
00000060: bec6 4e3c c614 813e 698c 373e f5e4 8a3d
00000070: 4112 dc3b d83b 703d d7db 413c e9b5 cd3b
00000080: 9da6 1f3e 39a1 f5ba 97ec 0d3d bb30 acbd
00000090: dfa7 4f3d 6421 3ebd 9ee4 063d 0023 803d
000000a0: 2a27 423e 69b1 febc 30a0 d53d a61f c33c
000000b0: adf9 89bc df4d de3d a18e 94bd dd85 313c
000000c0: eeaf 09be 18d6 073e edcb a23d c436 49bd
000000d0: 50cc c1bd a0a2 b3bd db1a 083c 1614 463e
000000e0: c105 b43d fcd5 023e 08cc 69bc b730 b7bc
000000f0: c493 953d 7bb9 4d3d 90d4 05be f556 11bd
00000100: f83b 6c3d 1368 643e b8ff ffbb bdbc 92bb
00000110: 873a 603d cf06 d03c 2327 4ebd b84c fcbc
00000120: 61db c43d b92c b6bd f857 ee3d ae30 163e
00000130: fac3 b0bc 3a5f dc3d e027 703c 34df 83bd
00000140: 8b24 7f3d 7141 b53d d864 bc3d 732f 833d
00000150: add8 da3d ee8e 163e ca7c 8fbc 5c84 913d
00000160: 5ffd 813c d542 ce3c 1c8e a03a 741b 903c
00000170: dadf 9db9 5e5e 2e3e 7d88 c83c 9f98 d63a
00000180: 7010 bd3d 3800 d4bd c56e 51bd b9b8 ce3d
00000190: e7ad 763d 74ee 213c d9d1 d1bc 433b 6f3c
000001a0: d7b3 5f3d 6ecf ef3c 7263 933d 8972 4d3b
000001b0: 8b9d 763c 4cdf 463d 12f4 0fbc 377d 043e
000001c0: 3f97 00bd 7ec8 4b3d 0d57 e2bd 96c1 10bc
000001d0: 81aa 893d 117c 683d 27e3 bf3d d593 a4bd
000001e0: 8a07 243d 8d86 e43d 8db9 4e3c ca93 0dbe
000001f0: 619e aa3c 4115 47bd 0a18 9fbd b034 92bd
00000200: 45f9 53bb 24cd c73a fe5a 01be e25e b23c
00000210: 3e18 96bd 2106 75bb ae32 ac3d 76b6 7fbd
00000220: 8bad 14bd d75f 56bd 17bb 7a3d bec6 c03c
00000230: c09d 7f3d 3996 ebbd c676 033e 7a98 babd
00000240: ea6c f6bb 2904 5a3d 6ccc a63d acc2 533b
00000250: aadd b1bd 1e79 093e 7dd6 6fbd 092e 17bd
00000260: 0f03 913c e6d0 76bd fc91 0e3d b5e9 1a3e
00000270: 324c 83bd 8c3c 73bd 4a25 813d f20d 0d3d
00000280: 98ee b43d 192a afbc ebe8 cabd ef3f a6bb
00000290: 07b0 af3d dd4c 573d d14a af3d bfc3 103d
000002a0: 0ff2 983d e012 9cbc 7fa3 ffbd d001 5c3d
000002b0: be0f cbbd 21b3 89bd 9f6e 53bd 066a f93d
000002c0: 9c18 373d 5e94 debc 3ff8 97bd 45ca 263d
000002d0: 8cab 75bc 0512 eb3c 3ddf e7bb d0f7 59bd
000002e0: 67d4 033d 4128 fbbd 1f91 1f3b 6032 f63d
000002f0: 395c 693d 744f c03b ee5c f03d 9c10 4ebd
00000300: 95ba ca3d 9518 9f3d 17d0 1b3d 8d56 8fbd
00000310: f616 eebd 4685 46bd 2000 14bd 1dc2 52bc
00000320: a176 ca3c 1720 8bbd 710f e83c 6605 073e
00000330: 293d 17bd 8d6a 04bc e908 b63d 42c1 f6bc
00000340: 44ba 93bd ee63 603d 1be5 d33d 67a5 a23d
00000350: 2cea 39bd b5fb f43d d9bb 4bbd 9f7a b03d
00000360: 9679 0b3e a183 00bb 3cfb 663d 9699 763d
00000370: 133b 0b3d 0a8a 003d b0a6 a3bd 0f66 793d
00000380: 878a 053b 6ab7 77bc da53 623d 6bcb 093e
00000390: c976 973d 6011 dbbc 4a83 2ebb d69f 16be
000003a0: 1bf9 bfbc ab48 34bd ef72 de3d 4621 0cbd
000003b0: a1dd 753d cbcd babc 5fef c7bd f90d e7bc
000003c0: ccf5 8dbd a254 1cbd 21cf ac3d 11f5 15bd
000003d0: 5845 bd3d 9a44 4f3d 0ba7 88bd db70 8cbc
000003e0: c583 743d df50 97bd 6956 ba3c d258 833d
000003f0: ea46 0fbd 595a b8bd d362 c33c d09c 8cbd

weight_ih_l0 f4 [400, 1]
-0.21126568 -0.0061124964 0.2791374 -0.020408647 0.07486476 -0.09698893 -0.18798286 -0.10448105
0.24462594 0.045453504 -0.3565015 0.31286305 0.14010477 -0.18289548 0.039362893 -0.010600811
-0.124310695 -0.2526191 -0.3275439 -0.19326347 0.23656662 -0.088712506 0.3647313 0.13587041
-0.13518807 -0.2507853 0.24957608 -0.23403011 -0.027509823 0.042774618 -0.084706366 0.16731203
0.026784942 -0.10611002 0.35457993 -0.21661793 0.1001876 -0.15848324 -0.031305715 -0.0665908
0.010018309 -0.20639592 -0.22330245 0.039809395 -0.18247356 0.067138284 -0.1576063 0.027126346
0.21681212 0.35366693 -0.11857885 -0.050823677 -0.10605843 -0.013937276 -0.24484165 0.34765977
0.25720793 -0.17025147 0.0011012597 -0.057400584 0.33637917 -0.04866568 -0.061312545 -0.1931095
0.08351189 0.048871685 0.023843579 -0.100584745 0.026210638 0.16525237 -0.4322669 -0.02678536
-0.069398575 0.20247345 0.049698833 0.2173013 0.18240088 0.16767888 -0.28938037 -0.34516734
-0.07278418 -0.106426254 0.086582884 0.03518142 -0.20805913 0.06652701 -0.20978302 -0.002472025
-0.1999872 0.27125087 0.3239531 -0.1871567 0.39448997 0.13851097 -0.009055792 0.0054469598
0.016351826 -0.052639365 0.13746223 0.32227296 -0.14585926 0.10565705 0.19618554 -0.11721285
0.07007394 -0.12969665 -0.05820328 -0.0503931 0.17872542 -0.16209254 -0.3569117 0.08087076
0.18468072 -0.21489714 -0.03488524 -0.16714521 -0.12963767 -0.1058545 -0.18068668 -0.15588214
0.021666057 0.106226206 0.20307747 0.11379445 -0.10558319 -0.26918375 0.12391774 -0.0350877
-0.00043929514 -0.07389612 -0.28408247 -0.031040482 -0.11859151 -0.15705137 0.22226493 -0.23392542
-0.09080139 -0.16730346 -0.14992686 -0.25682303 0.051479273 -0.14406562 -0.045811523 0.17177387
-0.19499326 0.029986408 0.04563123 -0.042885907 0.4068876 0.25715443 -0.0062114145 0.06500369
-0.14316651 -0.08059446 -0.08471741 0.124820426 0.1346654 -0.025234882 -0.064873986 0.016073573
0.13921817 -0.005832013 -0.0040311157 -0.26816648 -0.01795717 0.037388876 -0.03461716 -0.1017332
-0.06066227 0.22924909 -0.33203834 0.058078174 -0.08439803 0.33499837 0.051315986 0.18065041
0.051303867 0.20376928 -0.1891142 -0.16757 -0.072809726 -0.1262457 0.25300506 0.06057026
-0.13723278 0.014030593 -0.060342334 0.046430204 -0.12894331 0.22860296 0.113641314 -0.0846722
0.23468533 0.1463522 -0.09381282 -0.2002921 0.052862633 0.08968613 0.2593217 0.077221096
0.29648623 0.26702723 -0.208951 0.13186233 0.049502093 -0.001027351 0.24264747 -0.11276389
0.22068846 0.24961136 -0.1404708 0.21087065 -0.05409549 0.26221877 0.24102883 0.020837475
0.15768752 0.20346935 0.21361227 0.2369565 0.07268086 0.08584768 -0.21250497 -0.22173159
-0.15523162 -0.25841433 -0.23631865 0.22817 -0.077283606 0.22697955 0.19296043 -0.12077273
0.113891535 0.039169673 0.2711686 -0.10467067 0.1582549 -0.090870395 -0.050960243 0.24201135
-0.3116956 -0.20732029 0.25484508 0.22772405 -0.13717161 0.16468416 -0.18756881 -0.17856376
-0.35138816 -0.29566404 -0.011057253 0.26856565 0.15576011 -0.0018447351 0.20361947 -0.13875929
00000000: 0856 58be 564b c8bb 19eb 8e3e 0930 a7bc
00000010: b252 993d 22a2 c6bd 947e 40be 29fa d5bd
00000020: 397f 7a3e 742d 3a3d 5d87 b6be 962f a03e
00000030: a077 0f3e f448 3bbe fc3a 213d 06af 2dbc
00000040: 9b96 febd 4a57 81be d6b3 a7be dce6 45be
00000050: 853e 723e e7ae b5bd 10be ba3e 9d21 0b3e
00000060: be6e 0abe ee66 80be df90 7f3e 97a5 6fbe
00000070: 485c e1bc 7034 2f3d 887a adbd d853 2b3e
00000080: 186c db3c 3650 d9bd 808b b53e 17d1 5dbe
00000090: 282f cd3d 6e49 22be 6c3a 00bd c260 88bd
000000a0: d523 243c 7459 53be 66a9 64be 2d0f 233d
000000b0: 59da 3abe cc7f 893d 8c63 21be 1238 de3c
000000c0: ff03 5e3e d513 b53e 78d9 f2bd 7d2c 50bd
000000d0: 2a35 d9bd 2c59 64bc c5b7 7abe 7600 b23e
000000e0: c2b0 833e 6756 2ebe 2558 903a e01c 6bbd
000000f0: e439 ac3e aa55 47bd dd22 7bbd 7fbe 45be
00000100: 4808 ab3d ad2d 483d 9c53 c33c 60ff cdbd
00000110: b1b7 d63c eb37 293e 1652 ddbe f96c dbbc
00000120: d720 8ebd 3355 4f3e 0191 4b3d 3b84 5e3e
00000130: 4cc7 3a3e 03b4 2b3e aa29 94be c6b9 b0be
00000140: df0f 95bd 02f6 d9bd 5e52 b13d 651a 103d
00000150: 740d 55be 503f 883d 5cd1 56be b301 22bb
00000160: 72c9 4cbe 65e1 8a3e 2edd a53e 02a6 3fbe
00000170: 97fa c93e d2d5 0d3e bf5e 14bc 697c b23b
00000180: 44f4 853c 609c 57bd e6c2 0c3e f600 a53e
00000190: 215c 15be b962 d83d dde4 483e 4a0d f0bd
000001a0: ed82 8f3d 33cf 04be 9066 6ebd ff68 4ebd
000001b0: cc03 373e 96fb 25be 21bd b6be 929f a53d
000001c0: f11c 3d3e ff0d 5cbe d3e3 0ebd 1d28 2bbe
000001d0: bdbf 04be 3eca d8bd ee05 39be 919f 1fbe
000001e0: 047d b13c 208d d93d 8af3 4f3e 110d e93d
000001f0: 003c d8bd 74d2 89be 96c8 fd3d 1fb8 0fbd
00000200: 3251 e6b9 d956 97bd 4273 91be 9c48 febc
00000210: 1be0 f2bd 13d2 20be 6b99 633e 258a 6fbe
00000220: 14f6 b9bd 9951 2bbe 6d86 19be 4f7e 83be
00000230: eedb 523d f085 13be dda4 3bbd 7de5 2f3e
00000240: 50ac 47be 0ea6 f53c d0e7 3a3d 22a9 2fbd
00000250: 9253 d03e bfa9 833e 1f89 cbbb a820 853d
00000260: 3e9a 12be b50e a5bd 5280 adbd daa1 ff3d
00000270: bae5 093e 62b9 cebc a7dc 84bd baac 833c
00000280: 358f 0e3e 791a bfbb 7317 84bb 1e4d 89be
00000290: ea1a 93bc 1425 193d b9ca 0dbd 7f59 d0bd
000002a0: 0079 78bd 46c0 6a3e ee00 aabe 61e3 6d3d
000002b0: e0d8 acbd e884 ab3e b630 523d 6cfc 383e
000002c0: 0124 523d e5a8 503e 27a7 41be 7897 2bbe
000002d0: 441d 95bd 8e46 01be e189 813e 8518 783d
000002e0: c086 0cbe 93e0 653c 8629 77bd 992d 3e3d
000002f0: b709 04be e516 6a3e c7bc e83d 9e68 adbd
00000300: 5a51 703e 5add 153e f020 c0bd 5f19 4dbe
00000310: 7d86 583d 5dad b73d d0c5 843e 1826 9e3d
00000320: 0bcd 973e cbb7 883e 40f7 55be eb06 073e
00000330: b5c2 4a3d 2ea8 86ba 9478 783e c1f0 e6bd
00000340: 28fc 613e 1f9a 7f3e 94d7 0fbe 7aee 573e
00000350: 3c93 5dbd 8a41 863e 43d0 763e 5ab3 aa3c
00000360: d678 213e 455a 503e 2dbd 5a3e baa4 723e
00000370: b4d9 943d e9d0 af3d e79a 59be 9b0d 63be
00000380: 0af5 1ebe e24e 84be 84fd 71be 65a5 693e
00000390: de46 9ebd 546d 683e 6b97 453e b157 f7bd
000003a0: f73f e93d 6170 203d 9cd6 8a3e 945d d6bd
000003b0: 930d 223e 421a babd b0bb 50bd d3d1 773e
000003c0: 9196 9fbe c54b 54be 0e7b 823e 7e30 693e
000003d0: b776 0cbe f7a2 283e 0a12 40be 6bd9 36be
000003e0: 26e9 b3be 4761 97be 7b29 35bc 7081 893e
000003f0: 947f 1f3e 0acb f1ba 9f81 503e ea16 0ebe

weight_hh_l0 f4 [400, 100]
0.08517746 -0.012004376 -0.23227495 -0.105856165 0.09878325 0.055974286 -0.123393916 0.033432495
0.054223046 0.054439593 -0.06320826 0.00046357253 -0.08924773 -0.10955102 0.045274794 0.023319066
-0.004304759 -0.12141876 -0.19550292 0.03787374 0.041141074 0.067323856 -0.13878015 -0.088703096
0.13983262 0.048202634 -0.049691778 -0.11414289 0.15954761 -0.04831847 0.06160176 0.110690475
-0.073557585 -0.14054699 0.18247823 0.067513645 -0.006216189 0.06799328 0.048245993 -0.04447806
0.062778376 -0.045327943 -0.00041312963 -0.041814536 0.128675 0.14774893 0.08118285 -0.041626114
-0.13616197 -0.14524849 -0.11595938 -0.06703334 -0.053087424 0.004597628 -0.030420203 -0.118057884
0.16717252 0.055797577 0.08140003 -0.11227553 0.0405168 -0.2567821 -0.039354302 -0.013582844
0.073106065 0.034926243 0.088333525 -0.007291611 -0.013311465 0.17257136 -0.07559186 0.03151921
0.013320263 -0.13518193 -0.14045775 0.15602998 0.12079993 0.12743579 -0.013670983 0.21239525
-0.042553596 -0.0054902644 -0.06227623 0.020630552 -0.12306773 0.0023024417 0.14911447 0.018022899
-0.011076222 0.14066578 -0.05148163 0.082235545 0.034690496 0.054561354 -0.16861564 0.044474848
-0.07077901 -0.11987773 -0.23129655 -0.08324042 -0.07469724 -0.09154628 -0.03825336 -0.06600955
0.09528795 -0.057038475 -0.11067555 0.035125248 0.16269244 -0.08566756 -0.021979917 -0.03621551
-0.24047291 -0.046431802 -0.06303193 0.11517541 0.028589742 -0.041916907 -0.08450938 -0.04373927
-0.02591396 -0.02799883 -0.120598346 -0.1022871 0.092056945 0.05953446 0.07970429 -0.118126705
0.13247108 -0.026800603 -0.07985295 0.044518568 -0.010578181 0.07426187 -0.0364421 -0.019345585
-0.036237378 0.053027015 0.116051525 -0.1150599 0.021413123 0.039661188 0.00086879625 -0.022479733
0.048096687 -0.019828849 -0.00306058 -0.04929676 -0.077184 0.031707343 -0.053177558 0.020629173
0.012575311 0.018267356 -0.05542479 -0.04006023 0.115225054 -0.021257607 0.015783314 -0.0050431383
0.04211218 -0.11213382 0.10298001 0.03390777 0.091038145 0.06171257 -0.019389722 -0.072311364
0.10876097 0.13618192 -0.15235779 0.029918434 0.020285117 -0.053995512 0.06847756 0.054332044
0.07788487 -0.0032068556 -0.040417604 0.0627212 -0.025703697 0.039179787 0.04211929 -0.0055939364
0.027488707 0.04210764 -0.02731011 -0.0036563426 -0.054407105 -0.024470141 -0.12859836 0.08288774
0.12514572 0.12140133 -0.08234641 -0.1394526 -0.13109246 -0.087710224 -0.10379331 -0.14037736
-0.03112901 -0.113542415 0.040051483 0.0338378 0.050615083 0.124696225 -0.12929983 0.07071995
0.07171908 -0.0966918 0.17741802 -0.071902275 -0.051849764 -0.078216374 -0.07522777 0.077942334
-0.04549304 0.05365416 -0.04410737 -0.09344387 0.000852202 -0.15416226 0.022035083 -0.12195487
0.10908909 0.08998632 -0.11958473 0.0044952263 0.11911573 -0.14553718 0.008072201 0.00908479
-0.043723214 0.069412194 -0.03053831 -0.04952352 0.0014685963 0.10116829 -0.052442618 0.03118472
0.16913632 0.13652207 -0.0014591366 0.020110672 -0.02538549 0.045019988 0.08259021 -0.034934536
0.0013994547 0.07060906 -0.045720465 0.09797023 0.027886186 -0.1201173 -0.091781594 -0.09311368
00000000: 8571 ae3d 01ae 44bc 7cd9 6dbe 1ecb d8bd
00000010: df4e ca3d 4b45 653d f3b5 fcbd 83f0 083d
00000020: fc18 5e3d 0dfc 5e3d 5573 81bd a70b f339
00000030: 84c7 b6bd 495c e0bd 1072 393d a007 bf3c
00000040: f00e 8dbb 66aa f8bd eb31 48be 7f21 1b3d
00000050: 8b83 283d 17e1 893d 621c 0ebe f8a9 b5bd
00000060: 4830 0f3e 2070 453d 9b89 4bbd bfc3 e9bd
00000070: 7360 233e 97e9 45bd 2152 7c3d b0b1 e23d
00000080: 5ca5 96bd 8deb 0fbe 93db 3a3e 9844 8a3d
00000090: 2cb1 cbbb 1040 8b3d 979d 453d a02e 36bd
000000a0: f391 803d cba9 39bd 5299 d8b9 b845 2bbd
000000b0: 61c3 033e 7f4b 173e 3243 a63d 2580 2abd
000000c0: 0b6e 0bbe 05bc 14be 1d7c edbd c748 89bd
000000d0: 3372 59bd b3a7 963b ca33 f9bc 55c8 f1bd
000000e0: 462f 2b3e 008c 643d 0fb5 a63d b7f0 e5bd
000000f0: f2f4 253d f278 83be fa31 21bd 948a 5ebc
00000100: a2b8 953d d20e 0f3d 35e8 b43d 77ee eebb
00000110: 5518 5abc 8cb6 303e e8cf 9abd 4a1a 013d
00000120: 3b3d 5a3c 226d 0abe 28d4 0fbe 53c6 1f3e
00000130: f465 f73d 877e 023e 42fc 5fbc 247e 593e
00000140: ae4c 2ebd ade7 b3bb 5c15 7fbd 6701 a93c
00000150: ef0a fcbd 90e4 163b 77b1 183e c2a4 933c
00000160: 0b79 35bc b10a 103e 67de 52bd 1c6b a83d
00000170: 9f17 0e3d ba7b 5f3d 94a9 2cbe 422b 363d
00000180: 96f4 90bd 7582 f5bd 01d9 6cbe f479 aabd
00000190: defa 98bd 9e7c bbbd 8eaf 1cbd 0430 87bd
000001a0: 5426 c33d 2da1 69bd dda9 e2bd 7edf 0f3d
000001b0: d998 263e 7972 afbd 3a0f b4bc b756 14bd
000001c0: 883e 76be 462f 3ebd e216 81bd 16e1 eb3d
000001d0: 0935 ea3c 10b1 2bbd 4113 adbd f327 33bd
000001e0: 8349 d4bc cd5d e5bc 44fc f6bd e67b d1bd
000001f0: 5a88 bc3d 68da 733d 013c a33d 6aec f1bd
00000200: 80a6 073e f08c dbbc f289 a3bd 1a59 363d
00000210: 1b50 2dbc 9b16 983d 5044 15bd a27a 9ebc
00000220: a56d 14bd db32 593d 6cac ed3d 86a4 ebbd
00000230: 936a af3c c573 223d eebf 633a 6b27 b8bc
00000240: 0801 453d 1c70 a2bc 0394 48bb 66eb 49bd
00000250: a512 9ebd 8fdf 013d b6d0 59bd 83fe a83c
00000260: ad08 4e3c 6ca5 953c 1b05 63bd 3216 24bd
00000270: 1dfb eb3d 6f24 aebc 024c 813c e940 a5bb
00000280: d27d 2c3d 6ba6 e5bd 2fe7 d23d e0e2 0a3d
00000290: 3572 ba3d 52c6 7c3d 32d7 9ebc fb17 94bd
000002a0: 12be de3d 4673 0b3e ae03 1cbe 8117 f53c
000002b0: f92c a63c 662a 5dbd f73d 8c3d 478b 5e3d
000002c0: 1a82 9f3d 1c2a 52bb ee8c 25bd f973 803d
000002d0: 8f90 d2bc fc7a 203d 4785 2c3d 574d b7bb
000002e0: ff2f e13c 1079 2c3d 74b9 dfbc 409f 6fbb
000002f0: fcd9 5ebd 9b75 c8bc 4aaf 03be 0cc1 a93d
00000300: 3326 003e 43a1 f83d 3ca5 a8bd aacc 0ebe
00000310: 1a3d 06be 6ba1 b3bd 9691 d4bd 15bf 0fbe
00000320: 4402 ffbc ed88 e8bd 060d 243d 8199 0a3d
00000330: c351 4f3d bc60 ff3d 2d67 04be 9fd5 903d
00000340: 74e1 923d 5a06 c6bd 12ad 353e 8041 93bd
00000350: 6b60 54bd e82f a0bd 0411 9abd 3ba0 9f3d
00000360: e956 3abd 77c4 5b3d eea9 34bd 805f bfbd
00000370: 4f66 5f3a b6dc 1dbe eb82 b43c 7ac3 f9bd
00000380: 1a6a df3d bf4a b83d d7e8 f4bd b14c 933b
00000390: f3f2 f33d b307 15be 4441 043c 5fd8 143c
000003a0: 1d17 33bd fb27 8e3d 7a2b fabc 2dd9 4abd
000003b0: ea7d c03a 5231 cf3d 12ce 56bd 1977 ff3c
000003c0: 1232 2d3e 71cc 0b3e 8040 bfba 23bf a43c
000003d0: 3bf5 cfbc e166 383d 0e25 a93d 8417 0fbd
000003e0: e86d b73a 7c9b 903d 6245 3bbd 9ea4 c83d
000003f0: 9271 e43c 0f00 f6bd fdf7 bbbd 63b2 bebd

bias_ih_l0 f4 [400]
0.08638286 0.08356586 -0.015440497 0.042193387 -0.04563993 -0.07033341 0.0075030155 -0.07574431
0.14168584 0.15228355 0.14605303 0.0449605 0.009031712 0.008135926 0.004415273 -0.09837093
0.102822095 0.08746723 0.1398046 0.060671743 -0.11264595 -0.10590958 -0.0057128733 -0.002822864
0.023823192 0.10348625 -0.032409046 0.13781548 -0.020014554 -0.0234842 0.11940897 0.0003144657
-0.033823136 0.008064476 0.06473197 0.047735356 -0.020292945 -0.016447747 -0.0061025717 -0.024644854
0.27792662 -0.040595047 0.02974342 0.0391326 0.09985455 0.05781232 0.07643744 0.0148015795
0.12056509 0.08091496 -0.12799829 0.08404804 0.08312572 0.052801605 0.099717766 0.103877045
-0.024205618 0.072326295 -0.06745276 -0.036776185 0.1583109 0.056132007 0.039303415 0.104692556
-0.038586024 0.04065486 0.03173951 0.09839897 -0.015467767 0.08328798 -0.109213546 0.08287486
-0.01308711 0.1390007 0.0846985 0.17063606 -0.024032842 -0.019197438 0.12003936 0.081727706
0.027161788 -0.024776477 0.20749229 0.07757924 0.06273833 -0.08106728 -0.053594254 0.09326307
-0.069766834 0.027420461 -0.06714717 0.15182434 -0.025809687 0.1050439 0.0064909896 -0.0027400514
-0.020515686 -0.10950453 -0.0964576 -0.0010178826 -0.02693809 -0.061642934 0.053873308 -0.099813685
-0.11431553 -0.0404321 -0.027789442 0.02725516 0.10211508 0.06454308 -0.016731277 0.07992146
-0.004922772 -0.012358634 0.045424975 -0.10212185 0.03861031 0.08827255 -0.029194552 -0.054251898
0.07002503 -0.061578598 -0.028279567 0.08608585 -0.053402923 0.042062357 0.09512691 -0.02809748
0.07070142 -0.06587707 -0.013446137 0.03312665 0.0017414686 -0.09555562 0.03469344 0.014913347
0.0858469 -0.028395483 -0.04299893 0.100734845 -0.12001315 -0.03256698 0.029120032 -0.016521918
-0.0054148813 -0.110707045 -0.04456248 -0.10003595 -0.026780054 -0.0019833264 -0.067457035 -0.08503107
0.07874051 -0.037999608 0.013795706 -0.049613733 -0.061786328 0.060057417 -0.10004944 -0.08479577
-0.08118423 0.0759801 0.07281636 -0.07801709 -0.06687881 -0.09728699 -0.033484884 -0.06692484
0.028820343 -0.056621682 -0.039152287 -0.034454107 -0.010089147 -0.08569408 0.042388268 0.030308714
0.007992856 -0.0072099837 0.0019865716 -0.03604097 0.05070023 0.07280786 -0.08500613 -0.038256805
0.081514485 0.08126745 0.023613954 0.009355216 0.083716795 -0.052021787 0.05459168 -0.09430081
0.06455603 -0.04041689 0.07892754 0.025282519 -0.04266484 0.0018267815 -0.04119161 -0.07176697
-0.08916442 -0.08263934 -0.09153018 0.0031102037 0.054879446 0.071212485 -0.079983324 -0.0508751
0.028301658 -0.01584775 0.11444551 -0.0011482164 0.0042550582 -0.072342195 -0.03479705 -0.0023862938
-0.017924301 -0.097600386 -0.076775596 -0.09617165 0.08131923 -0.01949339 -0.09110512 -0.09308148
0.10640862 0.010968846 -0.04082173 0.026890969 0.0642136 -0.0099706855 -0.055983715 0.038215913
-0.054826308 -0.085678525 0.05987638 0.00386888 0.032287605 -0.012286217 -0.0024919114 -0.09490541
0.068820864 0.025079556 -0.0023330895 0.040432744 0.011540995 0.034841962 0.004296609 -0.0042339773
-0.07734384 0.06337062 0.08528765 -0.03455179 -0.036170024 -0.07778735 -0.1081849 -0.042800665
00000000: 7fe9 b03d 9424 ab3d 23fa 7cbc f9d2 2c3d
00000010: eff0 3abd f60a 90bd dbdb f53b d51f 9bbd
00000020: 1816 113e 38f0 1b3e ed8e 153e 8028 383d
00000030: bff9 133c 8c4c 053c ffad 903b b376 c9bd
00000040: 6494 d23d 0522 b33d f028 0f3e ef82 783d
00000050: ebb2 e6bd 1fe7 d8bd 0e33 bbbb cdff 38bb
00000060: db28 c33c 99f0 d33d 59bf 04bd 801f 0d3e
00000070: 90f5 a3bc f061 c0bc b18c f43d dfde a439
00000080: 218a 0abd dd20 043c 3292 843d 2686 433d
00000090: 643d a6bc 6dbd 86bc 15f8 c7bb 01e4 c9bc
000000a0: 664c 8e3e fe46 26bd 79a8 f33c 8149 203d
000000b0: 8b80 cc3d 9ccc 6c3d 3c8b 9c3d 5382 723c
000000c0: d4ea f63d beb6 a53d fc11 03be 6121 ac3d
000000d0: d13d aa3d 7f46 583d d438 cc3d 7dbd d43d
000000e0: dc4a c6bc cf1f 943d ac24 8abd a0a2 16bd
000000f0: 411c 223e adea 653d 9efc 203d 0d69 d63d
00000100: 610c 1ebd b685 263d 4a01 023d 6685 c93d
00000110: 846c 7dbc e392 aa3d 5aab dfbd 4bba a93d
00000120: 516b 56bc 3356 0e3e 6876 ad3d 38bb 2e3e
00000130: 86e0 c4bc f243 9dbc 32d7 f53d db60 a73d
00000140: 6682 de3c 0af8 cabc dc78 543e dde1 9e3d
00000150: f47c 803d 9a06 a6bd a685 5bbd b500 bf3d
00000160: eae1 8ebd e0a0 e03c 7584 89bd d777 1b3e
00000170: d66e d3bc 4221 d73d 5eb2 d43b 6f92 33bb
00000180: 8310 a8bc e943 e0bd 908b c5bd 796a 85ba
00000190: 45ad dcbc 4d7d 7cbd 42aa 5c3d 1e6b ccbd
000001a0: 431e eabd 219c 25bd afa6 e3bc 3746 df3c
000001b0: b621 d13d 2a2f 843d 0810 89bc ddad a33d
000001c0: 344f a1bb de7b 4abc 8a0f 3a3d 4325 d1bd
000001d0: d825 1e3d 3dc8 b43d 6a29 efbc 3d37 5ebd
000001e0: 4869 8f3d d739 7cbd 8daa e7bc c74d b03d
000001f0: 06bd 5abd 9449 2c3d e6d1 c23d b02c e6bc
00000200: e8cb 903d 8fea 86bd 304d 5cbc cfaf 073d
00000210: fd41 e43a aab2 c3bd b51a 0e3d 1c57 743c
00000220: 80d0 af3d a59d e8bc a51f 30bd 124e ce3d
00000230: 74c9 f5bd f464 05bd 228d ee3c f958 87bc
00000240: 516f b1bb 60ba e2bd 2687 36bd a6df ccbd
00000250: d861 dbbc b2fa 01bb ea26 8abd c524 aebd
00000260: b442 a13d 7aa5 1bbd 6307 623c c537 4bbd
00000270: a913 7dbd c4fe 753d b9e6 ccbd 68a9 adbd
00000280: eb43 a6bd 749b 9b3d be20 953d 6dc7 9fbd
00000290: c2f7 88bd 673e c7bd 7227 09bd e40f 89bd
000002a0: a418 ec3c 23ec 67bd 265e 20bd c01f 0dbd
000002b0: f34c 25bc 6180 afbd 529f 2d3d fb49 f83c
000002c0: 78f4 023c ba41 ecbb 2431 023b b29f 13bd
000002d0: 0bab 4f3d 4a1c 953d b217 aebd 2bb3 1cbd
000002e0: 11f1 a63d 8c6f a63d 0d72 c13c 9f46 193c
000002f0: b673 ab3d cc14 55bd 879b 5f3d c820 c1bd
00000300: f435 843d 2e8c 25bd c3a4 a13d 491d cf3c
00000310: 54c1 2ebd 9e70 ef3a 89b8 28bd 90fa 92bd
00000320: d69b b6bd d03e a9bd 2d74 bbbd 8fd4 4b3b
00000330: 45c9 603d dad7 913d 4cce a3bd 6962 50bd
00000340: e1d8 e73c 24d3 81bc 6862 ea3d c07f 96ba
00000350: 046e 8b3b 2528 94bd 5a87 0ebd 5e63 1cbb
00000360: fcd5 92bc b6e2 c7bd 863c 9dbd a4f5 c4bd
00000370: b28a a63d 9ab0 9fbc 5295 babd 81a1 bebd
00000380: c3ec d93d adb6 333c b034 27bd 734a dc3c
00000390: 6b82 833d 165c 23bc 2e4f 65bd 4a88 1c3d
000003a0: 8d91 60bd 3978 afbd ef40 753d 098d 7d3b
000003b0: 0240 043d 214c 49bc 564f 23bb c55d c2bd
000003c0: f4f1 8c3d a473 cd3c bfe6 18bb ce9c 253d
000003d0: 7116 3d3c 72b6 0e3d 92ca 8c3b 2dbd 8abb
000003e0: 7266 9ebd 75c8 813d 4bab ae3d 2e86 0dbd
000003f0: 0527 14bd f94e 9fbd 0b90 ddbd c04f 2fbd

bias_hh_l0 f4 [400]
0.020700943 0.070919596 -0.0055029695 0.030882748 -0.04767511 -0.019575996 0.11598556 -0.07427027
0.14059393 0.08120818 0.12972362 0.11618509 -0.11668088 0.09469015 0.05275596 0.06130107
-0.018135538 0.1344996 0.030174125 0.093678854 -0.03583781 -0.05950816 0.113857105 0.09930315
-0.03284475 0.12592942 0.035358425 0.06018974 -0.04953155 0.0768233 0.06145719 -0.068323836
-0.094104335 -0.029494245 -0.0029322517 0.08019285 0.05853853 -0.033072565 0.066724345 0.024753597
0.27905917 0.09287906 0.06663508 0.05921085 0.115332164 0.0483485 -0.04510251 0.01908047
0.22069205 0.02386512 -0.04065958 0.03527268 0.06673936 -0.035737213 0.008100258 -0.057736803
-0.0188345 0.20547196 0.024560742 -0.050371308 0.045759495 0.008511127 -0.012383854 0.08868885
-0.12551865 0.072990045 0.015551183 0.03711714 0.044773452 0.09811944 -0.08932517 0.0885127
-0.018318437 0.110956974 0.009044024 0.0267287 -0.05255949 0.0223169 0.28719106 0.035376158
0.11216632 0.104651935 0.14796919 0.15418036 -0.0055894167 0.08499661 0.056701347 0.010802447
0.010021123 0.12347676 -0.0045812647 0.0829066 0.031292945 0.02592955 0.028386442 -0.11540788
-0.1303332 -0.07495237 0.081923425 0.14256723 0.023859598 -0.024337724 -0.08944539 -0.06663448
-0.036706883 -0.1049687 0.05613805 -0.034544464 -0.060480047 0.05134588 -0.10490706 0.094744824
-0.062033776 0.012629001 0.060151372 0.074217305 0.03976102 -0.026650418 -0.048546694 0.036896735
-0.06290053 0.029097851 0.10103821 -0.09666652 0.018286856 0.012322871 0.06695227 0.022680119
0.027886385 0.02274361 0.0056253565 0.017983196 0.065791905 0.039386608 -0.053143695 0.025724737
0.0968492 -0.10049248 0.06318798 -0.06939829 -0.11315421 -0.038375814 0.08213379 0.025139252
-0.09119453 0.07294413 -0.09437962 -0.07512081 0.047240343 -0.086242594 -0.06736776 -0.08401314
0.07189469 0.06419504 0.061217975 -0.07976315 0.017739274 -0.080052994 0.0018018339 -0.06752427
-0.09800774 -0.0670774 0.014504706 0.09133974 -0.061924994 -0.017692162 0.05861816 -0.033085253
0.04148306 -0.031118754 -0.10155425 -0.025417214 -0.032686174 0.056970328 -0.023337264 0.085152425
0.039259613 0.03266787 -0.007996668 0.0062290397 -0.059424262 0.09085651 -0.10866832 -0.06953568
0.01261346 0.058642797 0.056157928 0.047734763 -0.07998651 0.09853564 0.038176738 -0.002979738
0.031373374 -0.083946444 0.09366985 -0.10281542 -0.07216803 -0.022752177 -0.013994572 -0.035372857
0.08018357 0.058958996 -0.10674888 -0.08256377 -0.020549897 0.09935732 -0.021720177 0.08644855
0.07243933 0.028548948 -0.02281844 0.05266889 -0.103270076 -0.103357434 -0.0049293605 0.06722162
0.0020332579 -0.0704386 -0.06313942 -0.0006093462 0.028214099 -0.019034278 -0.008141882 -0.079960056
0.036925424 0.055307813 -0.040950596 -0.085722215 0.00026546227 -0.077748135 -0.009221062 -0.023382794
-0.06553731 0.019633275 0.040899053 -0.016866725 0.01963998 0.06783194 0.024718622 -0.007873341
-0.044943828 0.041252736 -0.060825866 0.022629756 0.07671425 0.040821142 0.049715657 -0.056209873
-0.03276591 -0.023905536 -0.08922938 0.026400195 -0.0153565025 -0.062073905 0.035498124 -0.10227384
00000000: 0695 a93c 4b3e 913d 4152 b4bb d1fd fc3c
00000010: fa46 43bd d75d a0bc d689 ed3d 031b 98bd
00000020: dbf7 0f3e 7950 a63d 45d6 043e 73f2 ed3d
00000030: 63f6 eebd e9ec c13d a216 583d d516 7b3d
00000040: fb90 94bc 43ba 093e ba2f f73c b3da bf3d
00000050: abca 12bd d4be 73bd ea2d e93d 735f cb3d
00000060: 3788 06bd a4f3 003e ffd3 103d 8489 763d
00000070: 98e1 4abd 8955 9d3d 89ba 7b3d 5eed 8bbd
00000080: c6b9 c0bd ea9d f1bc 052b 40bb 263c a43d
00000090: 19c6 6f3d 1977 07bd c6a6 883d 0ec8 ca3c
000000a0: d8e0 8e3e 6037 be3d f977 883d 1487 723d
000000b0: 4533 ec3d 1409 463d 69bd 38bd a54e 9c3c
000000c0: 19fd 613e c980 c33c a98a 26bd 167a 103d
000000d0: a5ae 883d 2f61 12bd f2b6 043c 6d7d 6cbd
000000e0: cf4a 9abc 3e67 523e 9c33 c93c 2552 4ebd
000000f0: 4f6e 3b3d 4172 0b3c a6e5 4abc 80a2 b53d
00000100: f687 00be ce7b 953d 64ca 7e3c 2408 183d
00000110: 5e64 373d d8f2 c83d 1df0 b6bd 2546 b53d
00000120: 8c10 96bc 693d e33d 632d 143c 26f6 da3c
00000130: 9f48 57bd eed1 b63c b50a 933e 97e6 103d
00000140: 75b7 e53d c153 d63d 3c85 173e 75e1 1d3e
00000150: 6d27 b7bb b412 ae3d ac3f 683d bffc 303c
00000160: a32f 243c 62e1 fc3d 6f1e 96bb efca a93d
00000170: 082d 003d 356a d43c af8a e83c f75a ecbd
00000180: 1176 05be a180 99bd 78c7 a73d 25fd 113e
00000190: 3475 c33c e85f c7bc 252f b7bd a977 88bd
000001a0: f559 16bd d4f9 d6bd 03f1 653d 7f7e 0dbd
000001b0: edb9 77bd 0f50 523d 83d9 d6bd 9309 c23d
000001c0: 2117 7ebd dfe9 4e3c 4961 763d 3eff 973d
000001d0: 74dc 223d fa51 dabc e6d8 46bd 0821 173d
000001e0: fed1 80bd 9e5e ee3c 1fed ce3d 19f9 c5bd
000001f0: 51ce 953c dee5 493c 461e 893d a8cb b93c
00000200: fd71 e43c cf50 ba3c e954 b83b 7f51 933c
00000210: e8bd 863d da53 213d 34ad 59bd afbc d23c
00000220: e058 c63d 00cf cdbd b368 813d b120 8ebd
00000230: 65bd e7bd f52f 1dbd c335 a83d d5f0 cd3c
00000240: 33c4 babd bb63 953d 1a4a c1bd f0d8 99bd
00000250: 177f 413d f59f b0bd 1cf8 89bd 150f acbd
00000260: 863d 933d b078 833d b3bf 7a3d dd5a a3bd
00000270: f451 913c d3f2 a3bd 832b ec3a 2a4a 8abd
00000280: 48b8 c8bd e05f 89bd 25a5 6d3c 5410 bb3d
00000290: 10a5 7dbd 27ef 90bc 9919 703d 6784 07bd
000002a0: 24ea 293d c2ec febc adfb cfbd c337 d0bc
000002b0: f0e1 05bd b859 693d ca2d bfbc 6564 ae3d
000002c0: b0ce 203d bfce 053d 7504 03bc f91c cc3b
000002d0: db66 73bd fa12 ba3d 7f8d debd b968 8ebd
000002e0: b0a8 4e3c 6e33 703d db05 663d 8785 433d
000002f0: f8cf a3bd 0ecd c93d 365f 1c3d b547 43bb
00000300: 5e81 003d 1dec abbd fad5 bf3d e490 d2bd
00000310: d5cc 93bd c662 babc 7d49 65bc 21e3 10bd
00000320: 4937 a43d fd7e 713d 289f dabd 3217 a9bd
00000330: 4258 a8bc da7b cb3d 83ee b1bc f00b b13d
00000340: 125b 943d 7cdf e93c bded babc 56bb 573d
00000350: 437f d3bd 10ad d3bd 7986 a1bb 7dab 893d
00000360: 6840 053b 1d42 90bd 3d4f 81bd 88bc 1fba
00000370: 4121 e73c c6ed 9bbc 8765 05bc 19c2 a3bd
00000380: 1d3f 173d 728a 623d d0bb 27bd 218f afbd
00000390: be2d 8b39 6a3a 9fbd f013 17bc 468d bfbc
000003a0: 6d38 86bd f6d5 a03c c485 273d 162c 8abc
000003b0: 06e4 a03c 79eb 8a3d b57e ca3c 30ff 00bc
000003c0: 0517 38bd a1f8 283d 8b24 79bd 0a62 b93c
000003d0: 5c1c 9d3d 1234 273d a5a2 4b3d 533c 66bd
000003e0: 8c35 06bd 8bd5 c3bc e5bd b6bd 3945 d83c
000003f0: d799 7bbc 3541 7ebd 7b66 113d f274 d1bd
