metrics_best_runs/enc_dec/0116.model (torch_old, 446510 bytes, 27 tensors)

weight_ih_l0 f4 [400, 1]
000000 1c 29 37 bd 22 f3 86 3e b9 a8 aa 3e f9 b0 65 3d
       -0.04471694 0.2635737 0.3333185 0.056076977
000010 c3 3a 92 be 60 88 ac 3e 38 ae 01 be 45 fd 3e be
       -0.28560457 0.33697796 -0.12664115 -0.18651302
000020 0b 71 99 be 20 7c 62 bb 14 07 f9 be 9f ce 12 3d
       -0.29969057 -0.0034558848 -0.48638213 0.03584158
000030 86 7f 08 3f 0d 16 07 3d ed 49 a4 3e 6b 86 75 be
       0.53319585 0.032980014 0.3208765 -0.23977058
000040 76 fd 94 bb d8 fb 67 3e 38 cb 96 bd 39 30 4d 3e
       -0.0045468165 0.22654665 -0.0736298 0.20037927
000050 b5 04 84 3d c3 6a d6 3e ce 1b d8 3e ca 7a e3 be
       0.0644621 0.41878328 0.42208713 -0.44429618
000060 45 45 81 3e 2f d3 0c 3e 47 ef f2 3e 70 9d 1d 3e
       0.2524816 0.13752435 0.4744818 0.15392089
000070 14 58 dd 3d 20 c3 22 bf 23 61 0d be 21 b4 3d 3e
       0.10807815 -0.6357899 -0.13806586 0.18525745
000080 84 71 87 bd ee 15 f1 3c f0 dd fb 3e 62 0b db 3d
       -0.06613448 0.029429402 0.49192762 0.106955305
000090 5b 13 06 3f 9d ff 6a 3e 1a e5 a9 bd 51 08 a0 3e
       0.52373284 0.22949071 -0.08295651 0.31256345
0000a0 4e 75 db 3e 51 63 da 3e aa 4c 94 bd 27 fb 68 be
       0.42862934 0.42653897 -0.07241185 -0.22752057
0000b0 89 55 60 be 7e d9 b5 3c 98 ec 52 3e 4f 78 09 3e
       -0.21907629 0.022198435 0.20598066 0.134248
0000c0 a6 10 f0 3d ab e1 6c be 75 c0 2b 3f 7b f5 fa 3e
       0.117219254 -0.2313296 0.6709054 0.49015412
0000d0 39 ce 05 3f 39 c0 df 3e 3b d6 78 be 30 0c d1 3c
       0.52267796 0.43701342 -0.24300472 0.025518507
0000e0 24 cd e0 3e 63 d7 b5 3c 53 8a 01 3e 8d c1 8e 3d
       0.4390651 0.022197431 0.12650423 0.06970511
0000f0 ca d1 a3 3d 18 14 58 3e bf 39 9f 3e 50 d4 97 bd
       0.079989985 0.21101415 0.31098744 -0.07413542
000100 fe 52 40 be 54 63 16 bd 7c 23 0b 3d 03 5c c8 3d
       -0.18781659 -0.03671582 0.033969387 0.09783175
000110 52 bf 8c be e1 da 87 3e 22 16 63 3e 61 7d 03 3f
       -0.27489716 0.2653418 0.22176412 0.5136319
000120 e4 44 d2 3d d0 d0 95 be a1 fd 1d be 5c fb bb 3d
       0.10267046 -0.29260874 -0.15428783 0.09178802
000130 4c b5 0a 3f cb ea a4 3e 28 65 bb 3e 1c cc 36 be
       0.5418289 0.32210383 0.36600614 -0.17851299
000140 ca fe 82 3e 92 86 da 3e b8 e3 45 be 22 37 84 3e
       0.25585014 0.42680794 -0.19325149 0.25823313
000150 26 dd 36 3f 61 66 ea 3d 7b c6 6d 3e d5 b4 de 3e
       0.71431196 0.114453085 0.23220246 0.4349734
000160 ab 71 4e bd c3 a8 2a 3b bd 7b 32 bd 52 05 3e 3e
       -0.05040137 0.0026040531 -0.043575037 0.18556717
000170 ad 2c 3b 3e 54 75 0f 3e e4 64 93 3e 62 c2 8c be
       0.18278761 0.14009601 0.2878791 -0.27492052
000180 0d e8 c1 3e 6b de 1d be a0 b2 19 be b3 4b ce bb
       0.37872353 -0.15416877 -0.15009546 -0.006295645
000190 a1 29 80 3e b8 a3 7a 3f 1a 86 b7 3e 8e f5 38 3e
       0.2503176 0.97906065 0.358445 0.18062422
0001a0 6d cc c9 be fa 50 cc 3e 21 9a 99 be 15 55 a8 be
       -0.39413777 0.3990553 -0.30000404 -0.32877412
0001b0 b1 0c 48 bd b9 7f 7d 3d d0 8a ba be 27 f9 46 3d
       -0.04884023 0.061889384 -0.3643403 0.048577454
0001c0 71 d4 1f 3f a0 e7 f5 be 68 28 67 3e b8 1b 87 be
       0.62433535 -0.48028278 0.22574008 -0.26388335
0001d0 1d 99 a9 bd eb 2f bb 3e 11 bb 84 be d3 d4 6d 3e
       -0.08281157 0.36559996 -0.2592397 0.23225717
0001e0 0f 93 ea 3d 4f 0b eb 3e 74 a2 18 3f 41 a6 d7 be
       0.114538305 0.45907065 0.59622884 -0.4211903
0001f0 6b e2 65 3e 4e 24 8b 3e b3 b2 d8 3e cf 80 9e 3e
       0.22449653 0.27176136 0.42323837 0.30957648
000200 5f df 75 3e 7e e8 d4 be b0 b4 ec bd 99 5b 96 3e
       0.2401099 -0.41583627 -0.11557901 0.29366758
000210 0f e9 58 3e e8 8d 0f be 15 f7 08 3f 7b d5 f3 3e
       0.21182655 -0.14018977 0.5350202 0.4762381
000220 b0 51 3a 3f a0 63 9e 3e ae ae f5 bd 36 bd 88 3e
       0.72780895 0.30935383 -0.11996208 0.26706856
000230 04 d2 b7 3e 8c 97 f2 3e a1 07 c8 3d b8 be 82 be
       0.35902417 0.47381246 0.0976708 -0.25536132
000240 25 82 7d be 69 81 60 3d 20 9b 82 3e 21 69 08 bd
       -0.24756677 0.054810915 0.25508976 -0.033303384
000250 6b 78 93 3e a3 27 fd bd 07 fa 2e 3f 09 c5 81 3e
       0.2880281 -0.12361076 0.6835026 0.25345638
000260 e3 81 f8 3e 8b ab b2 3e d0 a4 11 bd c7 bc 00 3d
       0.48536596 0.34896502 -0.035557568 0.031430032
000270 78 c6 26 3f ff ed 64 3e 7b c0 52 3e 7a 80 af 3c
       0.6514659 0.22356413 0.20581238 0.021423567
000280 cb d3 9d 3e e8 14 b0 3e b6 18 a0 3e b1 1f b1 3c
       0.30825648 0.3439095 0.31268853 0.021621557
000290 64 ff 7a be 6a 62 64 3e 23 ca 08 be e5 12 7e 3d
       -0.24511486 0.22303167 -0.13358359 0.062029738
0002a0 24 46 23 be 0a 17 97 3e b6 dc 74 3e dc c4 b2 3e
       -0.15944725 0.29509765 0.2391232 0.34915817
0002b0 fd 9e 3d 3e 6a 86 0b bf d8 90 34 bc 83 d5 8d 3d
       0.1851768 -0.54501975 -0.011020862 0.0692549
0002c0 15 95 a3 3e 30 cd d6 3e 6d b2 ea 3e eb 13 ef bd
       0.31949678 0.4195342 0.45839253 -0.11673721
0002d0 3f de 8e 3e 5c fc 24 3f d1 f6 25 be 64 e1 a7 3e
       0.27903935 0.6444757 -0.16207434 0.32789147
0002e0 90 63 1e 3f 5d 97 9b bd 1e 07 33 bd 84 59 bf 3e
       0.6187067 -0.0759723 -0.04370796 0.37372983
0002f0 0c ab 67 bd 3b 15 61 bd ec ab 93 3d 7f be d7 3d
       -0.056559607 -0.054951888 0.07210526 0.10534381
000300 1d 53 0e 3e 15 7e 54 bd 75 fa 06 3f 89 3b ae be
       0.13898893 -0.051878054 0.5272592 -0.34029797
000310 6e c4 e3 3e 81 f1 c7 be 54 96 3f 3a af 5a d8 bd
       0.444858 -0.3905144 0.00073084724 -0.105641715
000320 6b 9a 95 3e ae c1 d9 be 2c e2 b4 3e 0b 69 fb 3b
       0.29219374 -0.42530578 0.35328805 0.007672434
000330 89 36 13 3d ba c1 e6 3e 3b 69 b8 be c8 be e9 3e
       0.03594068 0.45069677 -0.36017784 0.45653367
000340 23 79 3c ba 23 28 df be e3 4a 01 3e b6 33 19 3e
       -0.00071896816 -0.4358531 0.12626223 0.14961132
000350 8b 32 b4 be 22 12 ff 3e df 15 09 3e 3f 67 3b 3e
       -0.3519481 0.49818522 0.1338725 0.18301104
000360 b5 c6 44 3c a3 45 75 3e 53 74 b8 bd e7 f5 8e bd
       0.012010266 0.23952346 -0.09006562 -0.06980496
000370 d9 0d 11 3e 92 21 9b 3e b0 c5 f4 be 55 27 a0 3e
       0.14165439 0.3029905 -0.47807074 0.31280008
000380 10 81 d1 be a2 ee 46 3e 7b ac d4 3e 0d 9c ca bc
       -0.4091878 0.19426969 0.41537842 -0.024732614
000390 ee bb dd 3e 52 c4 81 3e 21 10 39 3e fe 62 5a 3e
       0.4330744 0.25345093 0.18072559 0.21326825
0003a0 63 dd 44 3d 67 f7 42 3f 0d fa 1b 3e 0a b5 1f bf
       0.048062693 0.76158756 0.15232106 -0.6238562
0003b0 ab 63 a7 be 9d 47 02 3f 8a 6e 80 3e 69 00 2e be
       -0.32693228 0.50890523 0.25084335 -0.16992344
0003c0 89 8a b1 be 69 b1 e9 3e 8b b4 d4 bd 60 c1 36 3f
       -0.34676006 0.45643166 -0.10385998 0.71388817
0003d0 2b da 90 be 49 90 a7 bd a1 f9 92 3e ab 3e 62 3e
       -0.2829145 -0.08181817 0.28706077 0.22094218
0003e0 6d 67 15 be 96 88 ec bd 7a c1 a0 be d4 98 94 be
       -0.14590235 -0.11549489 -0.3139761 -0.2902285
0003f0 d2 f1 18 3e a9 4e 39 be c0 35 24 bf f3 8d d1 3e
       0.14935997 -0.18096413 -0.64144516 0.4092861

weight_hh_l0 f4 [400, 100]
000000 39 3c 1c bd a4 56 2e be c4 fa f5 3d 72 3e ea 3c
       -0.03814337 -0.17025238 0.1201072 0.02859423
000010 09 54 92 bd 29 37 9b bd 01 c0 04 3e 4f 1c 67 3d
       -0.07144935 -0.0757888 0.12963869 0.05642348
000020 ba c4 ef bb db 12 98 bc 7d 27 79 be 0c d4 99 3d
       -0.007317153 -0.018563678 -0.2433147 0.07511148
000030 0d 63 a8 bd 3a 1e 28 bd 57 2f 5b 3d fd 87 98 bd
       -0.082220174 -0.04104445 0.053511944 -0.07447813
000040 21 5d 7d 3c b5 bb 32 bd b8 ef d8 bc c8 34 f5 bd
       0.015464098 -0.043636043 -0.026481494 -0.11972958
000050 b3 1b f2 bc b3 1b 75 3c 29 95 82 bd 09 2a 06 bb
       -0.029554224 0.014960217 -0.06376106 -0.0020471832
000060 8b 15 aa bb 30 ee 02 bd 9f a2 33 be b4 fc 89 bc
       -0.0051905564 -0.031965435 -0.17542504 -0.016844131
000070 36 83 e8 bc 92 7c 27 bd f4 6e 21 3d b4 54 5c 3e
       -0.028382879 -0.040890284 0.039412454 0.21516687
000080 34 d2 85 3e 67 d6 b7 bb 59 c6 f6 3b de fd 55 3d
       0.26136935 -0.0056102755 0.007530969 0.05224406
000090 a5 c0 5b bd 61 55 4c 3e 11 4e ad bd 09 4c 19 bd
       -0.053650517 0.19954444 -0.084621556 -0.03742603
0000a0 df 41 e3 3c 97 d7 17 3e 44 e8 da bd e5 1e 0a 3e
       0.02774137 0.14828335 -0.106888324 0.13488348
0000b0 64 c1 f2 bd c3 1a 91 3d 6d ac be bd c6 eb 82 3d
       -0.118532926 0.070851825 -0.09310231 0.063926265
0000c0 71 60 e1 3d 67 c0 b9 3b 46 94 1e be 65 ab 2f bd
       0.11004723 0.005668688 -0.1548625 -0.042888064
0000d0 33 e8 c2 bc 3e 38 b6 3d c5 5c fc bd 37 2a 4c bc
       -0.023792362 0.08897446 -0.12322382 -0.012461237
0000e0 ae b5 ac bc ac ed c6 3d 3a 1a 79 3c fd c5 ef bd
       -0.021082725 0.09713301 0.015204007 -0.11707685
0000f0 22 c7 18 3d 0d de 20 3c e5 0b 88 be e4 5b 3b be
       0.037299283 0.009818566 -0.26571575 -0.18296772
000100 5e 5e 46 3d dc 65 08 3c 0a f3 60 be be 9a fb 3c
       0.04842984 0.008325066 -0.21967712 0.030713435
000110 fe b6 cb bd c2 0d 3a ba 4d 4c 2f 3d b5 19 e3 bd
       -0.09947012 -0.0007097387 0.042797375 -0.110888876
000120 40 81 3c bd 17 3b 75 3d 37 ce 84 bd ee 7a c5 bc
       -0.0460217 0.059870806 -0.06484645 -0.024106469
000130 15 69 1a 3b 2d 1b 3d bd cd 1f 27 3e 4b 34 33 3d
       0.002356117 -0.046168495 0.16320725 0.043751042
000140 7a 28 a8 3d 68 46 ce 3c 3e 77 03 3d ce 7d af bd
       0.08210845 0.025180057 0.03209614 -0.08568917
000150 66 bb c5 3d d3 51 4d be 72 c8 33 3e 9d 97 40 be
       0.09654884 -0.20050745 0.17556933 -0.18807836
000160 80 ee a3 bd 32 26 03 bd e3 26 f2 bd 24 60 96 bd
       -0.08004475 -0.032018848 -0.11823823 -0.07342556
000170 54 35 4b bd cb 5f 38 3e f8 25 d8 bc 19 f0 93 be
       -0.049611405 0.18005292 -0.026385292 -0.28894117
000180 5a c9 b0 3d 0d d0 a5 bd 4c e0 56 be f2 9b 90 3e
       0.08632155 -0.08096323 -0.20984 0.28243977
000190 5d ca 68 3d d7 04 29 bd f1 61 99 3d 9e e5 87 3e
       0.056833614 -0.04126438 0.07489384 0.26542372
0001a0 e1 92 29 3e a0 a2 ee 3d 91 99 98 3e 02 b1 2c be
       0.16559936 0.11652112 0.29804662 -0.16864398
0001b0 15 47 a0 be d7 a5 f5 bd 75 86 e1 be e3 0a 5d 3c
       -0.3130423 -0.11994522 -0.44047895 0.013491365
0001c0 28 50 1d be 1c 4d 32 be 46 01 8c 3d ee c1 b0 bd
       -0.15362608 -0.17412227 0.068361804 -0.08630739
0001d0 28 e8 19 3e 0c 63 41 3e 26 41 99 3e c2 7c 47 be
       0.15029967 0.1888544 0.29932517 -0.19481185
0001e0 0c 2f 86 3e e8 17 40 3e 79 f9 3c be 40 6d 44 be
       0.2620777 0.1875912 -0.18454541 -0.191823
0001f0 22 3d a3 bd 6f 3b ac 3e ed d6 7a 3c 61 7d a3 3e
       -0.079706445 0.33639094 0.015310031 0.31931594
000200 f9 ec c6 bb 8a 7d 5d be 6b ed 33 be fa 0b 40 3e
       -0.00607073 -0.2162992 -0.17571037 0.18754569
000210 cd 33 46 3d 47 b2 d8 bc 8f 1c 1e 3e dc 54 b2 bd
       0.048389245 -0.026452197 0.15440582 -0.08707592
000220 d7 4a 92 be 26 15 b9 3d 69 56 98 bc 6a 16 5d be
       -0.28572723 0.09037237 -0.018595891 -0.21590582
000230 aa 2d 5f be b1 2e 70 3e ab 45 4d be a8 1a fe bd
       -0.21794763 0.23455311 -0.20046107 -0.12407428
000240 1a 6c 6e 3e 6b be 6f be 47 83 5d 3e 60 67 99 3e
       0.23283425 -0.23412482 0.2163211 0.2996168
000250 ca ba 4f bd 5d 78 22 3e 97 f9 c4 be 9b 80 03 3c
       -0.050715245 0.15866227 -0.38471672 0.008026267
000260 a2 f8 c9 3d 53 12 48 bd 2c 83 33 3d c8 2f 00 3e
       0.09861876 -0.0488456 0.043826267 0.12518227
000270 b6 d3 6e 3e 0c 28 cf 3d c2 2e fc bd 4d 16 31 bc
       0.23322949 0.1011506 -0.12313606 -0.01080854
000280 5b f9 a8 3d 5c ff ea be d9 e8 ae be 96 d4 a7 3d
       0.08250686 -0.4589795 -0.34162024 0.081948444
000290 6e 86 8a 3e af de fb 3d a9 7f 67 bd e3 db fc 3d
       0.27055687 0.12298333 -0.05651823 0.123466276
0002a0 0d 79 68 3d 45 cc 2f be 1a e1 e2 bc 0f f4 36 be
       0.056756068 -0.17167766 -0.027695227 -0.17866538
0002b0 c2 12 84 3d 20 bb 9b be 10 9d a6 3e 29 a9 50 bd
       0.0644889 -0.30416203 0.32541704 -0.050942574
0002c0 f3 f2 ae 3e 04 3e 14 3e 24 f8 cd 3d d3 4e 4a 3e
       0.3416973 0.14476782 0.10057095 0.19756632
0002d0 a5 79 f6 bc 52 2a ab bd a0 a6 35 be 4d d1 85 3d
       -0.030087302 -0.08357681 -0.17739344 0.065340616
0002e0 9f 2f f5 3d 80 88 11 3a 44 9b 1f 3e 7b 85 e5 bd
       0.11971974 0.0005551651 0.15586573 -0.112071
0002f0 8d c9 44 bd 3e c4 b7 bc 6d 12 51 bd 3f 10 6a bd
       -0.048043776 -0.022432443 -0.051042963 -0.0571444
000300 bf 39 25 3e 49 61 2c 3d 7c c3 7d be b4 a2 e4 be
       0.1613531 0.042084966 -0.24781603 -0.44655383
000310 d5 c6 da bd 94 c4 aa 3d 1d aa ae bd 80 6d 96 3d
       -0.106824555 0.083382756 -0.0852854 0.07345104
000320 0c 64 12 3e 05 06 40 be f9 1f c3 3d 3d 5d 05 3d
       0.14295977 -0.18752296 0.09527583 0.032559622
000330 30 ff 18 3e c1 ec 9f bc 4d d6 22 3e f6 10 d6 3d
       0.14941096 -0.019522073 0.15902062 0.10452454
000340 17 fe 48 be 46 75 b5 3c a3 6d a6 be 38 f3 e5 bc
       -0.19628178 0.022150647 -0.3250552 -0.028070077
000350 2e 81 30 be c4 c8 a4 3c 7b fd 16 3e d0 01 af bd
       -0.17236778 0.020115264 0.14745133 -0.085452676
000360 29 91 25 3e 43 d5 c1 3d 4a 97 66 3d d9 d3 2d bd
       0.16168655 0.094645046 0.056296624 -0.04243836
000370 be ba 52 3e 2f 7a 06 3e e9 1c 29 3e 5f 24 93 bd
       0.20579049 0.13132547 0.16514935 -0.071846716
000380 0d 96 87 3c 45 f4 2a 3e 30 09 a0 3d ee 4b 0a 3e
       0.016551042 0.16694744 0.078142524 0.13505527
000390 4d 0b fa bd d9 64 c4 bb 7a e7 4c be 97 6f 48 3d
       -0.12209187 -0.0059934673 -0.20010176 0.048934545
0003a0 5e 21 f9 3b 98 f6 95 3d 97 c6 e3 3b f4 2a 4b 3c
       0.0076028546 0.07322425 0.006951164 0.012400378
0003b0 e5 ca 13 be 1d 0d 9f bc a1 c0 67 3b 78 95 bf bd
       -0.14432867 -0.019415433 0.0035362619 -0.09354681
0003c0 0f cd ed bd 1d 44 8b 3d f1 65 b2 3d e4 fd c0 bc
       -0.116113774 0.06800101 0.0871085 -0.023558564
0003d0 f5 bd d4 3c f4 90 08 be 50 e3 f5 3d fd 40 59 3e
       0.025969485 -0.13336545 0.12006247 0.21216197
0003e0 d4 6c d3 bc f3 da 8f 3d c1 f4 67 be e3 30 1a bb
       -0.02580873 0.07024183 -0.2265196 -0.0023527674
0003f0 20 a7 04 3e bb 1c f4 bd 61 89 34 3e d6 fe 73 3d
       0.12954378 -0.119195424 0.17630531 0.059569202

bias_ih_l0 f4 [400]
000000 58 88 29 3e 6b 60 4d 3e 4c 69 3e 3e df 77 95 3c
       0.16555917 0.20056312 0.18594855 0.018245636
000010 45 dd dc 3c 5d 5e f2 3c be a3 8b 3e ff 3e 1f 3e
       0.026960978 0.029586012 0.27273363 0.15551375
000020 37 d7 95 be e8 8c 78 3e a7 ff be 3c 21 be bb 3d
       -0.29265758 0.24272501 0.023315264 0.091671236
000030 c3 41 49 bc e6 95 78 3e cc bb b8 3d b0 a7 13 3c
       -0.012283745 0.24275932 0.090201944 0.009012148
000040 6d ca b9 3d 77 12 c4 3b d2 2c c9 3c 39 2f 50 3e
       0.09071813 0.0059836465 0.024557505 0.20330514
000050 7f f8 99 3d 78 b8 82 bc 2c c5 8f 3e ea 6d 80 3d
       0.075181 -0.015957102 0.28080118 0.062709644
000060 d9 71 bb 3d b3 fd 80 bc 20 1a 3e bd 4c bc 38 3c
       0.09152574 -0.015745973 -0.046411633 0.011275362
000070 d6 83 08 3e 8e 80 2a 3d bb d8 89 bd 98 2c b6 3c
       0.13331541 0.041626506 -0.06730791 0.02223806
000080 fe b6 80 3e 07 62 44 3e 16 2c b5 bc f1 7c 1e 3e
       0.25139612 0.1917802 -0.022115748 0.15477349
000090 d8 aa 15 3d 4f 4b 2f 3e ed ad 0f 3d f6 1b a9 bd
       0.036539882 0.17118572 0.035077978 -0.08257286
0000a0 69 11 4f 3d c9 24 b5 3d 6d d5 b0 bb 95 19 31 3e
       0.050553713 0.08844907 -0.005396536 0.17294915
0000b0 f1 f4 3f 3d 02 86 ed 3d 36 bc 5e 3d e8 6c cb 3d
       0.046864454 0.115978256 0.05437871 0.099328816
0000c0 bc 0b 2b bd c6 a8 4f 3d c9 18 79 3d 9f 6f 14 3e
       -0.041759238 0.050698064 0.060814653 0.14495705
0000d0 00 5e c5 3c 12 73 52 3d 23 d4 3f 3e ec 06 b8 3c
       0.024092674 0.05137927 0.18733267 0.022464238
0000e0 03 d2 48 3e 7c f6 24 3e c4 a3 d6 bc be bc b2 3d
       0.19611363 0.16109651 -0.026201136 0.08727406
0000f0 16 67 8a 3e a6 48 60 3d 9b 65 ad 3c b8 61 e9 bc
       0.27031773 0.054756783 0.021166613 -0.028488979
000100 fb d3 d6 3b 58 fb d1 bd 9d a1 51 3e e9 39 f0 3d
       0.0065560318 -0.10253018 0.20471807 0.117297955
000110 58 a2 92 3d 0e 8e c0 bb ec 4f 11 3e 17 12 ee 3d
       0.07159871 -0.0058763092 0.14190644 0.11624544
000120 97 6e 12 3e 5b 8a 98 3c 3e d0 7f 3b 9d 44 09 bd
       0.14299999 0.01862066 0.0039034034 -0.0335127
000130 74 68 c7 3d cc 3f 07 3e 7c 6e d0 3c 1d 16 42 3e
       0.0973672 0.1320793 0.025443308 0.18953748
000140 65 71 84 3d c4 c2 47 bc f9 2c f3 3c 8d eb 56 3e
       0.06466941 -0.012192432 0.02968453 0.20988293
000150 f7 cb 19 3d b2 76 c4 3d c7 99 96 3d ff 64 d4 3c
       0.03754803 0.09592952 0.073535495 0.025927065
000160 98 63 27 3e 4b 2e d0 3c 1c 37 fe 3d 7b 3b 24 3e
       0.16346586 0.0254127 0.12412855 0.16038315
000170 5c c8 f7 3c 43 51 9c bc 54 c4 17 ba 6d 50 c0 3d
       0.030246906 -0.019081717 -0.0005789448 0.0939034
000180 94 00 67 3e 93 18 1e 3e ba 65 c3 3c e9 2c 67 3d
       0.22558814 0.15439062 0.023852218 0.056439314
000190 1b ab f4 3d ff e9 de 3d 19 c5 e2 3d 0f 2b ff 3d
       0.11946698 0.10884475 0.1107275 0.12459385
0001a0 f0 77 0a 3d 66 6a 6f bd 8e 55 db 3d d2 1c 68 3d
       0.033805788 -0.05845108 0.10709678 0.05666811
0001b0 9e fb 64 3c 10 b3 55 3e 73 c7 09 3c 02 d0 87 3d
       0.013976006 0.20869088 0.008409369 0.06631471
0001c0 6f d9 60 3d ac 9c 7a 3c 6a 91 24 3b 41 0b 0b 3e
       0.05489486 0.015296143 0.0025111088 0.13578512
0001d0 bf 66 87 bd e8 91 df 3d b1 2c f3 bc 22 36 14 3e
       -0.06611394 0.10916501 -0.029684396 0.14473775
0001e0 ac 09 94 3d 28 24 17 3e 3a a5 14 be 85 4e 04 be
       0.07228407 0.14759886 -0.14516154 -0.12920578
0001f0 1f 75 88 3d b4 e6 54 3b 14 8e 83 3d 36 ce 01 3d
       0.06662964 0.0032486143 0.064235836 0.0316908
000200 e9 07 b4 bc 7f 45 b0 3c 7d 1f 4e 3d 05 49 00 3e
       -0.021976428 0.021517513 0.050323 0.12527855
000210 00 6a 27 3d 20 85 34 bd 2f cd da bc 9f 63 76 be
       0.040872574 -0.04407227 -0.026709167 -0.2406144
000220 ff 54 68 bc cf 81 97 3d f4 57 c5 3d 80 2b ba 3d
       -0.014180421 0.07397806 0.09635916 0.09090328
000230 f2 5b 3f bd b1 9b 11 bd 6c 08 11 3e 60 bd a4 bd
       -0.046718545 -0.03554887 0.14163369 -0.08043933
000240 04 b0 3b 3c 12 c7 7e 3d 55 b2 cf 3d 81 11 ac bd
       0.01145554 0.062201567 0.10141436 -0.08401776
000250 75 e6 31 3d e4 b1 85 bd 84 5e 53 bd e4 cc 8b 3d
       0.04343267 -0.065280706 -0.05160381 0.06826189
000260 5c c1 70 bd 0f 64 30 bc 5c 78 55 bb 0e 24 56 3b
       -0.058778152 -0.010766043 -0.003257296 0.00326753
000270 71 57 12 3c 74 48 50 3b 43 ab 00 3d a2 43 b4 bd
       0.0089319805 0.0031781467 0.031413328 -0.088019624
000280 b2 7d 31 be c3 b0 0f bd 45 be 98 3d 4d aa 5a 3b
       -0.17333105 -0.035080682 0.07458166 0.0033365667
000290 d6 b1 7f 3d 9b ac 35 bd 14 ca b0 3d 04 0f 31 bd
       0.062425457 -0.044354063 0.08632293 -0.04322721
0002a0 f3 f6 61 3d 20 63 6f 3d e1 03 ab 3d a9 d1 21 3d
       0.05516715 0.058444142 0.08350349 0.039506588
0002b0 c9 4e 9a 3d fb af 7c bd 0b 3b 02 3e 77 ea 3a bc
       0.07534558 -0.061691266 0.12717836 -0.01140844
0002c0 1c 80 4d bd 6b 26 67 3d d1 a9 92 bd c1 cf 9b 3d
       -0.050171003 0.056433123 -0.07161296 0.07607985
0002d0 4a af 56 3d b9 e1 af 3d 38 78 d1 3d 74 24 64 3d
       0.052413262 0.08587975 0.10228008 0.055698827
0002e0 a3 0b 82 3d 13 69 84 3d 73 95 1a 3d 1f a8 64 bd
       0.06349876 0.06465354 0.037740182 -0.055824395
0002f0 83 46 9b bd 59 81 c5 bc 7b e5 8c bd d6 7d 9e 3d
       -0.075818084 -0.02410953 -0.068797074 0.07738845
000300 a1 aa a9 3d be 1a 68 3e 2e 45 88 3c f6 09 1e 3e
       0.08284498 0.22666451 0.01663455 0.15433487
000310 c3 14 bd 3d a6 f8 00 3d b0 f9 67 bd d5 ff 5b 3d
       0.092324756 0.03148713 -0.056634605 0.053710777
000320 99 7d cf 3a c5 6e 8e bd 79 2e 08 3e 1b 61 95 3d
       0.0015830278 -0.06954721 0.13298978 0.07293912
000330 0f 24 a4 3d cf 18 a6 bd 50 61 7a bd b2 6c 3d bd
       0.0801469 -0.081102006 -0.06112796 -0.046246238
000340 c5 31 f3 3d fb 81 5e bd c6 ef 85 bd 1f 2e 49 bd
       0.11874727 -0.054323178 -0.06539874 -0.04911625
000350 8e bb 77 bd 29 09 d2 3d a2 d2 5c 3d 33 ba d3 3d
       -0.0604816 0.102556534 0.053911813 0.10338249
000360 7e c3 28 bd 3a 86 c8 3d b8 62 4e bd 0d 04 b0 bd
       -0.04120206 0.09791227 -0.050387114 -0.085945226
000370 dc e3 68 3d 08 89 b8 3d ac 15 86 bd dd ed a5 3b
       0.05685793 0.09010512 -0.06547102 0.005063756
000380 55 10 4d bd 75 ed c4 3d 1c 2e 8e bb 8c ee ce bc
       -0.050064404 0.09615604 -0.0043389928 -0.025260232
000390 bc 11 09 3d 2a 60 1c bd 8c d3 9c bd 38 25 8e 3d
       0.03346418 -0.038177647 -0.07657537 0.06940693
0003a0 14 46 30 3c 04 c0 82 3c dd a5 04 3e ba e8 ae 3d
       0.010758895 0.0159607 0.12953897 0.08540483
0003b0 26 59 11 be 67 d3 8b 3d b2 76 50 bb c7 65 87 bc
       -0.14194164 0.06827431 -0.003180903 -0.016528023
0003c0 c2 bc e9 bd 18 3d 2d 3d 13 fd 27 bd 9f b5 8d bb
       -0.11412956 0.04229459 -0.041012835 -0.0043246294
0003d0 85 17 23 bd 09 1c b1 bd ec 5a b9 3b f6 5f 5e bd
       -0.03981735 -0.086479254 0.0056565907 -0.054290734
0003e0 af 54 7a 3d 78 59 a4 3d 38 bc 03 be 2c 1f b7 bd
       0.061115917 0.08024877 -0.12864769 -0.089414924
0003f0 ff 2f 9c 3d 68 e1 f2 bd 28 31 95 bc d5 5b 52 3d
       0.07626342 -0.11859399 -0.018211916 0.05135711

bias_hh_l0 f4 [400]
000000 12 46 59 3d e9 c1 ca 3d a5 dc 0f 3d b2 5f a0 3d
       0.05304534 0.09900267 0.035122532 0.078307524
000010 50 76 82 bd 67 a1 94 3c a2 d7 6e 3e ca 57 3f 3e
       -0.063702226 0.018143369 0.23324445 0.18685833
000020 f8 81 15 be 24 6d 94 3e f3 43 7b bd 84 03 8b 3d
       -0.1460036 0.28989518 -0.0613441 0.0678778
000030 d1 3a 0e 3e 6c 43 5b 3e b8 84 df 3d d9 e6 22 bc
       0.13889624 0.21412438 0.10913986 -0.009942734
000040 78 72 85 3d 96 12 fa 3d 9a 49 87 ba e1 6e 61 3d
       0.06515974 0.12210576 -0.0010321618 0.055037383
000050 98 80 d1 3c b9 4e fc bb c3 7f da 3d 6d f2 b3 bc
       0.025574014 -0.007699814 0.106689 -0.021966184
000060 0c d7 88 3d 92 60 45 bd 34 9e 51 bc ca b7 9a 3c
       0.06681642 -0.0481878 -0.012794066 0.018886466
000070 06 8d e5 3d f6 10 f5 bc a6 bf 4f 3d a7 20 8e ba
       0.11208539 -0.029915314 0.05071988 -0.0010843471
000080 f7 54 85 3e 34 05 ae 3e 7f d0 15 3e 18 d5 61 3e
       0.26041386 0.33988345 0.14630316 0.22053945
000090 00 5b b7 3c 54 9e 96 3d 1f c0 cb 3d 5b b8 8d bd
       0.02238226 0.073544174 0.099487536 -0.06919929
0000a0 2a 7a bc 3d c2 3c 54 3e 26 b4 02 bd 6e 56 27 3e
       0.092029884 0.20726302 -0.031910084 0.16341564
0000b0 1f eb 94 bd c8 66 4e 3c 92 02 db bc 77 04 8b 3d
       -0.07271408 0.012597747 -0.026734624 0.06787961
0000c0 f1 36 a4 3d d5 0d 13 be e2 89 1c 3e 9c 3c 81 3c
       0.08018292 -0.14360745 0.15286973 0.015775971
0000d0 fe 78 4c 3d 12 1d ac 3d 31 91 8b 3e 8f 73 fd 3d
       0.049920075 0.08403982 0.2725921 0.12375557
0000e0 12 64 3b 3d 10 b0 ea 3d f5 20 33 bd 75 63 1c 3e
       0.04574973 0.114593625 -0.043732602 0.15272315
0000f0 9f 36 89 3e 6a 65 05 be a0 56 89 3d 18 8f 53 3d
       0.26799485 -0.13026968 0.067059755 0.051650137
000100 55 6f fc 3d 5f 6c c8 3c 51 d8 27 3e 41 6b 11 3d
       0.123259224 0.024465738 0.16391112 0.035502676
000110 71 ad 68 bc 43 a6 cd 3d ea 8b 6c 3e c3 67 da 3d
       -0.014201508 0.100414775 0.23100248 0.10664322
000120 a7 b7 c8 3d f1 ff 8d bc df 40 48 bc 99 59 9d 3d
       0.09800654 -0.017333956 -0.012222498 0.07683105
000130 e1 44 0c 3e 4d 30 c0 3d 56 4b b7 3c 7c 6f 7e 3e
       0.1369815 0.09384213 0.02237479 0.24847215
000140 a9 76 74 3d df 33 0f 3d 95 f8 39 3d ac 40 af 3d
       0.059683476 0.034961578 0.045403082 0.08557257
000150 63 e8 9f 3d 31 48 34 3d cb 06 0e 3c 29 8f 91 3d
       0.07807996 0.04401416 0.008668612 0.07107384
000160 18 8b c4 3d 02 81 b4 bd 82 ee aa 3d da a7 40 3d
       0.095968425 -0.08813669 0.08346273 0.047035076
000170 79 95 42 bd 21 4c fb 39 95 14 fc 3d 0b 89 f8 3d
       -0.04750583 0.0004793117 0.12308613 0.12135514
000180 6d 25 da 3d a9 49 14 3e b8 e1 0f 3e 7a a4 4d 3e
       0.1065167 0.14481224 0.14050949 0.20082274
000190 6f d6 11 bd b8 52 22 3d 5f fe a8 3c 51 34 fa 3d
       -0.03560489 0.039629668 0.020629106 0.1221701
0001a0 a6 31 ba 3d b4 4b c0 3d 51 23 17 3c aa ff f6 bc
       0.09091501 0.09389439 0.009224729 -0.030151207
0001b0 4b 3b 2b bd 54 84 c8 3c 95 ae 7a bd 69 a9 76 3d
       -0.041804593 0.024477161 -0.06120165 0.060220156
0001c0 fd 11 92 3d 9a 03 3b 3d e3 35 94 bd 4a c7 18 3e
       0.07132337 0.04565773 -0.072368406 0.14919773
0001d0 75 88 38 bc 1b 65 3d bd a1 2f 5f 3d bd a1 cf bc
       -0.011263003 -0.046239 0.05448878 -0.025345678
0001e0 37 b0 c4 3c a8 67 36 3b 73 a1 56 be e3 7f da 3c
       0.024009807 0.002783278 -0.20960025 0.02667231
0001f0 20 e8 03 3e b6 d7 f1 3c a7 35 17 bc 35 e2 d2 bc
       0.12881517 0.029521804 -0.0092291 -0.02574263
000200 2c 69 d2 3d ca d3 b9 bc 7d 34 56 3e 27 2e 41 3d
       0.10273966 -0.022683997 0.2091846 0.047163155
000210 e2 08 44 3d 7a 93 12 bb e3 4f bb bc da 98 36 be
       0.047860034 -0.0022365735 -0.022865241 -0.17831746
000220 dd 81 15 3e 12 58 a1 3c d0 ea bd 3d 6a dd 38 3d
       0.1460032 0.019695316 0.092733026 0.045133032
000230 e3 9e c9 3c 4f 4f 0c 3e 23 e5 4e 3d 3f c7 9e 3c
       0.024611896 0.13702129 0.05051149 0.019382117
000240 85 5f 65 3c f2 0d 13 3e a4 86 f3 3d da e4 7a bd
       0.013999824 0.14360788 0.11890915 -0.061253406
000250 81 d8 f9 ba c3 e0 91 bb d4 2b da bd 9a 29 8d 3d
       -0.0019061716 -0.0044518425 -0.10652891 0.068927005
000260 bf a6 bf 3d 72 1a a7 3c 28 a9 e9 bd c2 e9 8b 3d
       0.09357976 0.020398352 -0.11409217 0.06831695
000270 95 c3 49 3d 75 8e fe bd 07 37 28 3d f9 4c 89 3d
       0.049258787 -0.12429515 0.041068103 0.067041345
000280 57 39 c5 bd 3e 80 b6 bc de 88 7f 3d e1 9f 9f bd
       -0.09630077 -0.022277948 0.062386386 -0.07794166
000290 16 0b d6 bc 00 4a 6f 3d 36 85 9b bc 80 54 77 bd
       -0.026128333 0.05842018 -0.018984418 -0.06038332
0002a0 25 e5 16 3d 00 ed b9 3d ce c2 3d bd ac 0a 70 bd
       0.036839623 0.09078407 -0.04632836 -0.058603927
0002b0 bb 28 23 3d af 3a 84 bd e1 f0 ad 3d 5a ef e1 3c
       0.039833765 -0.064565055 0.0849321 0.027579952
0002c0 bd 7b 79 3b 04 7e 48 3d e7 90 a9 3d 25 c5 f8 3d
       0.0038068139 0.048948303 0.08279591 0.12146977
0002d0 fd 99 08 3e 5a 38 1b 3d e6 27 02 3e 05 1a 89 3d
       0.13339992 0.037895538 0.12710533 0.06694416
0002e0 0f a7 86 3c a9 7b 91 3d 7c 12 9f 3d eb 25 b0 3c
       0.016437082 0.071036644 0.077671975 0.021502456
0002f0 3d 66 8f 3d a9 06 66 3d 02 d0 c4 3c 1b 5a 19 3c
       0.07001922 0.056158695 0.024024967 0.009359862
000300 d9 12 12 3c 94 11 2c 3e d8 e9 05 3e 79 75 bf 3d
       0.008915626 0.1680358 0.13077486 0.09348578
000310 3d d3 57 bc d6 38 90 3d 5b de fa bc bf e2 ed bd
       -0.013172922 0.070420906 -0.030623605 -0.11615514
000320 73 48 30 3c 3e ec ae bd 30 dc b8 3d 99 c0 78 3d
       0.010759461 -0.08541153 0.090263724 0.06073055
000330 01 6e 2e bd 07 b4 36 3c f3 2a c5 bc b1 fd 63 3d
       -0.042585377 0.01115132 -0.024068331 0.05566186
000340 a6 27 01 3e d7 49 cb bc 62 ac 90 bd 03 a4 ca bc
       0.12612781 -0.024815483 -0.070641294 -0.02473641
000350 ce 92 e3 bd ae 74 bf ba 1c 56 d6 3d a1 44 1e bd
       -0.11111985 -0.0014606917 0.10465643 -0.03863967
000360 a8 67 14 3d fb fd 25 bd 59 55 16 3d ec 95 a4 bd
       0.036231667 -0.040525418 0.036702488 -0.08036408
000370 b4 94 7f 3d 44 c9 fb 3d 55 87 0c be 3a de 16 3d
       0.062397674 0.12294248 -0.137235 0.036833026
000380 c4 81 0f 3d 36 83 84 3d 81 1e 1f bd 96 62 f5 3d
       0.035035864 0.06470339 -0.03884745 0.119816944
000390 07 74 60 3d b4 a1 bb bc f9 04 93 bd 77 5c e8 3d
       0.054798152 -0.022904254 -0.07178683 0.11345761
0003a0 cf b8 19 3e 7e 13 10 3e 18 69 c1 3d 70 84 06 3e
       0.15011905 0.14069936 0.09443873 0.13136458
0003b0 b5 e6 27 be 69 77 0f bd c8 3d 0d 3c ea 10 44 3d
       -0.16396601 -0.035025988 0.008620687 0.047867693
0003c0 03 18 ef bd 2d 65 70 3d 9f 4a 60 bc a4 f0 d8 bd
       -0.11674502 0.05869024 -0.013689666 -0.105927736
0003d0 d7 1d dd bb b7 e1 d8 bd 4e 0e ce 3c a2 5a ff 3c
       -0.006747942 -0.10589927 0.025153305 0.031171147
0003e0 c2 d2 e8 ba db ba ce 3c 4a c3 19 be cd f5 66 3d
       -0.0017763006 0.025235584 -0.15015903 0.056386758
0003f0 c9 46 e5 3d a2 e2 c2 bc 6c 46 1a 3d ca 20 00 be
       0.11195142 -0.023789708 0.037664816 -0.12512508

weight_ih_l0 f4 [400, 1]
000000 90 82 f0 3d ec 39 cc be 52 52 4e bd c1 bc ff 3d
       0.11743653 -0.3988794 -0.050371476 0.12487174
000010 bc dc 91 be d1 98 08 3e 54 4b 9a bd 77 5f 97 3e
       -0.2848872 0.13339545 -0.07533899 0.2956502
000020 63 6c aa 3d a5 22 03 3e 7b f0 25 be d6 61 a1 3e
       0.083214544 0.12806185 -0.16205017 0.31519955
000030 b6 70 4e be 0f 21 69 bd 19 c6 f5 3d 6c de 1a 3e
       -0.20160183 -0.056916293 0.12000675 0.1512391
000040 f9 0d 9d bd c0 0a 94 3d 95 e1 6e be 05 69 93 3e
       -0.07668681 0.07228613 -0.2332824 0.2879106
000050 ac 6d ac 3d e7 ec 6e 3d 0b 62 80 be 6f 28 81 be
       0.08419356 0.058331396 -0.250748 -0.2522616
000060 bf 98 a3 be 16 57 0a be 54 86 9b 3d 27 99 a8 3e
       -0.31952474 -0.13509783 0.075939804 0.32929346
000070 d5 3b 89 be e7 2e dd bd 2b b0 25 3e 8e 83 98 bd
       -0.2680346 -0.107999615 0.16180484 -0.07446967
000080 07 e0 61 3c 06 4e a7 3e ce ff 42 3e bb 2b ec bd
       0.013786322 0.32676715 0.19042894 -0.115317784
000090 5d 73 0a bd 2c 33 c4 bc fc e9 8e 3e d7 8f 19 3e
       -0.033801425 -0.023950182 0.2791289 0.14996277
0000a0 25 6e ae bd 9b 40 8d be 59 aa ac 3e d2 cd 3b 3d
       -0.08517102 -0.27588353 0.33723715 0.045850582
0000b0 60 cf d1 bd 32 21 a7 3e 03 5c fd bd da f5 94 3d
       -0.10244632 0.32642514 -0.123710655 0.07273455
0000c0 88 c7 44 3e 61 ed 80 3c d0 77 cb 3d b8 29 e3 3d
       0.1921674 0.015738191 0.09934962 0.110919416
0000d0 55 47 dc bd 9b 6d 64 bd af cb 56 be d2 5a e9 bc
       -0.10755793 -0.05576859 -0.20976137 -0.02848569
0000e0 04 fd f1 3d 57 b0 c4 bd d9 f3 3f 3e 1e 55 16 be
       0.11815837 -0.09603947 0.18745364 -0.14680907
0000f0 a9 10 eb bd 51 2c ee 3c 3d 11 c2 be 6d 80 a9 bd
       -0.11477787 0.029073866 -0.37903777 -0.082764484
000100 18 ac 0e bd 66 68 b4 bd 89 47 40 be 05 2b cc bd
       -0.03483209 -0.08808975 -0.18777288 -0.09969143
000110 4c fd 3a 3e ad 66 6d 3e 4a 4a da bd 4e 19 0e bd
       0.18260688 0.23183699 -0.10658701 -0.0346921
000120 81 5c 2b bb 06 48 ab bd 9d dc e7 3e d6 4c 1a 3d
       -0.0026147666 -0.08363347 0.45285502 0.037670933
000130 cb 52 6e 3e d9 82 53 3e fb 25 38 3e f7 b8 9d 3d
       0.2327377 0.20655383 0.17983238 0.07701295
000140 7f db 76 be 06 ca b4 3d ed 04 4d 3e 2b 5f 3a 3e
       -0.24107169 0.088275954 0.2002141 0.18200366
000150 a6 01 a3 be 0a 94 4e 3e 1b 7f 2f be 34 78 84 be
       -0.31837195 0.2017366 -0.1713833 -0.25872958
000160 fa 62 d0 3e 4e 16 69 be b3 19 69 3e 37 a2 58 be
       0.40700513 -0.22762415 0.2276371 -0.2115563
000170 54 f1 d3 bb f9 90 0e 3e 64 7c 81 3e 98 f5 63 be
       -0.0064679775 0.1392249 0.25290215 -0.22261655
000180 f8 15 04 be 56 56 4c be 20 13 5a bd aa 68 94 bd
       -0.12899005 -0.1995481 -0.053240895 -0.072465256
000190 93 8d 08 3e c8 f2 5a be 91 e2 4b bd e4 b2 26 3e
       0.13335256 -0.21381676 -0.049776617 0.16279179
0001a0 d8 b0 ef 3d 37 68 1f 3e c0 17 0a be 43 52 13 3e
       0.11703652 0.15567099 -0.13485622 0.14386849
0001b0 c3 a6 ff 3d 6e 27 56 3d cf 0d 99 be 90 9b 8c 3e
       0.12482979 0.052283697 -0.29893348 0.27462435
0001c0 3d d1 55 be ad c7 39 bd 18 69 56 3e 9d 17 e8 3d
       -0.208806 -0.04535644 0.20938528 0.11332629
0001d0 3c 5b 01 3d 53 b8 6a 3e 21 4f a6 bd 3c f1 2f 3e
       0.03158115 0.22921877 -0.081205614 0.17181867
0001e0 c3 ee 17 3e b8 35 72 3d 0c 19 14 be cd 57 88 be
       0.14837174 0.05913326 -0.1446268 -0.26629487
0001f0 9c a9 cf bd 09 2e f3 bc 03 bc 7a 3d fd f0 df 3e
       -0.10139772 -0.029685037 0.06121446 0.43738547
000200 39 f6 5c be 25 c4 5a be b2 0a 87 3e bb 8f 90 3d
       -0.21578301 -0.21363886 0.26375347 0.070586644
000210 a2 72 d5 bc ba 96 93 3e 57 77 9c 3d a2 5d 55 bd
       -0.026055638 0.28825933 0.0763995 -0.05209125
000220 cb 8b b9 bd 7c 12 9b bd 1a 55 93 3e 2d dc d9 3d
       -0.090598665 -0.07571885 0.28775865 0.10637698
000230 8a 5c 84 3d f1 cf 4e be 29 7f 7a 3e f3 0c 66 3d
       0.06462963 -0.20196511 0.2446257 0.056164693
000240 56 9c 28 be 8e 22 dd 3d 61 27 94 be 1b 26 82 3d
       -0.16465887 0.107976064 -0.28936294 0.06354924
000250 e4 c6 b3 3e 01 df 88 3d c4 98 92 3d 60 0c e4 3d
       0.3511268 0.066831596 0.07158044 0.11135173
000260 9f 01 99 bd ce 66 6e be 54 d5 47 be 95 f7 b3 bd
       -0.07471012 -0.23281404 -0.19514972 -0.08787457
000270 89 8d 9d 3e 20 15 86 bd 1d fe e9 3d ab 36 03 be
       0.30772045 -0.06546998 0.114254214 -0.12813823
000280 62 6a f1 bd f1 4f 79 3e ff 53 e9 bc bd 28 ed bd
       -0.11787869 0.24346901 -0.028482435 -0.11580036
000290 8b f4 91 bc 57 55 31 be c5 d0 da bd d9 c6 1a be
       -0.017816802 -0.17317711 -0.10684351 -0.15114917
0002a0 29 59 d4 3b c4 2c 21 3d d1 b1 2c be d3 6b 03 3e
       0.0064803553 0.039349332 -0.16864707 0.128341
0002b0 f0 85 b2 3d a7 ba bf 3d 6c 6f a5 3e 58 7a 3e 3d
       0.08716953 0.09361773 0.3231157 0.046503395
0002c0 04 91 1c 3d d8 e4 a2 3e 89 59 c7 3d de d4 83 3d
       0.038224235 0.3181522 0.09733874 0.064370856
0002d0 d8 6b c4 bd da eb 2b 3e 2e ea 0d 3e 22 48 56 3e
       -0.09590882 0.16789189 0.13858864 0.20925954
0002e0 31 fd 92 be a4 fd a0 3e f0 6e b3 bd c5 ac 33 be
       -0.28708795 0.31443512 -0.08761394 -0.17546375
0002f0 93 d7 70 3e d3 8e 5e be 70 67 78 3d f9 50 ef bd
       0.23519735 -0.2173417 0.06064552 -0.11685366
000300 3f 95 9b bc 9f 66 eb 3d 1f ea b5 3e 4d ac 05 be
       -0.018992065 0.11494183 0.35530183 -0.13054009
000310 ef 9f c3 3c 85 57 93 be 50 71 e4 bd c4 f5 51 bd
       0.023879973 -0.2877771 -0.11154425 -0.05125977
000320 d2 5e 12 3e 09 2a 9a be 96 64 86 3e 63 6e 71 3e
       0.14293984 -0.30110195 0.26248616 0.23577265
000330 13 fc e7 bd 68 24 42 3e 79 b6 5d bd d6 f6 3a 3c
       -0.11327376 0.189592 -0.054129098 0.011411389
000340 ff 58 c5 bd 37 f4 6e be 1b 7b 65 3e a9 71 56 3e
       -0.09636115 -0.23335348 0.22410242 0.20941795
000350 03 43 50 be 74 6b 4d 3e e6 75 27 3e 4c 6a dd 3d
       -0.20338063 0.20060521 0.16353568 0.1081129
000360 ca 80 1d 3d be 85 8c 3e b0 8f de bd 95 73 79 be
       0.0384529 0.27445787 -0.1086725 -0.24360497
000370 a9 9e 2f 3d 7e e9 44 3e ff 0f 80 be 5b a6 36 3e
       0.04287592 0.19229695 -0.25012204 0.17836897
000380 d0 7a 70 be 76 eb ec bc 7c a8 bf 3c 4e a6 1d 3e
       -0.23484349 -0.02892087 0.02339577 0.15395471
000390 d8 3e 66 3e 69 33 24 3e 01 d3 7f 3e cf 86 22 3e
       0.2248491 0.16035236 0.24982835 0.15871738
0003a0 a2 3f ce b9 0f db 8f bd 71 2f 75 3e 12 7b 1c be
       -0.00039338792 -0.07024204 0.23943879 -0.15281323
0003b0 d6 0e 76 be c3 f8 81 3d 0f 04 59 3e 0a 54 08 be
       -0.24029097 0.06346276 0.21192954 -0.13313308
0003c0 b0 f9 52 be 54 34 42 3e ff d5 9b 3d 22 4e 7f 3d
       -0.2060306 0.18965274 0.07609176 0.062330373
0003d0 66 01 66 be 9b 0d 08 3a b7 30 c1 3d 76 fd 3d 3e
       -0.22461471 0.00051900157 0.0943312 0.18553719
0003e0 ab 97 6d be fa cd 4c be 6e be 6d be b4 4c 85 be
       -0.23202388 -0.20000449 -0.23217174 -0.26035082
0003f0 02 e0 c9 3d 19 53 5d be 6a 2a 1d be c4 0b 2f ba
       0.09857179 -0.2161373 -0.15348211 -0.00066774734

weight_hh_l0 f4 [400, 100]
000000 2c f2 94 bd 83 ef 9f 3d b7 7b f1 3d 69 cf 07 3c
       -0.07272753 0.07809355 0.11791175 0.0082891965
000010 52 4e 35 bd c7 e1 7b 3d b0 04 57 bd d2 07 08 3c
       -0.044264145 0.061494615 -0.052494705 0.008302646
000020 f9 63 df 3c 57 7e ff 3c 13 54 b0 bd b4 7e 9b 3d
       0.02726935 0.031188173 -0.08609786 0.07592526
000030 fd 81 83 bd c2 4d 6e 3d c4 f2 4e bd 67 ff 9f bd
       -0.06421278 0.058179624 -0.050524488 -0.07812386
000040 5f 33 fe bc 47 41 80 bd 86 d5 ca 3d d5 65 fd 3c
       -0.031030355 -0.06262451 0.099040076 0.030932346
000050 46 b2 d6 3d 9c 9b 2a bc 5e e8 74 3d 04 e3 a9 3d
       0.10483222 -0.010413077 0.059791915 0.08295253
000060 bd f3 36 3d 5a 78 92 bd 00 22 ff 3d 6d 6e de bd
       0.04466604 -0.071518615 0.12457657 -0.10860906
000070 f7 26 b6 bd 5f 26 f6 bd 10 62 02 3e d8 f3 9a bd
       -0.08894151 -0.120190375 0.1273272 -0.07566041
000080 ae df b5 bc 19 8c a4 bd ce 87 1e 3d 94 c5 31 3d
       -0.022201385 -0.08034534 0.038703732 0.043401316
000090 af 3a c9 3d ef 00 ec 3c c6 07 2c 3d e4 df 2a 3d
       0.09825646 0.028809039 0.0419996 0.041717425
0000a0 1d a5 68 bd 8f 6e b1 3c c3 f1 57 3d 1a f0 a9 bd
       -0.05679809 0.021659164 0.052720796 -0.08297749
0000b0 24 8c 81 bc ac 4d c6 bd 21 1c b5 bd 93 36 1a 3d
       -0.015813895 -0.096827835 -0.08843256 0.037649702
0000c0 3d b8 c4 bd 1f b7 b5 bd 81 09 e0 bd 20 02 2f 3d
       -0.09605453 -0.08872818 -0.10939313 0.042726636
0000d0 1a 77 84 3d 2d 2c bc 3c d8 dd 7d bc 14 70 ca 3d
       0.06468029 0.022970283 -0.015494786 0.098846585
0000e0 36 72 73 bd 6d 86 69 bc 13 12 a4 3b 29 5d a8 3d
       -0.059435092 -0.014253241 0.0050070374 0.08220894
0000f0 86 86 60 bd 2d 06 b2 bd 54 4a a7 3d e7 c3 2a bd
       -0.05481579 -0.08692584 0.08168474 -0.041690733
000100 21 86 10 3d 18 9a 1f 3d 90 1e 94 3d 5a db 9b bd
       0.035284165 0.038965315 0.07232392 -0.07610197
000110 e1 6e 86 3d 0f 86 3e bd d7 17 1f bb 72 e4 4e bc
       0.06564117 -0.046514567 -0.0024275684 -0.012627708
000120 ef a5 40 bd 93 f5 d1 3d a0 42 eb 3c 30 67 a6 bd
       -0.047033247 0.10251918 0.028718293 -0.0812515
000130 5d b6 67 3d 9e 6d 93 3d e7 10 ca 3d fe 26 5f 3d
       0.0565704 0.07198642 0.09866505 0.054480545
000140 d4 27 91 3d 3d e7 09 3d 89 fa 71 bd 8f 6b 6c bd
       0.07087675 0.03366779 -0.05907682 -0.057719763
000150 ac 92 7e 3d 13 84 9d 3d 55 21 5f 3d ff 56 51 bd
       0.062151596 0.07691207 0.054475147 -0.051108357
000160 7b 82 01 be ae ca b8 bd bc c8 47 3d a0 b9 a7 bd
       -0.1264743 -0.09023033 0.04877542 -0.08189702
000170 9a cf 7b bd 61 72 1f 3d e0 7c 07 bd a5 0b 62 bc
       -0.06147728 0.03892744 -0.033078074 -0.013796722
000180 6e 2f 14 bd bf 8d f9 3d f0 92 22 bd a9 66 d0 bd
       -0.036178045 0.12185239 -0.03969091 -0.10175831
000190 83 1c 8a 3e 9b 15 d3 bc c6 3d 85 3c 5b 7f 41 3e
       0.26974878 -0.025767138 0.016264807 0.18896239
0001a0 34 8b d7 bc 70 3d 73 3d c4 fb 97 3d 07 06 23 be
       -0.026311494 0.059384763 0.07421067 -0.15920268
0001b0 e0 ed 38 be 93 c4 67 be 9d 5f 1c be 85 92 9a 3e
       -0.18059492 -0.22633581 -0.15270849 0.3018991
0001c0 a4 86 68 3e 66 eb 78 bc da 7d a9 3e fe 81 48 3e
       0.22707611 -0.015192842 0.3310383 0.19580838
0001d0 87 77 22 3e a3 df 4e 3e 00 5a d9 3d 69 14 53 be
       0.15865909 0.20202498 0.10612869 -0.20613255
0001e0 7e 3e 03 3e a0 4d 8b 3d 32 e3 59 3e 15 3e 24 be
       0.12816808 0.06801915 0.21278074 -0.16039307
0001f0 51 5f 9d 3d 41 e3 08 3e 25 d3 f2 bc b4 92 3c 3e
       0.07684196 0.1336794 -0.029641697 0.18415338
000200 4f b8 d0 bc a4 9a f7 bc 3c 8b 85 3e c1 83 79 bd
       -0.02547851 -0.030225106 0.2608279 -0.060916666
000210 24 46 3f be 78 bd 1e be 35 98 54 3e 69 b6 d9 3c
       -0.186791 -0.15501964 0.20761187 0.026576238
000220 4a fd db bd 7b 49 18 be db 75 7e 3e ac b3 8d bd
       -0.107416704 -0.1487178 0.24849646 -0.06919035
000230 b4 01 13 bd e1 fa 11 be 12 1f 85 3e d6 1b 3b be
       -0.035890296 -0.14255859 0.26000267 -0.18272337
000240 ad 5c 13 3e 5b 78 05 be b0 75 d8 bd ed 51 47 3e
       0.14390822 -0.13034193 -0.10569322 0.19464846
000250 9a 80 9f be 62 18 aa 3c 95 19 6d be 2b 15 8d be
       -0.31152803 0.02076358 -0.2315429 -0.27555212
000260 55 51 ab bb 99 df f9 3d 1a cf 56 3e 5a 29 33 3e
       -0.0052282014 0.12200851 0.2097744 0.17496243
000270 6e 55 8b 3e 28 62 e5 bd 01 c6 2d be 64 18 3c bd
       0.27213615 -0.112003624 -0.16970064 -0.0459217
000280 d7 fa 66 3d 5d 72 5f be d7 e5 35 3e e8 e9 3c be
       0.056391563 -0.2182097 0.17763458 -0.18448603
000290 78 e1 a0 3c df 9b f2 3d 2d 73 1c 3d 90 d5 00 3e
       0.019638762 0.11846136 0.038195778 0.12581468
0002a0 04 20 30 3e af 6d a2 be aa 29 1c be 69 2a 05 be
       0.17199713 -0.31724307 -0.15250269 -0.1300446
0002b0 ed 49 44 be 0e ad 5a be 6a 4b 86 3e c8 45 07 be
       -0.19168825 -0.21355078 0.2622941 -0.13210213
0002c0 92 1a af 3e 83 f1 30 3e 13 0d b8 be 64 e5 20 be
       0.3419996 0.1727963 -0.35947475 -0.15712506
0002d0 69 bd 94 bd d7 22 e1 bd 35 93 80 be c8 58 17 3e
       -0.072626896 -0.10992973 -0.2511231 0.14779961
0002e0 13 6d 3e be 54 ce 97 bd 79 61 79 be 2f 50 4a 3e
       -0.18596296 -0.07412401 -0.24353589 0.1975715
0002f0 41 69 c9 be 99 9a 48 3e 7e 94 05 be a2 17 50 3d
       -0.39338115 0.19590224 -0.13044927 0.050803788
000300 f2 60 c9 bd 42 32 73 be 66 72 59 be d7 bc b5 bd
       -0.09832944 -0.2374964 -0.21235046 -0.08873909
000310 83 f4 c5 bd 91 5a c4 3d 2f 55 ce 3d 8e f7 ae bd
       -0.096657775 0.09587587 0.10074841 -0.08543311
000320 50 45 dc 3d 9b dc 8d 3d 93 61 57 3d 7a d3 41 3b
       0.10755408 0.06926843 0.05258329 0.0029575513
000330 39 f5 ea bb 40 9c 13 3e dc f2 a6 3c cb 2e f6 bd
       -0.007170346 0.14415073 0.020379476 -0.12020644
000340 39 2a c3 bd bf 55 0a 3d 4c fd 71 bb 87 28 1a 3c
       -0.09529538 0.03377318 -0.0036924658 0.0094090765
000350 c6 07 47 3d 17 66 9a bd 5b eb a5 3d f0 d5 16 3e
       0.048591398 -0.07539003 0.08101531 0.14730048
000360 61 4f 05 3e 4a f0 18 3e 57 ae 98 3d f4 97 9a bd
       0.13018562 0.14935413 0.07455128 -0.07548514
000370 18 50 1b 3e 8b 13 0b 3e 8e d7 ce 3d 14 a4 16 be
       0.15167272 0.13581674 0.100997075 -0.14711028
000380 a2 2c 8e 3d 4b af 1e 3c b4 b4 9a bd 33 26 3f 3e
       0.06942107 0.009685348 -0.07553998 0.18666916
000390 c2 df b4 bd a1 f0 d2 bd f4 58 33 3b 79 0c 19 3d
       -0.08831741 -0.102998026 0.0027366253 0.03736541
0003a0 f1 5b f4 bd 83 0e ec bd 9e d3 0e 3d 61 dc 9d 3d
       -0.11931599 -0.115262054 0.034869783 0.077080496
0003b0 17 4b ba 3d 17 11 d3 3c 7e e2 92 3c ae 42 00 be
       0.090963535 0.025764985 0.017930266 -0.12525436
0003c0 d3 19 a9 bd 82 0e e9 bb f3 a3 7e 3d 39 b0 8d 3c
       -0.08256879 -0.007112325 0.062168073 0.017295944
0003d0 f5 4a e3 3c 74 28 42 be d5 fd e5 b9 d2 d2 e3 bb
       0.027745703 -0.18960744 -0.00043867403 -0.006952622
0003e0 e3 d3 22 be 23 bb ac 3d 64 d9 1f be 20 fc d7 bd
       -0.15901141 0.08434131 -0.15610272 -0.10546136
0003f0 e8 14 01 3c 56 50 ad 3d d7 65 01 3e 75 ea 2d 3e
       0.00787852 0.084625885 0.12636505 0.1698397

bias_ih_l0 f4 [400]
000000 a3 00 85 3c bc 18 1a 3e 37 71 3a 3e de 55 05 3e
       0.016235655 0.15048498 0.1820725 0.13021037
000010 3c 40 9d 3d fe 8c 23 bd 10 ee e9 bb aa 74 75 bd
       0.07678267 -0.039929383 -0.007138975 -0.059925713
000020 23 33 7a 3d 57 63 13 3e 6b 0b 71 3c 3f e4 e9 bc
       0.061083924 0.14393364 0.014712195 -0.028551219
000030 df ce c2 3d df 38 08 3e a9 99 a9 3d 8c 74 f1 b9
       0.09512114 0.13302945 0.082812615 -0.00046053936
000040 97 2b 27 3d dd 8c 29 3e 7d 62 aa bc 92 48 42 3d
       0.040813055 0.16557641 -0.020798916 0.04743249
000050 79 d3 95 bd 8a ee 78 3d e7 32 09 3e 5c f0 24 bd
       -0.07315726 0.060774364 0.13398324 -0.040268287
000060 59 36 5d bd 95 2c 0c bb 78 c7 23 bd f7 1b 1f 3e
       -0.054006908 -0.0021388878 -0.03998515 0.15538011
000070 fd c4 35 3e 17 c0 3d bd cf 9b 19 3d 03 9f 88 3d
       0.17750926 -0.04632577 0.037502106 0.06670954
000080 ee 06 69 bc 4b 36 b8 bd 3a f0 a1 3c f3 88 a6 bd
       -0.014222844 -0.089947306 0.01976787 -0.0813159
000090 1c a0 9c 3d 9b db fb bd 6c be db 3d 1a 25 0d bd
       0.07647726 -0.12297746 0.107296795 -0.03445921
0000a0 4e 50 c2 bc 99 38 07 3e c4 a9 75 3d 79 da a8 bd
       -0.023719933 0.13205184 0.059976354 -0.08244795
0000b0 da a9 d0 3d 58 38 d7 bc 97 59 5c 3d fa 23 67 3a
       0.101886466 -0.026271984 0.053796377 0.00088173116
0000c0 08 96 ab 3d 82 d4 ac 3d 56 3e a1 3d 1b 6c ef 3d
       0.083782256 0.0843897 0.07873218 0.11690541
0000d0 c5 f2 d6 3d 63 43 d1 3d 0a 79 23 bd 9a 8c 0a be
       0.10495523 0.10217931 -0.039910354 -0.13530198
0000e0 bb bc 03 3e ea cb 92 3c 36 fb 4c 3b 70 e7 0b bd
       0.12864964 0.0179195 0.0031277663 -0.034156263
0000f0 07 8a 6a bc 1c b4 2e 3e 36 21 6e 3d 0d 2c fd bc
       -0.014315135 0.17060894 0.05813714 -0.030904794
000100 52 59 08 3b 5e 62 2a 3d c3 12 0f 3c a8 21 ad bb
       0.0020805192 0.041597717 0.0087325005 -0.005283553
000110 89 5d 44 3d a9 05 05 3e 33 45 a5 3e 18 e1 a6 3c
       0.047940765 0.1299044 0.32279357 0.020371005
000120 cd bf 00 be 8a 76 9e bd 24 3d f2 3d c6 00 92 3d
       -0.12573166 -0.07737453 0.11828068 0.07129054
000130 5a c9 13 3c ba 02 59 bd 62 b8 ed bc f6 9c cc bc
       0.009020174 -0.052981116 -0.029018585 -0.024977189
000140 28 59 90 3d 9f 99 25 3e 64 a5 93 bd 3e 56 9a 3d
       0.07048255 0.16171883 -0.0720928 0.07535981
000150 11 9c 2c 3d ae 42 d6 3d 2b 70 c9 bd 1d 90 1c 3e
       0.042141024 0.10461937 -0.098358475 0.1528935
000160 2f cc f7 3d ff 3c 97 ba ee 95 e3 bd 10 b0 17 3b
       0.12099492 -0.0011538564 -0.11112581 0.0023145713
000170 93 56 9c bd 65 3b 96 bd 89 57 f0 3c e4 17 68 bd
       -0.076337 -0.07335547 0.029338615 -0.05666341
000180 30 ca f9 3d e0 fa e9 3d 36 60 d9 3d e0 58 ea bc
       0.12196767 0.11424804 0.10614054 -0.028606832
000190 d0 bc 6b bc c6 1b be 3d 72 f8 24 bc 7f 66 6b 3d
       -0.014388278 0.09282641 -0.010069 0.057470795
0001a0 7c 55 51 3c c4 19 5d 3d 5f c6 3c 3d 0c 4b 98 3c
       0.012776729 0.05397965 0.04608762 0.018590473
0001b0 74 4a ee bb 75 ec 11 3d 19 75 e4 3c 76 c9 35 3d
       -0.007272059 0.035625894 0.027887868 0.04438158
0001c0 4d 6c c5 bd 62 44 f0 bc ca 4b bb bd b6 d5 b6 3d
       -0.09639797 -0.029329482 -0.09145315 0.08927481
0001d0 65 69 0d bd d9 4f af bd 33 db 50 3d ec f6 d7 3d
       -0.03452434 -0.085601516 0.050990295 0.105451435
0001e0 55 cf 27 3b a2 24 70 bc 1f c0 96 3b 25 db ac 3b
       0.0025605757 -0.014657171 0.0046005393 0.0052751475
0001f0 ee a3 16 bc 40 2f 95 bd ba b6 8f 3c a8 9e 37 3d
       -0.009194357 -0.07284403 0.017543186 0.04482904
000200 e8 01 ae 3c 06 88 04 bb 5d 16 5d bd f8 5c dd bc
       0.021241143 -0.0020222678 -0.053976405 -0.02702187
000210 8c 6b 0d bd 17 4e b4 3d ff dd 14 3c 8d f8 c7 bc
       -0.034526393 0.08803957 0.009086131 -0.02441051
000220 f1 61 14 3d 90 6b ac bd 08 44 8a bd 65 87 88 3b
       0.036226217 -0.084189534 -0.06751257 0.004166531
000230 cc 03 24 bd c7 63 c2 bb 30 ce dc bb 0a b8 0f bc
       -0.040042683 -0.0059323045 -0.0067384467 -0.008771906
000240 15 b1 59 3d 91 cd f1 3c 51 ed 50 3d 08 0e 49 3d
       0.053147394 0.029516967 0.051007573 0.049085647
000250 c7 74 40 bd 81 9c 05 3c b2 8e 4f bd 39 da a5 3d
       -0.046986368 0.008154989 -0.050673194 0.08098263
000260 d1 c7 3e bc a5 00 04 3d 20 c9 af 3d 25 1a b2 bd
       -0.01164432 0.032227177 0.085832834 -0.08696393
000270 31 cb a6 3c ea 98 4b 3d 3c 11 b2 bd cf 76 c4 bc
       0.020360561 0.049706377 -0.086946934 -0.023982434
000280 15 12 db 3c 85 2f 0b be 28 e9 5f bd 7b 50 dd bc
       0.02674202 -0.13592346 -0.054665715 -0.027015915
000290 c1 40 6a 3d b9 da 6e 3d 54 6a a5 3d 73 7a 97 bd
       0.05719066 0.05831406 0.08076921 -0.07396402
0002a0 d8 e6 f6 bc f5 3e 85 3d b2 2a 98 bc a6 51 2d bc
       -0.030139372 0.06506149 -0.018575046 -0.010578549
0002b0 be f9 a1 bd 2e 66 a4 bd 70 0c 3f 3c 82 d1 92 bd
       -0.07908963 -0.08027302 0.01166068 -0.07168867
0002c0 2e e6 0f 3c 06 db 83 3d 90 b1 84 3d 90 da 6c bd
       0.008782906 0.0643826 0.0647918 -0.057825625
0002d0 e4 c9 32 bd 26 ee 5a bd 0d d0 05 bd b9 3e b8 3d
       -0.04364957 -0.053449772 -0.032669116 0.089963384
0002e0 36 4e 33 3b 7a b5 f9 bc 71 93 74 bd 40 29 53 3d
       0.002735985 -0.030482043 -0.059710924 0.05155301
0002f0 c9 f0 21 3c b2 77 32 3d 5c f0 06 3c 15 06 4e 3d
       0.009884068 0.04357118 0.008236017 0.05029877
000300 77 d9 46 bd f1 06 9b bd ca c2 57 3d 42 ba bd 3d
       -0.048547234 -0.07569683 0.052676 0.092640415
000310 cd ae a3 bd 74 4d a2 bd db 0f 5f bd 50 c2 71 3d
       -0.07992325 -0.07924929 -0.05445848 0.0590232
000320 e7 03 0c 3d 32 d0 8d 3d 5b 6b 36 3d e7 80 9e 3d
       0.03418341 0.06924476 0.044535976 0.0773943
000330 01 95 2c 3c 5b 9c 9e 3d 4e 14 ba 3d 4c 0d fe bd
       0.010533572 0.07744666 0.09085904 -0.1240488
000340 ec 87 c7 bd 8f 71 10 bd 08 ac c1 bd 9a e0 7f bb
       -0.09742722 -0.035264548 -0.094566405 -0.0039043785
000350 fd 08 cb 3c bb 55 c2 bd 54 2e 86 3d 04 ae b9 3d
       0.02478456 -0.09489008 0.06551805 0.09066394
000360 53 4d b1 3d bd 21 a2 3d a6 7a 0f 3d c9 45 99 bd
       0.086573265 0.07916591 0.035029076 -0.074840136
000370 16 60 3b 3d d1 36 be 3c bd 41 24 bd f6 33 9d bd
       0.04574593 0.023219498 -0.040101755 -0.076759264
000380 b4 2b b1 3d 51 be 52 3d 0c a5 83 bd fd 1f 29 3e
       0.08650914 0.05145103 -0.064279646 0.16516109
000390 0e 9a 85 3d 37 e5 bc bd bb 1b 19 bd 0a 5e 01 3d
       0.06523524 -0.09223407 -0.03737996 0.031583823
0003a0 46 5c a0 bd 7a 11 f9 bd 4e 16 67 3d aa b7 16 bd
       -0.078301 -0.121615365 0.056417756 -0.03679625
0003b0 a2 73 d6 3c 47 4a e0 bd 77 21 2b 3c 5b 78 2d bd
       0.026178185 -0.10951667 0.01044499 -0.042351108
0003c0 25 d9 be bd fd 2b 63 3d b8 26 dd 3d 57 39 50 3d
       -0.09318761 0.055461872 0.10798401 0.050835934
0003d0 31 27 b1 3d 2d 29 02 be 9d ff ca bd 2b 22 99 3d
       0.08650053 -0.1271102 -0.099120356 0.0747722
0003e0 ee 04 8b bc 97 72 eb 3b 7f 92 bd bd e0 a0 65 bd
       -0.016970124 0.007185291 -0.092564575 -0.056061625
0003f0 01 3c 69 3c f6 70 1a 3c 6f 1b e1 3d 6e 99 14 3d
       0.014235497 0.009426346 0.10991561 0.036279134
