metrics_best_runs/cnn_enc_dec/0087.model (torch_old, 96732 bytes, 79 tensors)

weight f4 [16, 1, 3]
00000000: 6e9e e33e bf85 2c3d bf3c d3be 3ff1 16be
00000010: 0a55 853f e45a dbbc 5512 933e c4f3 d7be
00000020: 14c2 933e 4c26 ba3e f1cc 9cbe b12d 3bbf
00000030: 56aa 44bf 934d 88be 7143 16be 2530 fbbe
00000040: d8ce 173f e8f1 a2be dee0 b0be e0ee 723e
00000050: 16ab b93e 7a49 1dbf 344a 5bbe 1c3b 1c3f
00000060: 4a5d 22be b730 41bf cb53 53be 5175 ca3d
00000070: 264a 1f3e a72c 063f 434d 883e 1dbe 313f
00000080: 5457 973e e1c1 ff3c 9ca9 9ebe ca1e 983e
00000090: 310b 0a3e e17b 883d b182 3b3f a498 96be
000000a0: 4378 d4be 4964 833e 32c3 a53e 4985 0b3f
000000b0: b849 c4bd 486c 8a3e b42a ddbe 01dc 633d
0.4445681 0.042119738 -0.41257283 -0.14740466 1.0416577 -0.026776738 0.28724924 -0.42178166
0.28859007 0.36357343 -0.30625108 -0.73116595 -0.7682241 -0.26621684 -0.14674164 -0.4906017
0.59299994 -0.31825185 -0.3454656 0.23723936 0.3626334 -0.6144024 -0.21415025 0.61027694
-0.158559 -0.7546496 -0.20637433 0.098856576 0.15555629 0.52411884 0.26621446 0.69430715
0.29558814 0.031220378 -0.30988777 0.2971099 0.13480832 0.06664253 0.73246294 -0.2941333
-0.41498002 0.2566245 0.32375485 0.5450025 -0.09584373 0.27035737 -0.43196642 0.055629734

bias f4 [16]
00000000: 8b97 353e 935b 10be c196 c03e 0277 a23e
00000010: dfa1 123d c80d 14bf 9599 c73e 3372 c3bc
00000020: fc49 e7bd c609 9bbe 2213 913e d28f bbbd
00000030: 4e5c b33e c4ad 513e c792 bfbe 10fb 273e
0.1773359 -0.14097433 0.37615016 0.3173142 0.035798904 -0.5783353 0.3898436 -0.023858165
-0.11293408 -0.30280894 0.2833491 -0.09158291 0.3503136 0.20476443 -0.3741667 0.16404366

weight f4 [16]
00000000: c9e2 573f cb84 113f 76d9 f53e 732b 423f
00000010: 18ac 203f 0449 343f 3b94 bb3e e4b9 5e3f
00000020: 4534 143f 2120 e63d c7a0 b53c 0d3e 0d3f
00000030: 4e96 b63e 8ebc 063f 9484 533f 8310 293f
0.8433042 0.5684325 0.48017472 0.7584755 0.62762594 0.70423913 0.36636528 0.87002397
0.57892257 0.11236597 0.022171391 0.55172807 0.35661548 0.5263146 0.82624173 0.6604082

bias f4 [16]
00000000: d917 243e 97a4 413e cbb7 a73e 92e5 2f3e
00000010: 7be9 f03d 84f0 043e ce15 c53d 24e9 763e
00000020: 80c4 143e 1474 703d cf73 81bd e4c9 b23d
00000030: 6545 bb3d 8354 0d3e cebc 813e f669 583e
0.16024722 0.18910442 0.3275741 0.17177418 0.11763283 0.12982374 0.096232995 0.24112374
0.14528084 0.05870445 -0.06320917 0.08729914 0.09144095 0.1380177 0.2533936 0.21134171

running_mean f4 [16]
00000000: 92c3 353e 79a1 08be 5533 c03e 561d 9e3e
00000010: 37e8 d63c eeb2 14bf b33f c83e 9fee e3bc
00000020: 5942 fcbd bacc 97be 09eb 963e 942f bbbd
00000030: 0e74 b83e cd0e 4f3e 1892 bcbe d040 273e
0.17750385 -0.13342847 0.37539163 0.30881757 0.026233776 -0.58085525 0.391111 -0.027823744
-0.12317342 -0.2964838 0.29476193 -0.09139934 0.36026043 0.2022049 -0.3683021 0.16333318

running_var f4 [16]
00000000: cb9b 033d d95b 0a3e c033 643b d3f8 ea3d
00000010: d5c2 4d3e cf39 023c acb7 013d 19c3 923d
00000020: f86d 413e 75af b23d a397 6a3e 182c 883b
00000030: 372c 013e d967 3f3d 08b5 c93d 4a37 f43b
0.032130998 0.135116 0.0034820884 0.11473241 0.20093854 0.007948353 0.031669304 0.07166118
0.18889606 0.08724872 0.22909407 0.004155647 0.12614523 0.046729896 0.09848982 0.00745288

weight f4 [16, 16, 3]
00000000: 1a7b 1a3e 1e5b 0bbe c0bd 96bd 4f15 90bc
00000010: 4acb 11bf 36ce 6ebd ed3f 0e3e 22da 8abe
00000020: 05d7 453e e8a6 953e e132 7fbd 739d c03c
00000030: b967 b7bd b60b 1d3e c48d 2a3c 9c7f 6ebe
00000040: 1d21 c3bd e9de 88bd 89b6 b1be a990 fbbd
00000050: fe6e 013f 4118 5abe dc7d 14bd ea34 9a3e
00000060: 0c7e d83d a56d 9dbe 627a 793e 01fd 02be
00000070: 9df4 9cbd 6f85 c13e 890f 22b9 1d3a 7dbe
00000080: 6646 e6bd 0c1b debe 7ac0 e63b 6854 4f3e
00000090: 5b8b 37be d073 c3bc 00a3 8f3e 52cf 623d
000000a0: 7e14 e93d d2a0 873e 9bb0 463e f015 40bd
000000b0: aad3 eebe 3924 8b3e 58f2 f5be 631a 133e
000000c0: ecdf cdbe 3f3c be3d af46 89be 1553 34be
000000d0: 1ddd 463c 4b12 10be c013 693e 2ce7 13be
000000e0: 375d 623e 4909 04be 2341 02be d8e8 d33d
000000f0: b7ed 0b3e 985a 813d 47cd f63c 146d a73e
00000100: 5aae 903e bca7 04bd 052d 433e ca64 3c3e
00000110: 8ef1 fabe 1601 423e c999 033d 1730 65bf
00000120: 5c56 a6bd 8d85 d6bd cae2 3abd 6446 5b3e
00000130: da78 59be a03d 9e3b bee3 77bd 8485 b63d
00000140: 6347 01bd daae 363e 4393 46be 5589 0abf
00000150: a2b7 4f3e 052b 77be 68ad 7ebd d0c5 8f3d
00000160: 0c79 89bd 56ed 18be f9a5 00bd 855d 023e
00000170: 4faf 13be 69f2 f7bc 2994 f6be 4592 5dbd
00000180: 26ad b7bd ad69 073c f93e cbbd ba4a 60bd
00000190: 8a08 eebc ddc5 703d d5c8 b8bd 9a2c 983d
000001a0: ebfb 973c 325d 08be cbb6 e1ba 43a0 cdbd
000001b0: 668e f13d e004 eebd 4ca4 5bbd 1237 17be
000001c0: d149 893d f358 e9bc 467b eebc a41d a83d
000001d0: 6feb db3c d0d7 a1bd 78af 193d 8521 04be
000001e0: d52d ae3d 08ba 873d 7227 f2bd 7c27 5b3d
000001f0: e48f c2bb 37c7 cebd cd36 093e 6fbf 1b3e
00000200: 7ece 81bd 5c18 94bd 4fd1 a1bd 33c7 f7bc
00000210: 68df 903d 1c7d d33b b6e1 923d 2a8d 06be
00000220: a70c 55bd 68d5 c0bd a3b7 b63d 03eb b53d
00000230: 280d b13c 03c0 a73d bd67 73bd 7ced c83d
00000240: edb5 a7be e75e 03bf c6b4 b33d 90f7 7cbe
00000250: 01d0 d9bd 6022 1d3e 6062 bcbe a446 80be
00000260: d71e 03bf d099 5c3e a3c6 473d 1e15 01bf
00000270: 2031 babd f9a2 163e eb1a 65b9 b4d3 8dbe
00000280: 8c31 94be d731 18be 2b03 adbe f080 003d
00000290: 7af3 49bd 0cca 72be 7d3a 3b3d dc4b 873e
000002a0: cbdf 013e 77d0 ae3d 5233 a9be 602a 92bd
000002b0: f80a 85bc 3d97 0f3c 1181 fbbb 8e46 4dbd
000002c0: ee9a ca3c fcc6 13be d7ce 793d 7fca 74be
000002d0: dd35 2ebe 2280 95bc 39ff 263e 04db 8a3d
000002e0: e044 e33d 8a2a d8bc c450 14be 7551 95bd
000002f0: 88f9 4a3e 790d 18bd b0f5 babd 4069 ccbe
00000300: d516 093f db3f 4ebd 0d52 ab3e 32e3 dd3d
00000310: 28f7 6e3e f5dc 65be 2eba 053d 4fb6 6b3e
00000320: 3ca9 103e b17f cb3e 8ed0 353c 3ef2 e13e
00000330: d0a2 0c3d 2b7b 743e 7ce1 6b3d f17a 41be
00000340: 12db 423e 8abd 5a3e 2fcc 6e3e 4c72 d1bd
00000350: 6294 7bbd 8328 6a3e f21d 2ebd f0de 82bd
00000360: 1462 6e3e 6a8f 7c3e 0a24 913e 67b6 283e
00000370: 72a1 8d3e 308b 0abf 85bb e93c 2049 5b3e
00000380: 0da3 6fbe 2de1 18be b648 c0be d923 df3d
00000390: e6aa 723e f191 943e 3a06 37bf 5882 20be
000003a0: d574 84bd 9609 383e 312a 543e d7b3 503e
000003b0: cbf4 193e 80e1 3e3e 0f9a 6bbd 94ae 9e3e
000003c0: 6e7a 9e3e da8b 94bd e9df 76be 1974 123c
000003d0: 3984 e73d 8c25 413f 7ace 613e f475 a3be
000003e0: 47a3 08be b21f 36be 4cba df3c e82f f03d
000003f0: 0cf0 b7bc a91e 0dbe 953a 99be 21fb afbd
0.15086022 -0.13608977 -0.07360411 -0.017588286 -0.5695082 -0.058302127 0.13891573 -0.27119547
0.19320305 0.29228902 -0.06230438 0.023512578 -0.089553304 0.15336499 0.010409776 -0.23290867
-0.095278 -0.06683142 -0.34709576 -0.12283451 0.50559986 -0.21298315 -0.03625284 0.30118495
0.105709165 -0.30747715 0.24363092 -0.12791826 -0.07663844 0.37797114 -0.00015455311 -0.247292
-0.11243896 -0.4338001 0.007041988 0.20247042 -0.17924254 -0.023858935 0.28054047 0.055373497
0.11380862 0.26489884 0.19403307 -0.04689592 -0.46645862 0.27176073 -0.48036456 0.14365534
-0.402099 0.09288835 -0.2681174 -0.17609818 0.012137678 -0.14069478 0.2276144 -0.14443654
0.22105871 -0.12894167 -0.1272016 0.10347146 0.136649 0.063161075 0.03012718 0.32700408
0.2825802 -0.032386526 0.19060142 0.18397823 -0.49012417 0.18945727 0.032129083 -0.89526504
-0.081219405 -0.104746915 -0.04562644 0.2141357 -0.21237507 0.0048291236 -0.060519926 0.08912185
-0.03156222 0.17840138 -0.19392113 -0.541158 0.20284894 -0.24137504 -0.06217709 0.070201516
-0.06712541 -0.14934286 -0.031408284 0.12730987 -0.14422344 -0.030266957 -0.48159912 -0.05409457
-0.08968572 0.008264941 -0.099241205 -0.054758765 -0.029056806 0.058782447 -0.09022681 0.07430382
0.018552741 -0.13316801 -0.0017220614 -0.10040333 0.117947385 -0.116220236 -0.053623483 -0.14767101
0.067035325 -0.028484797 -0.029111516 0.082087785 0.026845662 -0.07902491 0.037520856 -0.12903412
0.085048355 0.066272795 -0.1182393 0.053504452 -0.0059375633 -0.10096591 0.13399811 0.15209745
-0.063382134 -0.07231209 -0.079012506 -0.030246353 0.07073861 0.006454123 0.07171957 -0.13139787
-0.05201402 -0.09415704 0.08921745 0.088827156 0.021612719 0.0819092 -0.059425104 0.098109215
-0.32755986 -0.51316684 0.08774714 -0.24703813 -0.10635377 0.15345144 -0.36793804 -0.25053895
-0.5121893 0.2154305 0.04877342 -0.5042285 -0.09091401 0.14710607 -0.0002184917 -0.2770058
-0.2894405 -0.14862762 -0.3379148 0.031372964 -0.049304463 -0.23709887 0.045710076 0.26425064
0.12683026 0.08535855 -0.33046967 -0.07136989 -0.016240582 0.008764085 -0.007675298 -0.050116114
0.02473208 -0.14431375 0.060988273 -0.23905371 -0.17012735 -0.018249575 0.16308297 0.06780055
0.11097121 -0.026387472 -0.14483935 -0.07290927 0.19821751 -0.037122224 -0.091288924 -0.3992405
0.53550464 -0.050353866 0.33461037 0.1083435 0.2333647 -0.2244757 0.032648258 0.23018764
0.14127058 0.39745858 0.011097087 0.4413013 0.034334958 0.2387511 0.057588086 -0.18894555
0.19028881 0.21361366 0.23320077 -0.102268785 -0.061420806 0.22867016 -0.042509027 -0.06390178
0.23279601 0.24664083 0.28347808 0.16475831 0.27662235 -0.54118633 0.0285318 0.21414614
-0.23402043 -0.14929648 -0.37555474 0.10895509 0.23698005 0.29017594 -0.71493876 -0.15674722
-0.064675964 0.17972407 0.2071922 0.20381103 0.15034787 0.18640709 -0.05751997 0.30992568
0.3095278 -0.07253237 -0.24108852 0.008938813 0.11304516 0.75447917 0.22051421 -0.3192593
-0.13343535 -0.17785528 0.027310513 0.117278874 -0.02245333 -0.13781227 -0.29927507 -0.08592821

bias f4 [16]
00000000: cb13 823d a761 823c f421 0abd 0c85 60bd
00000010: a541 b23d 372c b33d a10c d4bd a013 40bd
00000020: bf88 a03c 1c64 83bd 82be 8e3c 01ab 143d
00000030: 2c95 3abd 2e34 61bd 4fd0 ca3c 44eb 90bc
0.063514315 0.015915705 -0.033723786 -0.054814383 0.08703927 0.08748668 -0.10353971 -0.046893716
0.019596456 -0.06415579 0.017424826 0.036295895 -0.045552418 -0.054981403 0.024757532 -0.017690308

weight f4 [16]
00000000: fd9f b03e c882 523f 7f44 143c a915 003f
00000010: 0fd0 863e c374 f73e 6e4e c83e a918 023f
00000020: 2606 643f 37f6 613f 820d f33e 7eb4 ab3e
00000030: 537b 9e3e 7f00 5f3e 5c70 6a3f 33f7 593f
0.3449706 0.82230806 0.009049534 0.5003305 0.2633061 0.4833127 0.39122337 0.5081888
0.8907188 0.8826632 0.47471243 0.33536142 0.30953464 0.21777533 0.91577697 0.8514282

bias f4 [16]
00000000: 3076 913e 5a62 05be b390 0bbd 0f35 a0bd
00000010: 694d 33be d65b 3fbe be3c eebd 5819 c6bd
00000020: 572a 8d3c 4d8c 013d b9c6 a0bd fc2d 1ebd
00000030: 00f6 69bd ddc1 5f3e 1b7a 62bd 4061 14be
0.28410482 -0.130258 -0.034073543 -0.0782262 -0.17509998 -0.18687376 -0.116326794 -0.09672803
0.017232103 0.031627942 -0.07850403 -0.038618073 -0.05711937 0.21851297 -0.05529223 -0.14490223

running_mean f4 [16]
00000000: 3a40 88be e932 91bf 1e4f b8be 5869 fabf
00000010: 80b3 0a40 35a3 e03e a793 f6bf 3b91 87bf
00000020: 64c6 98be c5bc 12bf e7de b83e 2c03 9bbf
00000030: 9a11 83bf 4148 fabe ac24 0bbf 7613 23bf
-0.266115 -1.1343662 -0.35997862 -1.9563398 2.1672058 0.43874517 -1.926381 -1.0591196
-0.2983886 -0.5731929 0.3610756 -1.2110343 -1.0239747 -0.4888325 -0.5435283 -0.6370157

running_var f4 [16]
00000000: 6188 c83f 67ef ee3f 3695 b13d 7343 fe3f
00000010: f6aa c53f 2391 813f 591f e13f 6887 4a3f
00000020: c994 d03f 7f67 3e40 cdc7 ea3f b83a 1140
00000030: e6ea 2a40 72f2 483f ecba 0340 ee8b ab3f
1.566662 1.866681 0.08671038 1.9864334 1.5442798 1.0122417 1.7587692 0.79112864
1.6295406 2.975067 1.8342224 2.269209 2.670587 0.7849494 2.0582838 1.3402078

weight f4 [16, 16, 3]
00000000: 2e82 23be f980 67be c93f e2bd 25e1 8a3e
00000010: 85a6 123e 9a71 e33d 8719 083e 48ec a03b
00000020: 98f2 24be d2c0 2fbd 7ed2 6dbe e509 c8bc
00000030: 15e0 5dbd 8d5b 43bd 5877 15be c040 8f3e
00000040: f37a 013e cb50 b6be c231 2dbd c249 60be
00000050: 781c 963e 9746 ba3d 8cb9 7f3e bab0 473b
00000060: d4f2 c2be 64b4 aa3d aed9 0e3e b6e9 ab3e
00000070: c3cf 9dbd 47db 8ebe 8e04 423e ffa3 1cbd
00000080: 8eb5 023e 9ecd ddbe 66c9 de3e 017a c0be
00000090: 8b6a 26be b7d1 3bbe 4851 8c3d 8679 b33c
000000a0: 2dae 2e3e 41f8 823d 9057 313e 210d f6bd
000000b0: 8441 b2be f127 22be 5755 133d 777d cabe
000000c0: 9149 5b3e 601a 123d e62e a2be 2aa6 95be
000000d0: 2341 45be 9f6e ed3d e4db d33c 5717 323d
000000e0: 5512 153d cb20 1abe 0652 123e 7dbb 30be
000000f0: 35ec f23e a9fc aa3d 1468 0cbe 08df 1dbe
00000100: 64bd cabd 97cd b13d 581b 593e 8976 e4bd
00000110: a4a0 ac3e 7326 843c 5c1a 943e 81e2 033e
00000120: 32e8 9f3e 0b28 083e 0a5a 3cbe 1b04 d6be
00000130: bc0d b53e d7bc 323e a959 983c e82c 53bd
00000140: 6882 36bd 1ad7 b83d 818e d3be 0271 f33e
00000150: 51ad ed3c 043b 62bd c86f 35bd 4608 c23e
00000160: a009 01bd e31b d0bd cc29 60be bff1 463c
00000170: d753 37be 37bd 683e 4925 81be 280a 67be
00000180: 0a50 bcbd 0fbf 5ebd 2722 e3bc 66fd 243e
00000190: ec36 0b3e e3bc 16be 67bb 6ebd 255b f93d
000001a0: f8ec bebc bbae 0cbf c96a 413c 34d3 7e3e
000001b0: 15c6 01bf 3524 b3bd 7a97 6cbe 330b 853e
000001c0: 4f8c f33d 802a 143e a623 2b3c 0e5b 1fbf
000001d0: f4ba 5d3e 5dea 68be 67cb 193e af9e 9c3d
000001e0: ebec d43e 7d63 debe 8a73 91be c457 933e
000001f0: a2f2 a7bd 69d2 a1be 90ab 36bd 2af5 0abe
00000200: 4d1c c3be e332 733e 28da 1f3e bfdd 6bbe
00000210: b214 c63e 4d35 303e a6a9 cb3d 8965 11be
00000220: 5735 d4be 13d7 0e3e bfe7 3ebe bab2 babe
00000230: 7acc 46bd 98b1 8f3d 5e6f cb3d 6edd 543e
00000240: 1234 c63d dafd 063a 3aa6 483c cc0e 783e
00000250: 1e8c 9cbe f497 003e 3d92 adbd 140d 78bc
00000260: f3ed afbd 0916 0e3f 5574 d83d ae54 34be
00000270: 8456 313d 96b2 74be b131 763e 4075 53be
00000280: 9956 c23d c358 053f b910 b73e d686 39be
00000290: b498 0abe bead bd3d b652 c63e 67a6 c1be
000002a0: 73de 52be 63cf 6abe 9397 c1bd c523 063e
000002b0: 187b c1be 5b55 84bd 5164 733e 2596 7c3d
000002c0: 7409 34bd 8065 d13d 831b 13be 74ae 03be
000002d0: b087 83be b2e8 c6bc a7d6 5fbc 7e89 073f
000002e0: 188a 9d3d 27c6 4ebd 5a6c 913e 118e 3f3e
000002f0: 9038 58be 354f 20be 0e4f f3bd d3e1 8e3e
00000300: 9dc7 93bb 1f57 1cbe 7889 ab3c 2613 673d
00000310: deb3 653d a6d7 07be d6bf 4ebd ae9a c1bd
00000320: 00fc e6bd 05d3 41be 6548 bb3e 4a2d 97be
00000330: 691f f3bd fca8 0bbe 44a1 273c 72df 2bbe
00000340: 0d6c a2be cca3 153e 6c49 a0be 9279 dabe
00000350: ccbe df3e 9219 c9be b13e bf3d b6a9 da3c
00000360: 0aa7 9bbe e937 a0be f793 723d 7f76 983e
00000370: 2178 a83c dd1d c1be ed12 fdbd 0df3 8bbd
00000380: 6f25 7ebe 482d cfbe 7ae1 8dbe 9147 40be
00000390: 4680 ce3a 13dc 42bb b731 243e 108f ee3d
000003a0: 78c1 0ebe 2033 22bd 3117 373e 0dd3 47bd
000003b0: 3c02 743e eb90 c9be 1dd3 54be eff2 9fbc
000003c0: 2964 e73c c0d6 34bd e23a acbc 1190 33be
000003d0: 6c9c 873e 7ee9 94be b2e6 ee3d cf1b d8bb
000003e0: a15c 9d3d 0f13 e73c 310d 29be 7162 693e
000003f0: 1085 913e f75e 04be 79ca d03e b7e3 373d
-0.15967628 -0.22607793 -0.11047322 0.27124897 0.14321335 0.11105652 0.13290988 0.0049109794
-0.16108167 -0.042908497 -0.23224828 -0.02441878 -0.05416878 -0.04769473 -0.14596307 0.27979088
0.12644558 -0.35608515 -0.04228378 -0.21903136 0.29318595 0.09095495 0.24973124 0.0030470327
-0.38075888 0.08335188 0.13950226 0.33576745 -0.07705643 -0.2790167 0.1894705 -0.038242336
0.1276457 -0.43320936 0.4351303 -0.37593082 -0.1625158 -0.18341719 0.06851441 0.021908533
0.1705863 0.06395007 0.17318559 -0.12014223 -0.3481561 -0.15835549 0.03597006 -0.39548847
0.21414782 0.035669684 -0.31676406 -0.29228336 -0.19263129 0.11593365 0.025861688 0.04347929
0.036394436 -0.15051572 0.14289102 -0.17259021 0.47445837 0.08348972 -0.13711578 -0.15417111
-0.09899405 0.08681791 0.21201837 -0.11155421 0.3371631 0.016131615 0.2892636 0.12879373
0.31231838 0.13296525 -0.18393722 -0.41800007 0.3536204 0.17454849 0.01859744 -0.051556498
-0.04455796 0.09025402 -0.4131966 0.47547156 0.029013308 -0.055232063 -0.044296056 0.37896937
-0.03150332 -0.10161569 -0.21890944 0.012142598 -0.17903076 0.2272843 -0.2522376 -0.22562468
-0.09194954 -0.054381426 -0.027726246 0.16112289 0.1359517 -0.14720492 -0.05828419 0.121755876
-0.023306355 -0.5495412 0.011805245 0.24885255 -0.50692874 -0.0874714 -0.23104659 0.25985107
0.11891996 0.14469337 0.010445511 -0.62248313 0.21653348 -0.22745652 0.15018998 0.07647454
0.41587004 -0.4343528 -0.28408462 0.28777897 -0.082005754 -0.31605843 -0.04459721 -0.13570085
-0.3810753 0.2374988 0.15610564 -0.23033808 0.38687664 0.17207833 0.09944467 -0.14198889
-0.41446945 0.13949232 -0.18643092 -0.36464483 -0.048534848 0.07016295 0.09933351 0.20787594
0.096779004 0.0005149521 0.012246663 0.24224395 -0.3057565 0.12557966 -0.08475158 -0.015139837
-0.08590307 0.5550237 0.105690636 -0.17610428 0.0432954 -0.2389625 0.24042393 -0.20650196
0.094891734 0.52088565 0.35754946 -0.18117842 -0.13534814 0.09261654 0.38734978 -0.37822267
-0.2059267 -0.22930674 -0.094527386 0.13099582 -0.37789226 -0.06461593 0.23768736 0.061666626
-0.043954328 0.10224438 -0.14365964 -0.12859517 -0.2568946 -0.02428088 -0.013662017 0.5294417
0.07692355 -0.05048194 0.28402978 0.18706538 -0.21115327 -0.15655215 -0.11880313 0.27906665
-0.0045098797 -0.15267609 0.020939574 0.056414746 0.056079738 -0.13265857 -0.050475918 -0.09453331
-0.11278534 -0.18928154 0.3657867 -0.2952674 -0.118712254 -0.13638681 0.01023132 -0.16784456
-0.3172306 0.14613265 -0.31306016 -0.42670876 0.43700254 -0.3927732 0.09338129 0.026692253
-0.30400878 -0.31292656 0.05922314 0.29777905 0.020565094 -0.37718096 -0.123571254 -0.06833468
-0.24818967 -0.40464234 -0.27711087 -0.187773 0.0015754781 -0.0029733225 0.1603459 0.11648381
-0.1394099 -0.039599538 0.1787994 -0.048785258 0.23828977 -0.39368376 -0.20783658 -0.01952502
0.028246002 -0.044150114 -0.021024171 -0.17535426 0.26486528 -0.2908439 0.116650954 -0.006595112
0.07683683 0.02820733 -0.16508938 0.22791459 0.2842183 -0.12926851 0.40779474 0.0448949

bias f4 [16]
00000000: bd76 953d a125 a03d 7170 19be 560e a4bd
00000010: 609f abb8 0ba5 bebd 24ee f23d a4ee e8bd
00000020: 5c56 bdbd cf3a 29bd 9483 7abd 8df2 eabd
00000030: c85c 143c 511e 613e d642 e23d 8baf 08be
0.07298038 0.07819677 -0.14984299 -0.08010547 -8.183601e-05 -0.09308823 0.11861828 -0.11373642
-0.09244987 -0.04131585 -0.06116064 -0.11472044 0.009055324 0.21984221 0.11047904 -0.13348214

weight f4 [16]
00000000: 2d32 373f db9e 5a3f c69b 853e efac 843e
00000010: 125d 343f e01d eb3e c0dc 983e fc79 bc3e
00000020: 14ad 9e3e 9f7b b83e 81b2 173f 9948 5b3f
00000030: 195a 8c3e a40c 883f 836a 2c3f 7143 c73e
0.7156094 0.85398644 0.26095408 0.25913188 0.70454514 0.4592123 0.2985592 0.36811817
0.30991423 0.36031815 0.5925675 0.8565765 0.2741249 1.0628858 0.67350024 0.3891864

bias f4 [16]
00000000: 53b1 4f3c d586 393e 8fed b83d ce1b db3e
00000010: a8a9 ebbd 9a23 e4bd 6cae cebd b744 abbd
00000020: 49db 3b3e dba4 debd 8abc 893d 8b93 ba3c
00000030: 182f 873e 993e 52be e741 b33c ce6f 47bd
0.012676555 0.1811784 0.09029686 0.4279465 -0.11506969 -0.11139603 -0.10091862 -0.08362716
0.1834537 -0.108712874 0.06725414 0.022775432 0.26403117 -0.20531692 0.02188201 -0.04869061

running_mean f4 [16]
00000000: 5216 b8be e3e4 cc3b 55ce 49bf f811 843d
00000010: 989d 6dbf a82e cbbe 40ff 113e 732d b3be
00000020: 3252 96be 2481 48bf b3d6 583e f8fd dfbe
00000030: 3f4d a63e fb4c 30ba 3fe6 8abe 4bb5 663e
-0.3595453 0.0062528714 -0.7883046 0.0644874 -0.92818594 -0.39684033 0.14257526 -0.34995613
-0.29359585 -0.7832205 0.21175651 -0.4374845 0.3248081 -0.0006725338 -0.2712879 0.22530095

running_var f4 [16]
00000000: 708b 533f f649 9a3f c917 693e 5322 953e
00000010: dd72 053f bc0a 873e c84b a53e 0898 b73e
00000020: 79da 013f fb5a 643f 90a3 b33e 58b4 5b3f
00000030: 8fa0 ae3e 1648 943f 11d6 233f 3280 363e
0.8263464 1.2053821 0.2276298 0.2912775 0.5212839 0.26375377 0.3228438 0.35858178
0.5072399 0.89201325 0.35085726 0.8582206 0.3410687 1.1584499 0.63998514 0.1782234

weight f4 [16, 16, 3]
00000000: 3782 72bd 2597 cfbd da6c 22be 2130 9dbe
00000010: 3839 57bd 9bab 8fbe 8cd8 563e 6095 d3bb
00000020: d4ff d13b 0d5d 58be 2d7c 83be a3d6 91be
00000030: 4357 d7bd 56c7 88bd 5a49 03be 9bc5 fe3c
00000040: caea e93e 7c34 3ebe ff27 1abe 7fa4 7fbc
00000050: 31bd a83d 43fb 8ebe 3902 dabd 05c0 c63e
00000060: 44b0 8dbd 27f1 a7be 2683 b53e 66dd c73e
00000070: 572c 933e 235a e03e 8e86 f33d a092 babd
00000080: f565 73bd 5989 30bd feae 083f 97cc d83c
00000090: 174e eb3c bdd5 a5bd a3be 48be 4557 aebd
000000a0: 8636 e23e 8c30 f53c 0208 8bbc 4aa6 f3be
000000b0: 3459 1ebf e0c8 a1be 9b5d bc3d decb 693e
000000c0: 23ce 6dbd 0bb8 0b3d a078 0d3d e9af 893d
000000d0: b150 d83c 8eef 7fbe f1e8 073e 0fac c03d
000000e0: 82c6 be3c b5f1 42be 5679 de3d 047a 1e3e
000000f0: b5dd 913d 5c8a acbd 3240 4fbe 3dc8 123e
00000100: 180d 723e 4db5 2f3d c81f 3dbe 3b93 c13e
00000110: f5b7 413e 237c 7b3e e574 1a3e 61ab c7be
00000120: 3649 1e3e 0591 bebd fdbd 00bf fe66 7e3e
00000130: 5d13 39be 68a7 acbd 3303 523c f384 d6be
00000140: 53da 023f 37e5 53bc b56e d73d aba3 fabd
00000150: aab1 dcbe 032b 233e 724a 763d af60 9ebe
00000160: c867 2dbe d6c9 853e 292a f5bd d528 1a3e
00000170: 4ee8 39bc 7896 a53e a5be 033e 0f35 a83e
00000180: 0bf7 f2bd 64f7 72be 6b24 593e 0319 50be
00000190: 8ba4 44be 68d8 843e 4809 72bd 8739 6b3d
000001a0: d544 5f3d 8509 133f ffeb 293f 23a9 5cbe
000001b0: a840 56bd 268d e13d 8bf5 3bbd 3ae4 2f3e
000001c0: 5c04 213e e643 bfbd 8848 423d d5a0 b33d
000001d0: 5e7b 0b3e a750 0cbe af1a a6be d7ad 87be
000001e0: 227a 09ba 682d a53e 57ee d1be abf3 8dbd
000001f0: 20a7 b7bc 11df f03e 7ccf 45be d9a9 a23e
00000200: 2940 273e a130 15be 032f a7bd c715 babe
00000210: dcd7 08bd 6a3b 9c3e 12a3 49bd cf49 973d
00000220: a2d1 8f3e 21db 463e 17db 63be 77e8 afbe
00000230: 5db3 903e b2c5 71be 5d71 103e 3dc2 c93d
00000240: 1fb1 a53e 8a59 85be 24ab 04bd f98f d9be
00000250: b086 6b3d ce1e 61bd b578 0ebe ac22 dc3b
00000260: 3939 62be f1d6 0f3e 9163 613d 505d fb3d
00000270: f7d0 4c3e 1951 30bd 209d d7bc c338 5d3e
00000280: e7d4 3abe 354b 95be 2976 55be d263 e3be
00000290: 6668 603c e363 06bf 21d5 4a3e fbd9 243e
000002a0: 8b79 1e3f 486d f8bc 3966 84bd 90c2 2d3e
000002b0: e70b 11bc 9c98 563e 2bb9 783e 5eff 97be
000002c0: 9aef 18be 28eb 5b3e db98 41be 1db2 63be
000002d0: c38d 54bd 4392 243e ab3d b2be 40a9 98bc
000002e0: 1fe6 1bbe 74e4 a3be 660a 293e 9898 2d3d
000002f0: f93c a13e 01ec a13e e7dc 753e da80 94be
00000300: 4813 49bd d4fb 9e3e 5eda 483b c36b f83e
00000310: 240c a1be ee25 15be ea5a a0be d2f4 fa3d
00000320: 3dce 683d ab15 e5be e17b f9bb 534b 8bbe
00000330: 6ff7 ccbe 8507 9fbe 6595 323e 0297 703e
00000340: 0058 7ebe 23a9 963e 77ad bc3e 424a 2c3e
00000350: a75f 933e 8952 43be b5b3 9cbe 87cd 95be
00000360: 3fa2 073e db0c 98be e8b0 f3bd a0ca 3c3e
00000370: 4115 023f a7fa 4bbd 4736 65be 2524 dfbd
00000380: 9081 28be 7b6c 953d 16ab d4be 1ec4 143e
00000390: 8398 dabe 17bc e83d c38b 5b3e ef30 673d
000003a0: 3394 30be de73 003e 2679 04be 5c49 75be
000003b0: f4f1 45be c9f2 2e3c 68a0 bbbd 09a4 e1be
000003c0: 26e4 d0be aeef 9d3e 5669 7ebe 0937 02bf
000003d0: e266 3c3e 20b4 793d 520b 2c3e d23b d2be
000003e0: 421a 9e3e e39e 013e 2f8b 12be 3289 f4be
000003f0: 63db 62bd f64e 98be ba14 543e c423 a0be
-0.059206214 -0.101362504 -0.15861836 -0.30700782 -0.052544802 -0.28060612 0.20981044 -0.006457016
0.006408671 -0.21129246 -0.25680676 -0.28484067 -0.10514691 -0.06678645 -0.1282095 0.031100085
0.45686942 -0.18574709 -0.1505432 -0.015603184 0.082392104 -0.27926072 -0.10644955 0.38818374
-0.069183856 -0.32801172 0.3545162 0.390361 0.28744766 0.4381877 0.11890899 -0.09109998
-0.059423406 -0.043099735 0.53392017 0.026464744 0.02872376 -0.08097408 -0.19603972 -0.08512739
0.44182223 0.029930376 -0.016971592 -0.47587806 -0.61854863 -0.31598568 0.09197541 0.22831675
-0.058057915 0.034111064 0.034538865 0.06723005 0.026405664 -0.24993727 0.13272454 0.094078176
0.023288015 -0.19037516 0.10862987 0.15476233 0.071223654 -0.084248275 -0.20239332 0.14334197
0.23637807 0.04289751 -0.18469155 0.3780764 0.1891783 0.24559073 0.15083654 -0.3899794
0.15457615 -0.09305004 -0.502899 0.24843976 -0.18073793 -0.08430368 0.012818146 -0.41898307
0.51114386 -0.012933067 0.105191626 -0.122382484 -0.43104297 0.15934376 0.06012959 -0.3093314
-0.1693412 0.2613055 -0.11970932 0.15054639 -0.01134689 0.3234136 0.12865694 0.3285298
-0.11863526 -0.23727185 0.21205299 -0.20322041 -0.19203393 0.25946355 -0.059090883 0.05742791
0.054509003 0.574364 0.66375726 -0.21548896 -0.052307755 0.1101325 -0.045888465 0.17176905
0.15724319 -0.093391225 0.047432452 0.08770911 0.1362128 -0.13702641 -0.32442233 -0.26499817
-0.00052443345 0.32261205 -0.4100215 -0.069312416 -0.022418559 0.47045186 -0.1931743 0.31770208
0.16333069 -0.14569332 -0.08163264 -0.3634474 -0.033408985 0.3051408 -0.04922778 0.07387125
0.28089625 0.19419529 -0.22251545 -0.34357044 0.28261843 -0.23610571 0.14105745 0.09851501
0.32361695 -0.26044875 -0.032389775 -0.42492655 0.057501495 -0.05496102 -0.13913234 0.0067180004
-0.22092141 0.14046837 0.055026595 0.12273657 0.20001589 -0.04304609 -0.02632004 0.21603684
-0.18245278 -0.2915894 -0.20845856 -0.44412094 0.0136967655 -0.52496165 0.19807865 0.16098778
0.6190421 -0.030325547 -0.0646481 0.16968751 -0.008852935 0.20956653 0.24289386 -0.29687017
-0.1493515 0.21476424 -0.18905966 -0.22235914 -0.051893007 0.1607142 -0.34812674 -0.018635392
-0.15224503 -0.32010233 0.16507873 0.042381853 0.3149183 0.3162537 0.24010049 -0.29004556
-0.049090654 0.31051505 0.0030647735 0.48519716 -0.31454575 -0.1456525 -0.31319362 0.12253727
0.05683731 -0.44743094 -0.0076136445 -0.27205905 -0.40032527 -0.31060424 0.17439802 0.23495105
-0.24838257 0.29425916 0.36851093 0.16825202 0.28783914 -0.19074453 -0.30605856 -0.29258367
0.13245486 -0.29697308 -0.118989766 0.1843667 0.5081368 -0.049799588 -0.22383986 -0.10895566
-0.16455674 0.07296082 -0.41536778 0.14527938 -0.42694482 0.11364 0.21440034 0.05644315
-0.17244034 0.125442 -0.1293684 -0.23953766 -0.19330579 0.010678002 -0.091614544 -0.4407046
-0.40799063 0.30846924 -0.2484487 -0.50865227 0.18398622 0.060962796 0.16801193 -0.41061264
0.30879408 0.12658267 -0.14310907 -0.47760922 -0.055385005 -0.29747742 0.20711032 -0.31277287

bias f4 [16]
00000000: 851d 6e3e 57f4 8abc dc10 d5bd d8d1 01be
00000010: 0a39 16be c383 babb 87a1 4d3d e823 cf3b
00000020: 4b81 ae3d e7df 1f3d ec31 173e b72a 2f3d
00000030: 6f30 73ba 8be7 c93d 6b79 563c e643 1fb9
0.23253448 -0.016962213 -0.10403606 -0.12677705 -0.14670196 -0.0056919768 0.050202873 0.006321419
0.085207544 0.03903189 0.14765137 0.042765345 -0.00092769315 0.098586164 0.013090472 -0.00015188716

weight f4 [16]
00000000: c1d2 e63e 06a2 d93e 7fd1 093f be4e 6b3f
00000010: 7810 d83e 8556 de3e 1dce 083f 8a48 513f
00000020: 5f92 bc3e 0d1b 023f c25f 2f3f 04db 563f
00000030: 8c15 173f 6d1a 2d3f cc7b 433f 30b6 d83e
0.45082667 0.42506427 0.5383529 0.91917026 0.42200065 0.43425384 0.53439504 0.8175131
0.36830422 0.50822526 0.6850549 0.8392794 0.5901725 0.6761845 0.76360774 0.42326498

bias f4 [16]
00000000: 4034 ab3e 2704 82bc b7dc a9bc 244e 043d
00000010: a886 7bbd 9dd5 8c3b 2321 52be 0d15 4abd
00000020: b32e 7c3e f4da 22bc 7754 893d edac 163b
00000030: 3531 f4bd fb92 ffbc 179f 6cbd 5e55 de3d
0.334383 -0.01587112 -0.020735128 0.032301083 -0.061407715 0.0042979256 -0.20520453 -0.04933648
0.2462719 -0.009939898 0.067055635 0.0022991255 -0.11923448 -0.031198015 -0.057768907 0.10856126

running_mean f4 [16]
00000000: a663 54bf 21e3 25be baa5 c73e e84e f7be
00000010: c2ea b5bf 681c 55bf 820d 68bf a627 b9be
00000020: e80e 87bf a91c 16bf cb66 1d3e 6275 87be
00000030: d9f1 ddbe 529f 273e 2007 24be 1a0a eabf
-0.8296455 -0.16199924 0.38993627 -0.48302388 -1.4212267 -0.8324647 -0.9064561 -0.36163062
-1.0551424 -0.5863748 0.15371244 -0.26456743 -0.43348578 0.1636937 -0.16018343 -1.8284333

running_var f4 [16]
00000000: f0be 963e 9201 553e f2a3 9a3e d7b3 0c3f
00000010: 015f d63e 7603 183f 45b5 ea3e 42b9 023f
00000020: 6352 323f b705 963e 7a7d d83e f335 e33e
00000030: dc55 db3e 02db c93e 3acb 063f 8317 e53e
0.2944255 0.2080138 0.30203205 0.54961914 0.41869357 0.5938028 0.45841423 0.5106393
0.6965696 0.29301235 0.4228323 0.44377097 0.42838943 0.39424902 0.5265385 0.447445

weight f4 [16, 16, 3]
00000000: d11f 0b3d cbc1 423d 57e3 b7be 8094 8dbd
00000010: 95ec c9bc a008 823c 5ba2 0cbe 2925 1bbe
00000020: 32f1 473e f901 70bd 5ce1 b73e 5749 4d3e
00000030: 71a2 dbbd ea62 1fbd bf7b 213e 4138 6fbe
00000040: bd4b 88bd 6d5c 4fbe 0f71 123f 7444 203e
00000050: 5b2a ddbc 506e ecbd 5208 8ebc d9c2 be3e
00000060: 3973 973d 1b5a 4b3e e096 bcbd 308d 883e
00000070: 82d7 d2bc f88e c7be 7dbf 0abc 5c20 cb3c
00000080: 3be3 acbd 198d 8cbd fe29 833c c2c1 f33d
00000090: 84bf 483e da02 84bd 3ce7 a9bd fc67 aebe
000000a0: ac26 15be a064 dabe a48a 943d e2e2 fabe
000000b0: 1b06 09be 352d b23e 7728 02be 7c4a 893e
000000c0: 35b5 99bd 30c9 93bc 20b1 c43c 16a3 193d
000000d0: 6914 ec3c ab05 3ebe 6210 c93d 5828 3d3d
000000e0: 7a31 733c 747e f13e d348 393e efe1 693e
000000f0: f0db 4abf 2885 ad3e 8b75 583e b815 e13e
00000100: f84e 903e dea3 c8be d913 3a3e a09c 5b3d
00000110: 1aff 2f3e adef 4b3e 6e2d 9c3d f5a5 61bc
00000120: d6e7 cbbe f752 cfbd 5dff 9cbe 95a2 2fbe
00000130: 646c fe3c 7664 99be 9d40 0fbe 21df b7bd
00000140: df9e 95be 683b 5ebe f8fe 82be 4fb1 443e
00000150: 48b8 bd3e adf2 4c3d 7dfd 103f fef9 cbbd
00000160: 8e15 e13d 0326 abbe 8493 84be a5ed bbbc
00000170: 04a2 8c3d 9e82 6b3e 31f8 72be 3eda 1c3e
00000180: a9c2 19be 6c3b 933e 0c57 23bc 3ee9 c53d
00000190: 2c9f d43d 004e a5bd c1b5 3bbe 27c6 2fbe
000001a0: 6ea5 f4bc 80b4 f43e 2d94 8e3d 5350 4e3e
000001b0: dde8 c6bc 07c6 e13e 795c ab3d 5c69 073f
000001c0: 832f 93be 5a5e 083e 4682 fb3d 298a 6ebd
000001d0: ad05 0fbf ae23 303e eaa4 7abe 77d8 813d
000001e0: a186 60bf b174 0f3e 096b 793e bb96 b9be
000001f0: 6a00 083d 3612 903e 0f03 6fbd 41c9 073c
00000200: b5d5 2fbe 2a48 c93c 9e0a 28bd a615 c5be
00000210: 2e9d fb3d 45fa 8e3d 6663 09bf d07b 03bc
00000220: 9925 47be 0df4 a93e a061 8fbe 3d74 91bd
00000230: a3e9 66be e89a ad3c 8a88 c43d c2e0 05bd
00000240: 8854 67bd 2891 e0be 19a6 a1bd 8d40 a7be
00000250: e57b ffbd 83fb 1e3e ac13 933d 5f18 13be
00000260: a780 83be d558 cabe 0d00 a0bc ef27 a6bd
00000270: 5ee3 54be c69e 87be 6a1b a63e eaa9 8cbe
00000280: 32ad 40be df73 813e 7e33 d63d 74b6 9dbd
00000290: 5ba8 483e 024e 43be 8fc4 cc3e 5895 783e
000002a0: 72e8 c73e c9f3 bdbe ee1c 413e a8f7 a03b
000002b0: 9e31 08be 5775 e73d 7972 3bbe 277b 94be
000002c0: d825 2d3e bab4 38be 2938 103e 6fe3 80be
000002d0: 3d55 cabd eeaa 333e 8972 93be 1659 25be
000002e0: 4909 c4bd d3f5 67be aff3 003e 84d6 aebd
000002f0: 4917 2fbf d2d8 8fbe 3269 ab3e 1dac c43e
00000300: 6f52 1cbe 35d5 6fbe dd16 e83e 57e9 25bd
00000310: 1532 73bc c356 0abd 10e7 0f3e 7dde e23d
00000320: 7960 d5bd f894 21be a295 763e 39cc 1dbe
00000330: a5d7 c93e 3732 e9bd df32 a73d 9cff 1b3e
00000340: f49a d13e d3c0 45bd 4812 a0be ff17 ea3d
00000350: 7ad3 063f 0b73 d2bd 8b09 783b 63dc b23e
00000360: b22a 04be 998e 3f3e c9c9 293e b112 67be
00000370: d311 b1bd 894e a33e 013b 3a3e 65af 253e
00000380: 8fb0 c83d dcb8 6dbe ad1b b5bd d14c 193e
00000390: 98fd bd3e 5d73 403e 46a8 40be a6af 54bf
000003a0: 1c7c bc3e 3914 973e 833c 02bc 8e89 0c3e
000003b0: 3e0f bf3e 7773 8d3c fd24 d5be 4f91 efbe
000003c0: c3a2 89bc 892b 01be 42fc b0be fbd1 34bc
000003d0: 4340 c6bd 283d de3e 6089 e5be 3991 e13e
000003e0: 29b8 d2be e3ab 243d 7582 25bb b01d ec3c
000003f0: 6b21 983d 07b2 abbd 922d fc3e acad 213e
0.03396589 0.047548097 -0.35915634 -0.0691309 -0.024648944 0.015873253 -0.13733809 -0.15150894
0.19525602 -0.05859563 0.35914123 0.20047508 -0.107243426 -0.03891269 0.15769862 -0.23361303
-0.06655071 -0.20250101 0.57203764 0.15651113 -0.026997736 -0.11544478 -0.017337952 0.37258032
0.07395024 0.19858591 -0.092084646 0.26670218 -0.025737528 -0.38976264 -0.008468506 0.024795704
-0.08441778 -0.0686285 0.016011234 0.11902191 0.19604307 -0.064458564 -0.082960576 -0.3406371
-0.14565533 -0.42654896 0.07253006 -0.49001223 -0.13381235 0.34800115 -0.12710749 0.2681464
-0.075052656 -0.01804027 0.024010241 0.037509046 0.028818326 -0.1855685 0.09817578 0.046181053
0.014843339 0.4716679 0.18094186 0.22840093 -0.7924185 0.33890653 0.21138589 0.43961883
0.28185248 -0.3918752 0.18171634 0.053616166 0.17187157 0.19915648 0.076258525 -0.013772477
-0.39825314 -0.10123246 -0.30663577 -0.17151864 0.031057544 -0.29959458 -0.13989492 -0.08978105
-0.29222772 -0.21702349 -0.2558515 0.19208263 0.37054658 0.05003612 0.5663679 -0.099597916
0.10990439 -0.33427438 -0.25893795 -0.022940466 0.068668395 0.22999045 -0.2372749 0.15317628
-0.15015663 0.28756273 -0.009969484 0.09663628 0.10381922 -0.08071518 -0.18331052 -0.17165433
-0.02986404 0.4779396 0.06961856 0.20147829 -0.02428096 0.44096395 0.08367247 0.5289514
-0.28747186 0.13317242 0.12280707 -0.05823723 -0.55868036 0.1720111 -0.24476972 0.063401155
-0.8770543 0.14009358 0.24357237 -0.3624781 0.03320352 0.28138894 -0.058352526 0.008287729
-0.17171367 0.024570543 -0.04102575 -0.3849308 0.12285839 0.06981329 -0.53667295 -0.008025125
-0.19447936 0.33194008 -0.2800417 -0.07102249 -0.22550063 0.02119203 0.09596355 -0.03268505
-0.0564771 -0.43860745 -0.07893009 -0.32666436 -0.12474803 0.15525632 0.071814865 -0.14364766
-0.2568409 -0.39520898 -0.019531274 -0.081130855 -0.20789859 -0.26488322 0.3244279 -0.27473384
-0.18816069 0.25283715 0.1045904 -0.07700816 0.19595473 -0.19072726 0.39993712 0.2427572
0.3904453 -0.37100056 0.18858692 0.0049123354 -0.13300177 0.11301678 -0.18305387 -0.29000208
0.16908967 -0.18037692 0.14083923 -0.25173518 -0.09879539 0.17545673 -0.2879832 -0.16147265
-0.095720835 -0.22652368 0.12592958 -0.08537009 -0.68394905 -0.28095108 0.33478695 0.38412562
-0.15265821 -0.23421176 0.45329943 -0.040505733 -0.014843483 -0.03377415 0.14052987 0.110775925
-0.10418791 -0.15779483 0.24080518 -0.15409936 0.39422336 -0.11386531 0.08164 0.15234226
0.40938532 -0.048279595 -0.31263947 0.11430358 0.5266644 -0.10275849 0.0037847485 0.34933767
-0.12906912 0.1870674 0.16580881 -0.22565724 -0.08645978 0.31895855 0.1818657 0.16180189
0.09799301 -0.2321505 -0.08843169 0.1497071 0.3710754 0.18794008 -0.18814191 -0.8308052
0.36813438 0.29507616 -0.007948997 0.13724348 0.37316316 0.017266972 -0.41629782 -0.4679055
-0.016801244 -0.12614264 -0.34567457 -0.011036391 -0.09680226 0.43406034 -0.4483137 0.4405611
-0.41156128 0.040202986 -0.002525476 0.02882275 0.07428249 -0.083835654 0.49253517 0.15788907

bias f4 [16]
00000000: 3173 dbbd b328 0d3c ea6a 01be 7bce 843c
00000010: 6999 57bd 4bb3 443e 9209 0bbd 2aa3 a13c
00000020: f5d3 ce3c 8714 3c3e 6ac8 35bd a086 6a3c
00000030: 2ef9 03be 139a 1d3e 02d2 013d 9290 703d
-0.107153304 0.0086156605 -0.1263844 0.016211739 -0.052636538 0.1920902 -0.033944674 0.019731123
0.025247553 0.18367206 -0.044380583 0.014314324 -0.12888023 0.15390806 0.03169442 0.058731623

weight f4 [16]
00000000: b1f2 773f e168 1e3f 6c36 f43e 5f39 0c3f
00000010: 9a51 b83e 9ef5 153f cff2 303f 788e 403f
00000020: 6d5e f13e 85d5 2a3f e18c e23e 1587 4a3f
00000030: 9062 323f c675 1e3f 4059 213f bcaa 263f
0.9685469 0.6187878 0.4769777 0.5477504 0.35999757 0.5857791 0.69120497 0.7521739
0.47142354 0.66732055 0.44248107 0.7911237 0.69681644 0.6189846 0.6302681 0.6510427

bias f4 [16]
00000000: a2d6 12bf ed6e 46be 9615 4bbe db46 0bbe
00000010: c357 0c3e c6a2 1c3d 3386 f0bd 7bd5 00be
00000020: ac35 48be ee86 adbe 04e6 21bd 7dc9 cbbe
00000030: 2f92 8fbd 68c5 85be c9e7 99be e816 3ebe
-0.57358754 -0.19378252 -0.19832453 -0.13601248 0.13705353 0.03824117 -0.117443465 -0.12581436
-0.19551724 -0.33892006 -0.039526 -0.3980216 -0.07010304 -0.26127172 -0.3005965 -0.18563426

running_mean f4 [16]
00000000: b3b7 9abe 9827 d83c ccb4 e2be a73b b0bf
00000010: 2f58 2d3f 0c60 95be 7da6 82be 4709 83be
00000020: 7984 79bf d4b6 4b3e d105 c2bd 16ec 96be
00000030: 758a a9be 5562 ce3e 66ca b7bf 775a 4fbe
-0.30218276 0.026386067 -0.44278562 -1.3768204 0.6771268 -0.2917484 -0.25517645 -0.25593016
-0.9746776 0.19893962 -0.09473766 -0.29476994 -0.33113447 0.40309396 -1.4358642 -0.20249353

running_var f4 [16]
00000000: d10a cc3e 18d1 0b3f 6224 003f 3d1e 133f
00000010: 4814 013f d50b bd3e ed3c fc3e fdf0 d33e
00000020: fb8f c73e 95be 9b3e 3008 db3e 3c4a d43e
00000030: 52cc c73e 1405 e33e 7c77 b63e 1857 df3e
0.39852002 0.54615927 0.50055516 0.57468015 0.5042157 0.3692309 0.49265233 0.41394797
0.38977036 0.3041884 0.42779684 0.41462886 0.39023072 0.44339812 0.35638034 0.43621135

weight f4 [16, 16, 3]
00000000: e803 1dbf 042d abbe 0b5d b7be 0173 e13e
00000010: 8c2b 25bc f500 9c3d b91b 89bf 924f 6abe
00000020: f592 d83e 39b0 fe3d 8a91 523d 4b05 71be
00000030: ee7d f9bc 6268 4d3d c378 51be 38f9 1b3e
00000040: 7dee ccbd c61b d53d 0e78 a83d 901f e83d
00000050: d9da 18be b5a7 9abc 3a8d 35be ad10 6ebd
00000060: 9848 993e a459 303e 0c61 9abe dd98 3abd
00000070: 209f 6ebe 25dc ffbd 9171 99bc e5e8 c13d
00000080: 7090 79be 08a6 b2be 57e7 88be 0d0e d4bd
00000090: f34d abbc 5ceb 9ebe c94b e5bc 3104 003e
000000a0: 9317 e2bd e8bb 34be 7e8a 023e 15a2 bebe
000000b0: a226 ce3d 7e3d 4dbe 93da 40bd ee3d 443c
000000c0: 5503 033e 639d 0c3e 19eb 473e fb9e 1fbf
000000d0: f3e0 153d c80a a9be 9703 4fbe 1511 d0bd
000000e0: a013 043f dca1 afbe d101 c0be 6845 e8bd
000000f0: 5f35 13be 6c49 1fbe ea3e 10bf a154 91bd
00000100: 0a94 0d3e a155 52ba b5f4 e63d d7c3 b8bd
00000110: fb7a d4bd 180b 273d ced5 0e3e bf1c 2abd
00000120: 602f 043d 6c2d 483e 3776 813e 6b1b 9dbe
00000130: 85c1 9c3c 65cf 7ebe ac0e c4be b785 bdbc
00000140: f702 b1be fd8c 2fbe 3e58 a3bd 6a6d bbbe
00000150: a40e 9c3e 2abe c93e 10ec 88be bcf0 42be
00000160: d097 21bd 91d9 a8bd 31a1 c3be 7f54 43be
00000170: 3ed5 8fbd 4a9c 7fbd c721 943e d96c aebd
00000180: 025b c8be a619 84be dc70 68be 8484 063c
00000190: 8f0a dd3e a0b8 8b3e 1db5 aabe 7125 9cbe
000001a0: 760d 21be 0b69 3abd 65ff 0d3e 5521 ea3d
000001b0: 0402 62be 7899 cbbd 073c b0bd bd51 9bbd
000001c0: a255 663e dd18 2ebc 6c06 95bd e2fb 8a3b
000001d0: ac97 3c3e 4366 39be 3833 46bd e32a 523e
000001e0: 434e aabd 209a a1be fdee 323e b0dc c8bd
000001f0: a4dd 44be 239b 9ebe 9ed4 2abe 0cce 2f3e
00000200: 0326 843e e70d 2ebe 2de7 1bbf 4a72 0dbe
00000210: 0ca5 9cbe 9407 48be 60ef a4be 3628 a93c
00000220: f077 30be 124e 8cbd 4f3b 41be 7d53 87be
00000230: 7a1d 9ebe 3e8b e53e 2158 943e 8076 cc3e
00000240: ea3f 38bd 3ee8 2ebd e22b 97be 9027 093d
00000250: b7cc e4bd 42d2 e23d 07bc 28bf 7e02 aabe
00000260: 1400 91bf ed7c f2be 3f59 48be d87a bbbe
00000270: 6db6 62be e55a debe db38 41be dffb 0fbe
00000280: 3933 443e a604 a7be 686f d6bc c55c a03d
00000290: 432b 40ba 83ec acbe ebec 4ebe 3eea 13be
000002a0: 1615 46bd 6b45 383d c9db 113f a98d 743e
000002b0: 0dc4 41bb 8e56 cfbd a9a0 89be 970b df3d
000002c0: 4ff2 e6bd b450 5bbe bf35 2b3e c9be 92be
000002d0: 1413 1dbd 5774 65be 403a 023d 0db2 af3d
000002e0: 1fd3 1b3e 3d3c c13d 484d ec3c 129f fd3d
000002f0: c200 ab3e bc3f adbd e150 50bd 3068 853d
00000300: 1db8 b9bd a6c1 663d 02bf 333e 7666 92bc
00000310: c791 29be da55 993e c663 743e 5f63 8e3e
00000320: 961a c83c 0fce 19be fc6b 293e 02f4 5fbe
00000330: 34c5 0bbf db99 45be ac45 d5be 1b8c 54bd
00000340: ae24 a13c d05e e33d c701 853e e502 1cbe
00000350: 3e40 d9be b09e 903e facc 37bc 78d3 f13d
00000360: df51 01bf a596 aebc 73cd e63d 044a 3dbd
00000370: a686 a2be 0232 b5be 004d 2dbf fd0e 02be
00000380: 2f98 38bd cd33 b9bd cc05 88bd dee5 c3bd
00000390: d581 a7bc ae24 c93c 4f31 d5bc dff3 c33d
000003a0: 45dd c7bd 19cb 12bf be4d 0f3e 3ae5 dcbd
000003b0: 8ea3 d0be 48c6 923e be88 91be 3b6c 39bd
000003c0: 614b c33e b2f8 3fbe 0f4e 01bf d14f c43e
000003d0: 4af7 52be 37ac 023e c6cc 41be 1c71 ecbc
000003e0: d695 b4ba dccb 35be 6bed 5ebe 99b7 68be
000003f0: bf15 38be fb5a acbd be10 72be ef8c cc3d
-0.61334085 -0.33432782 -0.35813174 0.44033054 -0.010081183 0.0761737 -1.0711585 -0.22881916
0.4229962 0.124359556 0.051408328 -0.23537175 -0.030455556 0.050148375 -0.20456223 0.15231788
-0.100064255 0.10405688 0.082260236 0.11334145 -0.14927234 -0.018878797 -0.17729655 -0.058121372
0.29938197 0.17221695 -0.30152166 -0.045555938 -0.23302889 -0.12493161 -0.01873091 0.09468249
-0.24371505 -0.34892297 -0.26738998 -0.103542425 -0.020911193 -0.3103894 -0.027990239 0.12501599
-0.11039653 -0.17649806 0.12748143 -0.37233034 0.100659624 -0.20042989 -0.04708345 0.011977656
0.1279424 0.13731913 0.19523276 -0.6235196 0.03659148 -0.33016038 -0.20216213 -0.10159508
0.51592445 -0.34303176 -0.37501386 -0.11341363 -0.14375828 -0.15555352 -0.56346 -0.0709622
0.13826004 -0.0008023624 0.11277143 -0.090217285 -0.10375019 0.040782064 0.13948748 -0.04153132
0.032271743 0.19548577 0.25285503 -0.3068498 0.019135246 -0.24883802 -0.38292444 -0.02313505
-0.34572574 -0.17143627 -0.07975815 -0.36606914 0.3047992 0.39402896 -0.267426 -0.19037145
-0.03945142 -0.082446225 -0.38208917 -0.19075201 -0.070230946 -0.06240491 0.2893202 -0.08516855
-0.39131933 -0.25800818 -0.22699302 0.008210305 0.43172118 0.27289295 -0.33341303 -0.30497316
-0.15727791 -0.045510333 0.13866957 0.11432139 -0.22071081 -0.09941381 -0.08605199 -0.0758395
0.22493604 -0.010626045 -0.072766155 0.0042414526 0.18417233 -0.18105416 -0.04838869 0.20524172
-0.083157085 -0.315629 0.1747398 -0.09807718 -0.19225174 -0.30977735 -0.1668267 0.17168444
0.2581025 -0.16997491 -0.6089962 -0.13813129 -0.3059467 -0.19534141 -0.3221388 0.020649057
-0.17233253 -0.06850828 -0.1887028 -0.26430884 -0.30881864 0.44832796 0.28973487 0.39934158
-0.04498283 -0.042701952 -0.29525667 0.033484995 -0.11171859 0.1107526 -0.65911907 -0.33205026
-1.1328149 -0.47360936 -0.19565295 -0.3661716 -0.22139902 -0.43428722 -0.18869345 -0.14060925
0.19160165 -0.32620734 -0.02617617 0.078301944 -0.0007330665 -0.33774194 -0.20207565 -0.14444825
-0.048359953 0.044988077 0.5697599 0.23882164 -0.0029566318 -0.10123931 -0.26880386 0.108908825
-0.112766854 -0.21417505 0.16719721 -0.28661183 -0.038348272 -0.22407661 0.031793833 0.08578882
0.15217255 0.09435318 0.028845444 0.12383856 0.33399016 -0.08459422 -0.050858382 0.06514013
-0.0906832 0.05633702 0.17553332 -0.017871123 -0.16559516 0.29948312 0.23866186 0.2781019
0.02442674 -0.15020011 0.16545099 -0.21870425 -0.54597783 -0.19296972 -0.41654718 -0.051891427
0.01967081 0.111020684 0.25977919 -0.15235479 -0.42431825 0.2824607 -0.011218304 0.118079126
-0.5051555 -0.021312067 0.11269655 -0.046213165 -0.31743354 -0.35389715 -0.6769562 -0.1270103
-0.04506701 -0.09043083 -0.06641731 -0.09565328 -0.02044765 0.024553623 -0.026024489 0.09567999
-0.09759001 -0.5734115 0.139945 -0.10785909 -0.40749782 0.28666902 -0.28424639 -0.045269232
0.38143447 -0.18747213 -0.5050973 0.38342145 -0.20602146 0.12761007 -0.18925771 -0.028862529
-0.0013777565 -0.17753547 -0.21770255 -0.22726287 -0.17977045 -0.08415791 -0.23639199 0.099878184

bias f4 [16]
00000000: 56d8 f83d c507 503e 8b86 d5bd 6171 3b3e
00000010: 8247 db3d 9d23 ad3d a425 2c3e 2b94 bcbc
00000020: 094f 04be e205 f93d e5e2 443d 94af 9d3d
00000030: 04fa ef3d 85b9 fbbd 79b6 293e 7d31 ca3d
0.12150638 0.20315464 -0.10426053 0.1830497 0.107069984 0.08454058 0.16811234 -0.02301987
-0.12920775 0.12159325 0.048067946 0.076995045 0.117176086 -0.122912444 0.16573514 0.098727204

weight f4 [16]
00000000: 0a50 973e 0a0b 313f c140 ef3e c221 173f
00000010: c6d1 0b3f 9378 fe3e 0c11 bd3e d6ae c23e
00000020: 7c9f ab3e 8c8e 2f3f 65fd c63e 9003 e83e
00000030: 3360 093f eac0 a73e bccd 1e3f cd0b 9f3e
0.29553252 0.6915747 0.4672909 0.59035885 0.54616964 0.49701366 0.36927068 0.38024014
0.33520114 0.68576884 0.388652 0.45315218 0.53662413 0.3276437 0.62032676 0.3106369

bias f4 [16]
00000000: 9cbb 00be 79d1 49bf 7823 0fbf 65ab 01bf
00000010: 95aa 1bbf 6c79 14bf a428 70be 02c8 c6be
00000020: dd77 afbe 563a 45bf 9588 d0be 7034 07bf
00000030: a396 e1be 9b96 6bbe 6220 0ebf 6ba5 49be
-0.12571567 -0.78835255 -0.55913496 -0.5065215 -0.6080716 -0.57997775 -0.23453003 -0.3882447
-0.34271136 -0.7704214 -0.40729204 -0.5281439 -0.4406024 -0.2300667 -0.5551816 -0.19692008

running_mean f4 [16]
00000000: 68cf 6bbf 844b 34bf 7ed4 51bf 0302 9bbf
00000010: 0c40 5bbf cbab 2abf c487 93be 359c 32bf
00000020: e154 d7be 90b0 05bf 1c04 81be 024b afbe
00000030: f70b c73e a6f4 a6be 5674 ebbe 3a3a 5cbf
-0.9211335 -0.7042773 -0.8196486 -1.2109989 -0.856446 -0.66668385 -0.28814518 -0.69769603
-0.42056945 -0.5222254 -0.25198448 -0.34236914 0.38876316 -0.32608527 -0.45987195 -0.86026347

running_var f4 [16]
00000000: b140 053f 748f e13e 3b2f c13e 58c5 ff3e
00000010: 062c af3e 960d 843e 623a 103f e237 a23e
00000020: f0ec 813e 45f4 b73e 4e11 953e 1d39 c63e
00000030: aceb cb3e 5a2a b13e 5950 d23e c230 c63e
0.52051836 0.4405476 0.37731346 0.4995525 0.34213275 0.25791615 0.56339085 0.3168326
0.2537608 0.3592855 0.29114765 0.3871545 0.3982824 0.34602624 0.41076925 0.38709074

weight f4 [16, 16, 3]
00000000: bec6 9b3c 385f 513c e21a cb3d 802d fdbd
00000010: c8fa 3f3d 9cca a43d 92dc adbd 2f39 3ebe
00000020: 6de1 043d 5295 ccbc 1514 9b3d 56f9 dfbd
00000030: d733 bd3c 9257 06bc fc02 d43b 11b0 32bd
00000040: b59e 87bd 1d3c 32bd 67a7 a53d d537 8bbd
00000050: e323 5d3d f36c 37be d4fb 77bd 9f8c da3d
00000060: 71c3 a3ba 720d 8a3c 9866 07be fabf f8bc
00000070: a87a 96bc 7d3d a93d a126 52bd c13c 46be
00000080: 7fab e1bd 7181 26be 3960 6cbe f926 3cbe
00000090: 36a2 48bd b57a 4abe 3e5f a83d 0884 12be
000000a0: 7a2e 29be 7bf4 41be 45f0 313e da11 493d
000000b0: 2b3e 05be 0576 1c3e 3ad0 00bc f58f 303e
000000c0: 89f9 b2bd 1c82 ab3d 73c6 db3d b5ea ca3d
000000d0: 516e 553c abbe f1bd 6171 a43d cd70 a6bd
000000e0: 5401 783d 100d 4abd 1564 eb3d 00a5 3b3d
000000f0: 12ba acbd e8cf e03d 7bd4 043d d619 4cbe
00000100: 988b 0abe 232e a6bb 0af6 2fbe 4266 e6bc
00000110: afa0 203d ca7d 99bc df17 353d 7d14 923d
00000120: 0e36 593e cc29 85bd 2730 90bb c18f 023e
00000130: ea42 033e 9bea 9abd 872b 213e ee21 353d
00000140: 5b5f 4fbd 30b3 893d 3614 f93d 8a76 22bd
00000150: 14a6 443d 7344 0abd 3c58 ce3d 2570 fa3c
00000160: 50a8 133e 4ade 7ebd 02bd 5bbd 8639 90bd
00000170: e85c f33b c20b 4e3c c5a8 8c3d 6615 263e
00000180: df26 183e 7816 38bd ff00 05be 00e6 f2bd
00000190: a9d7 14bd 1be5 9bbd 34fc f4bc 0e06 933b
000001a0: ccc1 203e aa7b 2fbd 598f e3bd 7ca3 da3d
000001b0: 55d9 44bd d852 c73d 60fa f7bd 4179 49bd
000001c0: b400 123e dd16 503d afc5 5b3d b19a 283e
000001d0: c5ae f63d f558 3bbd def5 033e 83be 803c
000001e0: 09c6 30bd f97c adbb ee35 eebd 6475 26bd
000001f0: 2b5e c6bd 5c4b 623d e33f 05be d7a2 223e
00000200: 725f b1bd 6eb0 1e3c c77b 033e 7525 103e
00000210: a38d 0cbd 48b8 503d 8554 6ebd 5124 97bd
00000220: 9b62 6c3d f92d c4bd 9ffd 39be ec65 febd
00000230: 00f6 97bc 7666 03bc 1191 153e adc6 2239
00000240: 55ca 2b3d 1040 913d bd6b 04be 990f 973d
00000250: f25f 52bd 754a b2bd 0094 b3bd 38d6 d53d
00000260: a83e ccbd e288 bc3c 25a6 f33d adfa bd3d
00000270: 67ef a8bd 8ce0 243e 7e9a 44be 7192 d7bd
00000280: 4850 8cbd 204c a8bd 060d 07be 61e5 41bd
00000290: 93b1 6abe 6e28 17be d872 743d 746d d33d
000002a0: 5344 cb3d f77c c53c 4c88 90bd d940 0f3e
000002b0: fb37 2ebd 761d 26bd b4e6 2c3d 7c4c 303c
000002c0: 33cd 9f3d 05f6 083e 5c97 dd3d c017 c23c
000002d0: 4023 62bd 1cb3 80bc 09f9 a3bd d9c1 5b3e
000002e0: 829d 213e 7b2b 3ebe 45a1 bf3d 291f 203d
000002f0: 16dd d8bd a772 08be 5165 7e3d 096e 2bbd
00000300: 9a24 c4bd a286 d3bd 9d97 e13d 43f2 ba3c
00000310: 7832 e53d cbc4 a73c 8b5f 503c 42d1 aebd
00000320: 763b 613d 5525 d63d c0a0 963d 7853 263d
00000330: 4dd7 e9bd fe22 233e b78f f7bd 6a30 3a3d
00000340: 4896 cabd f19d 03be 7449 efbd 9438 bb3d
00000350: 538b 54be be56 953d 0bea 5fbd f6e7 4a3e
00000360: e331 6e3d cf08 a7bd a068 0cbd 881b c13d
00000370: 2846 ba3d d43a 913d eaf1 c33c 3dc3 743c
00000380: 32a3 3e3d b9a6 c13d e4e3 b63d 942a f93d
00000390: a42c 17bd 515e ff3c 8714 d9bd 28be e43d
000003a0: e4b3 403e 4c45 43bd 7853 0bbc de2a 663c
000003b0: 46a2 da3c e982 35be 1b41 223b 76c4 98bd
000003c0: f902 5dbd 5b2e 1a3d 1dd8 b63d e10e 08be
000003d0: d1d7 a8bd e606 d53d 2835 dc3d c6e7 0f3e
000003e0: 6f65 dd3d 753c c1bd 8be2 7e3d a55a 023d
000003f0: 770b a43c 83e5 103d 4343 e43d ee8e 853c
0.019015666 0.01277905 0.09917237 -0.12362194 0.046870023 0.08046457 -0.08489336 -0.18576501
0.032441545 -0.024973545 0.0757219 -0.10936229 0.023096008 -0.008199589 0.0064700823 -0.04362494
-0.06622068 -0.04351436 0.0808857 -0.067977585 0.053989302 -0.17912655 -0.060542896 0.106713526
-0.0012494159 0.016852114 -0.1322273 -0.030364979 -0.018369034 0.08263681 -0.05130637 -0.19359113
-0.110190384 -0.16260315 -0.23083581 -0.18374242 -0.04898282 -0.19773372 0.08221291 -0.14308178
-0.16521636 -0.18940918 0.17376812 0.04908929 -0.13011996 0.15279396 -0.007862145 0.17242415
-0.08739001 0.08374426 0.107312106 0.09908048 0.01302679 -0.11803945 0.08029438 -0.08126984
0.06054814 -0.049328864 0.114936985 0.045811653 -0.084339276 0.10977155 0.0324292 -0.1993173
-0.13529813 -0.005071418 -0.171837 -0.028124932 0.03921574 -0.018736739 0.04421222 0.07132814
0.21212026 -0.06502113 -0.0044002715 0.1275015 0.12818494 -0.07564279 0.1573926 0.04422181
-0.050628047 0.067236304 0.12162058 -0.03966383 0.048009947 -0.033756685 0.10075423 0.030571053
0.14419675 -0.06222371 -0.05364705 -0.07042222 0.007426847 0.0125760455 0.06868128 0.162191
0.14858578 -0.044943303 -0.12988661 -0.11860275 -0.036338482 -0.07612058 -0.029905416 0.0044868058
0.15698928 -0.042842545 -0.11111326 0.106757134 -0.048058826 0.09732598 -0.12108302 -0.049187902
0.1425808 0.050803054 0.053655323 0.1646526 0.120450534 -0.045739133 0.1288676 0.015715843
-0.04315761 -0.005294439 -0.1163138 -0.040639296 -0.0968593 0.05524765 -0.13012652 0.15882431
-0.08660783 0.009685619 0.12840186 0.14076789 -0.034314763 0.050956994 -0.058186073 -0.07379974
0.057711225 -0.09579081 -0.18163155 -0.12421784 -0.01854992 -0.008020034 0.1460612 0.00015523536
0.041941006 0.07092297 -0.12931724 0.07376022 -0.05136103 -0.08705608 -0.08768463 0.104412496
-0.09972888 0.02301449 0.11896924 0.09276328 -0.082487874 0.16101283 -0.19199559 -0.10525978
-0.0685125 -0.08217645 -0.13188562 -0.047337893 -0.22919302 -0.14761516 0.059679836 0.10323611
0.09925141 0.02410744 -0.070572466 0.13989581 -0.042533856 -0.04055544 0.042212203 0.010760423
0.078028105 0.13375099 0.10819885 0.023692966 -0.0552094 -0.015710406 -0.08006484 0.21460666
0.1578274 -0.18571274 0.093569316 0.039092217 -0.10589044 -0.13324986 0.06210834 -0.041852985
-0.09577294 -0.103284135 0.11015246 0.022820598 0.11191267 0.02047958 0.012718092 -0.085360065
0.054988347 0.10456339 0.073548794 0.040606946 -0.114180185 0.15931317 -0.12087958 0.045456327
-0.09891945 -0.12853219 -0.11683932 0.09141651 -0.20756273 0.072919354 -0.05466656 0.19815049
0.058153044 -0.08155977 -0.034279466 0.09429079 0.090954125 0.07091299 0.023919065 0.014939127
0.046542354 0.09455628 0.089301854 0.12166324 -0.036907807 0.031172903 -0.105996184 0.11169082
0.18818623 -0.04767351 -0.008503787 0.014048306 0.026688706 -0.1772572 0.0024758044 -0.07459347
-0.053957913 0.037641864 0.08927939 -0.13286926 -0.08244289 0.104017064 0.10752326 0.14053258
0.108103625 -0.094353594 0.062227767 0.031824727 0.020024998 0.03537513 0.11145642 0.016303506
