metrics_best_runs/cnn/0183.model (torch_old, 313116 bytes, 42 tensors)

weight f4 [64, 1, 3]
00000000: c39e 76bf 9aa4 0340 d89f 5640 141c 1140
00000010: 3406 3240 b047 fc3f 79bd a1bf 06e8 3ebf
00000020: 62d4 d73f 3f8b 3240 589c 5d40 e261 2840
00000030: aea3 11c0 0229 f1bf 02b9 fcbf 4281 e53f
00000040: c95a 3340 ded4 f63f f7c1 ab3f e88b 31bd
00000050: 2832 f5bf 7b11 963e 18a7 95bf 8df3 093f
00000060: 696b 11c0 1531 e4bf b65c 16c0 6616 973e
00000070: cd2c 853f ddf4 b8bf 49a9 2940 6c66 1a40
00000080: 7bd9 71bf 34d2 3940 bf67 6a40 763d 2f40
00000090: 347e 33c0 d63d b7bf 97d8 12c0 e6ad 2b40
000000a0: ccba 4e40 2765 1340 3e74 813f 409a 1540
000000b0: f2b0 3340 6294 d3bf ead9 0e3f 10e3 e83f
000000c0: 9db7 4bc0 3bf8 26c0 aba6 b9bf e573 e13f
000000d0: c15b 5c3d 95dc ebbf db49 ddbf 6e54 24c0
000000e0: 947b 22c0 227e 17bf 4797 683f a567 23bf
000000f0: 4515 afbf 114a a73f 78bf 3840 0c3f 32c0
00000100: 33af 46bf 4c05 e63f de78 2940 a8c9 3f40
00000110: 2320 a63f 25fa 38c0 23b8 39c0 0b19 a03e
00000120: f75e 52c0 f16b 22c0 fd42 a3bf 7171 803f
00000130: 2697 4040 718f 4540 efad 0040 01b3 e5be
00000140: eba6 eebf 49c3 e03f e835 90bd 3d92 fbbf
00000150: 487f 03c0 7ade 7b3f 9c08 d43f 6222 81be
00000160: 5dfa 3fc0 f5cf 39c0 5e98 40c0 0c1d b6bf
00000170: 4469 07c0 f55a fa3f a0c6 2f40 e86f 3a40
00000180: 1840 85be cb8d 0440 008d 3e40 6a16 2a40
00000190: 1b45 4d40 ac8d 1940 67d2 bd3f eb49 af3f
000001a0: 758d f1bf 6f94 093e 43f9 1740 56ef 2640
000001b0: cca1 0640 dd0f 6340 0857 e23f 713a 2c3e
000001c0: 8a8e 9ebf 2555 713f d5a8 debf dbc5 fbbd
000001d0: 2da0 de3f 9cff 23c0 ec52 45c0 db05 89bf
000001e0: b8d2 af3f 1ba8 213f b5e1 e1bf 3dc0 0ebf
000001f0: 5e0c f9bf 9e84 4fc0 e81f 3240 479c 6340
00000200: 6eeb a63f 8aec 8bbf 36a5 39c0 1230 41c0
00000210: 3cec 1340 78f6 4840 2b54 2b40 bf55 0740
00000220: 86a9 8040 e721 5440 0a1b 1d40 9d45 6b40
00000230: 2ffe 9c3f d86b 1340 8e6c 4040 9f8a 0f40
00000240: 3a70 e6bf f951 003f c3e1 7c3f 2724 45c0
00000250: 5cfe ecbf 5d59 3ebf bbbc 22c0 8a89 5ac0
00000260: a5e6 0cc0 919b 2240 d7b8 4140 24db 4e40
00000270: 1adb d43f a328 933f 2af3 c4bf 72e2 32c0
00000280: cd1b c8bf 064d 08c0 d9ac 2f3f d229 9ebf
00000290: b17a f73e 5e35 01c0 466a 56c0 f958 18c0
000002a0: c15b 2bc0 1efc 7cbf 7ccf 05c0 b079 b23f
000002b0: 7192 f53f 8403 2640 d782 2ec0 a431 03c0
000002c0: 5846 f9bf df5e e23e 37b3 29c0 b7a7 39c0
000002d0: edc6 5140 6cd4 1c40 e70f 733e e0b9 913f
000002e0: 0df6 e2bf a0ae 15c0 a32b 2940 649b 1640
000002f0: 49d2 3c40 9816 2f40 58cd 5840 6a72 c13f
-0.96336 2.0569215 3.353506 2.2673388 2.7816286 1.9709377 -1.2635947 -0.7457279
1.6861689 2.789749 3.4626675 2.6309743 -2.2756152 -1.884064 -1.974396 1.7930071
2.802416 1.9283712 1.3418568 -0.043346316 -1.9155931 0.29310212 -1.1691618 0.53887254
-2.2721808 -1.7827479 -2.3494086 0.29509276 1.0404297 -1.4449726 2.6509573 2.4125013
-0.94472474 2.9034548 3.6625822 2.7381263 -2.8045778 -1.4315746 -2.2944696 2.682489
3.2301512 2.3030488 1.0113599 2.3375397 2.807675 -1.6529658 0.5580126 1.8194294
-3.1830819 -2.6089008 -1.4503988 1.7613493 0.05379844 -1.8426691 -1.7288164 -2.5676532
-2.5387926 -0.5917684 0.9085583 -0.63830024 -1.3678366 1.3069478 2.8866863 -2.785098
-0.7761108 1.7970366 2.6480021 2.9966831 1.2978557 -2.8902676 -2.9018638 0.31269106
-3.2870462 -2.5378382 -1.2754818 1.003462 3.0092254 3.08688 2.010616 -0.44863132
-1.8644689 1.7559596 -0.07041532 -1.9654003 -2.0546436 0.9838635 1.6565127 -0.25221545
-2.999656 -2.9033177 -3.0092998 -1.4227614 -2.1158 1.9559008 2.746498 2.9130802
-0.26025462 2.0711544 2.977356 2.657618 3.2073429 2.399272 1.4829835 1.3694433
-1.8871294 0.13435529 2.3745887 2.608358 2.1036253 3.5478432 1.768281 0.16819169
-1.238725 0.94270545 -1.7395273 -0.12293597 1.7392632 -2.5624762 -3.0831861 -1.0704912
1.3736181 0.63147134 -1.7647005 -0.5576208 -1.9456899 -3.2424693 2.7831974 3.5564134
1.3040597 -1.0931561 -2.9007087 -3.018559 2.3112936 3.1400433 2.6770122 2.1146085
4.020694 3.3145692 2.4547753 3.6761239 1.2265071 2.3034573 3.0066257 2.2428358
-1.8002999 0.5012508 0.98781985 -3.0803316 -1.8515124 -0.7435511 -2.5427692 -3.4146447
-2.2015774 2.540745 3.0269067 3.2321253 1.6629364 1.1496776 -1.5386708 -2.7950711
-1.5633484 -2.1297011 0.6862312 -1.2356513 0.48335794 -2.0188823 -3.3502364 -2.3804305
-2.6774752 -0.988222 -2.0907888 1.3943386 1.9185315 2.5939646 -2.7267358 -2.0499048
-1.9474592 0.44213006 -2.6515634 -2.9008615 3.2777665 2.4504652 0.23736535 1.138485
-1.7731339 -2.3387833 2.6432884 2.3532343 2.9503348 2.735754 3.3875332 1.5113041

bias f4 [64]
00000000: 7f47 dd3f d9d3 c43f 5fab ab3f 7ba5 5d40
00000010: acd2 503f fb6a e13f 6f09 743f 8f97 5c3f
00000020: a3a5 2140 96a0 883f 075c fb3f ed08 6f40
00000030: 21a5 c73f f995 e83f 8235 683f b004 923f
00000040: 422a 0140 c697 c43f b2e5 a83f e600 403f
00000050: 935c cb3f f1a4 0a40 3657 c93f d1f4 1f40
00000060: 1cd4 883f 0598 ed3f cc0e a43f dbdf a73f
00000070: d5bc 863f 4541 3340 4363 0040 ce24 2b40
00000080: 3ad2 c83f b365 3d40 8a81 e33f ee2f a73f
00000090: e5e3 0d40 8fc8 9d3e a576 da3f 3b6b 4240
000000a0: e21e 873f a97c 3740 175f 3540 a07c 0b40
000000b0: 78bf 4c40 ca0b 3b40 7d99 2940 fba2 c13f
000000c0: 726d ce3f 6707 2d40 4341 1740 b2a9 2540
000000d0: 0774 fc3f 83cd f83f 3dc8 0a3f aa37 c73f
000000e0: da0e 2140 34ff b33f a319 a53f 4dfd 3140
000000f0: 01fa 0b40 6ac6 c03f bcf7 c83f 6143 1d40
1.7287444 1.5377151 1.3411673 3.4632251 0.8157146 1.7610773 0.95326895 0.8616876
2.5257347 1.0674007 1.963746 3.7349198 1.5597268 1.8170768 0.90706646 1.140768
2.0182042 1.5358818 1.3195097 0.7500137 1.5887626 2.1663172 1.572974 2.4993174
1.0689731 1.8562018 1.2817016 1.311519 1.0526377 2.8008587 2.0060585 2.6741214
1.5689156 2.9593322 1.7773907 1.3061502 2.2170346 0.30817077 1.7067457 3.0377948
1.05563 2.8669837 2.8339288 2.1794815 3.1991863 2.9225945 2.6499932 1.5127863
1.612715 2.7035768 2.3633583 2.5884824 1.9722909 1.9437717 0.5421179 1.5563862
2.5165315 1.4062257 1.2898449 2.7810853 2.187134 1.5060551 1.5700603 2.4572375

weight f4 [64]
00000000: e967 3e40 34f7 4640 10cb 4f40 2055 0a40
00000010: b550 0a40 174c 3440 f9b6 5640 4d30 5440
00000020: 7268 bf3f 9268 7a40 c2e8 4b40 cced f63f
00000030: cea1 2a40 9e7b 3140 3dcc 2540 434f 6240
00000040: 58d4 d13f c5f3 6a40 3828 1740 ac28 2540
00000050: 2b30 4d40 8790 4d40 e14b 3240 475a 2a40
00000060: ddb8 1940 c3c3 1740 6e8d 4b40 1da0 4940
00000070: c6bd 5040 d113 2e40 ecf3 2b40 b320 ca3f
00000080: d247 3d40 c1c6 e83f ba3d 6e40 8db6 4b40
00000090: 92f2 3940 d66d 3540 c5e1 5840 b32b e83f
000000a0: 8f8f 5240 a0c6 e43f 4cc2 4640 f1b2 1040
000000b0: 2863 b73f fd97 1840 9ba2 0040 978b 3640
000000c0: ef48 8240 04ad c13f 6766 1040 459f e83f
000000d0: 33da 6440 46c6 0440 0e1e 1b40 9461 2c40
000000e0: 9a07 e83f 6648 2440 4605 f23f 3b9e 2940
000000f0: b19a 2840 6fcf 6040 7eea 1d40 66e8 2e40
2.9750922 3.108838 3.246769 2.1614456 2.161176 2.8171442 3.3549178 3.315448
1.4953749 3.9126325 3.1860814 1.929132 2.6661258 2.77317 2.5905907 3.5360878
1.6392927 3.6711285 2.3618298 2.5806074 3.206065 3.2119462 2.7858813 2.66176
2.4019082 2.3713233 3.1805072 3.1503975 3.2615829 2.7199595 2.6867628 1.5791229
2.9575086 1.8185655 3.7225175 3.183017 2.9054303 2.8348289 3.3887799 1.8138336
3.2900121 1.7873116 3.105609 2.2609217 1.4327135 2.3842766 2.0099247 2.85227
4.071403 1.5130925 2.2562501 1.8173605 3.5758178 2.0746017 2.4237094 2.6934557
1.812732 2.5669188 1.8907859 2.6502826 2.6344416 3.5126607 2.4674373 2.7329345

bias f4 [64]
00000000: b023 de3f 9281 a53f 0a97 7c3f 1e37 3540
00000010: 1e49 783f 7b86 bc3f 8551 aa3f 6da6 5c3f
00000020: 68af 2440 d17e 933f 3bb4 db3f 0c03 4140
00000030: e3bf b03f f0ef b73f d3fa a33f bd8a 963f
00000040: 29cb 1c40 2848 9c3f cd41 fa3f 30cc 613f
00000050: aa17 dc3f 6aea c43f a875 b53f e880 0040
00000060: 203a cd3f 3c8e bd3f cfa7 aa3f da7a 8f3f
00000070: 5c2c a23f fb79 1240 9a37 fe3f 3c90 4c40
00000080: 884c b23f 2db4 5240 1166 b23f 3b22 d23f
00000090: f353 c73f 0924 4b3f b7fa 7f3f e8cc 2e40
000000a0: f79c 903f 7490 1a40 5887 e83f 9228 2e40
000000b0: b7cd 4b40 9c0f 0940 657c 2740 6eb1 9d3f
000000c0: 59f2 973f c391 2d40 e744 0c40 77c9 4540
000000d0: d0b5 b23f d3b8 ca3f de8d 3d3f ed52 d23f
000000e0: 92f3 0e40 a656 863f 72ce 823f d737 0440
000000f0: 00ca 0940 ec41 cf3f 290a cd3f 0925 1a40
1.7354641 1.2930167 0.9866797 2.831489 0.9698657 1.472854 1.3306128 0.86191446
2.573206 1.1523076 1.7164377 3.015811 1.3808559 1.4370098 1.281092 1.176109
2.4499 1.220952 1.9551331 0.8820219 1.7194722 1.5384037 1.4176531 2.0078678
1.6033363 1.4809031 1.3332461 1.1209366 1.2669787 2.288695 1.9860718 3.1963034
1.3929605 3.292247 1.3937398 1.6416696 1.5572494 0.7935186 0.99991935 2.7312565
1.1297902 2.4150667 1.8166304 2.7212262 3.1844308 2.1415777 2.6169674 1.2319772
1.1870834 2.7120216 2.1917055 3.0904214 1.3961735 1.5837654 0.740446 1.6431557
2.2336164 1.0495193 1.0219252 2.0659082 2.152954 1.6191993 1.6018726 2.4085104

running_mean f4 [64]
00000000: 58ec e03f 16d6 cb3f 53b6 aa3f 72c7 6140
00000010: bae1 453f a18e e73f 2349 723f c352 5b3f
00000020: 568b 1e40 b851 883f c944 ff3f 036e 7340
00000030: efb6 c13f 6972 f03f 22f4 733f 8af5 913f
00000040: f652 fb3f 975d c43f ca99 a23f e5fd 3e3f
00000050: d445 cd3f a583 0940 3010 d03f 4842 1d40
00000060: ce3f 823f 3429 f43f 2baa a33f 0e73 a73f
00000070: 647a 863f f442 3040 56d0 fa3f 3598 2e40
00000080: 08ff cc3f b32b 4140 4e52 e43f 0ba9 ab3f
00000090: 4f5d 1140 7cd3 9a3e b7ba d93f cf23 3f40
000000a0: aa54 873f c1c4 3440 95ff 3840 3524 0840
000000b0: d36c 5040 9e73 3f40 5807 2d40 e11d c93f
000000c0: 9f8a cd3f ce2d 2a40 3d65 1340 19b3 2940
000000d0: b886 fd3f 41d7 f23f 4301 0a3f 4af0 bf3f
000000e0: c745 1e40 1fe1 b93f 1ff1 9e3f 4363 2f40
000000f0: 18c1 0e40 b097 bd3f 1972 d03f 31da 2040
1.7572126 1.5924709 1.3336891 3.5277982 0.77297556 1.8090402 0.9464285 0.8567316
2.4772544 1.0649939 1.9942867 3.8035896 1.5133952 1.8784915 0.9529439 1.1403058
1.9634693 1.5341061 1.2703183 0.7460616 1.6036935 2.14866 1.625494 2.4571705
1.0175722 1.9075074 1.2786306 1.3081987 1.0506101 2.7540865 1.9594829 2.72804
1.6015329 3.0182922 1.7837617 1.3410963 2.27132 0.30239475 1.7010106 2.9865606
1.0572712 2.824509 2.8905995 2.12721 3.256642 2.9914317 2.7035732 1.5712243
1.6057929 2.6590457 2.303054 2.6515563 1.9806738 1.897194 0.53908175 1.4995205
2.4730089 1.4521827 1.2417334 2.7404335 2.2305355 1.4811916 1.628482 2.5133173

running_var f4 [64]
00000000: af02 6740 ef23 da40 7928 d73e 81d4 2d41
00000010: 0221 a240 84fc bd40 bc09 063f ce9f 533d
00000020: 45d6 ae40 8f97 1b3e fdd7 4440 87ea 3e41
00000030: 5f70 b340 ad25 1541 ab18 ab40 adeb 1e3f
00000040: 436e e940 59ac 153f decd cd40 50a4 983c
00000050: e87c f63f 0bf0 b03f 1d0a da40 1b05 9940
00000060: 47cf e140 3682 e640 1eaa 313f a327 223f
00000070: d6ef 303f 7112 b640 8efa b440 3381 fe40
00000080: 344c 6a40 bb5e 1641 f6b0 323f 970f 7d40
00000090: baa7 f940 993d 753d 0ecc 0b3f 6743 ce40
000000a0: 4984 ec3e 807d 9940 f495 0541 c278 df40
000000b0: 806b 1141 f9ec 4741 a7e4 f840 9667 fc40
000000c0: dbb6 b83e 072a 9340 7510 1441 ac8a 2841
000000d0: 4ff7 3a3f 314e b240 99fe fa3c 2931 0641
000000e0: 53e1 8940 e013 9940 894f c340 6dce 8740
000000f0: 7052 ab40 fb7f eb3f 7f87 0741 c4b2 0341
3.6095388 6.8168864 0.42023066 10.864381 5.0665293 5.9370747 0.52358603 0.051666074
5.463656 0.15194534 3.0756829 11.932258 5.607467 9.321698 5.346761 0.6207836
7.2947097 0.58466107 6.4313803 0.018633038 1.9256868 1.3823255 6.8137345 4.781873
7.0565524 7.203395 0.69400203 0.6334173 0.6911596 5.689751 5.6555853 7.9532714
3.660901 9.398128 0.6980127 3.9540765 7.8017244 0.059873197 0.5460824 6.445728
0.46194676 4.79657 8.34911 6.983491 9.088745 12.495355 7.7779117 7.887645
0.36077008 4.5988803 9.254018 10.533855 0.7303361 5.572045 0.03063898 8.387002
4.3087554 4.783676 6.103459 4.2439485 5.353813 1.8398432 8.47058 8.231144

weight f4 [64, 64, 3]
00000000: af1d f3be 5fda 173f 1528 293f d3e7 4cbf
00000010: 4370 2b3e a606 333f 57c2 923e 54b2 773f
00000020: c854 b93e ce9c a1be dbc4 8e3e e4be 463f
00000030: c5b8 133f 0ad0 8d3e 99b1 30bf fb64 38bf
00000040: cf86 543e 4a8f 2d3f 3e46 653e 6f92 8cbf
00000050: bbd1 70be bde4 d03e a62e 073f b8c7 2bbf
00000060: d61f 103f 3683 ce3e 7337 4dbe 6898 713e
00000070: 0107 abbf c4ce 17be 3251 0abf 3d89 04bf
00000080: ae3c 2c3f b003 91be 9181 413e d5fd 3d3f
00000090: c7b0 273f f244 9a3e 8443 d3be a989 2ebf
000000a0: 3177 8a3d 5841 1c3f f0c8 2bbf 3504 c03e
000000b0: d68a 343f dac3 71be 4fc6 723f 1389 0a3f
000000c0: fd1b 0d3f 0b20 0f3f fcc7 35be 5394 92bd
000000d0: 8521 adbf 3578 86bd 7cd3 2c3f ed57 c23e
000000e0: 60fd 1ebf b3a5 f43e e5c8 31be 8341 9c3e
000000f0: 444e d4be 37fa 283f 1443 293f 9eb1 c23e
00000100: 2773 7e3f e2ef 853e 0efa 1fbf e4d0 f13c
00000110: f9c1 383f 50c9 113f 73b7 4d3f e3d6 8ebe
00000120: 8f4a 123f c7ce 143f 6dc6 e4be a97f 0ebf
00000130: 5943 c33e 9a1f 3b3f ef91 243e 9482 a5bf
00000140: 588b 09be 0ba2 c13d e4f4 afbf 0267 6fbe
00000150: deaa bcbd 8671 793f 74ef 273f 82e2 183f
00000160: 50e7 643e 0a83 1ebf 4a0f 1e3f 1852 c43e
00000170: 3c2d aebe 4331 34be 9e90 c83e 0e0a 363f
00000180: e9c8 12bf b435 fc3e 9735 2f3f d0c9 65be
00000190: d6ec 833e ab10 2b3f da89 6bbe e252 98bf
000001a0: 7749 bc3e 05aa 11bf 686b 083f fda8 2c3f
000001b0: 1c8d 3abf 8312 b73d 930d 3d3f 3748 6a3e
000001c0: c15d 2a3f 18c9 98be 27e9 9b3d cbfb 733f
000001d0: 4da6 d33e e5e6 1b3f 1aa0 ec3e ce90 42be
000001e0: d5fa 80bc 4b57 c2bf 24a0 0b3e 8b8f 343f
000001f0: cf6c 393e 32a8 a5be 992d 24bf 890e 0abd
00000200: 96bd 213f 857a 243f 4e6d b83e 3d4b 04bf
00000210: 3655 3bbe 1fc2 ae3e d40a 443f ad58 14bf
00000220: 707d 823e 4018 443f b001 75be 5ddf 973d
00000230: 1d10 4b3f 4f70 3ebf 76aa 243e 2ab9 2e3f
00000240: f577 bb3d 92fa 5d3f 3a58 c93e f065 283f
00000250: 1b0f 363f 5bb6 ab3d 21c0 1c3f 3d79 db3e
00000260: 7c6a c4be 0f12 55be 06cc 983e f8fe 493f
00000270: dfb1 97be 1dc5 87bf e13b ca3e c6c1 203f
00000280: 36a0 a23e 8a40 b2be ee6a 513e 02a2 d63d
00000290: f1bb 10bf d5c9 173f b201 c93e 6744 28bf
000002a0: 829c 2d3f b21d 9b3e 37a1 85be 01ab 1bbf
000002b0: 2031 a43e a0f9 143f 54c3 193f c462 9d3e
000002c0: 82d6 f0be 72c4 253f 3d4b ec3d 01e5 32bf
000002d0: 6c21 eebe 68c5 88be 0392 363f a8d9 d93e
000002e0: 7c94 5abe 5ba3 4abf 4252 09bf 6e50 7c3e
000002f0: 07a1 2b3f ec0a 04bf 15f5 543d 6455 253f
00000300: 7fda 033f 69c6 d1bd f6ae 38bf 2ba2 273f
00000310: 1528 903d f936 19bf 8630 c0be 500f 46be
00000320: 388d 4ebf c11a 4b3f 7942 ce3e 5e4e 8cbd
00000330: 1bd6 2bbf cb2b dc3d 9cb8 1a3f 9d68 333f
00000340: 84aa 4c3d 574a 1cbf 48ca 1d3f 4a2c 243f
00000350: 7557 463f 82df 3abf 3210 a53e d073 9ebe
00000360: 28a0 2fbd ed8f c03e 1528 463f e1cf 383f
00000370: dd32 bc3e 1865 7a3f 3f65 673f 9b8d ed3e
00000380: d200 a6bb 5107 6d3f c9ef e03e 0590 1e3d
00000390: 1713 1ebf c968 c33d 767c 383f de07 2c3f
000003a0: de17 e83d f90d 15bf 8262 1f3f 28c6 26bd
000003b0: 0c57 21bf 9a1f d83d b097 23bf cd27 2fbf
000003c0: 4d39 80be c754 ee3e 9f3e 333f 50d8 383f
000003d0: b8ba 1c3f f878 0d3f 3901 acbe 5cbd b83e
000003e0: 5d43 1d3f 01fc d33d fa6d 08bd 1400 453f
000003f0: 4252 ce3e 7c56 b1be 85a6 3cbf 98c8 f1be
-0.47483584 0.5931758 0.66076785 -0.80041236 0.16742043 0.6993202 0.28663895 0.9675648
0.36197495 -0.31564945 0.27884564 0.77635026 0.5770381 0.27697784 -0.6902099 -0.72029084
0.2075455 0.67796767 0.22390077 -1.0982188 -0.23517506 0.40799513 0.52805555 -0.6710162
0.5629858 0.4033448 -0.20040683 0.23593295 -1.3361512 -0.14824969 -0.54030144 -0.5177191
0.6728009 -0.28323126 0.18897082 0.7421544 0.65504116 0.30130726 -0.41262448 -0.681788
0.06761015 0.61037207 -0.6710348 0.3750321 0.70524347 -0.23609868 0.94833845 0.5411541
0.5512083 0.5590827 -0.17752069 -0.07157197 -1.3525854 -0.065658964 0.675102 0.37957707
-0.6210537 0.47782668 -0.17361791 0.3051873 -0.41465962 0.660068 0.6611798 0.38026136
0.9939446 0.2615958 -0.6249093 0.029518552 0.7217098 0.56947803 0.80358046 -0.2789832
0.5714502 0.5812802 -0.44682637 -0.55663544 0.3813732 0.73095095 0.16071294 -1.2930474
-0.13432062 0.09454735 -1.374661 -0.23379138 -0.09212278 0.9743885 0.6559975 0.59720623
0.22353864 -0.619187 0.6174208 0.38343883 -0.34018886 -0.17596917 0.39172834 0.7110909
-0.57337815 0.49259722 0.68441147 -0.22440267 0.2576663 0.6682231 -0.23001805 -1.1900294
0.367748 -0.56900054 0.5328889 0.67445356 -0.72871566 0.08939078 0.7384884 0.2287911
0.6654931 -0.29840922 0.0761283 0.9530608 0.41337815 0.6089919 0.46215898 -0.19000551
-0.015744606 -1.518289 0.13635308 0.7053153 0.18107913 -0.32354885 -0.64132077 -0.033705268
0.6317991 0.6424945 0.36020893 -0.51677305 -0.18294224 0.34132478 0.7657902 -0.5794781
0.25486326 0.765995 -0.23926425 0.0741565 0.7932146 -0.7439012 0.1608065 0.6825129
0.09153739 0.86710465 0.39325124 0.65780544 0.711168 0.08384391 0.61230665 0.42865935
-0.3836249 -0.2080767 0.29843158 0.78904676 -0.29627892 -1.0607029 0.3949881 0.62795675
0.31762856 -0.34814864 0.20450947 0.10480119 -0.56536776 0.59292346 0.39259106 -0.65729374
0.67816937 0.30296093 -0.2609956 -0.60807806 0.3206873 0.581934 0.6006367 0.30739415
-0.47038656 0.64752877 0.11537788 -0.6988068 -0.46509874 -0.2671311 0.71316546 0.4254887
-0.21345705 -0.7915551 -0.5364114 0.24640056 0.67042583 -0.51579165 0.05199154 0.6458342
0.51505274 -0.10242922 -0.7214197 0.65481824 0.07038895 -0.59849507 -0.3753702 -0.19341779
-0.8068423 0.793377 0.4028509 -0.06850885 -0.67123574 0.1075054 0.6043794 0.700815
0.049967304 -0.61050934 0.6163678 0.6413008 0.774772 -0.72997296 0.3223892 -0.30947733
-0.042877346 0.37609807 0.7740491 0.721922 0.36757556 0.97810507 0.90388864 0.463971
-0.0050660158 0.9258929 0.43932942 0.038711566 -0.6174788 0.095414706 0.7206491 0.67199504
0.11332677 -0.58224446 0.62259686 -0.04071632 -0.6302345 0.105529025 -0.6390333 -0.68420106
-0.25043717 0.46549055 0.7001743 0.72205067 0.6122241 0.5526271 -0.33594683 0.3608197
0.61430913 0.103508 -0.033308007 0.76953244 0.40297133 -0.34636295 -0.7369159 -0.47223353

bias f4 [64]
00000000: b780 c63e 1b6c d63e 9a84 523e 8d4e 4b3f
00000010: 57d7 a53e b1d3 423f 5034 4f3e f49d 043e
00000020: a1cf 2f3e 4bde 2e3f 9f88 343f fa19 173e
00000030: e77c 263e 8420 9f3e 0910 013f f613 1a3f
00000040: 11ef 08bd 5687 223f cc32 133f 1244 dc3e
00000050: c7d5 3f3e 389b 9f3d b818 183e 9ea8 8d3e
00000060: 30ac 9c3e 11b9 0a3f d104 df3e 3aa8 083e
00000070: f20a 183f e124 193f 6b5d f33e 730d 943e
00000080: c63a 34be 6e81 3e3f eb92 f63e 6c18 f1be
00000090: 8ae1 3d3f 9f0f 003f f968 893e 6542 2b3e
000000a0: b62f 2c3e 5ff6 d73e fb43 2c3f 4d3a 773f
000000b0: bd3b 563f 41db 363f 9750 333e 27d7 543f
000000c0: be8b bd3e d738 403e 9802 fc3e a4af 023f
000000d0: c96e f5bc 3f01 a33e 1a10 9b3e c6db 76bc
000000e0: 4f21 d63e 2437 333e d3e6 bb3e e019 c9bc
000000f0: db77 723d 6789 023f 0016 893e 7750 e33e
0.38770077 0.41879353 0.20558396 0.79416734 0.32390854 0.76104265 0.202348 0.1295088
0.17169048 0.6830794 0.7052097 0.14756003 0.16258584 0.31079495 0.5041509 0.6018671
-0.033431116 0.63487756 0.57499385 0.43020684 0.18733893 0.077932775 0.1485318 0.27667707
0.3060012 0.5418864 0.43558362 0.13345423 0.593917 0.598219 0.4753221 0.2891651
-0.17600545 0.74416244 0.48158965 -0.47088945 0.7417227 0.50023836 0.268379 0.16724546
0.16815075 0.42180154 0.6729123 0.96573335 0.83684903 0.71428305 0.17511211 0.83140796
0.37020677 0.18771683 0.4922073 0.51049256 -0.029960053 0.31836888 0.30285722 -0.0150670465
0.41822287 0.17501503 0.36699542 -0.024548471 0.059196334 0.5099091 0.26774597 0.44397327

weight f4 [64]
00000000: bfbe 1b40 ff32 a33f c92c df3f 35e0 853e
00000010: 77ae 0640 c865 d13f 0206 2640 f31f b93f
00000020: 69e2 1040 c565 c23e 7be3 993f 88bd d13f
00000030: 546c ff3f 24fc df3f 811d df3f e923 9e3f
00000040: 4b23 f33f 9da6 183f 61a5 b33f 8a1d b73f
00000050: 20cb 1940 b5ab c73f 568e 3640 00ae 2b40
00000060: 9de9 1440 29e9 2840 11d8 3d3f b946 0740
00000070: 87af 043f 9a96 cf3f 1132 0d40 870b bb3f
00000080: a4db f83f 2b8e 953f 0130 563f ee49 a83f
00000090: 985c e13f 6339 cc3f 8569 4340 3a8e b93f
000000a0: 6981 0440 21f1 f03f c8dd 1340 1193 1640
000000b0: 0279 953f a00b 0a3f 5b5f cc3f aa89 1c40
000000c0: c697 953f f006 e63f 99bd 0640 ec92 903f
000000d0: fcfa 1540 5e00 f73f 75a3 1040 740e 2e40
000000e0: 15d6 a03f aa0e ed3f e34d 1340 c98b 0840
000000f0: 2225 0540 7ac3 843f 0063 f83f ea51 883f
2.4335172 1.2749938 1.7435542 0.2614762 2.1043985 1.6359186 2.5941167 1.4462875
2.263819 0.3796827 1.2022547 1.6385965 1.9954934 1.7498822 1.7430879 1.2354709
1.8995146 0.5962923 1.4034845 1.430589 2.4030228 1.5599276 2.8524375 2.682495
2.3267586 2.639231 0.74157816 2.1136916 0.51830333 1.6217835 2.2061808 1.4612893
1.9442029 1.1684011 0.83667 1.3147562 1.7606382 1.5955013 3.0533154 1.4496529
2.0703986 1.8823587 2.3104115 2.3527262 1.1677554 0.5392399 1.59666 2.4459023
1.1686943 1.7970867 2.1053221 1.1294837 2.3434439 1.9296987 2.2599766 2.7196321
1.2565333 1.85201 2.3016288 2.1335318 2.0803914 1.0372155 1.9405212 1.0649998

bias f4 [64]
00000000: 86a5 0b3f 937e 063f 3475 bf3d bab9 523f
00000010: 2312 ad3e 5617 683f 42b4 173f 8f78 b93e
00000020: a26c 8b3e 989d 313f 88b6 5f3e dc85 773e
00000030: 4cf7 753e 1dc4 983e ea14 6b3f 7daa 2e3f
00000040: 5fb5 193e 4e96 093f f1ac 373f 3ca7 f53e
00000050: 03fe 983e e59e 0c3e e9e4 103f e624 293f
00000060: f772 113f 5ef1 2f3f 00f1 103f 1356 bd3e
00000070: 8de1 423f 5613 223e 08d7 223f e6c6 1cbe
00000080: 434d 5d3d a91c 8c3f 9587 073f faa6 f9be
00000090: f999 5c3f 0277 2c3f 0f2a 053f 7d28 903e
000000a0: 750c 393e e61f bdbd 414f 403f 79d5 b43f
000000b0: 82ed 623f f6df 5f3f f91b c63e a6f5 8b3f
000000c0: 86f6 d13e e1e0 113e 1eab 893f 928c 0b3f
000000d0: a1aa 303e c8ea 323f d84d 9c3e ca82 a73e
000000e0: 3758 203f 6326 1f3e a0db 113f e85b debd
000000f0: 0644 8a3e 8f3e e53e 701c 033f 3885 163f
0.54549444 0.52536887 0.093485266 0.82314646 0.338029 0.9066061 0.59259427 0.3622479
0.27231318 0.69381094 0.21846974 0.24172157 0.24020118 0.29837123 0.9182879 0.68228894
0.15010594 0.5374497 0.7174826 0.47979152 0.29881296 0.13732488 0.5659929 0.6607193
0.5681605 0.6872767 0.56617737 0.36979732 0.76125413 0.15827689 0.6360936 -0.15310249
0.05402876 1.0946246 0.52941257 -0.48760206 0.86172444 0.6736909 0.520173 0.2815589
0.18071158 -0.092346 0.7512093 1.4127647 0.8864366 0.8745111 0.38693216 1.0934341
0.41008395 0.1424594 1.0755346 0.5451137 0.1725259 0.698895 0.3052814 0.32716972
0.62634605 0.15541987 0.56975746 -0.108573735 0.27005023 0.4477429 0.5121527 0.58797026

running_mean f4 [64]
00000000: f894 7242 3622 de42 3328 1243 2d86 2843
00000010: 04f5 1142 63bc 1243 4e1c d441 420e 1b42
00000020: 230c ab41 5ff9 2443 b797 bd43 a77c 2f42
00000030: abcc 6e41 2ad4 5442 0601 e942 7b7e 1b43
00000040: 3938 d041 3df5 3a43 2145 1343 11af a542
00000050: b2bc 1142 9267 bf41 b5b1 2442 94cc 7142
00000060: ed46 5042 b686 eb42 c393 1343 bab1 0142
00000070: 2e2e 4143 4f0f 9f43 43b9 9f42 14b7 3743
00000080: df2b 2fc1 5368 3a43 f572 2f43 75fd 2ac2
00000090: 3250 6743 4412 0f43 c5b6 c041 f719 9242
000000a0: 6a5f d841 34d4 6743 8823 fd42 aefe 4a43
000000b0: 0e21 1943 ca3d 5643 be10 3c42 100a 9a42
000000c0: 857e 7b42 baf5 f141 0010 a942 ad2b 1b43
000000d0: 98fb f540 e9c3 c842 d46b 5042 0013 7741
000000e0: d476 e642 487d e041 2a22 6842 0a26 b940
000000f0: 2c2d 2a42 87f2 4743 595e 4e42 1b0a 3443
60.645477 111.06682 146.15703 168.52412 36.489273 146.73589 26.51382 38.763924
21.380926 164.9741 379.18527 43.87173 14.924968 53.20719 116.502 155.49406
26.027452 186.95796 147.27003 82.84193 36.434273 23.925571 41.173542 60.449783
52.069263 117.76311 147.5772 32.42356 193.18039 318.1196 79.86184 183.71515
-10.948211 186.40752 175.44905 -42.747517 231.31326 143.07135 24.089243 73.05071
27.046589 231.82892 126.5694 202.99484 153.12912 214.24136 47.01635 77.01965
62.873554 30.244984 84.53125 155.17061 7.686962 100.38264 52.1053 15.442139
115.232086 28.061172 58.033363 5.7858934 42.544113 199.94737 51.592136 180.03947

running_var f4 [64]
00000000: 926a 7546 3631 3d46 dcc5 2b45 f200 6d46
00000010: 676e e145 8daa cb46 fa76 0946 3a33 0f44
00000020: c084 b745 e758 6746 ab24 bf45 26f6 ba44
00000030: f4af 1245 d96b 5f45 7346 f745 7bea 3f46
00000040: 397e f144 2f68 c645 6d44 6545 4ccb e145
00000050: 758d a344 f217 2745 839c 0046 1212 2c46
00000060: 9ed4 0446 808e 8e46 ecbd 1546 580c 6646
00000070: ed8a 6146 b492 8145 a4b2 2f46 5ed4 1e45
00000080: 85ef d342 b118 a546 98a1 2846 2a20 9642
00000090: 90df 1b47 bc1b c746 cf26 ad43 da8f 0446
000000a0: 0851 a345 157e 3145 d226 db46 ed41 be46
000000b0: 3327 aa46 037a 9746 26c6 2745 b7ae 8545
000000c0: 149e d545 0b4a b344 c73e 8345 d823 9746
000000d0: b2fa cc44 d4a5 5d46 e48c 8e45 4454 0346
000000e0: 57c5 1446 2ff2 7d45 ef26 0746 6b0c e544
000000f0: 28fb 8a43 6f70 cd45 2cb9 ba45 1c63 6b45
15706.643 12108.303 2748.3662 15168.236 7213.8003 26069.275 8797.744 572.8004
5872.5938 14806.226 6116.5835 1495.6921 2346.997 3574.7405 7912.806 12282.62
1931.9445 6349.023 3668.2766 7225.412 1308.4205 2673.4966 8231.128 11012.518
8501.154 18247.25 9583.48 14723.086 14434.731 4146.338 11244.66 2541.273
105.96781 21132.346 10792.398 75.06282 39903.562 25485.867 346.3032 8483.963
5226.129 2839.8801 28051.41 24352.963 21779.6 19389.006 2684.3843 4277.8394
6835.76 1434.3138 4199.847 19345.922 1639.8342 14185.457 4561.6113 8405.066
9521.335 4063.1365 8649.733 1832.3881 277.96216 6574.054 5975.1465 3766.1943

weight f4 [64, 64, 3]
00000000: 1b89 df3c 828f b5bd 9a96 4cbd b57c 003d
00000010: ddb3 153c db57 20bd e7d8 143e 6187 4d3e
00000020: d6bd f03d e14a b43e 7d82 9f3e e53c 223e
00000030: d188 293d 84f6 22be d0ad fcbd 2de3 e93d
00000040: a4a4 5f3e 2dfb 08bd 2f6b cd3d 3663 b93e
00000050: 4635 bfbe 08f3 cdbb db68 e7bb 05c5 a0bc
00000060: c027 97be 425f 653e f493 02be 4e02 163e
00000070: b0a7 cf3d 1f73 243d 88dd 193d f3e8 bdbd
00000080: c7a0 e8bd c8ef d9be a325 063e 9d40 3a3e
00000090: 4442 643d b5cc 0bbe df4e 3fbe b8bb edbe
000000a0: e7e9 263e 50b9 063e 28ee 0fbe 5f7b 01be
000000b0: 6db0 94bd b874 423e 6967 213e fcfa 2d3d
000000c0: 898f b03c b1d0 2d3e ba70 a83d 890a 48be
000000d0: e66d 2abe d467 adbd 3651 5d3e 13b0 afbd
000000e0: e3ed 09bd fc7b 07bd 8110 5cbe 64bd adbd
000000f0: 5cce 92be 5662 413e 9e3d 0a3e 2fad d33d
00000100: 1b09 26be 8ec0 1bbe 445d 633e 1329 4c3e
00000110: 0a1e 21be b5e8 583e 86e7 513e 2a76 8cbe
00000120: 0aae ebbe d071 8f3e 7816 95be 9cca b6bd
00000130: 23c5 aabe f1f8 6ebe 319d f0bd 8cd7 f5bd
00000140: d2c7 24be cb0e 623d 4ac5 b73d ca2b febc
00000150: ae70 10be 3a58 983d a8ac 0dbe f890 31be
00000160: 64d9 0fbe 3d36 4abe 8c35 99be 14bc 823d
00000170: a5ca 8cbe 0ff0 b53d c93b eebe f5ee ccbe
00000180: dfa6 cf3d 38b0 16be 84ff c03e ee09 ccbd
00000190: 7e0d 89bd 43b9 ad3c 8005 6ebe 9ff5 53be
000001a0: 0d85 f1bc e8a8 1cbd 7709 a4be cf6c 5cbe
000001b0: c4b0 84bd 3c42 f3bd 3ec9 88bd c43f 663d
000001c0: b76b 11bd b8f1 b33d 75a7 20bc 5234 92bc
000001d0: 7a7f 1e3f 4450 a6be 3236 a7be 398b 1abe
000001e0: 6677 9d3d a14c a73c 7e63 033e af25 c43d
000001f0: bb6a b5bd e22e d8be df5e ef3d 0b55 4fbd
00000200: 266d 15be 46c1 61be e0b1 fe3d e4d6 a63d
00000210: 1cc6 223e e763 c53d 366a 07be 9dcb 89bd
00000220: 75ed 0bbd 273b 593e 09e0 4b3e 40e9 1f3e
00000230: 317a c03c 24dd 8e3e f459 1b3e 6f1e 8cbe
00000240: b020 d63d b595 243e e61d cb3d 169a 953e
00000250: 37f0 b83d cc7a a7bc bd35 20ba 68d0 723e
00000260: 95e6 3f3e 9a0c 35be 6836 793b 4ced d2bd
00000270: e076 52bb 9725 933e 6cfe 593e c5b7 763e
00000280: de17 7a3d e1e5 1cbe 4383 08bf 7d99 063e
00000290: ef45 113d c167 1d3e 140c 4c3e a03c 2abe
000002a0: aca8 5fbe f2fb ac3c f690 06be 61b1 db3c
000002b0: 6aab 7ebd 5549 f53c 8ab2 733e c257 83bc
000002c0: 6bee ebbd a306 98be 84ac 46bd b03a 213d
000002d0: 8755 b33d 6c1a 7fbe a889 82be c3f1 19be
000002e0: d50a c5be 8f64 70be 0ec0 463d 7623 3d3e
000002f0: 5438 df3d b8ae c5bd 1be4 bfbe 18e6 adbe
00000300: 9ef7 123e b183 46bd 4e50 103e f160 35bd
00000310: 173a 15be 426c 0dbe 6a57 603e d003 79be
00000320: 3732 75be da41 023f 4e04 923e 0680 603e
00000330: 3702 e73d eb1d e4bd b730 7a3e 1f3f bd3d
00000340: b8ec 1d3e 4427 5dbc 74d4 0b3e 236c 12be
00000350: 95a5 f7bd 4161 063c f54b b2bd 00e0 043e
00000360: 049d dfbe e6b4 8abe f620 51be d456 d93e
00000370: 39c2 c33e 5cfb 6b3e 7bdf 933e 81d9 233e
00000380: 2446 db3d e5e5 c2bd dc29 cfbe 1e1a 66be
00000390: dfd4 c03c dbb2 26bc c218 ac3e 138b c1bd
000003a0: 60b2 9bbe 77c0 40be c3c9 33be 3fc6 ba3c
000003b0: 6a16 553d 64fe 133d aa8f aa3c 01f9 8fbd
000003c0: b383 92bd 3383 b7bd 78ab 04be 1a69 57bd
000003d0: 5c64 953d b647 c43d d933 bc3c 81e8 36bd
000003e0: e847 883c cf8e 133d 1787 3e3e 352e 313e
000003f0: 9948 9a3d ca57 82be 2ed4 33be 1ed3 62bd
0.027287057 -0.088652626 -0.049948312 0.03136893 0.009137121 -0.039146286 0.14535867 0.20071174
0.11754958 0.35213378 0.31154242 0.15843542 0.041390244 -0.15914351 -0.123378396 0.114202835
0.21840149 -0.033442665 0.10030209 0.36208504 -0.37345332 -0.006285075 -0.0070620603 -0.019625196
-0.29522514 0.22399619 -0.12751752 0.14649317 0.10139406 0.04014885 0.037564784 -0.09272947
-0.11358791 -0.4256575 0.13100295 0.1818871 0.05572726 -0.13652308 -0.1868243 -0.4643228
0.16300164 0.13156629 -0.14055693 -0.12644719 -0.07260213 0.18989837 0.15762104 0.042475685
0.021552818 0.1697414 0.08224626 -0.19535269 -0.16643485 -0.08467069 0.21613011 -0.08578505
-0.033674132 -0.033077225 -0.2149067 -0.08483389 -0.28673065 0.18885168 0.13500068 0.103357665
-0.16214411 -0.15210173 0.22203547 0.19937544 -0.15734115 0.2118252 0.20498475 -0.27433902
-0.4603122 0.2801652 -0.29118705 -0.089253634 -0.33353528 -0.23337151 -0.11748732 -0.12004003
-0.1609185 0.05518989 0.08973177 -0.03102674 -0.14105484 0.07438703 -0.13835394 -0.17340457
-0.14047772 -0.19747253 -0.29923666 0.06383529 -0.27498356 0.08883678 -0.46529987 -0.4002606
0.1013925 -0.1471566 0.37694943 -0.099628314 -0.066920266 0.021206504 -0.23244286 -0.20699166
-0.029482389 -0.03824702 -0.3203847 -0.21525882 -0.06479028 -0.118778676 -0.06679009 0.056213155
-0.035503116 0.087863386 -0.00980555 -0.017847214 0.61913264 -0.32483113 -0.32658535 -0.15092172
0.07688789 0.020422282 0.12830922 0.095775 -0.08858248 -0.4222327 0.11688017 -0.050618213
-0.14592418 -0.22046384 0.12436271 0.08146456 0.15895885 0.096381955 -0.1322411 -0.06728289
-0.034162004 0.21213971 0.19909681 0.15616322 0.023495765 0.27903092 0.15171033 -0.2736697
0.104554534 0.16072734 0.09917812 0.2921912 0.09030192 -0.020444296 -0.0006111523 0.23712313
0.18740304 -0.17680588 0.0038026813 -0.10299167 -0.0032114312 0.28739616 0.2128846 0.2409354
0.061057918 -0.15322067 -0.5332529 0.13144489 0.035467084 0.1537161 0.19926482 -0.16624689
-0.21841687 0.02111623 -0.13141236 0.02681798 -0.062175192 0.029942194 0.23798576 -0.016033057
-0.11520084 -0.29692563 -0.048504367 0.03936261 0.087565474 -0.24912423 -0.25495648 -0.15033631
-0.38484827 -0.2347586 0.048523 0.18470559 0.108994156 -0.096524656 -0.37478718 -0.3396461
0.14352271 -0.048465434 0.14093134 -0.044281904 -0.14572941 -0.13810828 0.21908346 -0.2431786
-0.23944937 0.5088173 0.2851891 0.21923837 0.11279719 -0.11138519 0.24432646 0.09240555
0.15422332 -0.013498131 0.13655263 -0.14299063 -0.12092129 0.008201898 -0.08705894 0.12976074
-0.4367448 -0.2709114 -0.2042273 0.42449057 0.38234118 0.23045105 0.2888144 0.1600094
0.10706738 -0.09516505 -0.40461624 -0.224709 0.023539005 -0.010174478 0.3361264 -0.094503544
-0.30409527 -0.1882342 -0.17557435 0.02279961 0.05202333 0.036131278 0.020820457 -0.070299156
-0.07154026 -0.08960571 -0.12956035 -0.052590467 0.07294533 0.0958399 0.022973942 -0.044655327
0.01663585 0.036024865 0.1860622 0.17302783 0.07533378 -0.25457603 -0.17561409 -0.05537712

bias f4 [64]
00000000: abd9 d13e 228c 213f b2b5 8f3e 8663 cc3e
00000010: a4c9 bb3e 29f7 92be b172 383b e413 443f
00000020: cb16 a9be 0374 733c 97cf 4d3b ea97 cdbc
00000030: 3e75 a53e 8da6 33bc fc1b 553e 70c6 203e
00000040: 3ba8 933d ea16 e63d 952b a73c ccde a63d
00000050: 183b 1b3f 2845 4c3e 8589 26bd 11e8 d63e
00000060: 62ad 283e 0824 e03e 79c8 783e 3388 d23e
00000070: c316 163f 7947 1fbe ae3c d73d 76bf 9d3e
00000080: 7d91 c8be e20d 333e 4aee 07bd 1823 003f
00000090: ac70 e93d 1fe9 5bbe 28f7 ae3e fbb5 ca3e
000000a0: f421 a8bd 5c55 1e3f 1777 063f b026 3d3f
000000b0: cfa2 a93e e906 34bd e657 c03e 57b5 db3e
000000c0: e3b7 583e a8d8 47bd 567d e53e 1e37 e03e
000000d0: 6161 0fbe d819 80be 97e6 193c 4519 153f
000000e0: 0e12 f73e a9ea 58be f324 3e3f 1400 19bc
000000f0: 013d 4b3f 72b0 81bd 26b3 79bd d8bf 543f
0.4098638 0.6310445 0.2806831 0.3991968 0.36677277 -0.28704193 0.0028144533 0.7659285
-0.33025202 0.014859202 0.003140425 -0.025096852 0.3231601 -0.010965002 0.20811456 0.15700698
0.07209822 0.11234839 0.020406524 0.08147964 0.60637045 0.19948256 -0.040658493 0.41973928
0.1647239 0.4377749 0.24295224 0.41119537 0.5862848 -0.15554608 0.105096206 0.30810136
-0.391735 0.17485765 -0.033186235 0.5005355 0.113984436 -0.21475647 0.3417294 0.39591965
-0.08209601 0.61849 0.52525467 0.7388716 0.33132026 -0.043951903 0.3756706 0.4291179
0.21163897 -0.048790604 0.44822186 0.4379205 -0.14001991 -0.25019717 0.009393356 0.58241683
0.48255962 -0.21183266 0.7427513 -0.0093383975 0.7938996 -0.063324824 -0.060961865 0.8310523

weight f4 [64]
00000000: c60d 9d3f 7add f63f f28a c03f 4778 6a3f
00000010: 4627 d53f ac9d 2d3f 7421 713f c4d5 493f
00000020: 7482 da3f 03e1 d63f 38a4 0a40 bddf 1c40
00000030: 1a86 be3f cb56 323f 7ae2 0f40 1495 f13f
00000040: 741d cf3f f64d e73f 2425 d13f d462 bc3f
00000050: 6777 9d3f 998d 943f a856 0240 a3c8 b73f
00000060: 79e2 493f 0c86 953f ee8c 903f 521c 963f
00000070: 3c64 b13f 0ae1 dd3f c1bd 603f c4b1 0240
00000080: 9e3e 4f3f bcac a73f 05a8 d03f 944c c43f
00000090: 2230 c43f c806 0a40 bdd0 8e3f 67aa ad3f
000000a0: 6925 523f 5fa1 ce3f b0b2 0540 5621 b23f
000000b0: 76ab b43f 3d94 b73f c227 f53f b0c9 f83f
000000c0: c547 9d3f 1f37 aa3f d1cb fd3f 4e85 e63f
000000d0: 19eb 813f f610 0440 3e15 cf3f 0f1e 9a3f
000000e0: 8887 413f 83d0 eb3f 2563 a43f 750f fd3f
000000f0: 6bbc 6d3f dfb9 a23f b3a1 d23f 0c97 823f
1.2269828 1.9286339 1.5042403 0.9158978 1.665261 0.67818713 0.9419167 0.78841805
1.7071061 1.6787418 2.166273 2.451156 1.4884675 0.69663686 2.248198 1.887362
1.6180863 1.8070667 1.633946 1.471766 1.2302064 1.1605712 2.036539 1.4358104
0.78861195 1.1681533 1.1293008 1.1727393 1.3858714 1.7334301 0.8778954 2.0421
0.8095492 1.3099589 1.6301275 1.533587 1.5327189 2.156664 1.1157452 1.3567628
0.82088333 1.6142997 2.0890312 1.3916423 1.4114826 1.4342114 1.9152758 1.943655
1.2287527 1.3298072 1.9827825 1.8009431 1.0149871 2.0635352 1.6178358 1.2040423
0.7559743 1.8423008 1.2842757 1.9770342 0.9286563 1.2712973 1.6455597 1.0202346

bias f4 [64]
00000000: 9019 593e a1a2 1d3f dad9 273e fa26 7b3e
00000010: fed3 3e3e acc0 97bd 4c6a fcbd 3687 273f
00000020: f671 96be b48f f23b 6a32 70be 7094 d0bd
00000030: 02c8 b8bc b3f7 4abe db8b 613e 9fd4 4c3d
00000040: d864 873e 0e0f 18bd fb6d 2abe b080 f6bd
00000050: 6ec5 263f 3e53 a93c f9ac 0fbd 5479 853e
00000060: 2c23 52be 7720 9ebc d70c b63d bb8f 8d3d
00000070: 4b02 8d3e 2c92 18be f628 adbe 5578 8e3e
00000080: 02f6 4cbe 8579 4abe b562 86be 7fea 783e
00000090: f2ca 42be d83a b8bd 29b2 ba3e 29ca 933e
000000a0: c936 51be 2cbf d23e ef39 083e 599e 263f
000000b0: 022b c43e b7de 3cbe 7b56 173e f8f7 313e
000000c0: d578 a6bc b7bf 30be 8860 bb3e 43a5 073d
000000d0: 9f0e 68be 66e3 70be 17a4 aebd fbae cb3e
000000e0: b220 1d3f 713d a0be 6017 f13e 32e4 10be
000000f0: e387 293f 0077 87be 147e d23d 535b 2b3f
0.21201158 0.61576277 0.16391698 0.24526587 0.18635556 -0.07409796 -0.12324962 0.6544069
-0.2938382 0.0074023847 -0.23456731 -0.10184562 -0.022556309 -0.19821052 0.22026007 0.05000746
0.26444125 -0.037123732 -0.16643517 -0.12036264 0.65145004 0.020669576 -0.03507707 0.2606913
-0.2052123 -0.01930259 0.08889168 0.0691218 0.27540812 -0.1489951 -0.33820313 0.2782618
-0.2001572 -0.19772919 -0.26247182 0.24308203 -0.1902273 -0.089955986 0.3646405 0.28865173
-0.20431055 0.41161478 0.1330335 0.6508537 0.38314062 -0.18444334 0.14779083 0.17379749
-0.02032129 -0.17260633 0.36597085 0.03311659 -0.22661828 -0.23524246 -0.085273914 0.39781937
0.61378014 -0.31296876 0.47088146 -0.1414955 0.6622297 -0.26457977 0.10277954 0.66936225

running_mean f4 [64]
00000000: 336d 81c0 a939 84c0 029a 18c0 ea01 87c0
00000010: 8290 00c1 c503 dec0 210c 32c1 bf1d 0bc1
00000020: 02be 31c1 7d0a d2c1 0511 30c1 c1b3 cbbf
00000030: 6f3a 26c0 a17b c0c0 7c65 bfc1 0dc2 82c1
00000040: 5846 32c1 e55a 8cc1 6605 52c0 c5a8 29c1
00000050: 2a5c 74c1 6027 4cc1 2bea 6ec1 6656 01c1
00000060: db7a 41c1 7047 e3c0 a9fd 36c1 d36f abbe
00000070: 8793 91c0 e89b 9bbf 2f93 cb41 eb3f 97c0
00000080: a908 37c1 cf23 49c1 772f d3c0 1700 f9bf
00000090: f22c 81c0 e10b cac0 0334 b5c0 ac09 04c1
000000a0: 3773 b2c0 5207 86c1 94ce edc0 47bc 96c1
000000b0: 7e9e 1240 1bed a7c1 79a5 92c1 0db5 36c0
000000c0: 2918 44c1 49d0 86c1 a8a3 11c2 0f65 ebc0
000000d0: a253 6ec1 5421 e1c0 15dd 84c1 8fb2 75c1
000000e0: 6a5f 04c0 484a 99c1 bbbf e0c0 8faa 35c1
000000f0: 222d cac0 7ad5 17c1 fcc8 1440 2024 933e
-4.04458 -4.1320386 -2.3844 -4.2189837 -8.03528 -6.93796 -11.127961 -8.694762
-11.108889 -26.255121 -11.004155 -1.5914232 -2.5973165 -6.0150914 -23.924553 -16.344751
-11.142174 -17.544382 -3.2815795 -10.6037035 -15.272501 -12.759613 -14.93217 -8.083593
-12.092494 -7.1024704 -11.436929 -0.33483753 -4.5492587 -1.2156954 25.446867 -4.7265525
-11.439614 -12.571242 -6.599544 -1.9453152 -4.0367365 -6.31395 -5.662599 -8.252361
-5.5765643 -16.753574 -7.431467 -18.841932 2.2909236 -20.990774 -18.330797 -2.8548005
-12.255898 -16.851702 -36.40982 -7.3560863 -14.895418 -7.0353184 -16.60795 -15.356093
-2.0683236 -19.16127 -7.0234046 -11.35414 -6.3180094 -9.489618 2.324767 0.287385

running_var f4 [64]
00000000: 1ef3 2e42 a100 4942 4e98 eb42 a295 db42
00000010: adb6 bc42 197d 6943 6c95 ba44 54b0 8744
00000020: 9ee1 8f44 9363 5144 55e4 0644 23d7 e742
00000030: a7dd d842 b98b 7143 41e7 f044 3d12 1144
00000040: 2e54 fd42 78f4 7144 d88b 4044 8461 b544
00000050: 6be7 b843 f83f e743 28ac 1844 efa4 0043
00000060: 3178 0644 64ed a144 7e1c 2c43 2827 c543
00000070: 27df ca42 cead 3642 01d3 3543 a5bc 8242
00000080: 4c79 5144 cda5 9444 fd64 3c44 22ed fe42
00000090: 6b19 d343 0c03 6a43 92d9 7941 d093 3d43
000000a0: e9a4 4b43 44e3 8d44 b2d0 6f44 964c b743
000000b0: bb7e c243 a8c3 fa44 864c 4545 c76d 2e43
000000c0: d80b 1945 9699 2245 6067 db44 6a6b 8a44
000000d0: d36d dc44 5fea 6044 378b 4544 4428 2f44
000000e0: a732 0441 d5b1 0045 30f4 1045 c5df d244
000000f0: 9feb de43 f1c9 1e44 ddc0 e741 59cf 9743
43.73742 50.250614 117.79747 109.79225 94.35679 233.48866 1492.6694 1085.5103
1151.0505 837.55585 539.5677 115.92019 108.432915 241.54579 1927.2267 580.285
126.66441 967.8198 770.18506 1451.0474 369.80795 462.49976 610.68994 128.64427
537.878 1295.4185 172.1113 394.3059 101.435844 45.66973 181.82423 65.36845
837.89526 1189.1813 753.57794 127.46315 422.19858 234.0119 15.615618 189.5774
203.64418 1135.102 959.26086 366.59833 388.99008 2006.1143 3156.7827 174.42882
2448.7402 2601.599 1755.2305 1107.3567 1763.432 899.66205 790.17523 700.62915
8.262366 2059.1145 2319.2617 1686.9928 445.8408 635.15533 28.969172 303.6199

weight f4 [64, 64, 3]
00000000: b074 a8bd 1e95 a53c 127c d1bd 49e5 97bd
00000010: e2fd 8dbe 42ff 953d 1b35 a2bd 32ae 83bd
00000020: 7ceb 473e ca2f 4bbe f3da 95bd 1ec2 d7bd
00000030: ce3e 1ebe 3065 f9bc ba60 073e 1429 8abd
00000040: 609d f83d f0d1 4e3e 9a49 d4bd 8d40 c7bd
00000050: 4d05 f2bc 7467 bb3d 6465 c5bd b103 443d
00000060: fced 17be 350f cdbd a6de bdbd 281a 44be
00000070: 6426 cd3d d0f8 61be d675 3cbd 8e49 03be
00000080: a79c 1d3e ac3b 473d fb88 0abb 669c 3d3e
00000090: b7b7 e4bd fe68 3d3e df7e 1a3e 6392 f9bb
000000a0: 8dc4 55be e14d a5be 27da c1be 9495 483e
000000b0: e8e7 febd f5a2 50be 7c01 193e 1627 ad3d
000000c0: 688f df3d 90b0 b23d 7dd5 b23d d2fd 513d
000000d0: c1bf 07be e24e 01bd eb86 0f3e 289c 6fbe
000000e0: ae4d 7fbd 5675 c33b 8290 123e 9940 01be
000000f0: ad4b 163c 2f76 26bc 0f64 3abd 7161 c13d
00000100: 09da 5f3d 8b53 91bd d502 36bd f604 3b3e
00000110: f898 d03d f671 513e 1305 9dbd 657e 203e
00000120: 9952 d83d cb03 60be 3a75 09bd 3fb2 043d
00000130: f9a6 ccbd 8ee2 17be 4e74 583d 1cf0 b53b
00000140: f1a7 3cbe 4732 24bd 98e9 ffbd 8473 613c
00000150: 8cf2 11be 49c9 463d 9f47 2f3d 6beb 09be
00000160: 47ca a3be 8d4b a83e cf06 babb 9d7a 0ebf
00000170: d693 2cbd 9a0f 3c3e 0bb6 91bd 7bf3 ccbd
00000180: f96b cd3d 3824 22be 7a2d 92bd 95b2 ddbc
00000190: 277c 29be e86a 793d 48a9 12bd dff4 1dbe
000001a0: 4aa8 233e 8ea1 e8bc 1854 c93c 4893 53bd
000001b0: 71c9 343d 2fab afbd da6b c8bd 6bfe 873d
000001c0: 3f3d e9bd ea6e 8dbd e7cc 3bbe f273 9cb8
000001d0: 73cf d7bc b4a7 0fbc e1de e5bd 2fd5 b3bc
000001e0: 1499 d23c 7acf 4abd ebac 94be d7ca b63d
000001f0: 6258 3dbd 3474 153e e176 a43e 4a5f 1abe
00000200: 3122 7bbe 7d78 97bc 7bdf 82be a143 763c
00000210: 0f7f dfbd 0f8f 373e 0c65 b63d 4605 c33d
00000220: da6b 16bd 6aee 903d 4a96 41be ff17 813c
00000230: b355 5e3d 66f4 9a3b 6b4f 0cbe b6ca 73be
00000240: 613f 6abd e068 89bd 2663 343e 5cb2 03be
00000250: 23af 173d 7cdb 9dbc c9f9 51bd a871 54bd
00000260: 0233 60bd 85aa f13c a0ab 03be dacd 063e
00000270: 6e15 513d 5305 30bd fd25 62be 02b2 d03b
00000280: 0395 c3bd 2902 b0be 9689 203e 89d8 d9bd
00000290: bce2 7fbd d617 623d b6d6 c53c beb4 bc3d
000002a0: 0945 05be 1e0a e8bd 2a93 ddbd a515 f03d
000002b0: 2715 11be 538e 4dbd 321d abbd ed97 0ebc
000002c0: 26ec f03d 0996 6e3d 98b0 34be 9bac 323d
000002d0: c4a3 203e cb1b 45bc 435b 49be 68eb ce3d
000002e0: caed abbd 514f 023e c293 6fbd 8794 923e
000002f0: 50e4 03be 1017 c0bd 5239 fb3d a4c1 9e3d
00000300: 7c8b 9dbb 9f4a 943e d25e 1e3e 4528 ac3d
00000310: e946 9bbd 480a cdbd 8b6d c2be 5872 01bd
00000320: be98 a73e 1610 1e3e 4eb6 2a3e 7c54 4f3e
00000330: 4212 2ebe 54b3 433e 9d3f 903e c4ad 993d
00000340: b7f0 053c a6d0 ccbd 2a7c 013e a164 eabd
00000350: e051 a9be 8b16 273d 5a50 313d 5983 473d
00000360: fb40 c7bd 7771 02bc ae9d 1e3b 51d4 0b3e
00000370: cef9 ca3d 2401 e9bd 205f 8c3e 90c5 ec3d
00000380: 968b 9cbe 4277 05bf d083 903e b009 8c3e
00000390: 5e72 d03e 1b85 0cbe 6844 e0be e4c3 0ebe
000003a0: aec7 dabd 2e62 cebc 3f31 493e 1948 1f3b
000003b0: 6dc8 52be bfdc 9e3e da04 68bc 2f83 a0be
000003c0: 6341 463e 63f2 743d 3e2f a5bd e71b bd3d
000003d0: 9a48 b83c 36bc 04be 2657 1bbf b8d9 33bd
000003e0: f162 ef3e 96a7 bebb dfe5 af3c 046d 8f3d
000003f0: 7012 243e d5bd 293e 0f8f c7b9 c771 573e
-0.082253814 0.020212706 -0.10228743 -0.074167795 -0.2773276 0.07324077 -0.07920285 -0.064297095
0.19523424 -0.19842449 -0.07317152 -0.10535072 -0.15453646 -0.030443758 0.13220492 -0.06746116
0.12139392 0.20197272 -0.10365601 -0.09729109 -0.029543543 0.091505915 -0.09638479 0.047855083
-0.14836878 -0.10012666 -0.092709824 -0.19150603 0.10017088 -0.2206757 -0.046010815 -0.12821028
0.1539179 0.048640892 -0.0021138776 0.18516693 -0.11167853 0.18497083 0.1508746 -0.0076163276
-0.2087576 -0.3228598 -0.3786175 0.1958831 -0.12446576 -0.20374663 0.14941972 0.08454721
0.109160244 0.08725083 0.08732126 0.051267453 -0.13256742 -0.03156937 0.14016311 -0.23399413
-0.06232994 0.0059649153 0.14312938 -0.12622298 0.009173316 -0.010160013 -0.04550558 0.094424136
0.054651294 -0.07096013 -0.044436295 0.18263611 0.101854265 0.20453629 -0.076669835 0.15673216
0.10562629 -0.21876447 -0.03355906 0.03239655 -0.09992785 -0.14832518 0.05284529 0.005552305
-0.1842344 -0.04008701 -0.12495726 0.013760451 -0.1425268 0.048531804 0.042792913 -0.13468711
-0.31990263 0.3287014 -0.005677081 -0.55655843 -0.042133175 0.18365327 -0.071148 -0.10007378
0.1003036 -0.15834129 -0.0713758 -0.027062694 -0.16551267 0.06089297 -0.03580597 -0.15425442
0.15982166 -0.028397348 0.024576232 -0.05165413 0.044137422 -0.085775726 -0.09786196 0.06640323
-0.11388635 -0.06905921 -0.18339883 -7.460256e-05 -0.026344037 -0.008768011 -0.112241514 -0.02195224
0.025707759 -0.04951427 -0.29038176 0.089254074 -0.046226867 0.14595109 0.32121947 -0.15075412
-0.24524762 -0.01849007 -0.25561127 0.015030772 -0.109129064 0.17925666 0.08905992 0.0952249
-0.03672395 0.07076724 -0.18904987 0.015758513 0.054280948 0.0047288416 -0.1370217 -0.23807797
-0.05718935 -0.067094564 0.17615947 -0.12861007 0.037032258 -0.019269697 -0.051263604 -0.051866204
-0.054736145 0.029500255 -0.12858438 0.13164464 0.051045828 -0.042973828 -0.22084804 0.0063688764
-0.09549906 -0.34376648 0.15677485 -0.10637004 -0.06247209 0.055198513 0.024150234 0.09214161
-0.13014616 -0.11330055 -0.10819085 0.11722878 -0.14168225 -0.05018456 -0.08355178 -0.008703214
0.11763792 0.058248553 -0.1764549 0.04362164 0.15687472 -0.012030552 -0.1966372 0.10103494
-0.08394964 0.1272557 -0.058490522 0.28628942 -0.12880063 -0.09379399 0.12266792 0.07751778
-0.0048078876 0.2896318 0.15465859 0.08406118 -0.075818844 -0.100117266 -0.379742 -0.031603187
0.3273372 0.15435824 0.16671106 0.20247072 -0.16999152 0.19111377 0.28173533 0.07503846
0.008175067 -0.10000734 0.12645021 -0.11444975 -0.33070278 0.040792983 0.04328952 0.048709247
-0.09729191 -0.007961622 0.002420287 0.13655211 0.09910928 -0.11377171 0.27416325 0.115611196
-0.30575246 -0.521351 0.28225565 0.2735114 0.40712255 -0.1372265 -0.4380219 -0.13941914
-0.10682617 -0.0251933 0.19647692 0.0024304448 -0.20584269 0.3102779 -0.014161313 -0.31350085
0.1936088 0.05980147 -0.08065651 0.092338376 0.022495557 -0.12962422 -0.6067985 -0.043908805
0.46755174 -0.0058183176 0.021471916 0.07003215 0.16022658 0.16576321 -0.00038062825 0.21039496

bias f4 [64]
00000000: c739 873d 2698 c2bd 8dae b23e bbb4 45bd
00000010: 5c26 ad3d 1fe7 1a3e 368a 9b3e 49d0 e03d
00000020: 774d ba3d 871c 28bf c470 d33e a7b2 963e
00000030: 25e8 333d ae86 ad3e 5c97 c73e 0a69 efbb
00000040: 0cfa 093f 8e53 783e d8ee 6bbe c048 143e
00000050: f53c f3bd bee1 d23e 8d9f 2d3e 2760 863e
00000060: a10c bb3e 9dfc 17bd 1959 c53e 0e57 fd3d
00000070: d7bd 7f3e b7d7 583d b6e2 b23e a2b7 8e3e
00000080: 3f55 d43e f87c 413e 4de0 fb3e a985 853e
00000090: c2b4 1e3e 6f35 833e fe35 983e 7bc2 c2bd
000000a0: d29e 90bd 6cb1 293e 8999 963d 5fc9 223e
000000b0: e938 dbbc d3e8 1d3e 41f9 623e 4f22 ed3e
000000c0: 2f4d a33d 192f 7abd 24fa 9a3e 03f8 a73d
000000d0: e1d9 bb3e 3b7f 89bd fb96 a43e aedf 9abc
000000e0: ee9b ec3c 5edb 8c3e 9d65 f63e 8a8a 6cbc
000000f0: 2b26 793e bae2 7fbc 8e20 653d 1beb b73e
0.06602817 -0.09501676 0.34898797 -0.04826806 0.08454582 0.15127228 0.30378884 0.10977227
0.090968065 -0.6566853 0.4129697 0.29433176 0.043922562 0.33891815 0.38982666 -0.007306223
0.53897166 0.24250624 -0.2304033 0.14480877 -0.11876861 0.41187853 0.16955395 0.26245233
0.36533073 -0.037106145 0.3854454 0.1237012 0.24974762 0.052940097 0.34938592 0.27874476
0.41471288 0.18895328 0.49194565 0.26078537 0.15498641 0.25626704 0.29728693 -0.095097505
-0.070615426 0.16571587 0.07353503 0.1589713 -0.026760535 0.15420847 0.22165395 0.46315238
0.07973706 -0.061080072 0.30268967 0.08201601 0.36689666 -0.067137204 0.3214644 -0.018905487
0.028882947 0.27511114 0.481244 -0.014437327 0.24330966 -0.015618021 0.05593925 0.3592156

weight f4 [64]
00000000: 037a c93f 881c 873f 85cf da3f 41cd c03f
00000010: 9771 e13f 336f a03f 0d40 dc3f 7cba c23f
00000020: ea0d ed3f b63d c43f 4abc 033f 706e a23f
00000030: 2cdf d23f 794b a63f af56 3d3f cc44 ae3f
00000040: 195a 4a3f d377 053f 4aad fa3f 8584 9f3f
00000050: 6f74 e53f 2ea2 bc3f ee3a aa3f c9a1 d33f
00000060: 626f ab3f ac00 543f d598 6f3f d653 593e
00000070: f821 903f d9a1 dd3f 689e 943f a6a2 cd3f
00000080: 978b 903f 60fe 6f3f 414a 803f ddbc a83f
00000090: 090e b23f fcb3 963f 3480 c63f 9ccf 943f
000000a0: d150 913f e9e6 a33f b6eb 8a3f ed83 ae3f
000000b0: 155c 613f 1d52 ae3f 1179 853f cfb3 7b3f
000000c0: eac9 d73f 527e d23f 3af3 853f b8f4 9f3f
000000d0: d1b9 9e3f 7769 dc3f 3469 fe3f 061b cf3f
000000e0: c379 da3f 2020 673f 9181 ac3f cc6c d03f
000000f0: c6b6 5a3f 98df c23f 0a42 bd3f b146 c83f
1.574036 1.0555582 1.709458 1.5062639 1.761279 1.2533935 1.7207047 1.521316
1.8519871 1.5331333 0.5145918 1.2689953 1.6474357 1.2991782 0.73960394 1.3614745
0.7904373 0.5213596 1.9584134 1.2462317 1.7926158 1.4736993 1.3299234 1.6533748
1.3393366 0.82813525 0.9359258 0.21223387 1.1260366 1.7315017 1.1610842 1.6065261
1.12926 0.9374752 1.002266 1.3182636 1.3910533 1.1773677 1.5507874 1.1625857
1.1352788 1.2804843 1.0853183 1.363401 0.8803113 1.3618809 1.0427572 0.9832124
1.6858494 1.64448 1.0464852 1.2496557 1.2400457 1.7219685 1.9875855 1.6180122
1.7068409 0.90283394 1.347704 1.6283202 0.8543514 1.5224485 1.4785779 1.5646573

bias f4 [64]
00000000: edcc 943e 4b77 87be f459 05be 156d c5bc
00000010: 56a6 dc3d c6cd 873e c122 2c3d 81a3 14be
00000020: 926b 333e 8ae2 67bc eaf5 023e 37bd 9e3e
00000030: 9eda 86bd 05e9 c63e a72b a83e 9963 3b3d
00000040: 802e c33e 70d1 0e3e 5e20 b1bd 750c 30be
00000050: b7f3 febd 70d5 acbd 2876 11be c456 1dbe
00000060: 7ba5 91be feb1 1939 818d d53d 66d1 4ebd
00000070: 502a 48be 0717 a73d 91f6 393d 6d65 a7be
00000080: 7893 2c3d 4e50 763c ba19 4e3e 923f e3bc
00000090: 9483 0fbd bf1c 643e 0db6 a6bd 3167 7dbe
000000a0: d98d cfbe eb9d bfbb c0b5 7cbc 5b34 b5bd
000000b0: 67d5 99bd 58c0 66be fd7f 08bd 80f5 e03e
000000c0: 013b 0dbe bd23 c8be 8b92 0c3e 63a6 fabd
000000d0: 35ee 5a3e c540 60be 7114 04be 43c4 7b3e
000000e0: fbd6 63be 0167 ab3b 61ed 2c3e b38b 183e
000000f0: d7cb fb3c 9b4c 80be 58b6 913d 26ba 243e
0.29062596 -0.264582 -0.13022596 -0.024099866 0.107739136 0.2652418 0.04202533 -0.14515497
0.17521504 -0.014153132 0.12789121 0.31003734 -0.06584667 0.38849655 0.32845804 0.04574928
0.38121414 0.13947082 -0.08648752 -0.17192252 -0.12448829 -0.084391475 -0.1420523 -0.1536513
-0.28446564 0.00014657524 0.1042738 -0.050492667 -0.19547391 0.08158689 0.04540116 -0.3269457
0.042132825 0.015033795 0.20127001 -0.027740274 -0.035037592 0.22276591 -0.08140192 -0.24746396
-0.4053791 -0.0058476827 -0.015424192 -0.08847877 -0.075114064 -0.22534311 -0.033325184 0.43937302
-0.1379204 -0.39089766 0.13727777 -0.12238767 0.21379931 -0.21899708 -0.12898423 0.24586587
-0.22249977 0.005230785 0.16887428 0.14897041 0.030736847 -0.25058445 0.071148574 0.16086635
