metrics_best_runs/cnn/0189.model (torch_old, 210218 bytes, 30 tensors)

weight f4 [64, 1, 3]
000000 af 7f 87 3f 23 86 94 3f e4 c4 3b 3f 63 d3 d1 bf
       1.0585841 1.1603435 0.73347306 -1.6392635
000010 6d be bb bf 49 5e 6f 3d 00 93 47 3f c8 61 49 bf
       -1.4667488 0.058439527 0.7795868 -0.7866483
000020 e7 f7 6e 3e ef 5e 06 3f 82 1b a1 3e 04 a0 96 bf
       0.23336755 0.5248861 0.314663 -1.1767583
000030 bc 89 c4 be 83 17 a9 3e 2a 73 8e bf 80 5d af bf
       -0.38386333 0.3302575 -1.1128895 -1.3700409
000040 11 a4 82 be 4a 53 81 bf fc 4c e2 bf e1 5b a8 3f
       -0.25515798 -1.0103543 -1.7679744 1.3153039
000050 b0 13 c2 3e 5e a8 99 bd a8 8f ae 3f 22 3a 84 3f
       0.37905645 -0.075028166 1.363759 1.0330241
000060 db 52 5f bf 05 c5 10 be 5a fe 47 3f 5d ed be be
       -0.872358 -0.14137657 0.78122485 -0.3729047
000070 c2 bb 8a bf 34 86 aa bf bb bc 84 bf ae ea b2 be
       -1.0838549 -1.3322206 -1.0370096 -0.3494467
000080 13 fa 91 3f e1 82 32 3f 7a cf a4 3f 08 e8 d4 bd
       1.1404442 0.69730955 1.2875817 -0.10395819
000090 54 2a 41 3f 5d 55 6a 3f 5c 61 2f 3f b5 e8 bc be
       0.7545521 0.91536504 0.68507934 -0.3689629
0000a0 b2 d1 ee 3e 68 9b a6 3f 83 35 de bd 89 5b 85 bf
       0.4664436 1.3016176 -0.1085005 -1.0418559
0000b0 8c d5 89 3f b7 aa 93 3f 68 e4 49 3f 0f 15 62 3f
       1.0768294 1.1536473 0.78864145 0.8831338
0000c0 aa 08 75 3f a5 2b c6 be cb b8 66 bf cc 78 8c 3e
       0.95716345 -0.38705173 -0.9012572 0.2743591
0000d0 c2 b9 34 3f fd e1 0d bf 2d 28 74 3f 59 10 8d 3f
       0.70595944 -0.55422956 0.95373803 1.1020614
0000e0 12 a6 44 3f 26 03 9e bf b9 47 c3 bf f3 b0 4a bf
       0.76815903 -1.2344711 -1.5256263 -0.79176253
0000f0 0c a6 03 bf 1e f4 f1 be 39 b9 90 3f 01 42 a9 bf
       -0.5142524 -0.4725656 1.1306525 -1.3223268
000100 82 c6 a2 3e 00 cb 87 3f f1 34 14 3f d3 5b 55 bf
       0.31792074 1.0608826 0.5789328 -0.8334324
000110 6e 9a 30 3f 29 db 92 bf 72 28 79 3f a5 c3 b4 be
       0.6898564 -1.1473132 0.9732734 -0.35305515
000120 86 0b 55 3f 33 71 68 3f 2b d6 19 3f d2 e6 63 3d
       0.8322071 0.9079773 0.6009242 0.05564005
000130 d7 15 7f 3e 13 3d 39 bf cb db 0e bf 61 1c 9f bc
       0.24910675 -0.72358817 -0.5580413 -0.019422712
000140 41 7b 12 3f 20 1a 71 3f 27 9e d6 be 69 19 8b 3f
       0.5721932 0.9418049 -0.41917536 1.086713
000150 40 91 0f 3f a4 ab 4d 3f 3f c9 3e 3f 76 04 02 3f
       0.5608101 0.8034003 0.7452583 0.50788057
000160 ee 35 a2 3e a3 38 55 bf 95 bf 78 3f 95 e5 c1 3d
       0.3168177 -0.83289546 0.9716733 0.094676174
000170 00 46 88 3f 55 4e 70 bf 88 bc 91 3f df 07 7c bf
       1.0646362 -0.93869525 1.138566 -0.9844951
000180 b0 19 a1 bf 7d fb b8 3f a8 ee 3c be e0 f2 23 3f
       -1.2585964 1.4451748 -0.18450415 0.6404247
000190 2b 07 8b 3f a8 04 74 3f d2 bf 32 3e 24 e0 4d 3f
       1.0861562 0.95319605 0.17455986 0.80420136
0001a0 e7 54 7a bf 99 00 ce 3e a4 8e 4e 3f 62 06 20 bf
       -0.977858 0.4023483 0.806864 -0.6250974
0001b0 83 11 9c 3c 42 84 75 3c a3 e5 b8 3c 85 d3 64 bf
       0.019051319 0.014985146 0.022570437 -0.89385253
0001c0 e6 8d af bf 6d 0a 90 bf 52 fa 7d 3f b8 ff 9a be
       -1.3715179 -1.1253182 0.99210083 -0.30273223
0001d0 63 52 27 bf cf a5 83 bf 5e 1b cd bf 90 3c 85 bf
       -0.6536009 -1.0284976 -1.6023977 -1.0409107
0001e0 03 3f 37 bf 6a 8e c7 3e f9 93 89 3e 9b 37 a2 3f
       -0.71580523 0.3897584 0.26870707 1.267322
0001f0 25 05 29 3f 31 cc bb 3f 86 b5 4d 3c b1 d9 60 3f
       0.66023475 1.4671689 0.012555486 0.8783217
000200 90 bf ab bf 70 28 c4 be 94 9e 29 3f 9c e0 80 bf
       -1.3417835 -0.383121 0.66257596 -1.0068545
000210 29 1b 28 be 71 4d 1a bf 6d 75 c5 3f 75 fe 60 bf
       -0.16416611 -0.60274416 1.542646 -0.8788827
000220 fb 60 29 bd 66 22 65 bf 9e ce 61 3f f1 04 a5 bf
       -0.041352253 -0.8950561 0.882059 -1.2892133
000230 a3 83 4c 3e 90 0c ac 3f 48 83 ef 3e 01 67 88 bf
       0.1997209 1.3441334 0.46779847 -1.0656434
000240 97 74 4e bf 05 40 6b 3d e8 6c 47 3f 8f 32 70 3f
       -0.8064665 0.0574341 0.7790055 0.93827146
000250 0b fe a5 be f9 2f 42 bf 3a ab a6 bf 96 a1 f2 bf
       -0.32420382 -0.7585445 -1.3021004 -1.8955562
000260 00 e5 99 bf 02 2a b8 bf 69 41 91 bf 78 b9 a0 bf
       -1.202301 -1.438782 -1.1348087 -1.25566
000270 dc ef 36 3f 36 9e bc 3f f6 85 37 be 3e 0c 39 3f
       0.71459746 1.4735782 -0.17922196 0.72284305
000280 14 f0 f6 be c3 12 a2 bf d3 28 8d bf f4 b3 e0 bf
       -0.4823004 -1.2661976 -1.1028084 -1.7554917
000290 4e 41 91 bf 5f 2b ca bf 4c bc ed bf db e9 95 bf
       -1.1348054 -1.5794486 -1.8573089 -1.1711992
0002a0 3a f5 9d 3f f5 ee db bd f3 4c 8d bf f9 f9 ef 3f
       1.2340462 -0.10738937 -1.1039108 1.8748161
0002b0 15 8b 19 be 5e 14 ab be 17 75 63 3f 4b 16 4b bf
       -0.14994462 -0.33413976 0.8885054 -0.7933089
0002c0 35 9d ea be a6 af 2d bf 85 28 91 bf e2 b9 41 bf
       -0.45823064 -0.67846143 -1.134049 -0.7567426
0002d0 14 b7 1c 3f 04 f9 02 3f 0a cb 90 bf fa a3 b0 bf
       0.61216855 0.5116122 -1.1311963 -1.3800042
0002e0 11 96 99 3f 2a d6 bf 3e 79 29 67 3f 92 76 aa bf
       1.1998922 0.37468082 0.9029766 -1.3317435
0002f0 da 7e 77 3f 45 01 b2 3f 96 62 62 bf c3 8d c5 3e
       0.96677935 1.3906637 -0.8843168 0.38584718

bias f4 [64]
000000 3a 7f 51 3f 46 f5 51 3f 01 f9 dc 3f 13 93 ab bd
       0.8183476 0.8201488 1.726349 -0.083776616
000010 fc ff ed bd 09 de d2 3e 2a 2d fd 3e b2 d6 1d 3f
       -0.11621091 0.41185024 0.4944852 0.61655724
000020 95 ef ae 3f 87 9a 80 3f c1 45 a9 3f a6 7c e4 3e
       1.3666865 1.0047158 1.3224412 0.4462635
000030 68 67 e9 be 08 4b a7 3e 03 a7 4f 3f 1a 93 1b 3f
       -0.45586705 0.32674432 0.81114215 0.60771334
000040 d5 24 6c 3f 18 60 ca 3d 37 04 b2 3e 64 be 4f 3f
       0.922437 0.0988161 0.3476884 0.8114989
000050 ea fa 76 3f 96 04 ac 3e 2e 19 83 3f c0 b8 60 3f
       0.96476614 0.3359725 1.0242059 0.87781906
000060 22 2f aa 3f 2f 7a 1b bf e7 c1 96 3f 78 02 83 3e
       1.3295634 -0.6073331 1.1777924 0.2558782
000070 c9 95 6b 3f e8 90 fb 3c a9 f4 5f 3d fb 3c 32 3f
       0.9202543 0.030708745 0.054676685 0.696243
000080 b2 97 7f 3f 5d e3 2e 3f b6 9d 42 3a 31 e3 4a 3e
       0.99840844 0.6831568 0.00074240135 0.19813229
000090 3e 9b c8 bf 53 6f 62 3f 42 83 22 bf 4b 5e 28 3f
       -1.5672376 0.8845112 -0.63481534 0.6576888
0000a0 04 e3 94 3f cd bb ad 3f cd 51 d2 3f c6 68 a3 be
       1.163178 1.3572937 1.6431214 -0.31915873
0000b0 aa 3d bf 3f 7c 2b 80 3f ca 1d 20 3f 37 c4 dd 3e
       1.4940693 1.001327 0.62545455 0.43313763
0000c0 93 9f 5d 3f f1 a9 3e 3f bb 8a 73 3f 1f d0 b6 3f
       0.86571616 0.7447806 0.9513356 1.4282264
0000d0 8e f7 27 be 52 89 15 3f c8 17 62 3f 06 2d b3 3f
       -0.16403028 0.5841266 0.8831754 1.3998115
0000e0 3a bb a6 bd e7 e4 4a be 3f 99 5c 3d f0 fb 31 3f
       -0.081411794 -0.19813882 0.053857084 0.6952505
0000f0 30 bc dd be cc cf 79 3f d1 60 93 3f 00 19 72 3f
       -0.43307638 0.975827 1.1513921 0.94569397

weight f4 [64]
000000 df 4f 98 3f 22 79 09 3f 99 ff 7f 3f 96 15 ec 3f
       1.1899375 0.5370046 0.99999386 1.8444088
000010 eb d1 b8 3f c9 c4 c8 3f 80 f4 bd 3f aa a6 bc 3f
       1.4439062 1.5685054 1.484024 1.4738362
000020 a0 03 01 40 66 96 b0 3f 81 c7 85 3f 94 bd ba 3f
       2.0158463 1.3795898 1.0451509 1.4589105
000030 59 25 b5 3f 27 20 ae 3f 56 37 d8 3f 85 25 a6 3f
       1.4152023 1.3603562 1.6891887 1.29802
000040 0d 97 e1 3f 17 8a b1 3f bf 14 a5 3f 4a 7b aa 3f
       1.7624222 1.3870267 1.2896956 1.3318875
000050 19 e3 91 3f 1f aa ee 3f 77 ad 13 3f 5c 8c 8d 3f
       1.139743 1.8645667 0.5768656 1.1058459
000060 6a a2 4d 3f 49 46 c9 3f a5 d1 b0 3f 3e ed a5 3f
       0.8032595 1.5724574 1.3813978 1.2963026
000070 27 d1 72 3f c4 b0 0f 40 2f c7 d7 3f e5 a6 61 3f
       0.9485039 2.245164 1.6857661 0.88145286
000080 fe 18 9c 3f fb e7 c7 3f 36 36 07 40 c7 7c cf 3f
       1.2195127 1.561767 2.1126838 1.6209954
000090 bb d4 b3 3e 3d 3d 68 3f 1e 20 fa 3f 04 21 ad 3f
       0.35123238 0.9071844 1.9541051 1.35257
0000a0 0d e7 94 3f 89 73 e3 3f 7d 7f 1f 3f 0c 30 b1 3f
       1.1633011 1.7769634 0.62303907 1.3842788
0000b0 c6 a3 bf 3f cd c6 c2 3f 64 b8 e8 3f 6f 3e d5 3f
       1.4971855 1.5216919 1.8181272 1.6659678
0000c0 18 1e fc 3f 33 e5 0c 40 c8 13 98 3e e7 aa 62 3f
       1.9696684 2.2014892 0.29702592 0.88542026
0000d0 46 b4 84 3f d1 8c d2 3f 09 2d b4 3e 16 6a 2b 3f
       1.0367515 1.6449224 0.3519061 0.6695875
0000e0 9e 3e cf 3f 18 da aa 3f 6b 2e b1 3f d0 88 c9 3f
       1.6190984 1.3347807 1.3842291 1.5744877
0000f0 ac 3c 0b 40 84 52 a5 3f 9d e3 9a 3f 57 28 bc 3f
       2.175578 1.2915807 1.2100712 1.4699811

bias f4 [64]
000000 1e a1 cb 3e 33 2e a1 3f 32 cd c4 3f 2d 7b ab 3e
       0.3977136 1.2592224 1.5375121 0.33492413
000010 f9 e1 75 3e f9 06 0d 3f 2d e0 f5 3e fb c8 29 3f
       0.24011983 0.55088764 0.48022595 0.66322297
000020 0f 01 b1 3f b2 8f 64 3f 80 f2 a3 3f 53 a1 7a 3e
       1.3828448 0.8928176 1.280838 0.24475603
000030 b9 aa 39 3e 63 28 69 3f 67 25 a6 3f 25 11 37 3f
       0.18131532 0.9107725 1.2980164 0.71510535
000040 96 e5 65 3f cf b9 cc bc 66 7d bf 3e 81 8d 1f 3f
       0.89803445 -0.024990944 0.3740036 0.6232529
000050 e6 3a b0 3f 2e f1 f3 3e 85 cd b0 3f 8b 1e a3 3f
       1.3767974 0.47644943 1.381272 1.2743696
000060 e4 50 a5 3f 55 2a cb 3d 5a 41 ab 3f 47 da 66 3f
       1.2915311 0.099201836 1.3379319 0.90176815
000070 c2 20 18 3f 7c ac bf 3c b9 2c 04 3f 1c b2 98 3f
       0.59424984 0.023397677 0.5163074 1.1929355
000080 d1 0d a8 3f 76 ac c3 3e cb 30 17 3c 7e 9b 93 3e
       1.3129216 0.38217515 0.009227942 0.2882957
000090 f1 d8 56 be 3f da 66 3f 24 96 e7 3d a9 90 bb 3e
       -0.20981194 0.9017677 0.11307934 0.36633804
0000a0 76 c5 a6 3f 2e 79 0b 3f b2 3b af 3f 58 cf b0 3d
       1.302901 0.5448178 1.3690093 0.08633298
0000b0 99 42 8f 3f 9d 64 01 3f 28 06 7d 3f 71 6a be 3e
       1.1192199 0.5054415 0.9883752 0.37190583
0000c0 47 04 8f 3f 3a 05 08 3f af c7 a8 3f 63 c0 b1 3f
       1.117318 0.53132975 1.3185939 1.3886837
0000d0 67 d5 6c 3e 34 d8 bd 3e 21 9a b8 3f 51 b6 52 3f
       0.23128282 0.37079012 1.4422036 0.8230944
0000e0 ec 6f 0c 3f 52 75 cc 3c e6 cb bd 3e 05 98 d2 3e
       0.5485828 0.024958286 0.37069625 0.41131607
0000f0 a0 9e 27 3c 91 83 93 3f f9 8e ba 3f c0 6c 66 3f
       0.01023069 1.1524526 1.4574882 0.9000969

running_mean f4 [64]
000000 f9 17 4f 3f 68 11 52 3f 75 06 dc 3f e3 f8 a2 bd
       0.80895954 0.8205781 1.718947 -0.079576276
000010 9b e3 dc bd 3f 6f d4 3e 00 23 fb 3e ff 05 1b 3f
       -0.107856 0.41491124 0.4905014 0.60556024
000020 cd 29 ae 3f 8a 6a 80 3f 5c 71 a8 3f 8e b8 e1 3e
       1.3606507 1.0032513 1.3159595 0.44086117
000030 04 13 ec be 54 c5 a2 3e bc ff 4d 3f 0c 77 18 3f
       -0.46108258 0.31791174 0.80468345 0.5955665
000040 48 ec 6b 3f b4 a7 ca 3d 47 b1 ad 3e ae a8 50 3f
       0.9215741 0.09895268 0.33924314 0.81507385
000050 95 1f 75 3f a2 91 a9 3e 3f 11 82 3f aa 73 5f 3f
       0.95751315 0.33118922 1.0161513 0.87285864
000060 e7 85 a8 3f 46 ae 19 bf a6 e0 95 3f fe aa 7c 3e
       1.3165864 -0.60031545 1.1709182 0.24674603
000070 5c 3f 69 3f b4 5f 00 3d 85 ec 3d 3d f7 00 31 3f
       0.91112304 0.03134127 0.04636814 0.691421
000080 14 bb 7d 3f b5 d5 2c 3f 19 67 24 3b cc 0e 4a 3e
       0.99113584 0.6751359 0.0025085865 0.19732207
000090 1d bb c8 bf be ab 62 3f a1 91 21 bf e7 93 29 3f
       -1.5682102 0.8854331 -0.6311284 0.66241306
0000a0 e9 1d 94 3f 69 5b ac 3f 60 8d d1 3f cb 47 9f be
       1.1571628 1.3465396 1.6371269 -0.3110946
0000b0 a9 16 be 3f 94 85 80 3f f2 e1 1e 3f 79 bd dd 3e
       1.4850665 1.0040765 0.62063515 0.4330862
0000c0 c8 02 5c 3f 60 61 3f 3f bb 55 74 3f 2e e8 b6 3f
       0.85941744 0.7475796 0.95443314 1.4289606
0000d0 99 80 2f be 69 c4 16 3f 27 b4 62 3f 88 9e b3 3f
       -0.171389 0.5889345 0.8855614 1.4032755
0000e0 c2 da a5 bd fe cc 4c be 92 8f 6c 3d 06 c0 32 3f
       -0.08098365 -0.20000073 0.057754107 0.69824255
0000f0 dd ad dc be 7c dd 77 3f 01 44 92 3f 21 6e 70 3f
       -0.43101397 0.96822333 1.1427003 0.93918043

running_var f4 [64]
000000 25 ed 86 3e ce f4 9f 3e 63 3b 29 3d 4a 5a 34 3d
       0.26352802 0.3124146 0.0413164 0.04403142
000010 6e df 9b 3d 1e b4 73 3e 94 f9 0a 3e 34 72 3e 3e
       0.07610975 0.23799178 0.13571769 0.18598253
000020 88 f1 fe 3c 32 a6 77 3e 94 42 65 3d 70 04 03 3e
       0.03112103 0.24184492 0.055971697 0.12794662
000030 99 42 2b 3e 6e b4 b7 3d c8 83 83 3d f7 c1 7a 3e
       0.16724624 0.08969961 0.0642162 0.24488054
000040 95 b4 32 3d ac cc da 3c a6 19 76 3e 25 56 c3 3e
       0.043629248 0.026708923 0.24033222 0.3815166
000050 6a 92 30 3d 74 13 86 3d 5c f5 5c 3d 1e 52 a6 3d
       0.04310838 0.06546679 0.05394493 0.08121131
000060 ee 70 2b 3e fa 9d a3 3c 3f 7b 61 3c 27 3b 05 3e
       0.16742298 0.01997279 0.013762294 0.13010846
000070 c4 b8 09 3e 1c 65 c6 3c c0 62 25 3e 31 b4 f0 3d
       0.13449389 0.024218135 0.16150951 0.11753119
000080 df 98 e5 3d f4 82 5e 3e 2e 9c 38 3d f3 aa 19 3d
       0.112107985 0.21729642 0.04507082 0.037516546
000090 87 31 c7 38 e7 23 b0 3e 11 2f 0b 3d 58 1d d0 3e
       9.4982846e-05 0.3440239 0.033980433 0.40647388
0000a0 a5 90 98 3c 9b fd bb 3e 27 3f a1 3d 79 c2 80 3d
       0.01862366 0.36716923 0.078733735 0.06287093
0000b0 71 20 b6 3d 4a be f5 3d 03 7d 9b 3d 68 18 a5 3d
       0.088929065 0.119991854 0.075922035 0.08061296
0000c0 0e d3 de 3c a9 a5 0f 3d 38 66 14 3f 16 08 e3 3e
       0.027200248 0.035070095 0.57968473 0.44342107
0000d0 e9 6d 1c 3e 31 0d 99 3d 39 e5 f4 3e df 41 23 3f
       0.15276302 0.07473219 0.47831133 0.63772386
0000e0 11 b8 73 3d 94 24 08 3e 55 d6 33 3d b7 9f 4b 3e
       0.05950171 0.13295203 0.043905575 0.19885145
0000f0 a0 a7 39 3d 93 37 c2 3d ee 1e fa 3d 5f 27 db 3d
       0.045325875 0.09483256 0.122129306 0.10700869

weight f4 [64, 64, 3]
000000 86 62 89 3e 2a bc d7 3c af 99 4b 3e 07 2f 7a 3e
       0.2683298 0.02633484 0.19882844 0.24432002
000010 b6 d6 aa 3e 84 99 fe 3e 11 fc 01 3f e6 a0 72 be
       0.33366936 0.49726498 0.5077525 -0.2369419
000020 09 9d 08 3f 67 84 89 bd da 93 83 3e 85 dd c5 be
       0.53364617 -0.06714707 0.2569874 -0.38645568
000030 c7 4f 23 be cf 9b 6c 3e 72 88 82 be 39 83 8f bb
       -0.15948401 0.23106311 -0.25494725 -0.0043796566
000040 d2 74 4b 3e c7 4d a4 bd 15 36 f4 be db 48 8d 3d
       0.19868782 -0.08022647 -0.4769751 0.06898662
000050 f0 6c d6 be d2 fa 5f 3d 5c 8a e0 3c 6e 81 05 3e
       -0.41879988 0.05468256 0.027409725 0.13037655
000060 69 69 f6 bd c7 f1 22 bd a8 eb 0b 3f e1 c6 90 3d
       -0.12031824 -0.039781358 0.5465646 0.07069183
000070 76 2e 9d 3e 7a 5b 50 3d bd 49 d4 bc fa 8d 3d be
       0.3069951 0.05086849 -0.025914067 -0.18511191
000080 4e ed 64 3f 6f 01 da 3c 4a 25 10 3d 3c d8 3b bd
       0.894246 0.026612012 0.03519181 -0.045860514
000090 99 b8 09 3e d3 35 f4 3d 72 02 bb 3d c8 f9 03 3d
       0.13449325 0.11924329 0.09131326 0.03222063
0000a0 cf 75 91 bd d6 de f2 3e 44 c6 4c 3e bb b4 a7 be
       -0.07102548 0.47435635 0.19997507 -0.32755074
0000b0 e6 97 20 3f 1f 25 7c 3e be 46 c9 bb dd 09 83 3e
       0.6273178 0.24623536 -0.0061424663 0.25593463
0000c0 4e f4 00 3f 08 c7 cf 3d 43 fa ce be 03 b5 f2 bd
       0.5037278 0.10145384 -0.4042531 -0.118509315
0000d0 32 d0 34 ba 2d 3d 34 be 3d b3 84 3e ac cc c5 3d
       -0.00068974786 -0.17601462 0.25917998 0.09658179
0000e0 5a ff 47 3e e4 0c 21 3e 92 93 81 3e 14 7e ea 3d
       0.19531003 0.15727574 0.253079 0.11449829
0000f0 b9 8b df 3d 35 d4 9f be 22 39 84 3f 3f 58 89 be
       0.10915322 -0.3121659 1.0329936 -0.2682514
000100 aa aa 11 be af ba 32 3e a9 09 0f 3f 77 cb f5 bd
       -0.1422526 0.17454027 0.55874115 -0.120016985
000110 f2 64 43 3f ba 35 9b be ec ba 69 3e bc 64 e5 be
       0.76325905 -0.30314428 0.22825211 -0.44803417
000120 35 1e ab 3e 2e 16 09 3e 0d 3f 63 3e 60 ad 2e be
       0.33421484 0.13387367 0.2219202 -0.17058325
000130 0d 68 32 3e e1 a7 a3 be 5b 2f d4 bd 5f 72 16 be
       0.17422505 -0.3196402 -0.10360595 -0.14692067
000140 6f b6 48 3f 32 7f 00 3e 24 d7 3a be 51 39 c9 3e
       0.7840337 0.12548521 -0.18246132 0.3930154
000150 0c 3b 10 3e 98 6a f2 3d 0f f9 f4 3d 13 19 b2 bc
       0.14085025 0.118367374 0.11961567 -0.021740472
000160 d1 f6 64 3e c3 03 04 bf 31 59 65 3e f9 da 13 3c
       0.22359778 -0.5156824 0.22397305 0.009024375
000170 cd ef 81 3e 28 8d 53 be ad 8a 9f 3e c7 b5 0e bf
       0.25378266 -0.20659316 0.3116049 -0.5574612
000180 9c f5 f6 be ca 42 7a 3e df b6 20 bf d5 33 02 3e
       -0.4823426 0.2443954 -0.6277904 0.12715085
000190 47 f6 3a 3d a1 c6 74 3e d0 87 7a be 91 21 5c 3e
       0.045645025 0.23903896 -0.24465871 0.2149718
0001a0 ae 6f df be e7 f1 c8 bd 9c 59 03 3e 6d 85 cd be
       -0.43639892 -0.09811764 0.12827152 -0.40140858
0001b0 b8 51 22 be da 44 92 bd 67 45 bb bd 7c 21 86 3e
       -0.15851486 -0.07142039 -0.09144097 0.26197422
0001c0 4d dd a1 3e 7c b2 c7 3d c6 95 92 3e 6e d7 14 bd
       0.31614152 0.0975084 0.28629893 -0.036338262
0001d0 95 46 ce be cd 55 a8 3d 00 38 1c 3e 79 89 99 3d
       -0.40288225 0.0821949 0.15255737 0.07496924
0001e0 b7 08 83 be d0 84 ff 3d d7 2a a8 bd 3c be 09 3e
       -0.25592586 0.12476504 -0.08211296 0.13451475
0001f0 22 a3 6e bc d0 29 71 3e d6 91 31 bc c0 b1 fe 3e
       -0.014565261 0.23551106 -0.010837993 0.49744987
000200 4b c7 30 bf 33 a0 96 be 0e 64 67 3e 47 a7 e4 be
       -0.69054097 -0.29419097 0.22596762 -0.44658872
000210 1b 47 2e 3d ab 00 30 be 56 a8 10 3f 42 59 a5 bd
       0.04254828 -0.17187755 0.5650686 -0.08073665
000220 3e bc 87 3e a0 5f 06 be 02 d7 ad 3e 91 2c 82 be
       0.26510805 -0.13122416 0.339531 -0.25424626
000230 2a 85 92 3e 31 5a 2b 3e 9c a4 ef 3d 4f 53 f9 be
       0.2861722 0.16733624 0.117013186 -0.48696372
000240 5d b6 53 be 4d 3d bc bd 9a 4f b8 3e 58 fd a0 3e
       -0.20675035 -0.0919138 0.3599823 0.31443286
000250 76 39 da 3b 62 3d c0 be 3f aa ad 3e 20 67 f5 3e
       0.006659682 -0.3754683 0.3391895 0.4793024
000260 31 0d bf 3e 88 e5 58 3e 1e 48 a5 3e 14 14 a5 3d
       0.37314752 0.21181309 0.32281584 0.0806047
000270 1f fc 7e 3d f7 79 9e b9 33 10 3c bd 55 d9 26 3e
       0.06225216 -0.0003022698 -0.045913886 0.16293843
000280 06 38 07 3e d7 6d 7d be 77 e7 dc 3e 32 aa 04 3f
       0.13204965 -0.24748932 0.43145344 0.518222
000290 73 a2 bd 3e c9 93 6b 3e 3a 99 7a 3e d2 88 4e 3e
       0.37038 0.23005594 0.24472514 0.2016938
0002a0 6d 0b ae 3e 3e 06 48 3d 83 4d 0e bf ec 24 fb 3e
       0.33993092 0.048834078 -0.55587023 0.49051607
0002b0 8b e6 a1 be 9d 02 3f be 9f b2 81 3e 53 54 0f be
       -0.31621203 -0.1865334 0.2533159 -0.13997011
0002c0 84 cc aa bd 36 7b 2a 3e 4f 40 80 3e 78 d4 f5 3d
       -0.083397895 0.16648564 0.25049064 0.12003416
0002d0 e8 2b 19 bd 8f 2e 5d 3e 8c 06 da be 42 06 ec be
       -0.037395388 0.21599792 -0.4258312 -0.46098524
0002e0 84 d1 ab 3d 2e e8 81 be df 22 93 3e 08 b6 93 be
       0.08389571 -0.25372452 0.28737542 -0.28849816
0002f0 90 4b ff 3e 1a e4 a2 3e 54 39 7b be 41 43 7b 3e
       0.49862337 0.31814653 -0.24533588 0.24537374
000300 e5 6b af be 73 f0 48 be d5 3f ac bd 3a dd 01 3f
       -0.34262004 -0.19622974 -0.084106125 0.5072819
000310 56 80 0b 3f 26 b9 21 3f 8d c3 5f 3f 96 1f 5c 3f
       0.544927 0.6317314 0.8740776 0.85985696
000320 40 66 3a 3f bd d9 bf 3d e6 fb 8d 3c 2c 1d c3 bc
       0.7281227 0.09367702 0.017332029 -0.023817621
000330 1e f2 34 3e ef 83 b8 3d 2b 2d 92 3d ec 4f 2e 3e
       0.17670485 0.09009539 0.07137521 0.17022675
000340 e2 12 60 3e ff 28 40 3e 18 a7 45 3d ca c4 23 3e
       0.21882203 0.18765639 0.048255056 0.15993038
000350 b0 00 b9 3e c9 c8 b7 be 29 3f 6b be 0b f1 88 3d
       0.36133337 -0.35895374 -0.22973312 0.066866
000360 34 c6 98 3e 11 c0 c4 3e 16 1f d3 3e c9 4e 9a 3e
       0.29838717 0.38427785 0.41234654 0.30138233
000370 03 ed 50 3e 8c 4a 82 3e 2e 20 30 3f e8 7b 4f 3f
       0.20402913 0.254475 0.687991 0.8104844
000380 da 7d 55 3f b4 3a e4 be f6 1b fd be f4 dd 4d be
       0.8339516 -0.44576037 -0.49435395 -0.201042
000390 62 9b d8 be 6a f6 60 be e5 fc ee bd 3a 59 a7 bd
       -0.42306048 -0.21969 -0.116693296 -0.081713155
0003a0 90 d7 4e 3d 0d fe 3c 3e bd 57 e8 3e 4e 9b ed 3e
       0.050498545 0.18456288 0.4537944 0.4640755
0003b0 30 d4 02 3f a8 2b 24 be a5 ff 49 be cf ba 4d 3d
       0.5110502 -0.16032279 -0.19726427 0.050226983
0003c0 9f 6e f9 3e 81 b1 a4 3e 97 b7 37 3e 05 96 f7 be
       0.4871721 0.32166675 0.17941128 -0.48356643
0003d0 35 b6 1c bf 71 cb 06 bf d5 29 90 be f9 67 43 be
       -0.61215526 -0.52654177 -0.28156915 -0.19082631
0003e0 61 bd a3 bd 97 5e 68 3e 1f 8f 52 3e f1 5b 05 3e
       -0.079951055 0.22692333 0.20562409 0.13023354
0003f0 5f 3c 55 3f e8 02 67 3f 37 26 7b 3f ba 76 5f be
       0.83295244 0.9023881 0.98105186 -0.21822634

bias f4 [64]
000000 a2 c9 3d 3e 2b 25 12 3f 03 e7 89 bc 8a 87 27 bc
       0.18533948 0.57087964 -0.016833788 -0.010225186
000010 02 fb ca 3e e0 69 ce 3d a7 28 1e 3f 42 95 37 3f
       0.3964463 0.10078788 0.6178078 0.71712124
000020 17 1e 03 be bd 70 e5 3c d8 4d ec bd a4 d8 ad 3c
       -0.12804447 0.02800786 -0.11538285 0.021221466
000030 83 c8 62 bd 65 b7 17 3f 31 0b 73 3e 53 22 92 3e
       -0.055367004 0.5926421 0.23734738 0.28541812
000040 ce 53 44 3e 9e 7d aa 3d df fc 16 3f ce e7 82 be
       0.19172594 0.08324741 0.589796 -0.25567478
000050 34 c6 d4 3e 48 97 93 b9 30 60 3a 3d fc 49 00 be
       0.41557467 -0.00028150738 0.045501888 -0.12528223
000060 ee 57 5a 3d 56 88 f1 be 2e 48 35 be 9c a6 df bd
       0.053306513 -0.4717433 -0.17703316 -0.1092045
000070 2a 38 d2 3e c5 1b 9b bd 85 40 ae bd 61 b4 73 be
       0.41058475 -0.07573656 -0.085084 -0.23799278
000080 ef e8 14 3f 19 56 1b be c9 60 19 3e d9 7b cd 3e
       0.5816793 -0.15169562 0.14978327 0.4013355
000090 7e 77 b9 3d 0f 4e 99 be 46 e1 de 3e 5e 52 4f 3e
       0.090559945 -0.29942366 0.43531245 0.20246264
0000a0 72 eb d2 3e c4 f0 de 3d 17 e1 b0 bd f8 3d aa bc
       0.41195256 0.10885766 -0.086366825 -0.020781502
0000b0 b1 67 99 3d fc 2d 16 3d 3b c9 35 be cf fc d7 bc
       0.07490481 0.036664948 -0.17752545 -0.026365666
0000c0 02 d3 a5 be d7 0f 15 3e 02 82 02 3f c7 41 d3 3e
       -0.3238755 0.14556824 0.50979626 0.41261122
0000d0 31 c0 52 be e9 d7 7f 3e 3d 20 22 3e 26 a9 4e 3e
       -0.20581128 0.24984707 0.1583261 0.20181713
0000e0 85 4c 69 3d af dc 17 3f b0 d8 75 3e ca c6 56 be
       0.05695774 0.5932111 0.24008441 -0.2097427
0000f0 63 13 c8 be bd 50 74 bd c3 67 e8 bc 05 94 b9 bd
       -0.3907729 -0.05964731 -0.02836979 -0.090614356

weight f4 [64]
000000 ec 7b e0 3f eb 05 55 3f f7 12 dc 3f 13 e7 fc 3f
       1.7537818 0.83212155 1.7193288 1.9758018
000010 c0 6d f3 bd 24 b5 d2 3f 0b 8f 02 bd e5 45 1e 3f
       -0.118861675 1.646153 -0.031874698 0.618254
000020 9f 75 80 3f dc af af 3f 18 8d dd 3f 6b 48 c4 3f
       1.0035895 1.3725543 1.7308683 1.53346
000030 13 72 07 40 f4 d7 60 3f 28 ed 19 3f 2c f9 8b 3f
       2.1163375 0.8782952 0.60127497 1.0935416
000040 77 bd b8 3f 68 1d 75 3f 44 77 11 3e 95 bc 9f 3f
       1.443282 0.95747995 0.14205652 1.2479426
000050 3a 94 27 3f e8 06 bc 3f 74 38 c7 3f c9 a8 dd 3f
       0.6546055 1.4689608 1.5564103 1.7317134
000060 eb 3f b9 3f 65 dd e8 3f 71 a5 01 40 ad 2b a9 3f
       1.4472631 1.8192564 2.0257227 1.3216454
000070 1a 12 df 3f 0e 94 d2 3f 1a ba ab 3f d1 3a a3 3f
       1.7427399 1.6451433 1.3416169 1.2752324
000080 96 17 d6 3e 9a 23 9e 3f b2 fa a5 3f fd 5e ba 3f
       0.4181487 1.2354615 1.2967131 1.4560238
000090 69 4a 87 3f f1 a0 c9 3f 4a 7f 68 3f a5 31 57 3f
       1.0569583 1.575224 0.9081923 0.84060127
0000a0 b4 30 49 3f cd 78 8d 3f b2 49 ba 3f 41 85 ea 3f
       0.7858994 1.105249 1.455374 1.8321916
0000b0 80 cf 92 3f af 0b f8 3f 71 00 d1 3f fc 42 ba 3f
       1.1469574 1.9378566 1.632826 1.4551692
0000c0 2e ca 80 3f 2a 2a 6c bc f8 20 79 3e f7 b0 02 3f
       1.00617 -0.01441435 0.24328983 0.51051277
0000d0 90 ce ea 3f 22 6b c1 3f e9 95 90 3f 9c 9e d1 3f
       1.8344288 1.5110819 1.1295749 1.6376529
0000e0 05 13 97 3f 7d 83 86 3f 20 5a bb 3f 28 f0 91 3f
       1.1802679 1.0508877 1.4636879 1.1401415
0000f0 7a 2b a3 3f f6 f0 c2 3f b2 c6 95 3f b8 9c ec 3f
       1.2747643 1.5229785 1.1701262 1.8485327

bias f4 [64]
000000 98 c4 52 3f 33 2b 78 3f 1b 8b 0a 3d e5 ff 9b bd
       0.8233123 0.96940917 0.033824068 -0.076171674
000010 61 1a 8e 3f 45 20 fb 3e 7c 53 9d 3f ac 91 48 3f
       1.11018 0.49048057 1.2291102 0.7834728
000020 1c c2 8e 3e 03 b6 48 3e 39 97 f2 3c ca 59 f7 bd
       0.2788247 0.19600682 0.029613124 -0.12077673
000030 0e c8 83 3e 73 c8 8b 3f c0 2c 4d 3f f4 1c 21 3f
       0.25738567 1.0920547 0.8014641 0.62934804
000040 ef e4 f2 3e 05 e4 06 bd dc 6a a6 3f 10 4e 13 3e
       0.47440287 -0.0329323 1.3001361 0.14385247
000050 a4 fb 58 3f 15 53 ee bd 13 dd 87 3e 0b 6f 86 3e
       0.84758973 -0.116369404 0.26535854 0.26256594
000060 6f 19 89 3a 60 c8 52 3d b5 4e 4c bd 27 ae b9 3d
       0.001045985 0.051460624 -0.04987975 0.0906642
000070 5e d2 56 3f aa ce f9 bd 02 bf 57 3e 51 0b 99 3d
       0.83914745 -0.12197621 0.21068957 0.074728616
000080 a9 46 92 3f fa 62 59 3d 9b 9d 18 3e a3 1c 73 3f
       1.1427814 0.053072907 0.14903872 0.9496557
000090 6f 42 e6 3e e7 3e c8 3c d7 eb 62 3f 4c a1 ea 3d
       0.4497256 0.024444057 0.88641113 0.11456546
0000a0 ec 47 16 3f d9 c7 02 3d 16 c2 d7 3b 1d 73 d2 3e
       0.58703494 0.03192887 0.006584416 0.4110345
0000b0 99 80 b4 3e 41 a8 03 3e 4f 58 a1 bd 32 16 77 3c
       0.35254362 0.12857153 -0.07878172 0.015080975
0000c0 13 a8 ef 3d cf 60 55 bd 2d 4d a8 3f 62 ae 6d 3f
       0.117019795 -0.052094277 1.3148552 0.9284421
0000d0 b2 1c f9 3c 51 87 48 3f 36 84 99 3e 7c c9 f1 3d
       0.03040919 0.78331476 0.2998368 0.11806008
0000e0 6c 7f 2f 3e 3e 8c 57 3f ae 3d 98 3e ae 45 89 3d
       0.17138451 0.8419837 0.29734558 0.067027435
0000f0 42 63 15 bd af 26 e6 3e c9 ae df 3e 06 aa 4b 3e
       -0.036471613 0.44951388 0.43688038 0.19889078

running_mean f4 [64]
000000 1e 24 82 41 61 20 51 42 12 96 f2 40 e1 81 59 c1
       16.267635 52.28162 7.580819 -13.594209
000010 76 9c 32 42 36 b4 58 3f 4e dd 46 42 16 19 53 42
       44.652794 0.8464998 49.716118 52.774498
000020 9f 7c 2d c1 c4 e4 b0 40 e8 15 22 c1 d1 cb 46 40
       -10.842925 5.5279255 -10.130348 3.10619
000030 48 61 47 c1 08 5e 23 42 d1 a3 1b 42 f6 91 f0 41
       -12.46125 40.841827 38.909977 30.07127
000040 95 0b 54 41 01 2d ba c0 35 c6 66 42 5d 98 87 c1
       13.252828 -5.8179936 57.69356 -16.949396
000050 ad 96 f5 41 ac 43 a4 40 60 48 a1 40 88 c8 df c0
       30.698572 5.1332607 5.040085 -6.993229
000060 5e 3c c7 bf 81 a6 89 c1 72 f6 80 c1 2d ec 82 c1
       -1.5565298 -17.2063 -16.120335 -16.36532
000070 83 1c 12 42 13 2f bb c1 8d 27 ee bf 12 f4 b7 c1
       36.527843 -23.397985 -1.860582 -22.994175
000080 38 a5 71 42 54 dd 9a c1 e8 27 6c 41 e6 38 52 42
       60.411346 -19.35807 14.759743 52.555565
000090 ef ca b9 41 1e 7a 1d c1 38 12 69 42 5d 80 50 41
       23.224089 -9.842314 58.26779 13.031339
0000a0 53 e1 ad 41 5d c7 fa c0 01 30 0f c1 0f 08 38 41
       21.735022 -7.8368363 -8.94922 11.501967
0000b0 92 8b c7 41 04 48 9a 3f ce dc 9b c1 60 9e c2 c0
       24.94315 1.2053227 -19.482815 -6.081833
0000c0 bc 92 ae c1 23 e9 fd 40 2b f7 4d 42 e1 54 25 42
       -21.821648 7.934709 51.491375 41.33289
0000d0 a2 db 7b c1 78 1e b5 41 c8 74 ad 40 03 9b 77 41
       -15.741121 22.639877 5.4205055 15.475345
0000e0 50 5f 4b 41 b8 8a 31 42 cb 7c 6e 3e e7 40 a8 c1
       12.71077 44.385468 0.23289792 -21.03169
0000f0 4f 17 81 c1 0d ce 37 c0 de 8c 3d c0 ec dd 8d c0
       -16.136381 -2.8719513 -2.9617229 -4.43334

running_var f4 [64]
000000 99 54 5b 43 44 39 db 43 f7 5d c2 43 07 31 c8 42
       219.33046 438.4474 388.7341 100.09576
000010 48 e3 9e 43 d6 b1 4d 43 d1 6f a5 43 09 59 bc 44
       317.77563 205.69467 330.87357 1506.7823
000020 96 79 d2 42 09 ce 83 42 bd 07 13 43 80 3e d6 42
       105.23747 65.90241 147.03023 107.12207
000030 ae 5f d8 42 a4 51 85 42 36 d1 0d 44 ed ba 22 43
       108.186874 66.659454 567.2689 162.73018
000040 3b d0 17 43 c2 c3 cc 42 ff 55 8e 43 67 db 80 42
       151.8134 102.38234 284.67184 64.42852
000050 05 a9 5d 43 05 08 03 43 5d 26 4a 43 36 c0 bf 42
       221.66023 131.03133 202.14986 95.87541
000060 52 cf ad 42 f7 87 61 42 69 01 14 43 c3 45 83 43
       86.90492 56.38278 148.00551 262.545
000070 5f 4d 3f 43 3f 42 84 43 63 e3 cd 42 f4 f7 df 42
       191.30223 264.51755 102.944115 111.98428
000080 15 b2 90 43 a1 ea 92 42 41 b1 00 43 b3 8d 65 43
       289.39127 73.45826 128.6924 229.55351
000090 d1 ee d1 43 7d bf 73 43 40 ec ba 43 3d 81 dd 42
       419.86575 243.748 373.8457 110.75242
0000a0 36 6b 4a 43 c2 5d f1 42 4b c7 cf 43 94 00 c6 42
       202.4188 120.68312 415.55698 99.00113
0000b0 9f 6a 2b 43 34 b5 e6 42 c1 a1 94 43 82 b4 66 43
       171.41649 115.35391 297.2637 230.70511
0000c0 24 42 ab 43 6b ce 20 40 13 32 5c 44 91 ca 20 44
       342.51672 2.5125988 880.7824 643.1651
0000d0 e9 fe 81 43 bf a8 3a 43 5a 37 8b 43 83 14 04 43
       259.9915 186.65916 278.43243 132.08012
0000e0 84 ac a6 41 2e f8 2b 44 b7 38 b3 42 80 1b f1 42
       20.834236 687.8778 89.61077 120.55371
0000f0 fe 0e 8c 43 c4 0b c6 41 e4 fe f2 42 da f7 63 43
       280.11713 24.755745 121.49783 227.96817

weight f4 [64, 64, 3]
000000 e9 26 f3 3d 02 62 1c be 6a 24 59 be 1a 2f 03 3e
       0.11872656 -0.15271762 -0.21205297 0.12810937
000010 e3 71 15 3e f4 ca 94 3d 2a 72 10 be 6a 79 d7 bb
       0.14594226 0.07265273 -0.1410605 -0.006575753
000020 2a 3e 55 be 1d 4c 3f bd 3e c0 f9 bc 68 4b a5 3d
       -0.20824495 -0.046703447 -0.030487176 0.08071023
000030 95 a4 90 3d 68 40 92 3d 9c 98 80 3d 9d 42 3c 3d
       0.070626415 0.07141191 0.06279108 0.045961965
000040 73 05 c6 3a 23 4b 0b be 99 98 ae 3c 6f 11 a8 3d
       0.0015107825 -0.13602881 0.021312999 0.0820645
000050 ff 72 80 bc 55 e8 fd bc 44 61 e4 3d 50 bb 09 3d
       -0.015679834 -0.030994574 0.111513644 0.0336259
000060 fa 41 c5 3d 25 71 5b 3c 15 85 42 be 2e 44 47 3e
       0.09631725 0.013393675 -0.1899608 0.19459602
000070 24 b0 17 3e 70 a8 e0 3c 1b 32 7f bd 60 ec 29 bd
       0.14813286 0.027424067 -0.062303644 -0.04148519
000080 cb 13 27 bd 0a 67 6d bd 4f 25 5c 3e 5e a2 80 3e
       -0.04079036 -0.057959594 0.21498607 0.25123876
000090 67 18 0a be 7e ad a0 3d 22 a0 15 3e a9 d5 85 bd
       -0.13485871 0.07845591 0.14611867 -0.06534893
0000a0 50 99 ea bc 00 1c 93 3d 9a 45 4f bd 96 9a b6 3d
       -0.028637558 0.07183075 -0.050603487 0.08916204
0000b0 cb b9 80 3d 99 83 97 bd 60 27 de 3a 0f 64 0b 3e
       0.06285437 -0.07398147 0.001694899 0.13612388
0000c0 79 49 a5 3e 8c f8 2b 3d 74 e9 30 bd e7 26 15 bd
       0.32282618 0.04198508 -0.04319139 -0.036414053
0000d0 e4 75 15 bc 6d c2 fd 3c b8 0d 07 bd 3f 0c 7d 3d
       -0.009122346 0.030976498 -0.032972068 0.061779257
0000e0 7e 6d ba 3d 33 90 77 3d e2 d8 13 3c 15 84 a3 bd
       0.09102915 0.060440253 0.009023877 -0.07984177
0000f0 64 5c 00 be 5e df 9f bc 68 1f f1 3d 7d 70 ba 3d
       -0.12535244 -0.01951569 0.117735684 0.09103487
000100 a5 f3 83 3e 38 fa 71 3e 11 58 98 3d a8 82 5c 3d
       0.25771824 0.23630607 0.07438672 0.05383554
000110 4e 4e 73 3e 96 74 6c 3e 62 83 84 3e c5 e9 7a 3b
       0.2376034 0.23091349 0.25881487 0.003828631
000120 c4 08 6f 3d c9 47 37 3e e1 39 8a 3d e3 54 8e 3d
       0.05835797 0.17898478 0.06749321 0.069497846
000130 2a a4 bd bc 60 2c a1 bd 0c 1d 89 bc 65 09 0a bd
       -0.023149569 -0.07869792 -0.016737483 -0.033700366
000140 7d 82 61 3e f3 e9 00 be 4b 64 c1 3c 4f 77 88 bd
       0.22022434 -0.12589245 0.023607394 -0.06663381
000150 ac 9f 21 3d 0b c3 30 3e 04 aa 27 3e fe 6e 8b 3e
       0.039458916 0.17261903 0.1637345 0.27233118
000160 38 09 39 3d ef a4 04 3e c8 b4 6e bd c6 32 a3 bd
       0.045174807 0.12953542 -0.058277875 -0.07968669
000170 f7 7e 94 3c 55 d4 d0 3d bf 82 28 3e 0d 3b c5 bc
       0.018126948 0.10196749 0.16456126 -0.02407601
000180 18 dc 04 be 22 84 c7 3d 24 84 d0 3d 5c da 8d bd
       -0.12974584 0.09741999 0.10181454 -0.06926414
000190 78 b5 48 bd 4e 25 81 bb 31 b5 b3 3c 96 03 b2 3d
       -0.049001187 -0.0039412146 0.021936985 0.0869209
0001a0 60 47 9e 3c c3 7a 2a 3d a4 7d 95 3d 05 28 3a 3d
       0.019321144 0.04162098 0.07299355 0.04544832
0001b0 e1 79 a5 3c 21 36 0d 3e 32 67 28 3e b1 1d 5c 3e
       0.020199718 0.1379018 0.16445616 0.21495701
0001c0 02 02 c4 3e e5 7d ab 3e 0b 20 36 3e 20 f1 6f 3e
       0.38282782 0.33494487 0.17785661 0.23431826
0001d0 6b b4 06 3d c4 08 37 3d c0 40 c5 3d 0f 11 95 3d
       0.032886904 0.044686094 0.09631491 0.07278644
0001e0 e5 a1 02 be 6a 03 d3 bd 32 8d bd 3d 2c cc bc 3d
       -0.1275707 -0.103033856 0.092554465 0.0921863
0001f0 36 65 21 bc 48 53 2a 3b 56 67 60 bc 54 2a 52 be
       -0.009850791 0.002598958 -0.013696512 -0.2052396
000200 6f 17 95 be a9 89 78 3d 73 1b 9b 3d 82 53 7c 3e
       -0.2911944 0.060678158 0.07573595 0.2464123
000210 f2 20 45 3d 20 19 10 3d ae fa 43 3e 6c 5f a3 3e
       0.048127122 0.03518021 0.19138595 0.3190874
000220 e8 88 92 3e 2d 39 35 bc 47 ff 9f 3e 9e 6a 0d 3e
       0.28620076 -0.011060995 0.3124945 0.13810202
000230 04 c4 c8 3d 24 d1 d8 bc 6d e6 b1 bd f5 b2 e6 bd
       0.09803012 -0.026466914 -0.08686528 -0.11264602
000240 51 d5 94 3e 4d cc b5 3e 5d 59 fc bd 17 9f 88 bc
       0.29068998 0.35507432 -0.12321732 -0.016677422
000250 5e 9f 58 3b df ac b4 3d 0d 96 ae 3d bf a7 d9 3d
       0.0033053975 0.08822035 0.08524714 0.10627698
000260 a4 4d 36 3d 9e 63 aa bc 98 26 25 3c 4c db 8b 3d
       0.044507638 -0.020799454 0.010080002 0.06828937
000270 08 33 97 bc 3e 63 12 bd 8d 98 62 be ee 97 3c 3e
       -0.01845695 -0.035739176 -0.22128506 0.18417332
000280 7d f0 7e bd ac eb 83 be 23 f9 e0 bd 79 93 08 bd
       -0.062241066 -0.2576574 -0.10985019 -0.033343766
000290 39 c3 83 3d 14 9b 59 bd ae a1 19 3e f8 4a 24 3e
       0.0643372 -0.05312641 0.15003082 0.16044223
0002a0 60 60 f9 3d 42 4f 28 3e d4 b6 2a 3e a2 7b 2b be
       0.12176585 0.16436484 0.16671306 -0.16746381
0002b0 0f 63 34 bb 60 20 02 be 2e e5 2f 3d bc 10 82 bd
       -0.0027524864 -0.12707663 0.042943172 -0.06350848
0002c0 78 a3 fa 3c 30 40 36 3d b8 a3 0d 3e 82 c5 b1 bd
       0.030595526 0.044494808 0.13831985 -0.0868025
0002d0 26 7c 94 3e 6a a2 44 bd 15 dd 87 3e 32 aa 2b 3e
       0.29000968 -0.048006453 0.2653586 0.16764143
0002e0 11 76 5a 3e ea f0 3d bd 29 27 ae 3d 8c d5 93 bd
       0.21334101 -0.04637233 0.08503563 -0.07218465
0002f0 42 56 55 be 79 be 88 3d 56 7d 86 3e dc 6c 26 3e
       -0.20833686 0.06676955 0.262675 0.16252464
000300 9a 22 9a 3e 9c d8 62 be 47 bd cd 3e 96 47 47 3e
       0.30104524 -0.22152942 0.4018347 0.19460902
000310 40 88 af 3d d1 c9 9c 3d 2c df e7 3e 51 16 1b 3d
       0.085709095 0.07655681 0.45287454 0.03786308
000320 12 c5 e0 3e f7 8c 36 3e 52 e7 b1 3e 3c 5f 59 3c
       0.43900353 0.17827211 0.34746796 0.013267335
000330 ca 96 1b 3d 08 73 9b 3e c5 b9 35 3c 32 bf c6 3e
       0.0379856 0.303612 0.011091654 0.38817745
000340 99 f0 1a be d6 91 be 3e ea 35 db 3e ea 84 af bc
       -0.15130843 0.3722064 0.4281457 -0.021425683
000350 c3 73 f4 3e fb 93 4c 3d 55 81 0a bc 10 83 24 bd
       0.4774457 0.049945813 -0.008453687 -0.040164053
000360 32 79 ab 3c a6 2f 49 be 4f fa 09 3c 3d 7b 2b be
       0.020931814 -0.19647083 0.008421495 -0.1674623
000370 8b 6e c2 be c3 3b 48 3c 5f f1 d1 3e 2f 38 03 3c
       -0.37974963 0.01222128 0.41004464 0.008009001
000380 1f 41 2d 3e 8a 4c 8d 3e 78 17 26 3e 21 ae 96 3e
       0.16919373 0.27597457 0.1621989 0.29429725
000390 0a 14 cb bd 9a 23 a9 3d 80 6a ec be cd 7f be bc
       -0.099159315 0.082587436 -0.46175003 -0.0232543
0003a0 d7 79 f4 3d c2 30 93 3c 0b f4 83 bd 07 30 a5 3d
       0.119373016 0.017967585 -0.06443032 0.08065801
0003b0 ba 2f 09 bd 86 e7 ea bd 54 a1 fb 3d cd 82 15 be
       -0.03349278 -0.11469941 0.1228663 -0.14600678
0003c0 85 45 23 be 4f d9 a7 be 85 b3 95 bd 26 16 75 bd
       -0.15944488 -0.3278298 -0.07309631 -0.059835576
0003d0 4d a4 da 3d ac 70 2f 3d 79 c3 91 3e 15 95 9f 39
       0.10675869 0.04283206 0.28469446 0.00030437918
0003e0 50 3c b8 3e 23 7e 8e 3e 65 00 c8 3d 63 e0 19 3e
       0.35983515 0.2783061 0.097657 0.15027003
0003f0 73 ec 24 bd 5c d6 db 3d 10 6c 78 3d 14 b1 97 3e
       -0.040264558 0.10734245 0.06064993 0.29627287

bias f4 [64]
000000 c1 98 6f 3d 52 6f 3f 3e 43 27 9b 3c 45 eb 3c bd
       0.058495287 0.18694809 0.01893962 -0.046122808
000010 60 ba 63 3e ff cb ec 3b 4a 61 c3 3e ae e4 62 3e
       0.22239065 0.0072264667 0.38160163 0.22157547
000020 54 9f 26 be e8 fa 22 bf 7c 24 e4 3c 32 f8 dc 3e
       -0.16271716 -0.636641 0.027849428 0.43158108
000030 b6 58 8a 3e 7d 55 88 3d 7f 7e 48 be 56 fd 23 3e
       0.27020806 0.066569306 -0.19579504 0.16014609
000040 67 b7 20 3c 53 88 38 be 32 aa 80 3d ba c4 0f 3e
       0.0098093515 -0.18020754 0.06282462 0.14039889
000050 54 d6 87 3e ac ca cc 3e 1e bc 4d bd 6e de bc be
       0.26530707 0.39998376 -0.05022823 -0.3688845
000060 8d b7 00 3e 4d e8 eb be 17 c7 68 be b5 97 d5 3d
       0.12570019 -0.4607567 -0.22732197 0.104293264
000070 55 1f a5 3d 6e 4c e8 bc 76 4e 86 bb 5b a0 cb bd
       0.08062617 -0.028356757 -0.0040987087 -0.09942695
000080 2e 9d 3a 3f 32 81 0c 3f fc 9b 4a 3d 90 69 a8 3d
       0.7289609 0.54884636 0.049465165 0.082232594
000090 13 91 23 be 7b d8 43 be a7 38 cd bd ac 5a 54 bd
       -0.1597331 -0.1912555 -0.10020571 -0.051844284
0000a0 0a 0d f7 bd 10 7e ff bd 74 03 5f be f7 e5 07 bd
       -0.12063034 -0.124752164 -0.21778661 -0.033178296
0000b0 1e d1 c3 be 40 58 19 3e 13 ff bc be 19 da 36 3c
       -0.3824548 0.14975071 -0.36913356 0.011160397
0000c0 61 e9 16 3f c2 f5 1b be 24 5a 50 bd 95 e8 05 3c
       0.5894986 -0.15230468 -0.050867215 0.008173128
0000d0 69 95 49 3e 94 70 84 3c eb 47 0b 3f 91 db 16 bd
       0.19685902 0.016166963 0.54406613 -0.03683049
0000e0 b1 b2 3f bd d8 5e 9c 3e 6f e7 a2 3d c2 04 fa bc
       -0.046801273 0.3054111 0.07954299 -0.030519847
0000f0 d9 74 33 be 00 8d 04 3f e0 3e 5c 3d bf d0 c9 bd
       -0.17525043 0.5177765 0.0537709 -0.09854268

weight f4 [64]
000000 68 d6 b4 3f 5d 6e c2 3f 1a 80 96 3f bb e9 47 3f
       1.4127932 1.518993 1.1757843 0.7809102
000010 44 c6 9f 3f 81 5f ae 3f 14 08 ba 3f f7 41 9a 3f
       1.2482381 1.3622895 1.4533715 1.2051381
000020 f6 d3 bb 3f 25 99 18 3f 5f 50 9b 3f 72 1d 88 3f
       1.467406 0.5960868 1.2133902 1.0633986
000030 87 e7 36 3f 7f 78 52 3f ab 16 a2 3f 0e 1f bb 3f
       0.7144703 0.8221511 1.2663168 1.4618852
000040 63 90 4e 3f 2e 8e 62 3f 51 0c b4 3f 67 a2 95 3f
       0.80689067 0.884982 1.4066259 1.1690186
000050 0d 67 5b 3f 8e a8 9f 3f c9 ef cb 3b 30 4a 06 40
       0.8570412 1.2473314 0.006223653 2.098278
000060 d6 6a b2 3f ea 14 8e 3f a8 a1 6d 3f fe 73 b1 3f
       1.3938854 1.1100132 0.9282479 1.3863523
000070 42 57 c3 3f a9 2a f5 3f 0d 47 8b 3f d5 9f 7f 3f
       1.5261004 1.9153644 1.0881058 0.9985326
000080 b6 59 06 3f 11 79 a1 3f 5c ee c4 3f 34 d2 e9 3f
       0.5248064 1.2615072 1.5385242 1.8267274
000090 e7 85 66 3f c3 c6 8c 3f 2a 74 ac 3f 64 74 a8 3f
       0.9004807 1.0998157 1.347295 1.316052
0000a0 dd e2 2b 3f 68 2c a6 3f 02 28 85 3f 3a 6a 91 3f
       0.6714304 1.2982302 1.0402834 1.1360543
0000b0 82 31 91 3f 99 8f 98 3f 34 7e b9 3f cf ca a6 3f
       1.1343234 1.1918823 1.4491639 1.3030642
0000c0 ae a0 0a 3f fd 74 6f 3f b8 a4 b2 3f ab d2 7e 3f
       0.5415143 0.93537885 1.3956518 0.99540204
0000d0 35 97 97 3f 8b 84 38 3f 6c d6 b1 3f 73 29 2d 3f
       1.184302 0.72077245 1.3893561 0.6764137
0000e0 d1 b5 c6 3f 60 cb 99 3f f4 3e a2 3f c0 98 df bc
       1.5524236 1.201519 1.2675462 -0.027294517
0000f0 67 2e 54 3f fa 50 5b 3f 14 f9 e7 ba 3d 65 8e 3f
       0.82883304 0.85670435 -0.0017698132 1.1124645

bias f4 [64]
000000 3f aa 82 3e 9f 8c 18 3e b0 d3 d1 bc 15 92 9b bd
       0.25520512 0.14897393 -0.025613636 -0.07596222
000010 56 52 ca 3e d7 0d 78 3e 47 7c 36 3f 99 85 3a 3d
       0.39515942 0.2422403 0.7128338 0.045537565
000020 77 8a f7 bd 9d c4 f6 bd 19 13 e0 3d bc 17 22 3f
       -0.12086957 -0.1204922 0.109411426 0.63317466
000030 6a 3a 2c 3f 24 b9 05 3e cd 2f 5f 3d 8d 08 ee bd
       0.6727663 0.13058907 0.054488946 -0.11622725
000040 49 32 aa bd 9c 94 92 3d 24 8c 80 3e 92 b3 7b 3e
       -0.083103724 0.07157251 0.2510692 0.2458022
000050 39 12 b1 3e 18 ba 01 3f ff 89 b2 bc 49 55 94 bd
       0.34584215 0.5067458 -0.021794317 -0.07242829
000060 55 7f 25 3e 72 b5 83 be 3a 42 4f 3d 4a 5a c7 3e
       0.16161855 -0.2572437 0.050600268 0.38936073
000070 2b aa c0 3e 23 36 47 bc 08 3b 66 bd dc c5 dd bc
       0.37629828 -0.012158903 -0.05620864 -0.027071886
000080 9d 3d 83 3f fa 3e 32 3f 36 19 0e 3e d6 cf 43 3e
       1.0253178 0.69627345 0.13876805 0.19122252
000090 37 a8 18 3e 05 5b 02 3e 94 e9 87 3c 3f 40 58 bd
       0.14907919 0.12730034 0.01659087 -0.052795645
0000a0 a1 2f f3 3c 12 9f 2a be d9 18 71 be ae ef 99 3d
       0.029685797 -0.16662243 -0.23544635 0.075164184
0000b0 cf ee 4c be 62 b6 fa 3d fe ce 9a be 86 48 8e 3e
       -0.20012973 0.12241818 -0.30236048 0.27789706
0000c0 2c 2c 75 3f 8e 57 e6 3d c7 09 a6 3e 17 4c b5 bd
       0.95770526 0.112471685 0.32429335 -0.088524036
0000d0 33 ed 89 3e 49 3b 76 3c 63 56 79 3f e1 87 10 3d
       0.2693878 0.015028783 0.9739744 0.035285834
0000e0 7f 04 86 bc 81 39 b2 3e b4 09 75 3c 67 7f 90 3f
       -0.016359566 0.34809497 0.014955927 1.128888
0000f0 f9 e3 58 bc ad 7a 02 3f 30 b2 86 bc 7f 15 60 be
       -0.013237947 0.5096844 -0.016442388 -0.218832

running_mean f4 [64]
000000 63 05 99 40 d1 5d dd 40 e4 0c f7 bf 27 c4 b5 c0
       4.7819076 6.917702 -1.9300809 -5.6801944
000010 50 e7 53 41 f3 81 e3 be db 41 92 41 95 30 40 41
       13.243973 -0.4443508 18.282156 12.011861
000020 df ec a0 c0 ee e1 8c c1 e8 7b d9 40 a1 c9 a8 41
       -5.028915 -17.610317 6.7963753 21.098452
000030 ed aa b8 41 f9 c4 91 3f 5e 90 d7 c0 72 5a 4d be
       23.08346 1.1388236 -6.736373 -0.20054033
000040 d6 4c 67 bf a9 75 15 40 9f 05 ce be 46 12 86 41
       -0.9035162 2.3353064 -0.40238664 16.758923
000050 ce a4 cc 40 06 6c 57 41 cd 75 70 be 0b 7e f3 c0
       6.3951178 13.463873 -0.23482437 -7.609136
000060 46 54 b4 3f a8 a8 57 c1 fb 0b 2b c1 63 37 09 41
       1.4088218 -13.478676 -10.690425 8.576022
000070 53 e3 90 40 5d f5 46 c0 d7 0c 19 c0 c8 81 3c c0
       4.5277495 -3.1087258 -2.3914087 -2.9454212
000080 c0 4c c8 41 73 20 ca 41 ac 93 8a 3f b8 11 b3 bf
       25.037476 25.265844 1.0826316 -1.3989782
000090 f6 62 d3 c0 48 b3 32 c0 a8 0f 84 c0 dd 2e b0 bf
       -6.60583 -2.7921925 -4.126911 -1.3764302
0000a0 d8 6a 93 c0 e5 b0 e0 c0 e3 1d 04 c1 ca 5e 96 3f
       -4.6067924 -7.0215936 -8.257297 1.1747677
0000b0 93 30 d8 c0 ec d0 8d 40 14 ea 89 c1 9b 31 b3 40
       -6.7559295 4.431753 -17.239296 5.5998054
0000c0 50 c8 a3 41 50 7c 67 c0 05 bb 68 40 1c 82 08 c0
       20.472809 -3.6169624 3.6364148 -2.1329412
0000d0 89 9e 7b 40 81 8a 23 3f f1 8c cd 41 2c e7 f9 40
       3.9315512 0.63883215 25.693819 7.809469
0000e0 39 00 05 bf 78 63 88 41 d2 e2 7e 3f e1 75 d0 be
       -0.51953465 17.048569 0.9956485 -0.40714934
0000f0 ed 89 19 3f 46 5f 63 41 fe e7 15 3f 77 da 8e c0
       0.59976083 14.21076 0.58557117 -4.464168

running_var f4 [64]
000000 e8 a5 48 42 3f d3 86 42 d8 16 bd 42 d6 ab d9 41
       50.162018 67.41259 94.54462 27.208904
000010 74 c6 ca 42 57 73 28 42 a2 12 18 43 35 f5 0b 43
       101.3876 42.112637 152.07278 139.95784
000020 81 f3 93 42 05 d9 18 40 2a 68 8d 42 b5 34 bf 42
       73.97559 2.3882458 70.703445 95.60294
000030 76 aa 34 43 2f e4 e3 42 62 a5 e2 41 8c c1 b1 42
       180.66586 113.94567 28.330753 88.87802
000040 62 e0 0b 42 89 76 a7 42 90 51 88 41 f3 01 13 42
       34.969124 83.731514 17.039825 36.751904
000050 1f dc d6 42 94 42 64 42 35 21 c1 3e e8 29 7b 42
       107.429924 57.065018 0.37720647 62.790924
000060 8c 64 9a 42 ac 7c 40 42 d7 c4 8a 41 90 c1 c6 42
       77.19638 48.12175 17.346113 99.37805
000070 be 13 86 42 81 db 7d 42 6b 38 b7 41 9e dc ef 42
       67.03856 63.46436 22.902548 119.93089
000080 dd 46 80 43 7e 63 34 43 65 b6 3b 43 85 d7 ab 42
       256.55362 180.38864 187.71248 85.92094
000090 b7 df 93 42 ff 7d 8c 41 e6 16 81 43 92 bc b9 41
       73.93694 17.561522 258.1789 23.217075
0000a0 4c c7 77 43 1c e0 1c 41 80 ab 35 42 ef 16 93 41
       247.7785 9.804714 45.41748 18.386198
0000b0 84 eb b1 41 95 ba ea 42 4e 4a 5c 41 aa 4b 22 42
       22.239998 117.36442 13.768141 40.57389
0000c0 af 72 46 43 d8 c8 8a 40 5c 77 92 42 2f 44 9d 41
       198.44798 4.337017 73.23312 19.658293
0000d0 e5 ac 24 40 a0 94 3c 43 79 56 46 43 35 6e 02 43
       2.5730526 188.58057 198.33778 130.4305
0000e0 c9 ed 06 43 3c ae 9a 42 f4 89 c9 41 ba cc 46 40
       134.92885 77.3403 25.19236 3.1062455
0000f0 66 31 f1 40 52 80 03 43 5b fe 50 3e c5 2b 68 3f
       7.53728 131.50125 0.20409529 0.90691787
