metrics_best_runs/cnn_enc_dec_freezed/0069.autoencoder.model (torch_old, 84721 bytes, 73 tensors)

weight f4 [16, 1, 3]
0	0x3ec84758	0.3911693
1	0xbee0e34a	-0.43923408
2	0x3e6e0098	0.23242414
3	0x3da8992b	0.082323395
4	0xbf1c73e0	-0.6111431
5	0xbeef08cc	-0.466864
6	0xbce20dca	-0.027594466
7	0x3ed2a361	0.41140273
8	0x3e877f10	0.26464128
9	0x3ed6a627	0.4192364
10	0x3f188529	0.59578186
11	0x3dbf7029	0.09347565
12	0xbf597f6a	-0.84960043
13	0xbe9be3d0	-0.30447245
14	0x3d85823b	0.0651898
15	0xbeaeaf76	-0.3411824
16	0x3df21983	0.11821272
17	0x3e56033b	0.2089967
18	0xbef3caad	-0.47615567
19	0xbef3ad7a	-0.4759329
20	0xbf116207	-0.567902
21	0xbea20f92	-0.31652504
22	0x3ef5ee45	0.48033348
23	0xbec32a14	-0.3811804
24	0x3e76a4f7	0.24086367
25	0x3efc589c	0.49286354
26	0xbeda9856	-0.42694348
27	0xbe329a7d	-0.17441745
28	0xbaf8fe0b	-0.0018996609
29	0xbf36b11f	-0.71364015
30	0x3ddafcdd	0.10692761
31	0xbd2f8b83	-0.042857658
32	0x3e981ddc	0.2971028
33	0x3e6355ea	0.22200742
34	0xbf233128	-0.6374688
35	0x3ebf133a	0.37319356
36	0x3f3ae7b4	0.730098
37	0x3e0ebaaf	0.13938402
38	0x3d7cbbe2	0.061702617
39	0x3e9731bc	0.29530132
40	0xbec02c83	-0.3753396
41	0x3c7e469a	0.015519762
42	0x3e7f6c32	0.24943617
43	0x3d1f6f4e	0.038924508
44	0xbe86cf46	-0.26330012
45	0xbea0d6ad	-0.31413785
46	0xbe0b4d45	-0.13603695
47	0xbe93d13c	-0.2887057

bias f4 [16]
0	0x3d3e6b6b	0.04648916
1	0x3ecb614a	0.39722663
2	0xbe8cffa6	-0.27538794
3	0x3e963901	0.29340366
4	0x3ecaceb7	0.39610836
5	0x3f0f4923	0.5597097
6	0xbe77d063	-0.24200587
7	0x3ef970bb	0.4871882
8	0x3e14f11f	0.14545105
9	0xbe5cfe33	-0.21581344
10	0x3ed52255	0.41627756
11	0xbe6789c1	-0.22611143
12	0xbeea09b9	-0.45710543
13	0xbe9b36af	-0.30315158
14	0xbec426a8	-0.38310742
15	0xbeb61bdb	-0.35568127

weight f4 [16]
0	0x3f00a4cf	0.5025148
1	0x3f2c9f4b	0.6743056
2	0x3f3addc8	0.7299466
3	0x3f4b8a38	0.7950778
4	0x3f344b4e	0.70427406
5	0x3f0dbda2	0.5536748
6	0x3f35a3d5	0.7095311
7	0x3eaf03ba	0.3418253
8	0x3ebdc085	0.37060943
9	0x3edf5c79	0.4362524
10	0x3f12bb05	0.5731662
11	0x3e8af2f9	0.27138498
12	0x3ed7e665	0.42167965
13	0x3e8fa972	0.28058964
14	0x3f18ea99	0.5973297
15	0x3f175935	0.59120494

bias f4 [16]
0	0xbe78ca5d	-0.24295945
1	0x3e7de0be	0.24792764
2	0x3e9e9c20	0.3097849
3	0xbe36505c	-0.17804092
4	0x3e20df51	0.15710188
5	0x3cb1027d	0.021607632
6	0xbe38a427	-0.18031369
7	0x3e76bfc7	0.24096595
8	0x3e68a5b6	0.22719464
9	0x3eb821a0	0.35963154
10	0xbe9c56f0	-0.30535078
11	0x3da20d34	0.079126745
12	0xbc81b2f0	-0.015832394
13	0x3d32881d	0.04358684
14	0xbe1005c3	-0.14064698
15	0xbecde555	-0.4021403

running_mean f4 [16]
0	0x3d43041a	0.047611333
1	0x3ec822e5	0.39089122
2	0xbe8aee62	-0.27134997
3	0x3e99e940	0.30060768
4	0x3ec74191	0.3891721
5	0x3f0f3d6d	0.55953103
6	0xbe80e0cc	-0.25171506
7	0x3ef89c33	0.4855667
8	0x3e16fc61	0.14744712
9	0xbe62ce16	-0.22148928
10	0x3ed659a5	0.41865268
11	0xbe679228	-0.22614348
12	0xbee70579	-0.45121363
13	0xbe9b6169	-0.30347756
14	0xbec41465	-0.3829681
15	0xbeb88cb4	-0.36044848

running_var f4 [16]
0	0x3bbc7c16	0.005752097
1	0x3e24ed45	0.16106136
2	0x3d88f188	0.066866934
3	0x3e3bc076	0.18335137
4	0x3e4981cc	0.1967842
5	0x3c658d38	0.01401072
6	0x3e9ff498	0.31241298
7	0x3bcd9762	0.0062741498
8	0x3d262556	0.04056295
9	0x3de4d3ea	0.11173232
10	0x3c8df2e9	0.017327743
11	0x3c040beb	0.008059482
12	0x3e07ac9c	0.13249439
13	0x3be24e57	0.0069063115
14	0x3c47875c	0.012178268
15	0x3d912e5e	0.07088922

weight f4 [16, 16, 3]
0	0x3dff8e21	0.12478281
1	0x3cd202f9	0.025636183
2	0x3b4ce996	0.0031267158
3	0x3e4e1dc6	0.20128545
4	0xbd6dd5b2	-0.058065124
5	0xbeb572d1	-0.3543916
6	0xbeb93f0f	-0.36180922
7	0xbdb1cbf6	-0.086814806
8	0x3d808bb7	0.062766485
9	0xbd22c28f	-0.039736327
10	0xbe4b7cdc	-0.19871849
11	0xbc688863	-0.014192673
12	0x3e7a9bba	0.24473467
13	0x3dfe048f	0.12403213
14	0xbc283d79	-0.0102685625
15	0xbe1ed4b0	-0.15510821
16	0xbe44f04e	-0.19232294
17	0x3d829a48	0.06377083
18	0xbd65b861	-0.05608404
19	0x3c8d9e20	0.017287314
20	0x3cf20d18	0.02954726
21	0xbb151571	-0.0022748376
22	0xbdf11581	-0.1177168
23	0x3e42bd39	0.19017495
24	0x3de8d0a5	0.11367921
25	0xbeee8e35	-0.4659287
26	0x3d4d9d2e	0.050198726
27	0x3e9b601c	0.30346763
28	0xbe1307a2	-0.1435838
29	0xbe741e5b	-0.23839705
30	0x3e044896	0.12918314
31	0xbe7d7bc3	-0.24754243
32	0xb8ae7f8d	-8.320725e-05
33	0xbd753314	-0.059863165
34	0x3dcdf7b0	0.10057008
35	0xbdab5da1	-0.08367468
36	0xbd2fedf2	-0.04295153
37	0xbe14951c	-0.14510006
38	0x3d0879aa	0.033319153
39	0xbea76ea7	-0.3270161
40	0xbdad81fd	-0.08472059
41	0xbe86098f	-0.26179168
42	0xbd2be70b	-0.041968387
43	0xbb94df66	-0.0045432327
44	0xbe61e24b	-0.2205898
45	0x3dad7e2e	0.084713325
46	0xbb3f0522	-0.0029147347
47	0xbdd14b04	-0.10219386
48	0x3dc3421d	0.095340945
49	0x3e00d5ad	0.12581511
50	0xbd86d315	-0.065832295
51	0xbed5926f	-0.41713282
52	0x3c852a0e	0.016255405
53	0x3e15be6f	0.14623426
54	0x3e41932c	0.18903798
55	0x3e38025e	0.17969653
56	0xbb7b3d05	-0.003833593
57	0xbd5662d6	-0.05234035
58	0xbad08b78	-0.0015910706
59	0x3d6bf5cc	0.057607457
60	0x3e437014	0.19085723
61	0xbef324c7	-0.47488996
62	0x3da21b0e	0.079153165
63	0xbe512908	-0.20425808
64	0x3d5140a6	0.051087044
65	0xbea3e691	-0.32011846
66	0xbd4b5660	-0.04964292
67	0xbedf361c	-0.4359597
68	0x3d821d63	0.06353261
69	0x3e2bc17a	0.16773024
70	0x3e7be296	0.24598154
71	0x3de69696	0.11259191
72	0x3c87d24d	0.016579771
73	0x3e2785e3	0.16359667
74	0xbce59310	-0.028024226
75	0xbea64e7b	-0.3248175
76	0xbdfa0f4c	-0.12209949
77	0x3d3c2f95	0.045943815
78	0xbd0e9f4d	-0.03481989
79	0xbdea8381	-0.11450864
80	0xbd81a858	-0.06330937
81	0xbe53aefb	-0.20672219
82	0xbf0c675b	-0.5484521
83	0xbe491057	-0.1963514
84	0x3ddc0664	0.107434064
85	0x3e578c1c	0.21049541
86	0x3e024786	0.12722597
87	0xbe7178df	-0.23581265
88	0x3d22b91e	0.039727323
89	0x3e715ef0	0.23571372
90	0x3df63584	0.12021926
91	0xbd8ed0f7	-0.06973451
92	0x3e28ba00	0.16477203
93	0x3d8ca013	0.06866469
94	0xbf092fda	-0.5358864
95	0x3cf5395b	0.029934576
96	0x3dedf87f	0.116196625
97	0x3d4cf499	0.050037954
98	0x3db6c8f0	0.089250445
99	0x3df199ef	0.11796939
100	0xbec13ad6	-0.377402
101	0xbe486ece	-0.19573519
102	0x3dc37844	0.09544423
103	0x3d7ef43f	0.06224465
104	0xbe4cb5ad	-0.19991179
105	0x3d5944f4	0.053044274
106	0xbdb7fc5e	-0.08983682
107	0xbdd9360a	-0.1060601
108	0x3e32cbc4	0.17460543
109	0xbdd1027d	-0.10205553
110	0x3c2bc141	0.010483087
111	0x3eabe424	0.33572495
112	0x3dfbf7bf	0.12303113
113	0xbf012280	-0.5044327
114	0x3e1fc45b	0.15602247
115	0xbeb2767f	-0.3485603
116	0xbaa1311e	-0.0012297963
117	0x3e19a6bc	0.1500501
118	0xbc8cf41d	-0.017206246
119	0xbdebd4a9	-0.11515171
120	0x3c82a275	0.015946606
121	0x3e1c7ce7	0.15282021
122	0x3d43ae81	0.04777384
123	0xbe33ef14	-0.1757167
124	0xbe38fdfc	-0.18065637
125	0xbad17603	-0.0015980605
126	0xbe4ccc77	-0.19999872
127	0x3e3437b0	0.17599368
128	0xbed861d2	-0.4226213
129	0xbe20f770	-0.1571939
130	0x3d2716aa	0.0407931
131	0xbee3da0e	-0.445023
132	0x3cd6daca	0.026227374
133	0xbd42577e	-0.04744672
134	0x3cf836ac	0.030299507
135	0xbe6e204f	-0.23254512
136	0xbe8aa918	-0.27082133
137	0xbd7b5e6b	-0.06136934
138	0x3e398286	0.18116197
139	0xbc96577f	-0.018352268
140	0x3c8b1249	0.016976492
141	0x3ee45e0c	0.44603002
142	0xbeb16b90	-0.34652376
143	0x3e6d56f3	0.231777
144	0x3e7499e0	0.23886824
145	0x3e0172b8	0.12641418
146	0xbcf4b67b	-0.02987217
147	0x3de9e521	0.11420656
148	0x3d4a99b1	0.049462978
149	0xbe82b009	-0.2552493
150	0x3dbcd9e4	0.09221247
151	0x3c9f0836	0.019413095
152	0x3e76213f	0.2403612
153	0x3e839ec4	0.25707066
154	0xbc3744a7	-0.011185802
155	0x3e0d3c25	0.13792475
156	0xbd61635a	-0.05502639
157	0xbd021674	-0.031759694
158	0xbdabed66	-0.083948895
159	0xbe63d56b	-0.22249381
160	0xbe8de5b3	-0.2771431
161	0x3c2fceb4	0.010730434
162	0xbe07013d	-0.13184066
163	0x3e2b3b3a	0.16721812
164	0xbdff1048	-0.12454277
165	0xbc0fc5d0	-0.0087751895
166	0xbac9ffb7	-0.0015411292
167	0x3e7978b7	0.24362455
168	0x3eec5747	0.46160337
169	0xbc31c7fc	-0.010850903
170	0x3e3edc5c	0.18638748
171	0xbcd35a4a	-0.02579989
172	0xbdf2ab3a	-0.11849065
173	0xbeb4efcf	-0.3533921
174	0x3d0febce	0.03513699
175	0xbd8bf355	-0.06833521
176	0x3de947df	0.113906614
177	0x3c3d3cc3	0.011550131
178	0xbd51407e	-0.051086895
179	0xbe56fea2	-0.20995572
180	0x3e7c3e60	0.24633169
181	0x3defc37a	0.11707206
182	0x3e4df4ed	0.20112963
183	0xbe2579a9	-0.16159691
184	0xbe910e65	-0.28331295
185	0x3d1c5fbb	0.038177233
186	0x3cd23eae	0.025664654
187	0xbe49db51	-0.19712569
188	0xbe22656a	-0.15858999
189	0xbe963892	-0.29340035
190	0xbd538450	-0.051639855
191	0xbed3aa4f	-0.41340873
192	0xbc9da1b1	-0.01924214
193	0xbd0cad5d	-0.03434502
194	0x3e2c439c	0.16822666
195	0x3defffac	0.117186874
196	0x3c17071d	0.0092180045
197	0x3ec3af1a	0.3821953
198	0x3dc42f19	0.09579296
199	0x3e06f1ea	0.1317822
200	0xbe6971ef	-0.22797368
201	0xbe5f8d70	-0.21831298
202	0x3c31e0f6	0.0108568575
203	0xbe15efdc	-0.1464228
204	0xbebb524c	-0.36586225
205	0xbe03e884	-0.12881666
206	0x3e468354	0.19386035
207	0x3e7a40ae	0.24438736
208	0x3dbd7268	0.09250337
209	0xbeb1bacb	-0.34712824
210	0xbe5375d2	-0.20650414
211	0xbbb2629e	-0.005443885
212	0x3e7d373b	0.247281
213	0xbd70db59	-0.058802936
214	0x3cae0987	0.021244777
215	0x3d9be700	0.07612419
216	0x3d8c304c	0.068451494
217	0x3e1dcf1f	0.15411042
218	0xbe3e0acd	-0.18558808
219	0x3dd8317a	0.10556312
220	0x3e038c2b	0.12846439
221	0x3d96732e	0.073461875
222	0xbe9a9622	-0.30192667
223	0xbdba737b	-0.091040574
224	0xbe3ba29b	-0.18323748
225	0xbde8c90e	-0.11366473
226	0xbe1a2be2	-0.15055802
227	0xbee60de3	-0.4493247
228	0xbe15983e	-0.14608857
229	0xbe13bde9	-0.14427914
230	0x3e03ccca	0.1287109
231	0x3e1ed645	0.15511425
232	0xbdd3e7dc	-0.10346958
233	0xbe74236f	-0.23841642
234	0x3e940f88	0.289181
235	0xbda3fab0	-0.08006799
236	0xbe20274d	-0.15639992
237	0xbe5d751e	-0.21626708
238	0xbddb7067	-0.107147984
239	0x3e872904	0.2639848
240	0xbf07d526	-0.53059614
241	0xbde89918	-0.11357325
242	0xbde1eb81	-0.11031247
243	0x3e229b13	0.15879469
244	0xbe23fb48	-0.16013825
245	0x3e91ddbe	0.28489488
246	0x3dc49684	0.09599021
247	0x3db9e028	0.090759575
248	0x3d98df47	0.07464462
249	0x3cfff683	0.031245476
250	0x3c8323e2	0.016008321
251	0x3e140b7f	0.1445751
252	0x3e225fc7	0.15856849
253	0x3e325716	0.17416033
254	0x3d8c5a9c	0.0685322
255	0x3e881ba5	0.2658359

bias f4 [16]
0	0x3de89bb4	0.11357823
1	0x3cdfac39	0.027303802
2	0x3c1eee0c	0.0097003095
3	0x3cac47b2	0.02103028
4	0x3dba9277	0.09109967
5	0xbd0894a7	-0.03334489
6	0x3e07ff77	0.13281046
7	0xbb0ab60d	-0.002116564
8	0x3dfbbaff	0.12291526
9	0xbdd53705	-0.10410885
10	0x3e112f72	0.14178255
11	0x3b879164	0.004137205
12	0xbda9ff67	-0.08300667
13	0xbd92b823	-0.071640275
14	0xbdd1c7d5	-0.10243193
15	0x3df1e648	0.11811501

weight f4 [16]
0	0x3ecd39fa	0.40083295
1	0x3f0edbbf	0.55804056
2	0x3e9faf21	0.311883
3	0x3e653756	0.2238439
4	0x3e930226	0.28712577
5	0x3e8ffa42	0.2812062
6	0x3f374374	0.715873
7	0x3e9fa8ab	0.3118337
8	0x3f1ee039	0.62060887
9	0x3ed9d815	0.4254767
10	0x3e5c75a0	0.21529245
11	0x3ec87e16	0.39158696
12	0x3ecf8315	0.40529695
13	0x3e902962	0.28156573
14	0x3f0bf464	0.54669785
15	0x3eda85fd	0.4268035

bias f4 [16]
0	0x3ef21d9b	0.47288212
1	0x3f09bd67	0.5380463
2	0x3c8a78c1	0.016903283
3	0x3e69d9b2	0.2283695
4	0x3b666a13	0.003515844
5	0xbb0d4a2a	-0.0021559098
6	0x3eaa88db	0.33307537
7	0xbe0aae96	-0.13543162
8	0xbcb714c1	-0.022348763
9	0xbded89a0	-0.115985155
10	0xbeb2eacd	-0.34944764
11	0x3f41bceb	0.7567889
12	0x3e0484ef	0.12941335
13	0xbe6ba77d	-0.2301311
14	0x3e91ed96	0.28501576
15	0x3e2d54e0	0.16926908

running_mean f4 [16]
0	0xbf134275	-0.5752328
1	0xbe94679b	-0.28985295
2	0xbf0fee10	-0.5622263
3	0x3c1e6821	0.009668381
4	0x3c9b993e	0.01899397
5	0xbd35482f	-0.044258293
6	0x3e4c65fc	0.19960779
7	0x3d723899	0.059136007
8	0xbcd0615f	-0.025437055
9	0x3ed8e7aa	0.42364246
10	0x3ed238e0	0.41059017
11	0xbf1f6118	-0.6225753
12	0xbeb16ed8	-0.3465488
13	0xbf53a7e5	-0.8267806
14	0xbbac1231	-0.005251192
15	0x3e7c3130	0.24628139

running_var f4 [16]
0	0x3f4af362	0.7927762
1	0x3fa3f87e	1.2810209
2	0x3f0b2374	0.5435097
3	0x3ebbd26f	0.36683986
4	0x3ee8a72b	0.4544004
5	0x3e975163	0.2955428
6	0x3fb50e2e	1.4144952
7	0x3e8c7c86	0.27438754
8	0x3f7f9340	0.9983406
9	0x3f1344ad	0.57526666
10	0x3e6c96b9	0.23104371
11	0x3fb50912	1.4143393
12	0x3f428d8f	0.7599725
13	0x3e5a8f29	0.21343674
14	0x3fa98e1e	1.3246496
15	0x3fb97447	1.448861

weight f4 [16, 16, 3]
0	0x3ea820f1	0.32837632
1	0xbdcf4e62	-0.10122372
2	0xbe23ed4e	-0.16008493
3	0xbd79ff5a	-0.061034538
4	0xbd74a1a8	-0.05972448
5	0x3e76004a	0.24023548
6	0x3e382e51	0.17986418
7	0x3df9e1b0	0.122012496
8	0xbd01fa0d	-0.031732608
9	0xbdae0a3b	-0.08498045
10	0x3e3d9eea	0.18517652
11	0xbde01a3e	-0.10942505
12	0xbd2d8808	-0.042366058
13	0x3e376870	0.17910933
14	0x3e854678	0.26030326
15	0x3e9dc1b9	0.3081186
16	0x3a16e6b3	0.0005756423
17	0x3dd5d000	0.104400635
18	0x3d1043b7	0.035220828
19	0x3e0423c1	0.12904264
20	0x3cecc783	0.028903728
21	0x3df0a4c7	0.11750179
22	0xbdae3539	-0.08506245
23	0xbe405eb8	-0.18786132
24	0x3e3934b5	0.18086512
25	0xbd97921d	-0.07400916
26	0xbdd3df80	-0.103453636
27	0xbebd96d9	-0.3702915
28	0xbdf17aca	-0.11790998
29	0xbd76fa64	-0.060297385
30	0x3e570a1f	0.20999955
31	0x3e6d109b	0.23150866
32	0x3cec475d	0.028842622
33	0x3ebef503	0.37296304
34	0x3e2d82a7	0.16944371
35	0xbeb4469f	-0.3521013
36	0xbe6134d8	-0.21992815
37	0xbd2824ec	-0.041050836
38	0x3da84bbc	0.0821757
39	0xbe6e2d5d	-0.23259492
40	0x3e4b8789	0.19875921
41	0xbeb0deee	-0.34545082
42	0x3e017413	0.12641935
43	0xbb48efaa	-0.003066043
44	0xbeb9b5c8	-0.362715
45	0xbe73001b	-0.23730509
46	0xbd3e957f	-0.04652929
47	0x3de46ccc	0.11153564
48	0xbd9f92a6	-0.07791643
49	0xbe97323e	-0.2953052
50	0xbe3d4f53	-0.18487291
51	0x3d2aea29	0.04172722
52	0x3d26cc91	0.040722433
53	0x3ba9dfc3	0.005184145
54	0xbe8267bb	-0.25469765
55	0xbe2b4dbf	-0.16728877
56	0xbd554e7c	-0.0520768
57	0x3e370654	0.17873508
58	0x3e10d28e	0.1414282
59	0xbd88ab42	-0.0667329
60	0xbbb9c388	-0.005669061
61	0xbde4bf04	-0.11169246
62	0x3e8742c8	0.26418138
63	0xbe1a3228	-0.15058196
64	0xbf0c0af2	-0.547042
65	0xbd86ae78	-0.06576246
66	0x3d25b6de	0.0404576
67	0x3dbb1a0f	0.0913583
68	0xbdf273a1	-0.11838461
69	0x3dc5e4e6	0.096627995
70	0xbdfe2b75	-0.124106325
71	0x3e11f0d7	0.1425203
72	0xbdb7b390	-0.08969796
73	0x3e547653	0.20748262
74	0x3e8a88cb	0.2705749
75	0x3d4af4ca	0.049549855
76	0xbe1280d8	-0.14306962
77	0xbddf748a	-0.109109
78	0xbe1b2a84	-0.15152937
79	0x3e26c92c	0.16287678
80	0xbe75c942	-0.24002555
81	0x3e22b22e	0.15888283
82	0xbe92f02e	-0.28698868
83	0xbe53574d	-0.20638771
84	0x3e4e7235	0.20160754
85	0x3cae59bc	0.021283023
86	0xbd179d59	-0.037015293
87	0x3cc99f7d	0.024612183
88	0x3e65b08c	0.22430629
89	0x3c8e7e7b	0.017394295
90	0xbda42d8b	-0.08016499
91	0xbe13cd75	-0.14433844
92	0xbece125d	-0.40248385
93	0x3cebdbae	0.028791275
94	0x3e521519	0.2051586
95	0x3cdaa991	0.026692184
96	0x3d74aeed	0.059737135
97	0x3e40f66a	0.18844
98	0xbdc11e1d	-0.09429572
99	0x3c6b798c	0.014372241
100	0xbec372d0	-0.38173532
101	0x3db4dff4	0.08831778
102	0x3e503945	0.20334347
103	0xbdf3b8d6	-0.11900489
104	0x3e83e381	0.2575951
105	0x3d0f98eb	0.035057943
106	0x3dd10885	0.10206703
107	0xbe18597a	-0.14877883
108	0x3cb6e098	0.022323892
109	0xbe2065e9	-0.15663876
110	0xbcecee0e	-0.028922107
111	0x3daf9627	0.08573561
112	0x3d68ec62	0.056866057
113	0xbd1366d9	-0.035986755
114	0x3d2d0f05	0.042250652
115	0xbe73b5fc	-0.2379989
116	0x3c0bf55d	0.008542386
117	0xbedf0065	-0.43554989
118	0x3dd7b92f	0.10533368
119	0xbdaa4266	-0.08313446
120	0x3db87a11	0.09007657
121	0x3e4687b8	0.1938771
122	0xbd9bfcb9	-0.076165624
123	0xbdb717a8	-0.08940059
124	0xbe8645c4	-0.26225102
125	0x3d867910	0.065660596
126	0x3e820f3b	0.25402245
127	0x3ef4cfdb	0.4781483
128	0xbe80b5cd	-0.25138703
129	0xbe2b7200	-0.16742706
130	0x3e8b74a8	0.2723744
131	0xbd8a062c	-0.067394584
132	0x3e31d4dc	0.17366356
133	0xbeb9a85d	-0.36261263
134	0xbe4e11d8	-0.20123994
135	0x3df7838c	0.120856375
136	0x3d1994ba	0.037495352
137	0xbe71e778	-0.23623455
138	0xbcf4ea35	-0.029896835
139	0x3dfc56ec	0.123212665
140	0x3d55df5a	0.052214958
141	0x3ee55fe3	0.44799718
142	0x3e472a93	0.19449835
143	0xbe320e05	-0.1738816
144	0x3dd82af5	0.105550684
145	0x3e7c0973	0.2461298
146	0xbda2b957	-0.07945507
147	0xbdb817d7	-0.08988922
148	0x3c0128da	0.007883275
149	0x3d7c6a34	0.06162472
150	0xbe9fdbed	-0.31222478
151	0xbd4ae2ca	-0.04953269
152	0x3e64fa88	0.22361195
153	0xbe1b8fde	-0.151916
154	0x3cda73ca	0.02666654
155	0x3e8d9559	0.27653006
156	0x3e591314	0.21198684
157	0xbe645ecb	-0.22301786
158	0x3ebc9138	0.36829543
159	0xbe6ce87e	-0.23135564
160	0xbe0acbfe	-0.1355438
161	0xbd905a97	-0.07048529
162	0xbcffb1cd	-0.031212712
163	0xbed09cf7	-0.40744755
164	0x3cbc60c0	0.022995353
165	0xbe854587	-0.26029608
166	0xbe126ff7	-0.14300524
167	0x3e3b27be	0.18276879
168	0x3d9e7b0a	0.077383116
169	0xbc98bf5f	-0.01864594
170	0xbe34b65d	-0.17647691
171	0x3d9b3395	0.07578198
172	0x3e533840	0.20626926
173	0x3d6fdf62	0.058562644
174	0x3c4e342b	0.01258568
175	0x3e014a53	0.12626009
176	0x3e9e8a0a	0.3096469
177	0xbe241286	-0.16022691
178	0x3e8c527e	0.27406687
179	0x3e4f386b	0.20236365
180	0xbe008b1f	-0.1255307
181	0xbe3408df	-0.17581509
182	0xbe0e9e93	-0.13927679
183	0xbe9532b7	-0.29140255
184	0xbec47789	-0.38372448
185	0xbe071dd1	-0.13194968
186	0x3ca0d39d	0.019632155
187	0x3e12bab6	0.14329037
188	0xbd0c2702	-0.03421689
189	0x3d3ee3dd	0.046604026
190	0x3becfd5c	0.007232351
191	0x3d967c07	0.07347875
192	0x3d2098c8	0.039208204
193	0xbe577d22	-0.21043828
194	0x3de547bd	0.111953236
195	0x3c9177b4	0.017757274
196	0x3e3744b2	0.17897299
197	0xbe9028ca	-0.2815612
198	0xbde37c92	-0.11107744
199	0x3c626699	0.0138184065
200	0xbe684318	-0.22681844
201	0xbd556690	-0.052099764
202	0xbd311070	-0.043228567
203	0xbbbb707a	-0.0057201954
204	0x3d648e1b	0.055799585
205	0xbc5cdfa0	-0.013481051
206	0x3e7c1da1	0.24620678
207	0xbe1e3986	-0.15451631
208	0x3d802333	0.06256714
209	0x3a3fe882	0.0007320718
210	0xbe90c0ad	-0.28272
211	0x3e983481	0.29727557
212	0x3e2da91d	0.16959043
213	0x3cafe487	0.021471275
214	0xbe8ebbff	-0.27877805
215	0xbcc5410f	-0.024078874
216	0xbc22e01c	-0.009941127
217	0xbe75829d	-0.23975606
218	0x3e54f1ca	0.2079536
219	0x3e7b2828	0.24527037
220	0x3ea901dd	0.33009234
221	0xbe0c23c0	-0.13685513
222	0x3d84100f	0.064483754
223	0x3de12ebe	0.109952435
224	0x3ea1aa17	0.3157508
225	0x3edf2745	0.43584648
226	0x3b374310	0.0027963556
227	0x3c7190ed	0.014744026
228	0xbe29b5f0	-0.1657331
229	0x3e17c0cf	0.14819644
230	0xbe8dcde0	-0.27696133
231	0xbe87f24e	-0.2655205
232	0xbe82174e	-0.25408405
233	0x3d90bed2	0.07067646
234	0x3bc1d4ba	0.0059152516
235	0xbeb9ae68	-0.36265874
236	0x3d8f8f10	0.07009709
237	0xbe3a03ec	-0.18165559
238	0x3d10677f	0.03525495
239	0x3dd5134a	0.1040407
240	0xbe800f1a	-0.25011522
241	0x3bb70276	0.00558501
242	0xbe4f1b76	-0.2022532
243	0xbe15c605	-0.1462632
244	0xbd02da05	-0.0319462
245	0x3e5702db	0.20997183
246	0xbdca43c8	-0.098762095
247	0x3d85837a	0.06519218
248	0xbc1ae035	-0.009452869
249	0xbe19ad2e	-0.15007469
250	0x3e371923	0.17880683
251	0xbe672014	-0.2257083
252	0xbcc5b72e	-0.024135198
253	0x3d49fc01	0.049312595
254	0x3ebfcad1	0.37459424
255	0x3d9e2e3b	0.077236615

bias f4 [16]
0	0xbe0b7ff0	-0.13623023
1	0xbd152d9a	-0.036420442
2	0xbdf08851	-0.1174475
3	0xbd63a984	-0.055581585
4	0x3d0710ec	0.032975122
5	0x3ddcd5e2	0.107829824
6	0xbcd2a7bb	-0.025714746
7	0xbdf62fc8	-0.12020832
8	0xba628038	-0.0008640322
9	0x3df730a7	0.120698266
10	0xbdaabb89	-0.08336551
11	0x3bc29039	0.005937603
12	0xbdf1d221	-0.11807657
13	0xbe0b6fb2	-0.13616827
14	0xbc82eb66	-0.015981387
15	0x3dc8ebe5	0.09810618

weight f4 [16]
0	0x3edc3b46	0.43013972
1	0x3ed4f558	0.41593432
2	0x3f235a1d	0.63809377
3	0x3f0a66d6	0.54063165
4	0x3f5079a4	0.8143561
5	0x3ecf208b	0.40454516
6	0x3f024024	0.5087912
7	0x3e9c6fb8	0.30553985
8	0x3f244ae7	0.6417679
9	0xb85b8132	-5.233399e-05
10	0x3e6bc979	0.23026074
11	0x3ec6dbac	0.3883947
12	0x3eebb5ff	0.4603729
13	0x3f5ad569	0.8548189
14	0x3f12be81	0.57321936
15	0x3eafa708	0.34307122

bias f4 [16]
0	0xbd15fb89	-0.036616836
1	0x3d93e20a	0.07220848
2	0x3fcbc12a	1.5918324
3	0x3e478f1a	0.19488183
4	0x3ee9d391	0.45669225
5	0x3f25e997	0.64809555
6	0x3f08bff5	0.53417903
7	0x3f045d7d	0.5170515
8	0x3fa64805	1.2990729
9	0xbd3d1289	-0.046160255
10	0x3d6cf9e4	0.0578555
11	0x3f5dac2d	0.86590844
12	0x3e1a0ec9	0.15044703
13	0x3f40a504	0.75251794
14	0x3f3eab46	0.7448009
15	0x3b735527	0.0037129612

running_mean f4 [16]
0	0x3dd73da6	0.105098054
1	0xbf4a0f64	-0.78929734
2	0xbe34e1cb	-0.17664258
3	0x3d77680b	0.060401957
4	0x3e1e73d4	0.15473872
5	0xbf902a4d	-1.1262909
6	0x3f6965fd	0.91171247
7	0xbf39ce65	-0.7258056
8	0x3e4aaa29	0.19791473
9	0x3ed9c1cb	0.42530665
10	0x3f1262ac	0.5718181
11	0xbefe42ab	-0.4966024
12	0xbec3ecd1	-0.38266614
13	0x3e54f4bc	0.20796484
14	0xbd19ff7b	-0.03759716
15	0x3f677af2	0.90421975

running_var f4 [16]
0	0x3ed76a20	0.42073154
1	0x3e833943	0.25629625
2	0x3f41ae80	0.7565689
3	0x3f06a6e4	0.52598405
4	0x3f91b38b	1.1382917
5	0x3eff3650	0.49846125
6	0x3f912323	1.1338848
7	0x3e9a832c	0.301782
8	0x3f51fbf5	0.8202508
9	0x3cdddeb7	0.027083738
10	0x3ddc8a4b	0.10768565
11	0x3e61a7b0	0.22036624
12	0x3f8d71a7	1.1050309
13	0x3f8929f2	1.0715926
14	0x3f3fdf5c	0.74950194
15	0x3ec71f2b	0.38890967

weight f4 [16, 16, 3]
0	0x3b6674b0	0.0035164766
1	0xbdd6ae07	-0.10482412
2	0x3db4fa70	0.0883683
3	0xbe8448f6	-0.25836915
4	0x3d3c4646	0.045965455
5	0xbe39ad5c	-0.18132538
6	0x3dd37d35	0.10326616
7	0xbeaf2c37	-0.3421342
8	0x3e5822e7	0.21107064
9	0x3dfec81a	0.1244051
10	0xbe80adc4	-0.25132573
11	0xbd4c6e87	-0.049910095
12	0xbe35c1f8	-0.17749774
13	0x3e70b5f8	0.23506916
14	0xbe35e123	-0.17761664
15	0x3e58b0b7	0.21161161
16	0x3ddaaba2	0.106772676
17	0x3d2ac3f5	0.041690785
18	0xbd93b49f	-0.07212185
19	0x3e789f1d	0.24279447
20	0xbe34a516	-0.176411
21	0xbe2ac8ab	-0.16678111
22	0x3e6d9c25	0.23204096
23	0xbe52a388	-0.20570195
24	0xbc5d9041	-0.013523162
25	0x3e6ca536	0.23109898
26	0xbe463367	-0.19355546
27	0x3d82a5a5	0.063792504
28	0xbd539ddb	-0.051664215
29	0x3dd31a46	0.10307746
30	0xbe2ebd68	-0.1706444
31	0xbda5a02a	-0.080871895
32	0xbc0c5eb0	-0.008567497
33	0x3b5cfb61	0.003371917
34	0x3e4ea34e	0.20179483
35	0xbc29a5ff	-0.010354518
36	0xbeb4adfc	-0.3528899
37	0x3e1d6c65	0.1537338
38	0xbc75b229	-0.01499609
39	0x3e1d4938	0.15359962
40	0xbe938591	-0.2881284
41	0x3e5f2db6	0.21794781
42	0x3d9ffb0f	0.078115575
43	0xbe7230c6	-0.23651418
44	0x3e5c4e44	0.21514231
45	0x3defe292	0.11713137
46	0xbde973e6	-0.11399059
47	0x3dd542c8	0.10413128
48	0x3d909238	0.07059139
49	0x3e1c75ee	0.15279362
50	0xbdc31598	-0.09525603
51	0x3bc77c7b	0.0060878373
52	0xbe7c3e2f	-0.24633096
53	0xbe5faaa2	-0.21842435
54	0xbe1e21e1	-0.15442611
55	0xbc8a12ee	-0.01685473
56	0x3d6dd99e	0.058068864
57	0xbd26e714	-0.040747717
58	0x3dc41c27	0.09575682
59	0xbdbdffb8	-0.0927729
60	0x3e0d1fe0	0.1378169
61	0xbe0e024f	-0.13868068
62	0x3c617d2f	0.013762756
63	0xbe364326	-0.17799053
64	0x3d277bca	0.04088954
65	0xbdc05ebd	-0.0939307
66	0x3ebe2303	0.37136087
67	0xbeb9defe	-0.36302942
68	0x3eab4896	0.33453816
69	0x3dae431a	0.08508892
70	0xbdce3cf8	-0.100702226
71	0x3e56dd3e	0.20982835
72	0xbda654e4	-0.0812166
73	0xbdad873c	-0.084730595
74	0x3eb2ebfe	0.34945673
75	0xbe04512c	-0.1292159
76	0xbcf0e97e	-0.029408213
77	0xbdfe5a3b	-0.12419554
78	0xbea1b7b7	-0.31585476
79	0xbc84ef6d	-0.016227448
80	0xbe3d5c1f	-0.18492173
81	0x3da06b3a	0.07832952
82	0xbdb17abd	-0.086659886
83	0x3e43fe3e	0.19139954
84	0xbd96dab4	-0.07365933
85	0x3dc14302	0.09436609
86	0x3dc210b9	0.09475846
87	0xbe8380cf	-0.2568421
88	0x3e53fc51	0.2070172
89	0xbe72b80c	-0.23703021
90	0x3de65cc6	0.11248164
91	0x3d598101	0.053101543
92	0xbe0d3146	-0.13788328
93	0xbd53b206	-0.05168345
94	0x3e1c3ecd	0.15258332
95	0xbe70cb4e	-0.23515055
96	0xbc7d4dcf	-0.015460446
97	0xbc849d92	-0.016188417
98	0x3b89b1f5	0.0042021223
99	0xbda86ca2	-0.08223845
100	0xbdba364d	-0.09092388
101	0xbd5bd352	-0.053668328
102	0x3dfd2ec2	0.12362434
103	0xbe37c22f	-0.17945169
104	0x3db6f933	0.0893425
105	0x3cc0439a	0.023469735
106	0xbeb7dd06	-0.35910815
107	0xbd74290f	-0.05960947
108	0xbdacc7cc	-0.08436546
109	0x3ea9339c	0.33047187
110	0xbd04c864	-0.03241767
111	0x3db124f9	0.0864963
112	0xbe4955fe	-0.1966171
113	0xbdcb3387	-0.099219374
114	0x3dfa5d6c	0.1222485
115	0x3f2ae40d	0.6675423
116	0x3dd57696	0.10423009
117	0xbc883a91	-0.01662949
118	0x3eda99cc	0.42695463
119	0xbdca14b2	-0.098672286
120	0x3d98fc8d	0.07470045
121	0x3e9d63a5	0.30740085
122	0xbe1389b9	-0.14408006
123	0xbdf174a0	-0.117898226
124	0x3e041f53	0.12902574
125	0xbd3c021e	-0.045900457
126	0x3d4093dc	0.04701601
127	0xbc7d86fe	-0.015474079
128	0x3d018826	0.031623982
129	0xbe59aae3	-0.21256594
130	0xbc8b39f1	-0.016995402
131	0xbe1dfbb1	-0.15428044
132	0x3cb7976b	0.022411069
133	0x3ea90bab	0.33016714
134	0x3e12d3c2	0.14338592
135	0xbd79369a	-0.060843088
136	0xbee19e79	-0.44066218
137	0x3a10f5fb	0.0005529818
138	0xbe13bd64	-0.14427716
139	0xbe06d1b4	-0.13165933
140	0x3d27b3ca	0.040942945
141	0x3d18c4a3	0.037296902
142	0xbe55517f	-0.2083187
143	0x3dc4eafa	0.09615131
144	0xbe21a74c	-0.15786475
145	0xbe88a267	-0.26686403
146	0x3df64761	0.12025333
147	0xbe0e94b3	-0.13923912
148	0x3dc36fc8	0.09542805
149	0x3edcc4b8	0.43118834
150	0x3e1cabd6	0.15299925
151	0xbd4fd57f	-0.050740715
152	0xbe546a0c	-0.20743579
153	0x3e5a565c	0.21322006
154	0xbd2882c9	-0.04114035
155	0xbe62c08d	-0.22143765
156	0xbe805d79	-0.25071314
157	0xbbaba3fc	-0.0052380543
158	0x3e86486b	0.26227126
159	0x3e326501	0.17421342
160	0xbd4b383b	-0.049614172
161	0xbca009e2	-0.019535962
162	0x3dc7574b	0.09733447
163	0x3d3bc71f	0.045844194
164	0x3e124b50	0.14286542
165	0x3d663d36	0.05621072
166	0x3f04b93e	0.5184516
167	0x3e28384e	0.16427729
168	0xbdc382dc	-0.09546444
169	0x3e29f809	0.16598524
170	0x3ddb1af3	0.106984995
171	0x3db8fdea	0.09032805
172	0xbdc9087f	-0.098160736
173	0xbddb477e	-0.107069954
174	0x3e82817e	0.2548942
175	0xbe0c971e	-0.13729522
176	0x3c9c78cc	0.01910057
177	0x3d1d71d8	0.038438648
178	0xbdca7300	-0.09885216
179	0x3d60265f	0.054724094
180	0xbe2cd8e1	-0.16879608
181	0x3e584137	0.21118627
182	0x3d1e1725	0.03859629
183	0x3de76bac	0.11299834
184	0xbe262727	-0.16225873
185	0xbe334703	-0.17507558
186	0xbe2fbe79	-0.17162503
187	0xbe812222	-0.25221354
188	0xbe420831	-0.18948437
189	0xbe20b825	-0.15695246
190	0xbe945a06	-0.28974932
191	0xbd00d77e	-0.03145551
192	0xbd8bf639	-0.068340726
193	0x3d608307	0.054812457
194	0xbddb1280	-0.10696888
195	0x3cc1a04d	0.023636008
196	0xbe78dfc2	-0.24304107
197	0x3dd94dce	0.10610543
198	0xbdbe5703	-0.0929394
199	0x3ec8406f	0.3911166
200	0xbe39ad81	-0.18132593
201	0xbe8abe8c	-0.270985
202	0x3dafc19b	0.08581849
203	0xbc6b829a	-0.0143744
204	0x3e1f17c2	0.15536407
205	0xbe8319a0	-0.25605488
206	0x3e19578f	0.14974807
207	0xbe4b1654	-0.19832736
208	0x3da07df4	0.07836524
209	0x3d584a93	0.052805495
210	0x3e36b448	0.1784221
211	0xbe60db84	-0.21958739
212	0x3e3f1ddf	0.18663739
213	0x3e37d235	0.17951281
214	0xbe923ebf	-0.28563496
215	0x3e531f97	0.2061752
216	0x3d661b21	0.056178216
217	0xbe625320	-0.22102022
218	0x3e16f8e4	0.14743382
219	0xbdd5264f	-0.104076974
220	0xbcb55035	-0.022132972
221	0xbda472da	-0.08029719
222	0x3e54af5d	0.20770021
223	0x3e34a51a	0.17641106
224	0x3dc973a0	0.09836507
225	0xbb6993bb	-0.0035641033
226	0xbe5c1173	-0.21491031
227	0xbc73240f	-0.01484014
228	0x3ebb48be	0.36578935
229	0xbd234325	-0.039858956
230	0x3df3526d	0.11880956
231	0xbe03a0c6	-0.12854299
232	0x3e8077b8	0.25091338
233	0xbe7f6944	-0.249425
234	0xbd602cc1	-0.05473018
235	0x3e500109	0.20312895
236	0xbe617dbe	-0.22020623
237	0xbd9aff2a	-0.075682
238	0x3e5cfc13	0.21580534
239	0xbd50c185	-0.050965805
240	0xbe216bca	-0.15763775
241	0xbe502d69	-0.20329823
242	0xbe820134	-0.25391543
243	0x3ed1eeb6	0.41002434
244	0x3d18af2c	0.037276432
245	0x3d24d72c	0.040244266
246	0x3e5bb238	0.21454704
247	0x3e34cd4d	0.17656441
248	0x3de075eb	0.10959991
249	0x3e1e9bea	0.15489164
250	0xbdf78bdb	-0.12087222
251	0x3e069017	0.13140903
252	0xbe494a76	-0.19657311
253	0xbea6ee3e	-0.3260364
254	0xbdfed894	-0.12443653
255	0xbe50246e	-0.20326397

bias f4 [16]
0	0x3d737c85	0.059444923
1	0x3cfef4b5	0.031122545
2	0xbdbd75c5	-0.092509784
3	0xbdcd3a81	-0.10020924
4	0xbd72ad0c	-0.05924706
5	0xbcd58649	-0.026065009
6	0xbda7b216	-0.08188264
7	0xbd915d8d	-0.070979215
8	0x3c88c7a7	0.016696764
9	0x3df6fc72	0.12059869
10	0xbceca890	-0.02888897
11	0x3df25145	0.11831907
12	0x3d66ec60	0.05637777
13	0x3dd036d2	0.10166706
14	0xbdbc23aa	-0.0918649
15	0x3bc4fe0d	0.0060117305

weight f4 [16]
0	0x3f7ca7ee	0.9869374
1	0x3f2ceac5	0.6754573
2	0x3f673647	0.90317196
3	0x3eb71b0b	0.3576282
4	0x3f8a4cad	1.080465
5	0x3f0384f5	0.5137475
6	0x3ee6e551	0.4509683
7	0x3ed78285	0.42091766
8	0x3ed8bc39	0.42331102
9	0x3f2e17ef	0.6800527
10	0x3ede4671	0.43413118
11	0x3f049b10	0.51799107
12	0x3ed825a4	0.42216218
13	0x3e862318	0.2619865
14	0x3eb89292	0.36049324
15	0x3ec3c76e	0.3823809

bias f4 [16]
0	0x3fa53898	1.2907896
1	0x3f43caac	0.7648113
2	0x3f229615	0.63510257
3	0x3eae3959	0.34028128
4	0x3f2a703b	0.665775
5	0x3e0d52a8	0.13801062
6	0x3f43009d	0.7617281
7	0x3ee2ba30	0.44282675
8	0x3e0d40e0	0.13794279
9	0x3fba3773	1.4548172
10	0xbe441846	-0.19149885
11	0x3db277db	0.08714267
12	0xbe249213	-0.16071348
13	0x3fa8a152	1.3174231
14	0xbdf1e0b5	-0.118104376
15	0x3f131793	0.57457846

running_mean f4 [16]
0	0x3e273f0e	0.16332647
1	0x3c145748	0.009054013
2	0xbc1f11b0	-0.009708807
3	0xbe29b984	-0.16574675
4	0x3b06d873	0.002057579
5	0x3f74184d	0.9534958
6	0xbed0d42f	-0.40786883
7	0x3f34be53	0.7060291
8	0xbf26405d	-0.6494196
9	0x3e53ab7c	0.20670885
10	0xbfb9eb41	-1.4524919
11	0xbee4e964	-0.44709313
12	0xbf51195f	-0.8167934
13	0x3f369cc0	0.7133293
14	0xbfa99a9e	-1.325031
15	0x3e2f7704	0.17135245

running_var f4 [16]
0	0x3fdd4984	1.728806
1	0x3f4d8285	0.8027728
2	0x3f80db60	1.0066948
3	0x3ee32ec5	0.4437162
4	0x3fd8f015	1.6948267
5	0x3e980a45	0.29695335
6	0x3ec1f8b6	0.37885064
7	0x3ee2dbf6	0.44308442
8	0x3ebdd6fa	0.37078077
9	0x3f685601	0.9075623
10	0x3e2b5222	0.1673055
11	0x3f15b1f3	0.58474654
12	0x3e9760c8	0.29566026
13	0x3ecfe297	0.40602562
14	0x3ea834f0	0.32852888
15	0x3eebe99f	0.46076676

weight f4 [16, 16, 3]
0	0x3ea8fb08	0.33004022
1	0xbd9133ac	-0.07089934
2	0x3e9eb715	0.30999056
3	0x3d3e1ec2	0.04641605
4	0x3e79cea2	0.2439523
5	0xbc4c1085	-0.01245511
6	0x3d617c17	0.055049982
7	0xbf0676bc	-0.52524924
8	0x3db95653	0.09049668
9	0x3e06c1c9	0.1315986
10	0xbed597bb	-0.41717324
11	0x3e9426fd	0.28935996
12	0xbea087dc	-0.31353652
13	0x3dc7f626	0.09763746
14	0xbeb4d70b	-0.35320315
15	0xbcad0ffe	-0.02112579
16	0x3e36eb6f	0.17863248
17	0xbcd94921	-0.026524128
18	0x3d8c92a2	0.068639055
19	0xbe5afb2e	-0.2138488
20	0x3dbf00a4	0.09326294
21	0xbe39b74c	-0.18136328
22	0x3e27d387	0.16389285
23	0xbc504eec	-0.012714129
24	0xbcff3cba	-0.031156886
25	0x3ea07c6d	0.3134493
26	0xbdf4217c	-0.11920449
27	0xbe237d77	-0.1596583
28	0x3e749047	0.23883162
29	0xbe03f385	-0.12885864
30	0x3e496378	0.1966685
31	0xbe6fd411	-0.2342074
32	0x3d7a4a38	0.061105937
33	0x3d9945d4	0.07484022
34	0xbd0ce000	-0.03439331
35	0x3e2ec44e	0.17067072
36	0x3ca3f582	0.020014528
37	0x3e9143c0	0.28372002
38	0xbd3e4728	-0.04645458
39	0x3d98f021	0.07467676
40	0x3e4cabec	0.19987458
41	0xbc645832	-0.013937043
42	0x3b0635f7	0.0020478943
43	0x3deaeb9c	0.1147072
44	0xbb740f57	-0.0037240589
45	0x3e0fbc06	0.14036569
46	0xbe93be1e	-0.28855985
47	0x3c8b8b6f	0.01703426
48	0x3e6d6b7a	0.2318553
49	0x3df2b6da	0.118512824
50	0xbe3f359e	-0.18672797
51	0x3d720b4e	0.059092812
52	0xbdee2b93	-0.11629405
53	0xbdc9a8d4	-0.098466545
54	0x3e941094	0.28918898
55	0xbcb32f2c	-0.02187308
56	0xbea0e2ac	-0.31422937
57	0xbd167503	-0.036732685
58	0xbe37bf6f	-0.1794412
59	0xbe56871b	-0.20949976
60	0xbe586d9a	-0.2113556
61	0xbd7bfe7d	-0.061521996
62	0x3e8c2367	0.2737076
63	0xbe4182f0	-0.18897605
64	0xbe132aaf	-0.14371751
65	0x3d4afe2c	0.049558803
66	0xbb8062a1	-0.0039180075
67	0x3c37c3e5	0.0112161385
68	0x3d8079a6	0.062732026
69	0xbe0d7e46	-0.138177
70	0xbde199c3	-0.11015656
71	0x3d3b1661	0.04567564
72	0x3e238a4f	0.1597073
73	0x3ea6468f	0.32475707
74	0x3ea2a90e	0.31769603
75	0xbec92a78	-0.39290214
76	0x3e442397	0.19154201
77	0x3ef33e3e	0.47508425
78	0x3e44db70	0.19224334
79	0xbd92a23b	-0.07159849
80	0xbe0c212e	-0.13684532
81	0xbbc7c10b	-0.0060960106
82	0x3c7701bc	0.015076097
83	0x3cf7db46	0.030255925
84	0x3dbfad05	0.09359173
85	0xbdbedadb	-0.09319087
86	0x3d773371	0.060351793
87	0x3c48cc7f	0.012255787
88	0xbe4eae45	-0.20183666
89	0xbe6daa1e	-0.23209426
90	0x3e8754d7	0.26431915
91	0x3e845606	0.2584688
92	0x3e3c39a6	0.18381366
93	0x3ebbd754	0.3668772
94	0x3dbfddca	0.09368475
95	0xbd7c38be	-0.06157755
96	0xbe5dd9c5	-0.21665104
97	0xbe0fdd39	-0.14049233
98	0x3e424d92	0.18974903
99	0x3e142c74	0.14470083
100	0xbc817c66	-0.015806388
101	0xbc2c5a17	-0.010519526
102	0xbe049718	-0.12948263
103	0x3e45eb7a	0.19328108
104	0x3e83b88a	0.2572673
105	0x3e56ac9c	0.20964283
106	0xbc86b889	-0.016445415
107	0x3ed0787d	0.40716925
108	0x3e30e142	0.17273429
109	0x3decf171	0.11569489
110	0xbe6d94e9	-0.23201336
111	0x3e90b957	0.28266403
112	0x3db34be7	0.087547116
113	0x3d68ea59	0.056864116
114	0xbe2fb146	-0.17157468
115	0xbe4747c3	-0.19460969
116	0xbd08d832	-0.033409305
117	0x3e977ac1	0.2958584
118	0xbceae983	-0.0286758
119	0x3d104b0b	0.035227817
120	0xbe0510a0	-0.12994623
121	0xbd473f6b	-0.048644464
122	0xbe80e0ab	-0.25171408
123	0x3e681172	0.22662905
124	0xbddb4127	-0.10705786
125	0xbeb47089	-0.35242108
126	0xbe13143b	-0.14363186
127	0xbca55596	-0.020182412
128	0x3e2ce163	0.16882853
129	0xbe01a385	-0.12660034
130	0xbe7cf50e	-0.24702856
131	0x3e60898c	0.2192747
132	0xbe53ba8d	-0.20676632
133	0x3d95f61f	0.073223345
134	0xbe7a373e	-0.24435136
135	0xbdb900f6	-0.090333864
136	0xbd876837	-0.06611674
137	0xbe274784	-0.16335875
138	0xbe8c6ae0	-0.2742529
139	0xbe34aec1	-0.17644788
140	0xbdfce8e9	-0.123491116
141	0xbe9b95fa	-0.3038786
142	0xbddb89a6	-0.10719614
143	0xbde9f690	-0.11423981
144	0xbda86433	-0.082222365
145	0x3e6e81b0	0.2329166
146	0xbe240c02	-0.16020206
147	0x3d636de1	0.05552471
148	0xbe6a822f	-0.22901224
149	0x3e9b7793	0.30364665
150	0xbe8fe015	-0.2810065
151	0x3e4baa97	0.19889294
152	0xbebfa9ce	-0.37434238
153	0xbe2a4daa	-0.16631189
154	0x3eb033ef	0.34414622
155	0xbe5873c0	-0.21137905
156	0x3e208a1f	0.15677689
157	0xbe837631	-0.2567611
158	0x3e0275b3	0.12740211
159	0x3cb258b2	0.021770809
160	0xbd98d022	-0.07461573
161	0x3e69e616	0.22841677
162	0xbe0351a2	-0.12824109
163	0x3dead295	0.114659466
164	0xbe8476ff	-0.25872037
165	0x3e52a003	0.20568852
166	0xbd04ff17	-0.032469835
167	0x3decd00e	0.11563121
168	0x3e39e347	0.18153106
169	0xbe7052b9	-0.23469056
170	0x3e05f697	0.13082348
171	0x3e84fc9e	0.25973982
172	0xbe16cec3	-0.14727311
173	0x3e7cd93b	0.24692242
174	0xbe363c4c	-0.17796439
175	0x3e0a61a8	0.13513815
176	0xbe35ecdc	-0.17766136
177	0xbe5956ff	-0.21224593
178	0x3e558cb7	0.2085446
179	0xbdf57c43	-0.11986592
180	0x3e43487c	0.1907062
181	0x3e2010e6	0.15631446
182	0x3e30a56e	0.17250606
183	0x3c97458b	0.018465778
184	0x3e6811ed	0.22663088
185	0x3d734170	0.059388578
186	0x3e05e9b6	0.13077435
187	0xbd1fc622	-0.039007314
188	0xbd5cf2f7	-0.053942647
189	0xbead6bee	-0.33871406
190	0xbd1cde7e	-0.038298123
191	0xbe87e794	-0.26543868
192	0x3e835487	0.25650427
193	0x3e8e2418	0.27761912
194	0x3f01bf28	0.50682306
195	0xbd65852c	-0.056035206
196	0x3db22740	0.086988926
197	0xbdc7425c	-0.09729454
198	0xbd419233	-0.047258567
199	0x3e74735d	0.23872133
200	0x3d0793d4	0.033099964
201	0x3d8067c1	0.062697895
202	0x3d8f02bf	0.06982946
203	0x3db5e69d	0.088818766
204	0xbe37aa7d	-0.1793613
205	0xbe171dd3	-0.14757471
206	0xbec8df1b	-0.39232716
207	0xbd2db636	-0.042410098
208	0x3d886873	0.06660547
209	0x3bd569dd	0.006512864
210	0xbd5506a0	-0.05200827
211	0xbe7760d7	-0.24158035
212	0xbe1bebbb	-0.15226643
213	0x3e89612d	0.26831952
214	0x3e260f8a	0.16216865
215	0x3f00b3d5	0.502744
216	0x3dc831f7	0.09775155
217	0x3dc450e5	0.09585742
218	0xbd995a5c	-0.07487938
219	0x3d1ba3da	0.037998058
220	0xbe92e528	-0.28690457
221	0xbd542e16	-0.051801763
222	0xbda51ed4	-0.080625206
223	0xbdc5f2b8	-0.096654356
224	0xbe8b5525	-0.27213398
225	0xbce64deb	-0.028113326
226	0xbd54460c	-0.051824614
227	0x3e1cfbd5	0.15330441
228	0x3d4eaf60	0.05046022
229	0x3cdbce2a	0.026831705
230	0xbe4737d9	-0.19454898
231	0xbe743d68	-0.2385155
232	0xbf00cb6a	-0.50310385
233	0xbf006f8e	-0.5017022
234	0x3e8f4cb0	0.27988195
235	0x3d9b90c5	0.07595972
236	0x3e216555	0.15761311
237	0xbe30a708	-0.17251217
238	0xbe04162e	-0.12899086
239	0xbeafc4f4	-0.3432995
240	0xbca755ed	-0.020426715
241	0xbddfb2a2	-0.109227434
242	0xbd7d1a02	-0.06179238
243	0xbd0a8d03	-0.033825886
244	0x3e1d01b3	0.1533268
245	0xbec6339c	-0.3871125
246	0x3e973429	0.29531983
247	0xbdd60b58	-0.104513824
248	0x3ebaa88c	0.36456716
249	0x3d6e0d0d	0.058117915
250	0xbea10471	-0.314487
251	0x3d3f033e	0.04663395
252	0xbddf0f19	-0.108915515
253	0x3d9e1453	0.0771872
254	0x3d817df1	0.063228495
255	0xbd17b887	-0.037041213

bias f4 [16]
0	0xbe02db8f	-0.12779067
1	0xbdcfdbc6	-0.1014934
2	0x3cc3fa74	0.023923136
3	0x3e15f640	0.14644718
4	0xbde791df	-0.113071196
5	0x3a03898e	0.00050177507
6	0x3dc2c125	0.09509496
7	0xbd9e84f6	-0.07740204
8	0xbd0b12e9	-0.03395358
9	0xbe1242a7	-0.14283238
10	0xbdad59bd	-0.08464382
11	0xbdf73d43	-0.120722316
12	0x3ccc30f8	0.024925694
13	0xbdeb0fdd	-0.11477635
14	0x3cb26d1a	0.02178054
15	0xbdb9a10a	-0.09063919

weight f4 [16]
0	0x3efe5963	0.49677572
1	0x3e7e7032	0.24847487
2	0x3eaa3905	0.33246627
3	0x3f0625fb	0.52401704
4	0x3e993985	0.29926696
5	0x3ea9cd9a	0.33164674
6	0x3ec661cd	0.3874649
7	0x3e9cfcb1	0.30661538
8	0x3e82c937	0.2554414
9	0x3ef64605	0.48100296
10	0x3f0b9961	0.5453091
11	0x3ef4d85c	0.4782132
12	0x3f0deb81	0.55437475
13	0x3ee242d4	0.4419161
14	0x3e959aca	0.29219657
15	0x3eadff12	0.33983666

bias f4 [16]
0	0x3f0c8421	0.5488911
1	0x3f3dce92	0.74143326
2	0x3f1e70f4	0.618911
3	0x3f050984	0.51967645
4	0x3d91d488	0.07120615
5	0x3e9b5b6a	0.3034318
6	0x3eaeb601	0.34123233
7	0x3e964972	0.2935291
8	0x3d9a3773	0.07530107
9	0x3f5a6108	0.8530431
10	0x3d8e5f2b	0.069517456
11	0x3f139df4	0.5766289
12	0x3f498ee5	0.78733665
13	0x3c7ef04a	0.015560219
14	0x3db2573e	0.087080464
15	0x3e94a60d	0.29032937

running_mean f4 [16]
0	0x3edc648d	0.43045464
1	0x3e3195e9	0.17342342
2	0xbf82a97d	-1.0207974
3	0x3ed04ea4	0.40684998
4	0xbfaf4e15	-1.3695704
5	0xbbcaa737	-0.0061844843
6	0x3f163fca	0.58691084
7	0xbe343e54	-0.17601901
8	0x3faf43ff	1.3692626
9	0xbf70e81d	-0.94104177
10	0xbf9326a1	-1.1496164
11	0x3f92422b	1.1426443
12	0x3f642337	0.89116234
13	0xbfec7132	-1.8472044
14	0xbf4ef994	-0.80849576
15	0x3f7f264e	0.99667823

running_var f4 [16]
0	0x3f86a385	1.0518652
1	0x3ebd318e	0.3695187
2	0x3ecb9cd4	0.39768088
3	0x3f98653e	1.1905897
4	0x3e499bce	0.19688341
5	0x3f340240	0.70315933
6	0x3ec39f91	0.38207677
7	0x3e4a1739	0.19735421
8	0x3e74d8ac	0.23910779
9	0x3f3cbba1	0.737238
10	0x3f8c03db	1.0938677
11	0x3f30be72	0.69040596
12	0x3f03d13a	0.5149113
13	0x3e4ecf59	0.20196284
14	0x3e95b5c6	0.29240245
15	0x3f3ad8ab	0.7298686

weight f4 [16, 16, 3]
0	0x3e3f59d2	0.18686607
1	0x3e37c872	0.17947558
2	0x3cba07f8	0.022708878
3	0x3e2af87f	0.16696356
4	0x3eca9980	0.39570236
5	0x3e733fe7	0.23754846
6	0xbe196bc9	-0.14982523
7	0xbee48aa4	-0.44637024
8	0xbe970a23	-0.2949992
9	0xbe709b94	-0.23496848
10	0xbea8f381	-0.3299828
11	0xbe4a58c3	-0.19760422
12	0xbe8d9383	-0.27651605
13	0xbea2a11b	-0.3176354
14	0xbe064a73	-0.13114338
15	0xbcb86fdd	-0.022514278
16	0xbd80c057	-0.06286686
17	0xbdb6561d	-0.089031436
18	0xbe13262f	-0.14370035
19	0x3cd632fd	0.02614736
20	0x3d0ff94a	0.03514985
21	0xbd6541cf	-0.055970963
22	0x3cec03a0	0.028810322
23	0x3dd1f617	0.10252016
24	0xbd81c2db	-0.06335994
25	0x3e334166	0.17505416
26	0x3e25b51e	0.16182372
27	0x3d091d5d	0.03347527
28	0x3db8dd24	0.09026554
29	0x3d921e71	0.071347125
30	0xbe98d005	-0.29846206
31	0xbe95cade	-0.29256338
32	0x3cbf12a6	0.023324322
33	0x3e885da3	0.2663394
34	0x3e4cf3e2	0.20014909
35	0xbcb26916	-0.021778625
36	0x3d67ba86	0.056574367
37	0x3d7e00ca	0.06201247
38	0xbbb969f5	-0.005658383
39	0xbd841162	-0.06448628
40	0xbe572e24	-0.21013695
41	0xbe3617ef	-0.17782567
42	0x3d4beb8b	0.04978518
43	0x3e77ea2b	0.24210422
44	0x3e4a6ce0	0.19768095
45	0x3d3fd9a6	0.046838425
46	0x3e77f7da	0.24215642
47	0x3e293f13	0.16527967
48	0xbda57735	-0.080793776
49	0x3c201585	0.009770756
50	0xbd7adc94	-0.061245516
51	0xbddc8394	-0.10767284
52	0xbe121407	-0.14265452
53	0xbe55bf4d	-0.20873757
54	0x3e236950	0.15958142
55	0x3ed644bf	0.41849324
56	0x3e2e499a	0.17020264
57	0xbd56acf9	-0.052411053
58	0x3e1499d3	0.14511804
59	0x3e968644	0.29399312
60	0x3db9b7df	0.09068274
61	0x3e5e9950	0.21738172
62	0x3de43ff0	0.111450076
63	0x3e2eedc6	0.17082891
64	0x3c7c9faf	0.015418931
65	0x3d2abdea	0.041685022
66	0xbd523ceb	-0.051327627
67	0xbe799f52	-0.24377182
68	0xbd77cc56	-0.060497604
69	0x3e1808d6	0.1484712
70	0x3ec11cac	0.37717187
71	0x3e90ee9d	0.28307047
72	0xbd155b50	-0.036464036
73	0xbd7e9cff	-0.062161442
74	0xbd00c353	-0.031436276
75	0x3e0cbf3f	0.1374483
76	0x3ddd8362	0.10816075
77	0xbd6c8340	-0.057742357
78	0xbe3e4d90	-0.18584275
79	0xbee11586	-0.43961734
80	0xbec3fdfe	-0.38279718
81	0x3e892c1d	0.26791468
82	0x3e7c9086	0.24664506
83	0x3decf110	0.115694165
84	0xbdb93e58	-0.09045094
85	0xbd5cce31	-0.053907577
86	0x3dd413ab	0.10355314
87	0x3d9da3a3	0.07697227
88	0x3db0f880	0.086411476
89	0x3d9499a2	0.07255866
90	0xbe05eeb2	-0.13079336
91	0xbdd48bc2	-0.10378219
92	0xbcd2beb8	-0.025725707
93	0xbe3251c9	-0.17414011
94	0xbe9de6a4	-0.30840027
95	0xbe2f1233	-0.17096786
96	0x3e59b3ee	0.21260044
97	0x3cea1fa4	0.02857954
98	0x3ef519d4	0.47871268
99	0xbc890f43	-0.01673091
100	0xbd459ac5	-0.048243303
101	0x3eafe22e	0.3435225
102	0xbd9b1109	-0.075716086
103	0x3df4748d	0.11936293
104	0xbe42f7e4	-0.19039875
105	0x3dc03ce7	0.09386616
106	0x3db72f0f	0.089445226
107	0xbe644539	-0.22292031
108	0xbd03a8a1	-0.03214324
109	0x3df30f38	0.11868137
110	0xbdb4d02b	-0.088287674
111	0xbd5253ec	-0.051349565
112	0x3e8c58bd	0.27411452
113	0x3e7bae71	0.24578263
114	0x3e577704	0.21041495
115	0x3e6208f8	0.22073734
116	0x3e0ae64f	0.13564418
117	0xbd8415ba	-0.064494565
118	0x3d506f70	0.050887525
119	0x3e331803	0.17489628
120	0x3cbd44ad	0.023104036
121	0xba6b0572	-0.000896535
122	0xbe068f09	-0.13140501
123	0x3c570f9e	0.013126282
124	0x3ebf6a83	0.3738595
125	0xbe9737e5	-0.29534832
126	0xbe098e32	-0.1343315
127	0xbda9e8f9	-0.08296389
128	0x3d616f8e	0.055038027
129	0xbdfd1211	-0.123569615
130	0xbe0abb61	-0.13548042
131	0xbe578886	-0.21048173
132	0xbdc57821	-0.096420534
133	0xbee2cc3b	-0.4429644
134	0x3de2fc5c	0.1108329
135	0x3c135474	0.008992303
136	0xbe115374	-0.14191991
137	0x3e62d9fd	0.22153468
138	0x3d085c59	0.033291195
139	0x3e02781d	0.12741132
140	0xbdc5aa11	-0.09651578
141	0x3ad96847	0.0016586863
142	0xbd1087d5	-0.03528579
143	0xbe93a642	-0.28837782
144	0x3da5b0e8	0.08090383
145	0x3d9df14d	0.0771204
146	0xbdb1f7b2	-0.08689822
147	0xbe8041f6	-0.25050324
148	0x3ebf054a	0.37308723
149	0xbeacab0a	-0.33724242
150	0x3e0493d7	0.12947021
151	0xbedbfee6	-0.4296791
152	0x3d59187f	0.053001877
153	0xbe0393ca	-0.12849346
154	0xbe001504	-0.12508017
155	0x3d6e7b02	0.05822278
156	0x3e2a3806	0.16622934
157	0xbec1bb0c	-0.37838018
158	0x3d05aa1b	0.03263293
159	0x3cb20afd	0.021733755
160	0xbd0075b0	-0.031362236
161	0x3cbcf3af	0.023065416
162	0xbc6726b1	-0.014108346
163	0x3e93d2ef	0.28871867
164	0xbeb3f842	-0.35150343
165	0xbd9c9bda	-0.07646914
166	0xbe4fb07c	-0.20282167
167	0x3eccf7e7	0.40032884
168	0xbcd9d3a0	-0.026590168
169	0xbed948a3	-0.4243823
170	0x3d29a59d	0.041417707
171	0xbdfedc97	-0.12444418
172	0x3e935daa	0.28782398
173	0xbe61290d	-0.21988316
174	0x3be42ef1	0.0069636037
175	0xbe222caf	-0.15837358
176	0xbd917a3c	-0.071033925
177	0xbbbdfb6e	-0.005797795
178	0xbd829aa3	-0.06377151
179	0x3dcb3851	0.09922851
180	0x3e44321b	0.19159739
181	0x3d633d15	0.055478174
182	0x3e9acb94	0.30233443
183	0x3d427869	0.047478113
184	0x3ed1e683	0.4099618
185	0x3e6a3d33	0.22874908
186	0x3c376175	0.011192669
187	0xbe0b4862	-0.1360183
188	0x3dae4334	0.08508912
189	0x3badf573	0.005308801
190	0x3d302d68	0.043012053
191	0x3e07d437	0.13264547
192	0xbe82add6	-0.2552325
193	0xbf0fe854	-0.5621388
194	0xbe9d42ee	-0.30715126
195	0x3e324376	0.17408547
196	0x3d072689	0.032995734
197	0xbde62def	-0.1123923
198	0x3a082fbf	0.0005195103
199	0x3e2aa7c3	0.16665559
200	0x3ddc9f48	0.10772568
201	0x3ead2098	0.3381393
202	0x3ee0151a	0.437661
203	0x3e702596	0.23451838
204	0x3ce4644e	0.02787986
205	0xbd259ccc	-0.040432736
206	0xbe2235cc	-0.15840834
207	0xbe6650d9	-0.22491778
208	0xbe4b9429	-0.19880737
209	0xbdb4c60c	-0.08826837
210	0xbcf1e605	-0.029528627
211	0x3c74e32c	0.01494674
212	0xbd4dc194	-0.05023344
213	0xbd7494dd	-0.05971228
214	0xbdebf779	-0.11521811
215	0x3d8ef34d	0.0698
216	0xbe5b742d	-0.21431036
217	0xbe306403	-0.17225651
218	0x3dc040a7	0.093873315
219	0x3d4b6723	0.049658906
220	0x3e8131ab	0.25233206
221	0x3e23b136	0.1598557
222	0xbdad178e	-0.08451758
223	0xbd832a1f	-0.06404518
224	0xbd62f981	-0.055413727
225	0x3dd0fc2f	0.1020435
226	0x3e71afba	0.2360219
227	0x3dc97f2e	0.09838711
228	0xbdc6ca63	-0.09706571
229	0xbe98fa08	-0.2987826
230	0xbdd317bd	-0.10307262
231	0xbcb00b56	-0.02148978
232	0xbd94a053	-0.07257142
233	0x3d8da1fb	0.06915661
234	0x3c207cc9	0.009795376
235	0x3ce5d5ac	0.028055988
236	0xbd8b2c95	-0.06795613
237	0x3e2e391c	0.17013973
238	0x3e99a6ec	0.30010164
239	0x3e52ab17	0.20573078
240	0x3db77294	0.08957401
241	0xbce24aad	-0.027623499
242	0xbe364160	-0.17798376
243	0xbea5a985	-0.32355896
244	0xbf26324e	-0.6492051
245	0xbe083ea8	-0.13305151
246	0x3e425dc4	0.18981081
247	0x3ea85457	0.32876846
248	0x3db03413	0.08603682
249	0x3d445374	0.04793115
250	0x3d2fd089	0.042923484
251	0x3d3b7dad	0.04577415
252	0xbd70d21f	-0.058794137
253	0xbe5df9ad	-0.21677275
254	0xbd2b02e2	-0.041750796
255	0xbe11547b	-0.14192383

bias f4 [16]
0	0x3d984bcc	0.07436332
1	0x3bb6a51b	0.0055738813
2	0xbb3505eb	-0.0027621936
3	0x3de2e27c	0.11078355
4	0xbe15ce09	-0.14629377
5	0xbc192689	-0.009347566
6	0xbe06a1d7	-0.13147675
7	0x3d3f90ce	0.046768956
8	0xbdff21f9	-0.12457652
9	0x3e12ac4e	0.14323542
10	0xbd06f4e5	-0.032948393
11	0xbd4f6e6d	-0.05064242
12	0xbdf66c00	-0.12032318
13	0x3dc00fff	0.09378051
14	0xbda51c83	-0.08062079
15	0xbe01c28b	-0.12671869

weight f4 [16]
0	0x3ec60ed8	0.386832
1	0x3f02f622	0.5115682
2	0x3ec54065	0.38525692
3	0x3f069522	0.5257131
4	0x3eb31d05	0.34983078
5	0x3f039757	0.514028
6	0x3f08b15e	0.5339564
7	0x3f1001fd	0.56253034
8	0x3ebc45f3	0.36772117
9	0x3eb0371b	0.34417042
10	0x3f357288	0.70877886
11	0x3f1dffca	0.6171843
12	0x3f05eb91	0.5231257
13	0x3ef39eab	0.47581992
14	0x3edbfec0	0.42967796
15	0x3e7c5bbb	0.24644367

bias f4 [16]
0	0x3f81309c	1.009296
1	0x3f908127	1.1289414
2	0x3f017133	0.50563353
3	0x3f5366ed	0.8257893
4	0x3f4c748b	0.7986533
5	0x3f8ff63c	1.124702
6	0x3f4c1579	0.79720265
7	0x3f433b7d	0.76262647
8	0x3f02b6fe	0.51060474
9	0x3f7b0947	0.9806103
10	0xbf701e3d	-0.9379614
11	0x3f477842	0.77917874
12	0x3f834d58	1.0257978
13	0x3f19f5c9	0.60140663
14	0x3f14b9e5	0.5809615
15	0x3f491bf5	0.78558284

running_mean f4 [16]
0	0x3e7bfb99	0.24607696
1	0x3f3788bb	0.7169301
2	0x3eb505cd	0.35355988
3	0x3e872572	0.26395756
4	0x3e358c9b	0.17729418
5	0xbec8c946	-0.3921606
6	0xbe7592d2	-0.23981789
7	0x3e1d28db	0.15347616
8	0xbd6c88f9	-0.057747815
9	0x3e9c6dd0	0.3055253
10	0xbf68675e	-0.90782726
11	0xbe10d6b4	-0.14144403
12	0x3ca605b4	0.020266391
13	0x3eda4c22	0.4263621
14	0xbdd2f3a9	-0.10300381
15	0x3e2e87de	0.17044017

running_var f4 [16]
0	0x3e4928c8	0.19644463
1	0x3e0a6cc9	0.1351806
2	0x3e8e3b73	0.2777973
3	0x3eb4f5f8	0.3534391
4	0x3dbd1d80	0.09234142
5	0x3e857b0e	0.26070446
6	0x3ddcf030	0.10788
7	0x3ea8ad94	0.3294493
8	0x3e94a31f	0.29030702
9	0x3e0cb33f	0.13740252
10	0x3e46957d	0.19392963
11	0x3ebc60ec	0.36792696
12	0x3e6db476	0.23213372
13	0x3ee86fb2	0.45397717
14	0x3ea621a0	0.3244753
15	0x3e291fc3	0.16516022
