metrics_best_runs/cnn_enc_dec_freezed/0069.predictor.model (torch_old, 117936 bytes, 12 tensors)

weight f4 [100, 256]
000000 d8 7e 90 bd 34 e7 55 3d 01 fd 19 3b 0c 3e f4 3d
       -0.070554435 0.052222446 0.002349675 0.11925897
000010 ca f9 fa bd 77 57 43 3e 8c 24 9a 3e 37 c6 8f 3c
       -0.12254675 0.19076334 0.30106008 0.01755057
000020 9a ca df bc 7b 72 37 3d f3 d6 7d bc 07 0a 44 3e
       -0.027318288 0.04478691 -0.015493142 0.1914445
000030 06 a6 81 3e ac 09 51 3e 23 9f 7d 3e 3d c4 d7 3d
       0.25321978 0.20413846 0.24767737 0.10535476
000040 49 ca 3f 3d a3 af a2 3d 87 85 25 3e fe 68 90 3c
       0.046823774 0.07943656 0.16164218 0.01762819
000050 a2 70 0a 3e 9d fa 66 bd 34 7c 7b 3e 8e 80 4c 3d
       0.13519529 -0.056391347 0.24559098 0.049927287
000060 7a c0 84 3e 8f 9a 83 3e 3c 29 a3 3d 85 b5 0d bd
       0.25928098 0.25703856 0.07966849 -0.03459694
000070 1e ba 34 3e 1f dd aa 3d fb 98 25 3e bd 75 71 3c
       0.17649123 0.08342957 0.16171639 0.014737544
000080 36 67 ce bd 9e b8 e7 3c 3a 89 d6 bb 3a 14 9c 3e
       -0.1007828 0.028286275 -0.0065471204 0.30484182
000090 57 18 46 3e 9c e1 80 3e a8 b7 7d 3e c8 e2 45 3c
       0.19345222 0.25172126 0.2477709 0.012077995
0000a0 ee cd 5a bd 62 07 d4 3e b6 2d fd 3d 50 0b f4 3d
       -0.053419046 0.41411883 0.12362234 0.1191622
0000b0 c4 77 0a 3e 61 ae c2 3e 32 5b 86 be 7b 02 0c be
       0.1352225 0.38023666 -0.26241452 -0.13672821
0000c0 d4 b3 cc 3d 4d 93 e9 3d f8 fa 83 bc 96 db 19 bc
       0.09995237 0.114050485 -0.016110882 -0.009390732
0000d0 f6 d3 86 bd 87 ef 90 3d 2b 6c 75 3e a7 1f 94 3d
       -0.06583397 0.07076936 0.23967044 0.072326
0000e0 9b 4f 93 3d 31 d8 02 3b 1a eb 04 3c 34 b4 86 bd
       0.07192918 0.0019965286 0.008112693 -0.0657734
0000f0 18 7f 05 3e fc e3 ac 3c 83 c3 c9 bd d3 7e aa be
       0.13036764 0.021104805 -0.09851744 -0.33299884
000100 28 d7 90 bd 58 f6 3a be ab 21 29 be d9 e7 bd bd
       -0.07072288 -0.18258035 -0.1651675 -0.09272737
000110 0c 2c 6b be e8 b1 3a be 79 44 64 be 85 0c 5e be
       -0.22966021 -0.18231928 -0.22291745 -0.21684463
000120 a4 cd 88 be 99 07 fe be c1 ba 9c bd 7b 6f 46 be
       -0.2671939 -0.49615172 -0.07652808 -0.19378464
000130 1e 8e 92 be 36 43 60 be 1d 90 cc be 6b 6b 20 be
       -0.28624052 -0.21900639 -0.399537 -0.15665977
000140 a6 00 08 bc 7b c4 1a 3a 40 92 7e bd a3 9f 4e bd
       -0.008300936 0.00059039117 -0.062151194 -0.05044521
000150 92 49 24 3e 1a 39 81 bd fd d9 35 3d 6f 1b 5a 3d
       0.1604369 -0.063097194 0.044397343 0.05324882
000160 57 4f f7 bd 07 47 97 3c 6a 79 ba 3d 6d 4f cd 3d
       -0.1207568 0.018466486 0.09105189 0.10024915
000170 cb 52 82 3e 39 b4 ea 3d c9 77 55 bc f1 78 3e 3d
       0.2545379 0.11460156 -0.013029047 0.046502057
000180 4e 2d e3 3c ea e7 9b be 1a 37 8f be cf f3 3c be
       0.027731564 -0.30450374 -0.27971727 -0.1845238
000190 8b 21 43 bd cd f1 af bc 5b 46 78 be ed 80 82 3c
       -0.04763941 -0.021477604 -0.24245588 0.015930617
0001a0 f3 13 7a be 53 aa 13 be fb ec 1e be 0b 51 0a 3d
       -0.24421673 -0.14420442 -0.15520088 0.033768695
0001b0 c3 63 21 be 7f dd 87 be 61 f6 66 be 42 09 09 3d
       -0.15760712 -0.26536176 -0.22554924 0.033456095
0001c0 f8 50 2f 3e db 9e 3f 3e 48 9d 4f 3e 3b 1f 1d be
       0.17120731 0.18712942 0.20274842 -0.15343945
0001d0 5a 47 9c 3e 57 1e ba 3d 53 7a 47 3e f7 58 81 3e
       0.30523187 0.09087818 0.19480257 0.25263187
0001e0 0f b2 18 3d b4 4a 1c 3e a0 ac bc 3d c1 20 18 3e
       0.037279185 0.15262872 0.09212613 0.14856245
0001f0 61 05 77 3e a0 07 f7 bd 30 83 8e 3e 34 71 5b bd
       0.24123146 -0.12062001 0.27834463 -0.053574756
000200 f4 e5 d5 bd c7 a0 bd 3e 77 39 0c 3e e1 4f 1b 3f
       -0.10444251 0.37036726 0.13693796 0.6066876
000210 04 29 d5 3e 75 cd 70 3e 8b 39 35 3e 6c 34 5b 3e
       0.41632855 0.23515876 0.17697732 0.21406716
000220 ad 1d 9a 3e 04 76 dc 3e a1 44 ee 3d 0a ba e4 3e
       0.30100766 0.4305879 0.11634184 0.44673187
000230 9f fc 4c 3e 37 8a b1 3e 40 5b ab 3e 76 b9 91 3e
       0.20018242 0.34675762 0.33468056 0.28461808
000240 a7 a0 f7 be 72 ca cc be 83 f1 db be 65 43 39 be
       -0.48364756 -0.39998204 -0.42957696 -0.18092115
000250 01 b1 9f be 32 2e 7f be 66 c0 9a be 47 df 97 be
       -0.3118973 -0.24919966 -0.30224913 -0.29662535
000260 97 69 a9 be 8b bc c3 be 89 5e 0b be 61 16 c2 bd
       -0.3308837 -0.38229784 -0.13610281 -0.09476925
000270 12 5c 3c be ca fc 88 be f3 02 0a bf cf 24 de be
       -0.18394497 -0.26755363 -0.5391075 -0.43387458
000280 f4 85 d2 3e d0 e3 03 3e 44 cc 57 3e a2 13 14 3e
       0.41117823 0.12879872 0.21074015 0.14460614
000290 6b d8 e1 3c 1c b0 38 3d 9a 52 22 bc b1 de b0 3d
       0.027569016 0.045089826 -0.009907389 0.08636225
0002a0 0e 5d e1 bd ec ea a5 bd 0d dc 2f be c6 09 1d be
       -0.11004077 -0.081014484 -0.17173786 -0.1533576
0002b0 40 f0 04 be 0a 2d 36 be c1 09 64 be ed c9 6d be
       -0.12982273 -0.17790619 -0.22269346 -0.2322156
0002c0 89 dc ae 3e 88 f9 ee 3d 3c f3 64 3d e1 ae 17 3e
       0.3415263 0.11668688 0.05589603 0.14812805
0002d0 5a 65 6c 3e 2b 66 92 3d d4 13 23 bc 15 be 24 3e
       0.23085538 0.07148393 -0.009953458 0.16088136
0002e0 d7 77 0e be 1e d2 16 be 96 d9 9f 3d 51 a5 51 3e
       -0.13912903 -0.14728591 0.07805173 0.2047322
0002f0 d6 ef 01 bd f6 f4 80 3d c9 9e 60 3d 0d 9b 91 3c
       -0.031722866 0.062967226 0.05483893 0.01777413
000300 1f 7e c0 3d 76 c6 0a be 92 9d bb 3d aa 73 82 be
       0.09399056 -0.1355227 0.091609135 -0.2547887
000310 2f 0f b1 3c 31 b5 44 be 56 34 14 be a9 94 3b 3e
       0.021613685 -0.19209744 -0.1447309 0.18318428
000320 9d 80 92 bd 94 40 52 be 4e af 78 bd 8d a1 01 be
       -0.07153437 -0.20532447 -0.06071406 -0.12659283
000330 d3 2e ca bd ca 98 9d be f3 80 49 be f4 ed 8e be
       -0.09872212 -0.3078063 -0.19678096 -0.2791592
000340 ac d8 c4 3e 99 a4 95 bc 0e e2 13 3e 53 f5 06 3b
       0.38446558 -0.018266963 0.14441702 0.0020593002
000350 74 b3 10 3d 5d c1 a4 3e 90 43 f6 3d a0 09 97 3e
       0.03532739 0.32178774 0.12024605 0.2949953
000360 c4 81 cf bd eb 76 8c bc 78 d4 7a be 87 ea 5e 3e
       -0.10132173 -0.017146548 -0.24495113 0.21769153
000370 03 01 13 3e 99 c9 a6 3e 31 2c af 3d e3 25 d4 3e
       0.14355855 0.32575682 0.08553351 0.41435155
000380 d0 67 90 3e 2d 33 74 b9 bd 3e ef 3d d8 b8 30 3d
       0.28204203 -0.00023288718 0.11681888 0.04314503
000390 9d c5 d9 3d d7 73 42 bd 78 08 5e 3e 31 fb 4f be
       0.10633395 -0.047473755 0.21682918 -0.20310666
0003a0 3c 3a a3 bc 58 f2 c0 bd 51 b3 62 3e 70 fa 34 3c
       -0.01992523 -0.094212234 0.22138716 0.011046037
0003b0 b8 89 5d 3d 3a 13 92 be ae ce 95 3d 1d bb 88 3c
       0.054086417 -0.28530294 0.07314812 0.016690785
0003c0 79 6f c5 bd 94 42 f7 3d 20 ee dd 3d 5a 25 cf bd
       -0.09640402 0.12073246 0.10836434 -0.10114546
0003d0 c3 26 97 be 50 ad 8e 3d 77 4b bd bc f0 0b 6f bd
       -0.2952176 0.069666505 -0.023107274 -0.058360994
0003e0 0a 1f 53 be 62 a5 f1 3c d6 0e 75 bc e0 c2 8b bd
       -0.20617309 0.029497806 -0.01495715 -0.06824279
0003f0 35 d9 c9 bd 80 af d5 3e e6 ad 04 3d d7 c7 8c bd
       -0.09855882 0.41735458 0.032392405 -0.06874054

bias f4 [100]
000000 04 c9 0f 3c d8 cd 09 bd 68 19 07 3c f0 bf 03 bd
       0.008775953 -0.033643574 0.008245803 -0.032165468
000010 87 9a a6 3c 78 02 5e bd fd 31 b5 bb 7d 28 1c bd
       0.020337356 -0.054201573 -0.0055296407 -0.03812455
000020 cf 42 1f 3d 3d 64 38 39 e2 6e c3 bc 4a 51 c3 bc
       0.038882073 0.00017584949 -0.023856584 -0.023842473
000030 0f 22 ae 3c 4f 74 e4 bb ff 70 4d bd c5 63 e9 bc
       0.021256475 -0.006971873 -0.05015659 -0.028489957
000040 a0 85 77 3d 7d 7c 1d 3d c1 c4 32 3d 09 5a dd 3b
       0.06043017 0.0384488 0.04364467 0.006755118
000050 74 a3 9e bc b9 52 87 bd 2b 59 ad bd fe c7 24 3d
       -0.01936505 -0.06607575 -0.08464273 0.04022979
000060 40 b3 12 3d 09 07 62 3d ca 0d 53 bb dc 84 cb bc
       0.035815477 0.05518249 -0.0032204264 -0.024843626
000070 90 97 10 3b 5f 91 0b bc 24 ac 40 bc 74 b9 db bc
       0.0022062995 -0.008518546 -0.0117597915 -0.02682183
000080 3c e0 d1 3b f8 7b eb bb 46 df 84 bd c0 b4 53 bd
       0.0064049046 -0.007186409 -0.064878985 -0.05168605
000090 95 b5 00 3d 2a 23 fa bc ff 2c e1 bc 63 02 73 3d
       0.03142317 -0.030534346 -0.027487276 0.059328448
0000a0 b1 50 47 bd 93 78 ea 3c cd 00 0d bc f0 f6 8b bb
       -0.048660938 0.028621947 -0.008606148 -0.0042713806
0000b0 ad 9a f1 bb 72 02 48 3b d5 6e 1b bc e0 61 06 bd
       -0.007373175 0.0030519036 -0.009486874 -0.032808185
0000c0 c9 d6 fc 3c 2d 54 17 bc ec cc bd ba 0e 95 b5 bc
       0.030864136 -0.009236378 -0.0014480627 -0.022165801
0000d0 64 29 4a 3c 50 ff 25 bb b0 df 5b bc ab f3 6e 3d
       0.01233897 -0.002532918 -0.0134200305 0.05833785
0000e0 f1 94 df ba b2 82 c6 bc f6 bf 75 bd 9b 3a 35 3d
       -0.0017057938 -0.024232242 -0.05999752 0.044245344
0000f0 a4 3f 37 bb 3f 79 0c bd 8e 9c 2a bd ce 0d 01 bb
       -0.0027961517 -0.034295317 -0.04165321 -0.0019692066
000100 77 2f 20 3d 0b 60 45 3d 56 ef 3f bd ca 35 bb 3c
       0.039107766 0.048187297 -0.046859108 0.022852797
000110 3b b9 9f 3c 68 9d 9c 3c 75 4d e9 3b 72 94 ac bc
       0.019497504 0.019118026 0.0071198293 -0.021066878
000120 ad 56 53 3d 1e ba 12 3d 68 9d 02 3d 1d 3b 4b 3c
       0.051596332 0.035822026 0.031888396 0.01240423
000130 65 98 71 bd 23 de 73 3d 41 b6 57 3c 6b 0b b2 bc
       -0.058983225 0.059538018 0.013166011 -0.02173396
000140 d7 8d fb 3a ac 03 4c 3d d2 bb 7c bd bb fd 62 bd
       0.0019192052 0.04980819 -0.061702557 -0.055417757
000150 c6 97 8b 3c 57 f1 5a bd 99 93 47 3d a9 29 a3 3b
       0.017040145 -0.053452816 0.048724744 0.0049793315
000160 92 8a 4c 3d 40 9d d0 3c 23 54 15 bd bc 9d 0f bd
       0.04993684 0.025465608 -0.036457192 -0.035062537
000170 ae a6 f0 bc a4 a0 3c 3d b3 15 18 bd 14 20 d6 3c
       -0.029376354 0.046051636 -0.03713007 0.026138343
000180 6d 68 03 3b b1 9a 64 3c f4 d9 42 3d 8c 6d 15 bb
       0.0020051256 0.013952897 0.047571138 -0.002280089

weight f4 [100]
000000 1f 9c 4a 40 17 3e 07 bc c3 1c a1 39 3b ac b0 3b
       3.1657789 -0.0082545495 0.00030729742 0.005391625
000010 75 b4 21 3e b1 80 98 40 12 2c de 3a 25 eb a9 39
       0.15791495 4.7657094 0.001695039 0.00032409388
000020 0e 70 c5 3e 5f 45 86 40 a0 62 45 3f 61 3f 12 40
       0.38562053 4.195968 0.77103615 2.2851183
000030 f7 db 1c 3b ff e0 e0 bb 5a 14 e3 3f 57 4f 87 3f
       0.002393482 -0.006862759 1.7740586 1.0571088
000040 a8 41 db 3f 28 89 86 b9 9e f1 3e 39 85 95 05 3d
       1.7129412 -0.0002566066 0.00018209821 0.032613296
000050 04 cd 21 3f 92 65 ea 3f cf 47 86 40 2c 44 af 3d
       0.63203454 1.8312247 4.1962657 0.08557925
000060 87 61 9c ba 70 96 79 3e c9 9d ee 3f 71 51 f8 3c
       -0.0011930921 0.24373794 1.8641902 0.030312272
000070 e9 9b 98 40 0a 02 81 40 84 fc 63 3f 6d 4a e1 3f
       4.769032 4.031499 0.89057183 1.7600838
000080 78 1a 62 bc 71 6a f9 3c bc 6a 98 3f 8d 02 6e 3c
       -0.013800256 0.030446263 1.1907573 0.014526975
000090 57 f5 88 3f 95 b4 68 40 c8 62 0f 40 0b 07 eb 3c
       1.0699872 3.6360219 2.2404041 0.028689882
0000a0 52 37 06 3f 2e 1a da b9 d2 e8 8b ba ad a3 a4 3c
       0.5242816 -0.00041599706 -0.0010674244 0.020097578
0000b0 cc 24 ce 3f 01 2d 1e 40 22 d8 da 3f c4 3e 66 40
       1.610498 2.4714968 1.7097208 3.597581
0000c0 1f 7d 59 3f 1b ef 3b 40 a0 fe 63 40 4a 64 48 3d
       0.84956545 2.9364688 3.562416 0.048923768
0000d0 0f 5f 30 bb 40 87 d6 3f 3b 8c f6 3f db c0 f3 b9
       -0.0026912128 1.6760025 1.9261545 -0.0004649226
0000e0 20 4b 34 3c 64 40 9c bb d1 50 cd b9 cb 79 34 3d
       0.011004239 -0.004768418 -0.0003916086 0.044061463
0000f0 e6 0f 60 3e 1f 63 3c 40 9e 08 f7 b8 22 05 26 3c
       0.21881065 2.9435499 -0.00011779483 0.01013306
000100 48 fe 06 40 ad 65 86 40 4c be 09 3d 9a e1 3b 40
       2.10927 4.1999116 0.033628747 2.9356446
000110 55 3a cc 3f dd af aa 3d fa 28 8e 3d bd 1b 16 40
       1.5955302 0.083343245 0.069414094 2.345443
000120 d2 41 3e b8 25 8b 0a 40 50 31 d6 3b 28 14 e0 3f
       -4.536083e-05 2.1647427 0.00653664 1.7506151
000130 42 c7 d0 3c bd dd e7 3e 65 46 9f 3d 35 f5 4e 3f
       0.025485639 0.4528636 0.077770986 0.80842906
000140 6d ce d3 3a 81 85 70 b9 d0 64 ea 3f b1 89 0b 3f
       0.0016159542 -0.00022937918 1.8312016 0.54506975
000150 3c 3a 83 ba 02 63 dd bd ec 5c e2 3f 52 b6 ee 3f
       -0.0010011862 -0.108099 1.7684608 1.864939
000160 fe b2 8f 3f b2 a1 32 3a 5e 93 ec bb 6b a2 24 3b
       1.1226499 0.00068142556 -0.007219716 0.0025121223
000170 c5 ff f4 3f fd ba aa ba 09 c3 ae 3b 75 2a 15 bc
       1.9140555 -0.0013025698 0.0053333086 -0.009104361
000180 42 25 96 3e be 3c 99 ba c7 45 7a 3f de 42 87 3e
       0.293253 -0.0011691076 0.9776272 0.26418203

bias f4 [100]
000000 b9 15 c8 3e 15 ac 30 3f d3 85 36 3f 34 58 96 3f
       0.39079073 0.69012576 0.7129795 1.1745667
000010 f3 99 0d bf f3 62 a0 3f 8b e0 48 bf c2 6c f6 be
       -0.5531303 1.2530197 -0.78467625 -0.4812985
000020 2c 19 8f bf f2 4e 79 3f f7 72 96 bf 11 70 e0 bf
       -1.1179557 0.97386086 -1.1753834 -1.75342
000030 23 cf 77 3f 15 76 5f 3f 78 79 1b 40 4d 27 8a 3f
       0.9680044 0.87289554 2.4292889 1.0793244
000040 eb 2c 0c c0 cf 0a 40 3e 80 f6 4a bf c9 da 4c 3f
       -2.1902416 0.18754123 -0.7928238 0.8002134
000050 4a 96 b7 bf 59 49 0d 40 44 94 4e 3e 92 2a 47 bf
       -1.434274 2.2076018 0.20173746 -0.7779933
000060 ca 9a 6f bf 9c 1f a1 bf 9a d8 24 c0 7e b5 e3 be
       -0.93595564 -1.2587771 -2.5757203 -0.44474405
000070 68 91 70 3f d9 c8 c5 3f ff 8c e3 3f 46 97 48 40
       0.9397187 1.5451919 1.7777404 3.134233
000080 c8 92 ab 3f 33 cd 2e 3f 10 c1 6a 3f cd c0 5e bf
       1.3404169 0.6828186 0.9170084 -0.8701294
000090 91 80 eb bf 78 5f b0 bf 24 bc 90 3f a4 63 92 3f
       -1.839861 -1.3779135 1.1307416 1.1436658
0000a0 ec 8a c9 bf 7d 87 d9 3e 27 bb 28 bf 69 31 3d 3f
       -1.574552 0.42486182 -0.6591057 0.7390352
0000b0 17 21 22 40 8a 9f 5d bf 79 72 ef bf da 1b 66 3f
       2.5332696 -0.8657156 -1.8706809 0.8988625
0000c0 03 08 d5 3f 82 ce 96 3f cf 96 2f bf 3b 03 d3 be
       1.664307 1.1781771 -0.6858949 -0.41213402
0000d0 6b a5 50 bf e0 c1 f9 3f 54 a8 4a c0 4b 24 8c 3e
       -0.8150241 1.9512291 -3.166524 0.2737144
0000e0 cf 36 39 bf b0 8d 31 3f 9e 2a 0a bf 9e 85 38 3f
       -0.72349256 0.6935682 -0.5397128 0.72078884
0000f0 78 0b 84 bf 7a 78 dd be 4c 95 21 bf 28 a5 91 3f
       -1.0316 -0.4325598 -0.63118434 1.1378527
000100 c1 ae 37 40 bc 8a 38 bf c7 70 8e 3f c1 7f 63 bf
       2.8700411 -0.7208669 1.1128167 -0.8886681
000110 0d 45 e2 bf 5c 6e 54 bf 0d 8d 44 3f 72 4b 65 3f
       -1.7677323 -0.82980895 0.76777726 0.89568245
000120 56 3f f9 3e f0 25 fc bf 6a 4c 7e 3e 79 6a 3f c0
       0.48681134 -1.9699078 0.24833837 -2.9908736
000130 dc ca 5e bf 17 3a a3 bf 73 34 48 3f f7 e3 c8 bf
       -0.8702829 -1.2752103 0.7820503 -1.5694569
000140 c4 c9 b9 bf f4 3b 9d 3e 00 c0 2f 40 fe 53 42 bf
       -1.4514699 0.30709803 2.7460938 -0.7590941
000150 9f a2 4e bf 16 91 f1 be c6 14 3d 40 c4 35 21 40
       -0.8071689 -0.47181004 2.954393 2.5189066
000160 28 d0 83 3f e0 1f 6a bf 24 17 c8 be 3b d6 80 3f
       1.0297899 -0.9145489 -0.39080155 1.0065378
000170 d2 c0 06 c0 cc a8 14 3f 7b bf 39 bf 85 90 0e bf
       -2.1055188 0.58070064 -0.725578 -0.5568927
000180 f3 14 72 bf 4b 5d a1 be c7 31 c2 bf af d9 f3 be
       -0.94563216 -0.3151649 -1.5171441 -0.47627017

running_mean f4 [100]
000000 58 90 dc 3f f9 b0 db be 03 b3 e9 40 72 5e 6f bf
       1.723155 -0.42908457 7.303102 -0.9350349
000010 71 21 1a 41 8f cd cb 40 74 17 6b c0 fc 41 13 41
       9.633164 6.3688426 -3.6733065 9.203609
000020 da d5 29 c0 49 69 02 c1 57 3f 4f c1 ed 48 d6 3e
       -2.6536775 -8.150704 -12.952964 0.41852513
000030 5d b4 b5 3f 90 fe c5 3f 0a ad 06 40 92 1f c2 40
       1.4195668 1.5468311 2.1043115 6.066354
000040 1f 59 1b c1 8f e1 84 c0 b5 7c 94 c0 86 c4 49 3f
       -9.709258 -4.152534 -4.640223 0.78815496
000050 af a4 09 bf d6 95 21 3e 52 b9 83 c1 aa 8a 39 c1
       -0.5376691 0.15779814 -16.465488 -11.596354
000060 c7 e0 e5 40 45 67 88 c1 83 db 44 c0 0b 92 fb 40
       7.1836886 -17.050425 -3.075898 7.8615775
000070 b9 7c ad c0 7a e8 9c 40 8a 0a 3e 41 e8 37 3a 40
       -5.421475 4.9033785 11.877573 2.9096622
000080 36 20 95 c0 04 81 01 41 a5 92 6c c1 64 62 a0 40
       -4.660182 8.093998 -14.785802 5.0120106
000090 f5 b7 5a c0 e7 9a a3 c0 d0 5f 54 c1 44 23 7d 40
       -3.4174778 -5.112659 -13.273392 3.9552774
0000a0 e7 a3 8c c0 69 9e 12 c0 71 03 33 41 df b5 a8 c0
       -4.3950076 -2.2909186 11.18834 -5.272201
0000b0 1b c1 b8 41 cd 93 e2 c0 b8 e8 0c c0 48 0d f9 bf
       23.09429 -7.080542 -2.201704 -1.9457178
0000c0 80 b0 a9 40 7a 27 b3 40 36 61 3b c0 e9 6c 81 c1
       5.3027954 5.598569 -2.9278083 -16.178179
0000d0 4e d1 ec bf a2 42 e2 be 39 27 ad c0 47 29 34 40
       -1.8501375 -0.44191462 -5.411038 2.8150194
0000e0 3f ab c9 c0 a4 5b 94 40 f6 81 cf c0 54 63 a2 c0
       -6.302154 4.6361866 -6.4846144 -5.074625
0000f0 b4 a7 46 c1 7c ee 70 41 52 4d 55 c0 b0 28 9f c0
       -12.415943 15.058224 -3.3328443 -4.9737167
000100 66 d1 f8 3f c4 1d 45 40 a4 be 5f 40 98 fd 22 c0
       1.9438903 3.0799417 3.4960108 -2.5467281
000110 59 9e 71 c0 c9 3d 90 c0 fd 50 3c 41 47 f1 06 3e
       -3.7752898 -4.507542 11.769773 0.13177978
000120 f2 28 cb c0 b2 02 a7 c0 61 1e 42 c0 6b 40 e9 bf
       -6.348748 -5.219079 -3.0331042 -1.8222784
000130 20 fb d0 40 f9 69 2c c0 dc d2 a1 40 e6 af f3 c0
       6.530655 -2.693968 5.0569897 -7.615222
000140 96 8c c9 3f 28 bf b4 40 16 88 28 41 c7 d5 3a 3d
       1.5746028 5.6483345 10.533224 0.04561403
000150 68 ab 82 40 70 03 9b 40 4d 03 c8 be a3 85 aa 40
       4.0834236 4.8441696 -0.39065018 5.328813
000160 18 f4 51 c0 bb fb 0f 41 97 34 5c c0 85 b1 f1 40
       -3.2805233 8.998958 -3.4407098 7.55292
000170 cb 9f 09 c0 89 57 76 c0 62 f9 a4 3f 00 b3 4b 40
       -2.150378 -3.8490927 1.2888606 3.1828003
000180 d2 c5 2d bf 7c 8f 08 40 2a 49 b9 3f fe 92 37 c1
       -0.67879975 2.1337576 1.4475453 -11.473387

running_var f4 [100]
000000 d2 61 93 41 30 81 03 40 84 0d a2 40 65 c1 96 3f
       18.422764 2.05476 5.06415 1.1777769
000010 08 77 7f 41 72 b7 7c 41 7a f0 5e 40 f9 af 67 40
       15.96656 15.794786 3.4834275 3.6201155
000020 ea 3b 14 41 9f 36 8e 41 2e d7 1b 41 90 14 1b 40
       9.264627 17.77667 9.740034 2.42313
000030 9d 5d d2 40 59 89 bd 40 db 27 af 3f 37 ab cc 40
       6.5739274 5.923016 1.3684038 6.3959002
000040 58 70 19 40 4a 27 e1 3f a5 b8 fe 40 9f 9c b8 40
       2.397482 1.7590115 7.9600396 5.769119
000050 8c 41 1e 41 be 61 ac 3f a7 95 23 41 66 31 20 40
       9.891003 1.3467329 10.224036 2.503015
000060 ff 60 8d 40 dd e0 9b 41 ad 7e ef 3f 7a 8c 9e 40
       4.4180903 19.484797 1.8710533 4.954648
000070 dd 7e 52 41 5e 34 b7 40 33 cc be 41 ea 3b 7e 3f
       13.1559725 5.7251425 23.849707 0.9931017
000080 17 7c de 3f e1 27 95 40 5f 78 df 40 ab 79 0c 40
       1.7381619 4.661118 6.9834437 2.194926
000090 a5 a9 bc 40 b1 d1 3c 41 4b c2 16 41 c0 c0 26 40
       5.8957086 11.801194 9.422435 2.6055145
0000a0 58 52 df 41 75 50 7d 3f b4 2f 2b 41 ce d1 9c 40
       27.915207 0.9895089 10.699146 4.900611
0000b0 1e 98 16 41 3b a3 d3 40 d1 e8 93 40 b5 22 4b 40
       9.412138 6.6136756 4.62217 3.1739933
0000c0 b9 42 48 40 b0 69 7b 40 ee b0 43 40 2c da 84 41
       3.1290724 3.9283257 3.057674 16.60653
0000d0 8e 56 e6 3f 46 5c 01 40 2f 19 e7 3f b5 32 c2 3f
       1.7995164 2.021257 1.805456 1.5171725
0000e0 db 74 21 41 5b 4a 8d 40 a5 f0 91 40 2e 5d 7a 40
       10.091029 4.4153266 4.5606256 3.9119372
0000f0 bf 7e 06 41 d8 d4 84 41 a3 43 c5 3f da 7c 5d 40
       8.405944 16.603928 1.5411266 3.4607453
000100 81 26 d6 3f 99 dd 26 41 cb 80 ea 40 d2 56 ca 40
       1.67305 10.429101 7.328222 6.323098
000110 2a e2 40 40 1c 14 23 41 3b 64 82 40 9b db 93 40
       3.013804 10.1924095 4.074735 4.6205573
000120 e1 e6 2d 40 43 74 86 41 1f 83 0e 40 25 81 7d 3f
       2.7172167 16.806768 2.226753 0.99025184
000130 4f 06 a4 40 79 dd 1f 41 28 f6 1c 41 91 81 1e 41
       5.12577 9.99157 9.810097 9.906632
000140 c6 f7 ea 3f d4 e1 72 40 76 e5 e5 40 01 2f b0 40
       1.8356864 3.7950335 7.1842604 5.505738
000150 2a 10 05 40 d5 4b 1e 41 45 b5 69 40 aa 6b d8 40
       2.0791116 9.893514 3.6516888 6.7631426
000160 e7 ac 49 41 81 09 02 41 6e e1 1b 40 98 29 a3 40
       12.6047125 8.12732 2.4356341 5.0988274
000170 31 71 80 40 8a 04 6d 40 c6 ac 0e 40 81 b5 45 40
       4.0138173 3.703402 2.2292953 3.0892031
000180 45 dc 2d 41 d1 c8 16 40 27 79 85 40 42 b7 01 41
       10.866277 2.3560069 4.171039 8.107241

weight f4 [7, 100]
000000 78 1b 06 bd 67 68 af bb bd 1c 3f 3b 08 c1 8d bb
       -0.03274104 -0.005353022 0.0029161416 -0.0043259896
000010 4f 0e 5a 3e ed 77 fa 3e 25 20 3a 3c 9a 48 99 b8
       0.21294521 0.4891962 0.011360203 -7.3091316e-05
000020 a5 3d 27 3d 00 ef 84 3d 91 21 5f 3d 84 2a f6 3b
       0.040830273 0.06490898 0.05447537 0.0075123925
000030 d7 8b 2e bb 66 c9 be bb ab f8 6e 3e 9b 10 a3 3e
       -0.0026633644 -0.0058223484 0.23337047 0.31848606
000040 d5 c0 3a bd 97 42 af ba 8d 07 d8 bc 14 9a c3 bd
       -0.045594055 -0.0013371286 -0.026370788 -0.095508724
000050 16 b8 8e 3d ae 99 18 bd 86 a7 09 be 4c 3b 3d bd
       0.06968705 -0.037255935 -0.13442811 -0.046199128
000060 79 e1 6c bb 77 7d eb bd 19 f1 0d be b0 49 b2 bd
       -0.0036145134 -0.1149854 -0.13861503 -0.08705461
000070 9d 12 05 3e f5 28 ac bc 23 ba 51 3c a0 0f fe 3d
       0.12995382 -0.021015624 0.012800726 0.12405324
000080 8d 82 ff 3c 08 14 17 3c 5a 7f 23 3e 60 21 a3 bc
       0.031190181 0.009221084 0.1596655 -0.019913375
000090 1e 31 c5 be 61 68 27 3f f9 8f d0 3e cc 80 5d 3d
       -0.38514036 0.65393645 0.40734842 0.05407791
0000a0 ac c6 b1 bd 7f 8c a6 ba 81 32 8b bc fe 8c 70 bd
       -0.08680472 -0.0012706666 -0.016991856 -0.05872821
0000b0 0c fa de bd ee 28 ce be d4 84 10 3f 27 bc 59 3d
       -0.108875364 -0.40265602 0.5645268 0.05315795
0000c0 8e 72 2a be c7 c1 4c 3d a5 22 26 be 29 39 43 bd
       -0.16645262 0.049989488 -0.16224153 -0.047661934
0000d0 1c 2f 53 bb 96 c4 c0 bb 58 28 0c bc 99 6d 36 3a
       -0.0032224124 -0.00588281 -0.008554541 0.00069590803
0000e0 c7 c6 37 bd dd b2 9e bb c6 f3 40 3a 68 b1 78 3d
       -0.044867303 -0.0048430995 0.0007360544 0.060716063
0000f0 cc 0d a5 bd 63 92 b7 bd c5 64 e0 bb 30 f1 ed ba
       -0.08059272 -0.08963468 -0.00684795 -0.0018153545
000100 7a bc 2d 3e ea 62 a5 3d 31 c7 3b 3d aa 32 9b 3e
       0.1696643 0.08075507 0.04584426 0.3031209
000110 9f 48 a2 3c 1a 32 5b bd 28 ef 09 3e b2 6c 29 3e
       0.019810019 -0.053514577 0.13470137 0.1654537
000120 aa c7 d2 b9 a0 d5 81 be 22 68 ef 3c 3e 74 a1 bd
       -0.00040203083 -0.25358295 0.02922446 -0.078834996
000130 50 97 9e 3d 4d 11 a2 3d 2e 09 93 3d de 82 5b 3e
       0.07743704 0.07913456 0.07179485 0.2143664
000140 56 53 9a 3c c8 c5 d8 b9 7f 0f 67 3e 14 94 42 3d
       0.018838566 -0.0004134609 0.22564505 0.0475045
000150 e7 67 37 3d d0 28 4d bd ae 4a 81 bd 35 69 07 3e
       0.044776823 -0.05008775 -0.06313072 0.13223727
000160 92 d0 2d be 80 f2 7f bb 97 c7 d1 3b 01 46 f1 3c
       -0.16974095 -0.0039054453 0.006401967 0.029452326
000170 d1 60 9b 3d dd 75 da ba b5 21 07 bd e3 f8 c6 bc
       0.07586826 -0.0016667206 -0.03299113 -0.0242886
000180 1c 6d dc 3d fa 05 16 3b 05 83 cf 3d 3c b9 09 3d
       0.107629985 0.0022891746 0.10132412 0.03362392
000190 a3 8e 88 3c ef ce 89 3a 8b 43 d0 3b f8 27 1a bd
       0.016669577 0.0010513942 0.006355708 -0.037635773
0001a0 c0 e3 41 3d 1e 5b 20 bf 4f 20 80 3b 25 be ba b9
       0.04733634 -0.62639034 0.0039101015 -0.00035618353
0001b0 e3 bc 33 3f 88 7d a7 be 84 d2 36 3e e9 52 25 bd
       0.70210093 -0.3271296 0.17853743 -0.040362272
0001c0 54 45 34 bc 25 aa 84 3d b4 82 02 3d 4b ae b8 be
       -0.011002857 0.06477765 0.03186293 -0.36070475
0001d0 94 cf 55 3d 35 43 fa ba 83 24 ea bb 68 f5 3d be
       0.052199915 -0.0019093516 -0.007145466 -0.18550646
0001e0 c2 a9 95 bd 76 4c 06 bd 4c a8 da be 87 30 69 3e
       -0.07307769 -0.032787763 -0.42706525 0.22772418
0001f0 bf 44 c7 3c 8b e2 88 bd 69 03 57 3e 58 49 36 be
       0.024324773 -0.06683835 0.20997395 -0.17801416
000200 33 16 0e be bc c1 4d 3e 69 13 8f 3d bb 0d 0b bd
       -0.13875656 0.20093435 0.06986124 -0.03394864
000210 5f 44 d3 bb a3 a3 e4 bd f9 24 98 3e ce 5a 28 be
       -0.0064473595 -0.11164024 0.29715708 -0.16440889
000220 d4 11 ad bd 2a be 28 3e 18 9b b2 bc 7a c7 ad bc
       -0.08450666 0.16478792 -0.02180247 -0.021213282
000230 25 45 96 3d 56 79 8c 3c 7e 4d 5f bd 90 5f ef bc
       0.07337407 0.017147701 -0.05451726 -0.029220372
000240 93 59 59 be e9 97 79 3e 85 77 74 be 52 3c f0 3d
       -0.21225576 0.24374355 -0.23873718 0.11730255
000250 18 5e 94 bd 5c b4 e8 bd 75 42 df 3b d9 18 98 3d
       -0.072445095 -0.11362526 0.006813342 0.07426614
000260 62 1a 95 3b 7c 0d 2d 3e b0 1b 5a 3e 71 ef e2 bb
       0.004550264 0.16899675 0.21299624 -0.0069255163
000270 a9 36 66 bd 76 8d 09 3c 6f 21 32 3b d0 b7 85 bd
       -0.05620447 0.008395543 0.0027180573 -0.065292
000280 3c 56 2e 3e 99 aa 79 bd 86 d0 4c bd 2c 0e 83 3c
       0.17025083 -0.06095371 -0.05000355 0.015997969
000290 f4 f3 c5 3d 9c f5 b3 3a ad 38 b6 3d 89 9b 15 bd
       0.09665671 0.0013729814 0.08897529 -0.036525283
0002a0 88 24 e5 3d 03 d8 cc bd 4b 29 ad be 89 04 31 bc
       0.111886084 -0.100021385 -0.33820567 -0.010804304
0002b0 7c 25 80 38 36 f0 81 3e e5 32 cb 3d e6 4c 1b be
       6.1104976e-05 0.2537858 0.09921817 -0.15166053
0002c0 b0 56 c8 3d 6a 52 06 3f c4 8c 64 3e ad 54 4a 3f
       0.09782159 0.52469504 0.22319323 0.79035455
0002d0 e3 ac bc bc 29 e4 b5 3a db e1 0c bb 58 19 3c 3f
       -0.023031658 0.0013877201 -0.0021496925 0.7347617
0002e0 aa 53 d2 3c 5b 05 31 3f c7 3e 39 bd bf da 56 be
       0.02567466 0.69148797 -0.045225885 -0.20981883
0002f0 35 ae 95 be 27 8e 6e 3a 7b 63 84 bc 3c 69 14 3d
       -0.29234472 0.0009100162 -0.016160717 0.03623317
000300 0c 66 57 3c c3 e4 47 bc f1 e6 ba bd c5 2f 17 bd
       0.013146888 -0.012200537 -0.0912608 -0.03691079
000310 d2 1b 03 3f d4 44 55 3b aa f0 7e bd aa e7 39 3e
       0.51214325 0.0032542245 -0.062241234 0.18154779
000320 59 31 14 be d8 20 01 bb 1a 73 2c ba 30 0f c7 bc
       -0.1447195 -0.0019703414 -0.0006578431 -0.024299234
000330 c6 1a 00 3c 98 28 26 be 6a 27 7a 3b 02 82 e5 ba
       0.007818883 -0.16226423 0.0038170465 -0.0017510059
000340 a6 a4 fe bb 0b 49 d6 be 37 c5 67 bc 84 fa ea ba
       -0.0077710925 -0.41852602 -0.014146141 -0.0017927443
000350 31 be a1 bc 9d d6 26 3d 50 dc a1 bc 8a 08 88 3e
       -0.01974401 0.040732015 -0.019758373 0.26569015
000360 a0 d8 85 bd a0 2d 19 bb 01 2f b9 3b b2 dd d9 3d
       -0.065354586 -0.0023373142 0.0056513553 0.10637988
000370 5f 0c 19 3e e4 38 59 3d db 58 b9 3d d3 34 58 3d
       0.14946125 0.05303277 0.09050151 0.052784752
000380 c3 da 0d bc 75 cd 1d 3e c5 5c 08 3e 94 98 68 bd
       -0.008658114 0.15410407 0.13316639 -0.056786135
000390 01 25 21 3d 65 0c 3f be 48 7f c9 be 15 e5 88 3d
       0.03934193 -0.18657072 -0.3935492 0.06684319
0003a0 12 bd d3 bc 80 89 c0 bd f4 0a 32 be 07 f2 79 3b
       -0.025846992 -0.09401226 -0.17386991 0.0038138644
0003b0 66 f1 96 3d 02 29 6c bd d4 34 c4 be 54 8f f9 bc
       0.07370262 -0.057656296 -0.38321555 -0.030463852
0003c0 20 0b 7f 3e 84 f4 26 ba c7 a4 06 3a 52 51 2f bd
       0.24906588 -0.0006368833 0.0005136248 -0.042802162
0003d0 25 70 43 3e 81 e9 a3 3e ed 68 ce be 43 41 f2 3d
       0.19085748 0.32014087 -0.40314427 0.11828854
0003e0 40 56 40 be 84 3e 5e 3b 58 a4 75 3e f2 53 a7 3d
       -0.18782902 0.0033911774 0.23988473 0.08170308
0003f0 a5 69 66 3c 57 98 9d 3e fd 64 02 bc 91 3b 36 ba
       0.014063274 0.3078029 -0.007958648 -0.0006951625

bias f4 [7]
000000 53 8f 0b 3f 84 f1 96 3e e4 e0 81 3e 4f ed 6a 3e
       0.5451557 0.29481137 0.2536689 0.22942089
000010 79 80 83 3e eb d1 e4 3e 14 b2 20 3e
       0.25683954 0.44691405 0.15692931

weight f4 [7]
000000 14 99 b1 40 a7 82 c8 40 de 2f 97 40 0c 40 d1 40
       5.5499363 6.265949 4.724593 6.539068
000010 88 a4 bb 40 54 0e 11 41 09 33 f4 40
       5.8638344 9.065998 7.63123

bias f4 [7]
000000 4a 1b b4 c0 a8 57 90 c0 74 5c be c0 56 8b ae c0
       -5.628331 -4.5107 -5.948786 -5.454509
000010 7e f1 c2 c0 9f 08 2f c0 85 3a 65 c0
       -6.091979 -2.7349012 -3.5816967

running_mean f4 [7]
000000 46 27 19 40 0c ae 02 3e 2f 30 0f bf c4 61 eb 3f
       2.393022 0.12761706 -0.559329 1.8389211
000010 86 df 59 3f 70 0e 88 be 1f 98 77 3f
       0.85106695 -0.26573515 0.96716493

running_var f4 [7]
000000 2a df 80 3d 0c bf 83 3e 75 04 97 3d 97 95 4b 3d
       0.06292565 0.25731695 0.07373897 0.049703207
000010 4f 59 98 3d 65 35 f3 3c 4b dd 6f 3d
       0.07438909 0.029688546 0.05856065
