metrics_best_runs/cnn_enc_dec_freezed/0094.autoencoder.model (torch_old, 84672 bytes, 73 tensors)

weight f4 [16, 1, 3]
0	0x3dc62b91	0.096762784
1	0x3ef5222f	0.47877643
2	0xbe82b1d9	-0.25526312
3	0x3d407358	0.046985
4	0x3e8369c6	0.25666636
5	0xbe8576d5	-0.26067224
6	0x3e0bce74	0.13652974
7	0xbf16973c	-0.58824515
8	0x3de82588	0.113352835
9	0xbeba0f1f	-0.3633966
10	0x3f1a1b24	0.60197663
11	0x3e8e557c	0.27799594
12	0xbdd053cb	-0.10172232
13	0xbe295c3f	-0.16539095
14	0xbf21badc	-0.6317575
15	0x3f1cc3db	0.6123635
16	0x3ea53ace	0.32271427
17	0x3d95bb32	0.07311095
18	0x3ce30b63	0.02771539
19	0xbe6d3c12	-0.23167446
20	0x3ea8ba87	0.3295481
21	0xbeb5918f	-0.35462615
22	0xbe64849d	-0.22316213
23	0x3eef8f9e	0.4678926
24	0xbb8fcf1e	-0.004388704
25	0x3e442b8b	0.19157235
26	0x3e90ac82	0.28256613
27	0xbe974c9d	-0.2955064
28	0x3e9761b7	0.29566738
29	0xbe7bf190	-0.24603868
30	0x3efd36aa	0.49455768
31	0xbea30a78	-0.31843925
32	0x3f1f2b0c	0.6217506
33	0xbf1c6cbe	-0.6110343
34	0xbe8ad396	-0.27114552
35	0x3dec30b4	0.11532727
36	0xbee8d8ef	-0.45478007
37	0x3db2f17c	0.08737466
38	0x3e5b5faf	0.21423219
39	0x3ee279ea	0.44233638
40	0xbe7e9d7e	-0.24864766
41	0xbdfdb6fb	-0.123884164
42	0xbe2e4216	-0.17017397
43	0x3eb77465	0.3583099
44	0xbf00a1e8	-0.5024705
45	0x3dfb19b0	0.12260759
46	0xbe916f92	-0.28405434
47	0xbf03f8ed	-0.51551706

bias f4 [16]
0	0xbc020f5f	-0.007938235
1	0xbe594dff	-0.2122116
2	0x3f011a3b	0.5043065
3	0x3ec70e84	0.38878262
4	0xbec9e9a6	-0.39436072
5	0x3dbb88eb	0.091569744
6	0x3e58cbe9	0.21171536
7	0xbea864f6	-0.32889527
8	0x3e9fe882	0.31232077
9	0xbed88c63	-0.42294607
10	0xbedd27dd	-0.43194476
11	0xbe8881bd	-0.26661482
12	0x3e5c27b5	0.21499522
13	0xbe2cfab2	-0.16892508
14	0x3ee79a2e	0.45234817
15	0xbedb2a6a	-0.42805797

weight f4 [16]
0	0x3e4443ed	0.19166537
1	0xb8b31063	-8.5384374e-05
2	0x3ee98158	0.45606494
3	0x3eb61d13	0.35569057
4	0x3ebbd5ab	0.36686453
5	0x3f8b37f7	1.0876454
6	0x3ee0a364	0.43874657
7	0x3ebe0ac4	0.3711759
8	0x3f695ec8	0.9116025
9	0x3efa6d31	0.4891143
10	0x3f230140	0.6367378
11	0x3f08c0d1	0.53419214
12	0x3ecb7113	0.39734706
13	0x3ecd13a6	0.40054053
14	0x3eeef8d9	0.4667423
15	0x3e8f2c41	0.2796345

bias f4 [16]
0	0x3f8583b1	1.0430814
1	0xbc9ec8ea	-0.019382913
2	0x3e34b049	0.17645372
3	0x3e827037	0.25476238
4	0x3e8f442b	0.27981696
5	0x3d49b44a	0.049244203
6	0xbe3556ab	-0.17708842
7	0x3c55e034	0.0130539425
8	0xbbdac84a	-0.0066767083
9	0xbd397896	-0.045281015
10	0x3cef6a86	0.029225599
11	0x3ea873da	0.32900888
12	0x3ecba350	0.39773035
13	0x3e3c60a2	0.18396237
14	0x3e65fbf2	0.22459391
15	0x3f8d771f	1.1051978

running_mean f4 [16]
0	0xbb7e4fb3	-0.0038804829
1	0xbe58c09d	-0.21167226
2	0x3f000479	0.50006825
3	0x3eca6116	0.39527196
4	0xbecfb038	-0.40564132
5	0x3dd54742	0.10413982
6	0x3e5a6f86	0.21331605
7	0xbea91524	-0.33023942
8	0x3ea2d8ab	0.3180593
9	0xbeda1f5a	-0.42602044
10	0xbed8094c	-0.42194593
11	0xbe8d6e00	-0.27622986
12	0x3e5a0689	0.21291555
13	0xbe2c122c	-0.16803807
14	0x3ee5819d	0.4482545
15	0xbedf8f4a	-0.43664008

running_var f4 [16]
0	0x3cd4230e	0.025895622
1	0x3bb7f80c	0.0056142863
2	0x3cc7c52e	0.024386015
3	0x3d8452f9	0.06461138
4	0x3ded1691	0.1157657
5	0x3e178352	0.14796188
6	0x3bc01f4f	0.0058631073
7	0x3d0359a8	0.032067925
8	0x3d0a13ae	0.033710174
9	0x3bdcabfc	0.0067343693
10	0x3d954d20	0.07290101
11	0x3dd0fb10	0.10204136
12	0x3cb4594d	0.022015238
13	0x3c73c6d9	0.014878952
14	0x3c844bb6	0.016149383
15	0x3da578ea	0.08079703

weight f4 [16, 16, 3]
0	0xbd3ed92a	-0.046593823
1	0xbe03e13d	-0.1287889
2	0x3d2e8d70	0.042615354
3	0xbde6fb14	-0.11278358
4	0xbd0424eb	-0.03226177
5	0x3d65fb36	0.056147777
6	0x3df7c4ad	0.1209806
7	0xbcf3d47e	-0.02976441
8	0x3d8a0705	0.0673962
9	0xbe22d184	-0.15900236
10	0x3d1fa529	0.03897587
11	0x3cf21d7a	0.029555071
12	0x3e82b60f	0.25529525
13	0x3d9b7f5e	0.07592653
14	0xbd7cf345	-0.061755437
15	0x3e56cd30	0.2097671
16	0x3e95b131	0.2923675
17	0x3deefec7	0.11669689
18	0x3d24e7f7	0.04026028
19	0xbd968c48	-0.07350975
20	0x3c64df35	0.013969232
21	0xbde57b78	-0.112051904
22	0xbd9c9271	-0.07645119
23	0xbe023558	-0.12715662
24	0x3ec205b3	0.37894973
25	0x3e28f203	0.1649857
26	0x3e78d7d9	0.2430109
27	0xbcea3978	-0.028591856
28	0x3da65653	0.08121934
29	0xbb9b2d62	-0.0047356347
30	0xbdb45e09	-0.08806998
31	0x3d9f5215	0.07779328
32	0xbc3295c2	-0.010899963
33	0x3e0f4ce0	0.13994169
34	0x3d59e27e	0.053194515
35	0x3d5f953f	0.05458569
36	0xbe8b53ba	-0.27212316
37	0xbe33c32e	-0.17554924
38	0x3e830207	0.25587484
39	0x3e24f2cb	0.16108243
40	0xbe4d07b8	-0.20022476
41	0xbe6c3bd1	-0.23069693
42	0xbe5f8c71	-0.21830918
43	0xbdb6ccd5	-0.08925787
44	0x3cacf1c2	0.021111373
45	0xbf0b393e	-0.5438422
46	0xbe3bc43e	-0.18336579
47	0xbdca8a3f	-0.098896496
48	0x3d5823c3	0.05276848
49	0x3e2ddc90	0.16978669
50	0x3e625cdc	0.22105736
51	0xbe00cc31	-0.12577893
52	0xbda9e853	-0.082962655
53	0x3c3f810a	0.01168848
54	0xbe4eadca	-0.20183483
55	0xbd70a05c	-0.05874668
56	0xbe0360ad	-0.12829848
57	0x3dacb1b3	0.08432331
58	0x3d3c8dc5	0.04603364
59	0x3d7622e3	0.060091864
60	0xbe6f5993	-0.23374014
61	0x3cefbf92	0.029266153
62	0xbe1df6ae	-0.15426132
63	0x3dd16adb	0.10225459
64	0x3e90011f	0.28125855
65	0x3dd86858	0.10566777
66	0x3c63b0c5	0.013897126
67	0x3c223ab1	0.009901688
68	0xbc1f88f8	-0.009737246
69	0xbdfde9c1	-0.12398101
70	0xbc811b4a	-0.015760083
71	0xbc2fc3fb	-0.010727878
72	0x3d9ca7ed	0.07649217
73	0x3d0f580d	0.03499608
74	0x3d566d4c	0.052350327
75	0x3d8f0b75	0.06984607
76	0xbe11450d	-0.14186497
77	0xbc1c7812	-0.009550111
78	0xbdfc99ec	-0.12334046
79	0x3d402baa	0.04691664
80	0x3d91098a	0.070818976
81	0xbdbb19b1	-0.091357596
82	0xbebf3ad6	-0.37349576
83	0xbcf12290	-0.029435426
84	0xbeb81af6	-0.3595807
85	0x3d86c83e	0.06581162
86	0xbdf9c295	-0.12195317
87	0x3e84eea6	0.25963324
88	0x3dbc6784	0.091994315
89	0x3dc4bf5b	0.09606811
90	0xbcff404b	-0.031158587
91	0x3db75092	0.089509144
92	0x3dc45266	0.09586029
93	0xbee0d21a	-0.43910295
94	0xbedc11ff	-0.4298248
95	0x3e008453	0.12550478
96	0xbcd7a2e3	-0.026322788
97	0xbe395c2f	-0.18101572
98	0xbe888785	-0.26665893
99	0xbd9d28f0	-0.07673824
100	0x3e14e89a	0.14541855
101	0xbdc22ac4	-0.09480813
102	0xbd366de3	-0.04453839
103	0x3d820199	0.06347961
104	0xbe963aff	-0.29341885
105	0xbde8d695	-0.11369053
106	0x3dc7501b	0.09732076
107	0x3df0c81a	0.11756916
108	0xbddb458d	-0.10706625
109	0x3e20ed2b	0.15715472
110	0xbe8510d8	-0.25989413
111	0x3e07fec1	0.13280775
112	0xbcf88f3f	-0.030341743
113	0xbe57da14	-0.21079284
114	0x3e61d6e5	0.22054632
115	0x3d975f61	0.07391239
116	0xbd0415c4	-0.03224732
117	0xbdcaf07f	-0.09909152
118	0xbc736699	-0.014856004
119	0xbc57b388	-0.013165362
120	0xbd94e957	-0.072710685
121	0x3ddc9da9	0.10772259
122	0x3e48d94c	0.19614142
123	0xbe988713	-0.29790553
124	0xbd97bdb3	-0.07409229
125	0xbf16eede	-0.5895823
126	0xbd16c514	-0.036809042
127	0xbc8f99cf	-0.017529396
128	0xbdee6a05	-0.11641315
129	0xbdc50ba6	-0.096213624
130	0xbc80602c	-0.015670858
131	0x3d80ea2d	0.062946655
132	0xbda27ef5	-0.079343714
133	0x3cc6fd56	0.024290722
134	0xbdb352c7	-0.08756023
135	0xbd6c8af1	-0.057749692
136	0x3df7ffea	0.121093586
137	0xbcc76854	-0.02434174
138	0xbdbc7579	-0.09202094
139	0x3deb50fa	0.114900544
140	0x3d99dced	0.075128414
141	0x3b993b49	0.004676257
142	0xbd997f50	-0.07494986
143	0xbf527f44	-0.8222544
144	0xbd679d84	-0.056546703
145	0xbe122d74	-0.14275151
146	0x3ed5e253	0.41774234
147	0xbd5504ab	-0.052006405
148	0xbdcf1f28	-0.101133645
149	0x3dc12710	0.09431279
150	0xbdf9393f	-0.12169122
151	0xbe6fd9ea	-0.23422971
152	0xbe103594	-0.14082938
153	0x3b91b841	0.0044470136
154	0xbbf4e883	-0.0074740066
155	0x3e355db1	0.17711522
156	0xbe59ccb4	-0.21269494
157	0xbdd64bd7	-0.10463684
158	0xbecf6900	-0.40509796
159	0xbe47b29e	-0.19501731
160	0x3dd7c7f2	0.105361834
161	0x3df3aeec	0.11898598
162	0x3d959883	0.0730448
163	0xbc98c6a8	-0.018649414
164	0xbd0b34d5	-0.03398593
165	0x3e02dbf1	0.12779213
166	0xbd66ffdc	-0.05639635
167	0xbe10553d	-0.14095016
168	0x3e28c62a	0.16481844
169	0x3e68409d	0.22680898
170	0x3e57019a	0.20996705
171	0x3cd42436	0.025896173
172	0xbe3c0306	-0.18360528
173	0x3b1fa9a5	0.002436259
174	0xbc3a2785	-0.011361961
175	0xbd8a1930	-0.067430854
176	0x3e155498	0.14583051
177	0xbd8375d1	-0.06418956
178	0x3d6e0eb7	0.058119502
179	0x3e2400a5	0.16015871
180	0x3e810ae1	0.25203612
181	0xbd0b7193	-0.03404386
182	0xbe027294	-0.1273902
183	0xbe0e5ae0	-0.13901854
184	0xbe328e63	-0.17437129
185	0xbe026634	-0.127343
186	0x3e289a1c	0.16465038
187	0x3d8cfc78	0.06884092
188	0xbd0e8d37	-0.03480264
189	0x3d6b549f	0.057453748
190	0xbf35cc26	-0.7101463
191	0xbe979164	-0.29603112
192	0xbe7d0099	-0.24707259
193	0xbcfea518	-0.031084582
194	0xbe071f31	-0.13195492
195	0x3dede3d0	0.116157174
196	0x3dd57746	0.1042314
197	0x3e11e053	0.14245729
198	0x3e29acfe	0.16569898
199	0x3dd3a813	0.10334792
200	0xbc3c6179	-0.011497849
201	0xbdcb2633	-0.09919395
202	0x3e5e75af	0.2172458
203	0x3c40fe4d	0.01177938
204	0xbde8eeb7	-0.11373656
205	0x3e4e6a00	0.20157623
206	0xbb92e6c0	-0.004483074
207	0xbe93192f	-0.2873015
208	0xbd9f5c45	-0.07781271
209	0xbe887a76	-0.2665593
210	0x3e776664	0.24160153
211	0x3dca36de	0.09873746
212	0x3dad820e	0.084720716
213	0xbcfa1688	-0.030528322
214	0x3e03291f	0.12808655
215	0x3df45044	0.11929372
216	0xbdb6aa18	-0.089191616
217	0xbbb1ace9	-0.005422224
218	0xbdc4355d	-0.09580491
219	0xbdbb98fd	-0.091600396
220	0xbdc28d17	-0.09499567
221	0x3d918e75	0.0710725
222	0xbdd1c4bd	-0.10242603
223	0x3d050610	0.032476485
224	0xbd55c2de	-0.052187793
225	0xbda395b7	-0.0798754
226	0x3e440c6e	0.19145367
227	0xbb7a4d6a	-0.0038193115
228	0xbe9d32e8	-0.307029
229	0x3d987b4c	0.07445392
230	0xbe1703e7	-0.14747582
231	0x3e6e82c7	0.23292075
232	0x3d570157	0.052491512
233	0x3c0fae38	0.008769564
234	0xbe46c2cb	-0.19410245
235	0x3b93f8c0	0.0045157373
236	0x3d6369ad	0.055520702
237	0xbeb5a6a1	-0.3547869
238	0x3b1b9bec	0.002374406
239	0xbb09b469	-0.0021012074
240	0xbe45d9be	-0.19321343
241	0xbe6c5472	-0.23079088
242	0x3ec2aec9	0.38023975
243	0xbd9bcc9b	-0.07607385
244	0x3d14460d	0.036199618
245	0x3e13e7f0	0.14443946
246	0xbdd891ee	-0.10574709
247	0xbc32befa	-0.01090979
248	0xbe9bb015	-0.30407777
249	0x3e6a364c	0.22872275
250	0x3e4970d8	0.19671953
251	0xbc8b96bd	-0.017039651
252	0xbd00699d	-0.03135072
253	0xbd5bf963	-0.05370463
254	0xbea90444	-0.33011067
255	0x3d200845	0.039070386

bias f4 [16]
0	0x3dca6ff6	0.09884636
1	0xbd0c595a	-0.0342649
2	0xbd6fba75	-0.05852743
3	0xbd200205	-0.039064426
4	0x3d06c639	0.032903884
5	0x3d887de9	0.066646405
6	0xbe02c758	-0.12771356
7	0xbdd14a46	-0.10219245
8	0xbdd49ff1	-0.10382069
9	0x3d6c2db8	0.05766079
10	0xbd147b42	-0.03625036
11	0xbd8653e5	-0.0655897
12	0xbc6005cb	-0.013673256
13	0x3dd4f28d	0.103978254
14	0xbdd5baa5	-0.1043599
15	0x3cec8f94	0.028877057

weight f4 [16]
0	0x3eed84b8	0.4639032
1	0x3f5253e0	0.82159233
2	0x3f36961a	0.71322787
3	0x3f823867	1.0173463
4	0x3f2cfbbb	0.6757161
5	0x3f0b4f6b	0.5441806
6	0x3e6d6f76	0.2318705
7	0x3e857a40	0.26069832
8	0x3f116bed	0.56805307
9	0x3f32e9b8	0.69887877
10	0x3eea7562	0.4579268
11	0x3f478997	0.7794432
12	0x3ebfecda	0.3748539
13	0x3efe8a96	0.49715108
14	0x3f1b76b0	0.6072798
15	0x3ef9d1ab	0.48792776

bias f4 [16]
0	0xbeb889b3	-0.36042556
1	0x3e904d2f	0.28183886
2	0xbee50f83	-0.44738397
3	0x3e258a8e	0.16166136
4	0xbc5e617c	-0.013573047
5	0x3f38d995	0.72207004
6	0x3e240c24	0.16020256
7	0xbf50214f	-0.81300825
8	0x3dafa648	0.085766375
9	0x3ea2dc09	0.31808499
10	0x3e585de3	0.21129565
11	0xbc9c9187	-0.019112362
12	0x3e3e01ce	0.18555376
13	0x3e1c82fe	0.15284345
14	0xbe515721	-0.20443393
15	0x3cae5f58	0.021285698

running_mean f4 [16]
0	0xbed28d94	-0.4112364
1	0xbf1026c4	-0.5630915
2	0xc000efe6	-2.0146422
3	0xbf7e624b	-0.99368733
4	0xbf9541cb	-1.1660703
5	0xbf6fd7b9	-0.9368854
6	0x3c9b17db	0.018932274
7	0x3f6ec915	0.93275577
8	0x3f6e1e40	0.9301491
9	0x3e35e2c6	0.17762288
10	0x3fe51c8f	1.789934
11	0x3e00bdb5	0.12572367
12	0xbf8ceb5f	-1.100933
13	0xbedb0005	-0.42773452
14	0xbfa77649	-1.3082973
15	0x3f93edc9	1.1556941

running_var f4 [16]
0	0x3ea14b08	0.31502557
1	0x3f56fb70	0.83977413
2	0x3e2fe23c	0.17176145
3	0x3f84864b	1.0353483
4	0x3e295c5c	0.16539139
5	0x3f8007f3	1.0002426
6	0x3ebb2faf	0.36559817
7	0x3da45f98	0.080260456
8	0x3f359add	0.7093943
9	0x3f458219	0.7715164
10	0x3f069cdd	0.52583104
11	0x3ef79f74	0.4836384
12	0x3eed0ce4	0.46298897
13	0x3fa0dcf9	1.2567436
14	0x3e7b47ef	0.24539159
15	0x3ebaecc8	0.36508775

weight f4 [16, 16, 3]
0	0x3e8b793c	0.27240932
1	0x3ec0f951	0.37690213
2	0x3e6cff92	0.23144367
3	0x3d5ca9dc	0.053872928
4	0xbd351be7	-0.044216063
5	0xbd8d08ee	-0.06886469
6	0xbe00acc3	-0.12565903
7	0x3cfe258e	0.031023767
8	0xbe01001c	-0.12597698
9	0xbd636cda	-0.05552373
10	0x3dc0fc6a	0.09423144
11	0x3c88042e	0.016603556
12	0xbdeb1635	-0.11478845
13	0x3e225428	0.15852416
14	0xbe008cd4	-0.12553722
15	0x3cb4655c	0.022020988
16	0x3c7479a2	0.014921578
17	0x3e39b0a5	0.18133791
18	0xbe8a7489	-0.27042034
19	0xbe5145e3	-0.20436816
20	0x3d9d0f73	0.07668962
21	0xbe13fb48	-0.14451325
22	0x3ea745c6	0.3267042
23	0x3ea89bac	0.32931268
24	0x3dc034b6	0.09385054
25	0xbe7280a3	-0.23681884
26	0xbe855e20	-0.26048374
27	0x3d851f38	0.06500095
28	0xbc1164c4	-0.008874122
29	0x3e9c634e	0.30544513
30	0x3d82e149	0.06390626
31	0x3e4f5958	0.20248926
32	0xbdc52c65	-0.09627608
33	0x3ddb9d05	0.107233085
34	0x3d0741ff	0.033021923
35	0xbd5aecfd	-0.053448666
36	0xbd188014	-0.03723152
37	0x3d1195be	0.035543196
38	0x3df72647	0.12067848
39	0x3ef13df8	0.4711759
40	0x3d8513be	0.06497906
41	0x3f1bc943	0.60853976
42	0x3ea5c67e	0.32378
43	0x3eb58ee4	0.3546058
44	0x3d1af0db	0.037827354
45	0x3e35e197	0.17761837
46	0x3cce5767	0.025188161
47	0x3eff6c57	0.49887344
48	0x3e1ddcd1	0.15416266
49	0x3ea756be	0.32683367
50	0x3e2b1937	0.16708837
51	0x3ea25eab	0.3171285
52	0x3d361bc3	0.04446007
53	0xbcb7c9ff	-0.022435186
54	0x3e3e439d	0.1858048
55	0x3db041fe	0.08606337
56	0x3daef14d	0.08542118
57	0xbcfafd82	-0.03063846
58	0xbd721bd0	-0.059108555
59	0xbd8d26eb	-0.06892189
60	0xbd4dc7d3	-0.050239395
61	0xbdb6d165	-0.089266576
62	0xbd9267ac	-0.0714868
63	0x3e5ccec5	0.21563251
64	0x3dabcfe5	0.08389262
65	0x3c839481	0.016062023
66	0xbebd7d55	-0.37009683
67	0xbe92274e	-0.28545612
68	0xbe5aefd2	-0.21380547
69	0xbedbbe64	-0.42918694
70	0xbe9db3ad	-0.30801144
71	0xbef0da38	-0.47041488
72	0x3dc857b6	0.097823545
73	0x3daf6710	0.085645795
74	0xbe1ac179	-0.15112866
75	0xbebf6e88	-0.37389016
76	0xbd85727d	-0.065159775
77	0xbe98e6e2	-0.2986365
78	0xbc9d4e14	-0.01920227
79	0xbdb37c7b	-0.08763977
80	0xbe4e45be	-0.20143792
81	0xbe5ff45d	-0.21870561
82	0xbe484a12	-0.19559506
83	0xbc0f9b79	-0.008765095
84	0xbe1bdbc0	-0.15220547
85	0xbc6de90a	-0.014520893
86	0x3b54eb93	0.0032489046
87	0xbe4bf73b	-0.1991853
88	0xbdca8873	-0.09889307
89	0xbe189e3c	-0.14904112
90	0x3be7787e	0.0070639243
91	0xbabc8f03	-0.0014385883
92	0xbe3d21d5	-0.18469937
93	0x3c737f6d	0.014861924
94	0x3e12c08a	0.1433126
95	0x3ad9f16b	0.0016627734
96	0xbe3b64c5	-0.1830016
97	0xbe47d823	-0.19516043
98	0xbd7be134	-0.061494067
99	0xbecd8054	-0.4013697
100	0xbe219e0e	-0.1578295
101	0xbe0249a4	-0.12723404
102	0xbda16445	-0.07880453
103	0x3ebccd59	0.36875418
104	0xbcbc06fe	-0.022952553
105	0xbe45440e	-0.19264242
106	0x3e0ab461	0.13545372
107	0xbddc6ee7	-0.107633404
108	0x3d7f08a6	0.062264107
109	0x3cd88603	0.02643109
110	0xbe16dc6c	-0.14732522
111	0xbde1e209	-0.11029441
112	0xbe2a5759	-0.16634883
113	0xbdd50ce4	-0.10402849
114	0xbe7a7cb3	-0.24461631
115	0xbdd53131	-0.10409773
116	0x3ee29761	0.44256118
117	0x3e96ba3f	0.2943897
118	0xbc83149e	-0.016001042
119	0x3e7d287c	0.24722475
120	0xbf268c9f	-0.6505832
121	0x3de66f97	0.11251753
122	0x3df36b88	0.11885744
123	0x3e0e6307	0.13904963
124	0x3e6cfdcf	0.23143695
125	0xbd015698	-0.031576723
126	0xbe8d6a06	-0.27619952
127	0xbcd5466c	-0.026034556
128	0x3ec57562	0.38566118
129	0xbdafe7f4	-0.085891634
130	0xbe392736	-0.18081364
131	0xbc19d744	-0.009389702
132	0x3e86984c	0.26288068
133	0x3e319a15	0.17343934
134	0x3d6e6dfb	0.058210354
135	0xbf03cdb8	-0.51485777
136	0x3de5d69d	0.11222575
137	0xbe844055	-0.2583033
138	0xbcabbebb	-0.02096497
139	0x3dce7642	0.1008115
140	0xbc9aad46	-0.018881451
141	0x3ce47f9d	0.027892882
142	0xbd506208	-0.05087474
143	0x3db60e34	0.08889428
144	0xbd259cc0	-0.04043269
145	0x3e9db031	0.30798486
146	0xbe2e8f2f	-0.17046808
147	0x3e343d1e	0.1760144
148	0xbd01d669	-0.031698618
149	0x3ca4bd0e	0.02010968
150	0xbe843699	-0.25822905
151	0xbda1c1f0	-0.07898319
152	0xbd75e13d	-0.060029257
153	0xbd8fcb7a	-0.07021232
154	0xbea9abc5	-0.33138862
155	0x3e1bf9c7	0.15232001
156	0xbe2b29f4	-0.16715223
157	0x3e71ad98	0.23601377
158	0xbe2e2398	-0.17005765
159	0xbe32a4e1	-0.17445709
160	0xbe5d5aa8	-0.21616614
161	0x3e403ac3	0.18772416
162	0xbe30c37b	-0.1726207
163	0x3e565572	0.20931032
164	0x3d88a5f8	0.06672281
165	0xbed565d2	-0.41679245
166	0x3edbe651	0.42949155
167	0xbf0bf201	-0.54666144
168	0x3e4f698b	0.20255105
169	0xbe5c8ca8	-0.21538031
170	0xbe8ce6d7	-0.27519867
171	0xbd0b59e1	-0.034021262
172	0x3d1102ab	0.035402935
173	0x3e51e828	0.20498717
174	0xbc53bdb6	-0.012923649
175	0x3e3d2f0d	0.1847498
176	0xbe8ec875	-0.27887312
177	0xbe201b9b	-0.1563553
178	0x3dbd85bc	0.092540234
179	0xbe83d2b5	-0.25746694
180	0x3e150c30	0.1455543
181	0x3e650cb1	0.22368123
182	0xbdd3c7fe	-0.1034088
183	0x3d51aa1b	0.051187616
184	0xbef0c4b8	-0.47025084
185	0x3ea07c03	0.31344613
186	0xbd748800	-0.059700012
187	0x3d2d3298	0.042284578
188	0xbe2d1526	-0.16902599
189	0x3e1acf97	0.15118252
190	0x3d84e577	0.064890794
191	0xbe7e81da	-0.24854222
192	0x3ea7879b	0.32720646
193	0x3be5b01e	0.00700952
194	0x3e360c0f	0.17778037
195	0x3cd84bdc	0.02640336
196	0xbdcedbf6	-0.10100548
197	0xbd5ec175	-0.054383714
198	0x3d84d1ef	0.06485354
199	0x3e585461	0.21125938
200	0xbe33b16a	-0.17548147
201	0xbe246329	-0.16053452
202	0xbd7d19c9	-0.06179217
203	0xbeb0f91c	-0.34565055
204	0x3d8b6e6b	0.0680817
205	0xbe08b280	-0.13349342
206	0xbd075b87	-0.03304627
207	0xbe1bf781	-0.15231134
208	0xbdc8ba8f	-0.09801208
209	0xbe92fe1c	-0.28709495
210	0x3c96e01e	0.018417414
211	0x3ec0c409	0.37649563
212	0x3e93deb2	0.2888084
213	0x3ec5c2fe	0.3862533
214	0xbdfab1b4	-0.122409254
215	0x3d650c3f	0.055919882
216	0x3df9f4dc	0.12204906
217	0xbe02cd20	-0.12773561
218	0x3e876b5f	0.26449105
219	0xbd20be48	-0.039243966
220	0x3eb3f846	0.35150355
221	0xbed476c8	-0.41496873
222	0x3e96cc30	0.29452658
223	0xbeae4b85	-0.34041992
224	0x3d36301e	0.044479482
225	0x3e555541	0.20833303
226	0xbde14c48	-0.110008776
227	0x3e77290a	0.24136749
228	0xbb374b55	-0.0027968485
229	0xbe220598	-0.15822446
230	0x3e744472	0.23854235
231	0xbe5346ea	-0.2063252
232	0x3ed1ddc7	0.40989515
233	0xbdb72c78	-0.089440286
234	0x3b7d3b74	0.0038640173
235	0xbd97af72	-0.074065104
236	0x3e22e588	0.15907872
237	0xbd8c68cf	-0.06855928
238	0xbc3b189a	-0.01141944
239	0x3ccf5224	0.025307722
240	0x3ecbd3b2	0.39809948
241	0x3dc81319	0.097692676
242	0x3d219899	0.03945217
243	0xbe07fd6b	-0.13280265
244	0xbe414925	-0.18875559
245	0x3d18d4e8	0.03731242
246	0xbcae326c	-0.021264277
247	0x3d16266a	0.03665773
248	0x3e53f5f7	0.20699297
249	0xbdd793d9	-0.105262466
250	0x3e3c58d0	0.18393254
251	0x3e741451	0.23835875
252	0xbd0432e8	-0.03227511
253	0xbd2fff4c	-0.04296808
254	0xbbc7349c	-0.0060792696
255	0xbd6ea8aa	-0.05826632

bias f4 [16]
0	0xbda614a0	-0.08109403
1	0x3deb1fef	0.114807
2	0x3d72f65d	0.05931698
3	0xbdba3dc4	-0.09093812
4	0xbb6e7fdd	-0.003639213
5	0xbd05ac7c	-0.032635197
6	0x3db529fa	0.08845897
7	0x3dc4cfcc	0.096099466
8	0xbd4a8943	-0.04944731
9	0x3dda8fc0	0.106719494
10	0x3dda1b39	0.106497236
11	0xbe1449c9	-0.14481272
12	0xbdf4875a	-0.11939879
13	0x3d891a6c	0.06694493
14	0xbd83768b	-0.06419095
15	0xbd482163	-0.048859965

weight f4 [16]
0	0x3e3ef346	0.18647489
1	0x3f04257e	0.5161971
2	0x3e7c97ef	0.24667333
3	0x3f3d59ec	0.73965335
4	0x3e8c8252	0.27443177
5	0x3ebe0e53	0.37120304
6	0x3f32ba03	0.6981508
7	0x3f20bb74	0.6278603
8	0x3e7f5ba7	0.24937306
9	0x3ebe77cf	0.37200782
10	0x3f2446a3	0.64170283
11	0x3e6c25fe	0.23061368
12	0x3f0d10d4	0.551038
13	0x3f4d3ccc	0.80170894
14	0x3ebada01	0.3649445
15	0x3e431edc	0.1905474

bias f4 [16]
0	0xbe040559	-0.12892665
1	0xbecf9c65	-0.40549007
2	0x3fac44db	1.3458513
3	0x3f163eae	0.5868939
4	0x3e2d9dd2	0.16954735
5	0x3f13d075	0.57739955
6	0x3f52dd81	0.8236924
7	0x3e93df36	0.28881234
8	0x3e5d120a	0.21588913
9	0x3e2fb7c8	0.1715995
10	0x3f02063c	0.5079076
11	0x3da68dc8	0.081325114
12	0x3ec8323d	0.3910083
13	0x3f8edf2a	1.1161854
14	0x3f384731	0.7198363
15	0x3f0fa68c	0.56113505

running_mean f4 [16]
0	0x3f8be7b7	1.0930089
1	0xbf2f5c65	-0.6850036
2	0xbf791c34	-0.9730866
3	0xbf1413c3	-0.57842654
4	0xbefc8596	-0.49320668
5	0xbf24c217	-0.6435866
6	0x3eae48ab	0.34039816
7	0x3eafb7d8	0.3431995
8	0xbe3a6445	-0.18202312
9	0x3f2a79d0	0.6659212
10	0x3e8217de	0.25408834
11	0x3ed921bb	0.42408547
12	0x3e248162	0.1606498
13	0xbe8118bb	-0.2521418
14	0xbeb29516	-0.3487937
15	0xbe642e01	-0.22283174

running_var f4 [16]
0	0x3eff86a0	0.49907398
1	0x3e493547	0.1964923
2	0x3f82afc2	1.0209887
3	0x3febdb97	1.8426389
4	0x3f658474	0.8965523
5	0x3fb5889d	1.4182316
6	0x3fcf6244	1.6201863
7	0x3feecb2a	1.8655751
8	0x3f3bb661	0.73325163
9	0x3f8c7c29	1.0975391
10	0x4000f7b1	2.015118
11	0x3f12c483	0.57331103
12	0x3f92715b	1.1440843
13	0x3ff1665f	1.8859366
14	0x3f2cfbf9	0.6757198
15	0x3ebd6d2b	0.3699735

weight f4 [16, 16, 3]
0	0xbe1fdaaf	-0.15610765
1	0xbcf5aa5c	-0.02998846
2	0xbecbbf7b	-0.39794526
3	0xbd3d6851	-0.046242062
4	0xbd975c8c	-0.07390699
5	0xbd1565e9	-0.036474142
6	0xbde93bee	-0.11388384
7	0xbec2ff33	-0.38085327
8	0xbee1ca99	-0.44099882
9	0x3e83eb30	0.2576537
10	0x3e1d29ee	0.15348026
11	0x3e791f57	0.24328361
12	0xbe84a927	-0.25910303
13	0xbc5e1ad2	-0.013556199
14	0xbd4d1ead	-0.050078083
15	0x3e42dc9c	0.19029468
16	0x3d8842d9	0.06653375
17	0x3d5adcb6	0.053433143
18	0xbe5c5bba	-0.21519366
19	0x3b713e0b	0.0036810662
20	0xbe0e02b3	-0.13868217
21	0xbe76c85f	-0.24099873
22	0x3d669b0f	0.05630022
23	0xbe67e3eb	-0.22645538
24	0x3e6c6e75	0.23089011
25	0x3e291ae4	0.16514164
26	0xbd030df5	-0.031995732
27	0x3e142ff1	0.14471413
28	0xbd3ca804	-0.04605867
29	0xbe0c5990	-0.1370604
30	0xbe1c1e58	-0.1524595
31	0x3c32b5b7	0.010907582
32	0xbd83dda1	-0.06438757
33	0xbdada23a	-0.08478208
34	0x3d062c0d	0.032756854
35	0x3caa2147	0.020767821
36	0x3cf6e428	0.03013809
37	0xbe42d21e	-0.19025466
38	0x3e653b83	0.22385983
39	0x3d9ad73f	0.07560586
40	0xbd430005	-0.04760744
41	0x3e34743d	0.17622466
42	0xbe6207ec	-0.22073334
43	0x3e8bbbff	0.27291867
44	0xbd9f3786	-0.07774262
45	0x3ea2cb6b	0.3179582
46	0x3e86f8d8	0.26361728
47	0x3e9d7b67	0.3075821
48	0x3ea0ef80	0.31432724
49	0x3dcf7bc7	0.101310305
50	0x3c49286b	0.012277703
51	0x3e1e3050	0.15448117
52	0xbd34d83d	-0.044151533
53	0xbe2efba8	-0.17088187
54	0x3dfa9686	0.12235741
55	0x3e0cb3fb	0.13740532
56	0xbf03f7bd	-0.51549894
57	0xbe0c0578	-0.13673961
58	0x3ea51118	0.32239604
59	0x3ebb5799	0.3659027
60	0x3e4df31e	0.20112273
61	0xbe3b1152	-0.18268326
62	0x3cd166b8	0.025561675
63	0xbdc8776d	-0.09788404
64	0x3e63eb08	0.22257626
65	0x3d8343b3	0.06409397
66	0x3ee2c77f	0.44292828
67	0x3e810fb2	0.25207287
68	0xbe3d9781	-0.18514825
69	0x3e14e86d	0.14541788
70	0xbecfbdba	-0.40574437
71	0xbe808078	-0.25098014
72	0xbe9ce21a	-0.30641252
73	0x3e9ad9ff	0.30244443
74	0x3dbf2905	0.09333996
75	0x3c3f29c9	0.011667677
76	0x3e0fbb8f	0.14036392
77	0xbe01c41d	-0.12672468
78	0x3dacf734	0.08445588
79	0xbe2a15c8	-0.16609871
80	0xbe4fa8af	-0.20279191
81	0xbd6e0f62	-0.05812014
82	0xbe8e2819	-0.27764967
83	0xbd358dbc	-0.04432462
84	0xbd5af676	-0.0534577
85	0x3e7c0476	0.24611077
86	0x3e1f2ff8	0.15545642
87	0xbeb1b567	-0.34708712
88	0xbdc0b5c0	-0.09409666
89	0x3e224838	0.15847862
90	0x3e146e67	0.1449524
91	0xbe0dd746	-0.13851652
92	0x3d8d10f0	0.06887996
93	0x3dc2da38	0.09514278
94	0x3f03e0a9	0.5151468
95	0xbd2ea88b	-0.042641204
96	0xbdf1042b	-0.11768373
97	0xbdab3b1f	-0.08360886
98	0x3c49f564	0.012326572
99	0x3d3353ed	0.04378121
100	0x3ccffdb0	0.025389522
101	0xbcc05d75	-0.023482064
102	0x3e84ea75	0.25960127
103	0x3edecea9	0.43517044
104	0x3dc13f6a	0.094359234
105	0xbeaaf85d	-0.3339261
106	0xbd306a6b	-0.043070238
107	0xbe4d8df0	-0.20073676
108	0x3eb89015	0.36047426
109	0x3be51814	0.0069913957
110	0x3e5a8d71	0.21343018
111	0xbd89a402	-0.06720735
112	0xbdc8ba29	-0.09801132
113	0xbb0785d9	-0.0020679145
114	0x3d423606	0.047414802
115	0xbd8761a5	-0.06610421
116	0x3e8e296a	0.2776597
117	0x3e83e509	0.25760677
118	0x3d763431	0.060108367
119	0x3e67bfd1	0.22631766
120	0xbe5cbf60	-0.21557379
121	0x3d6976a4	0.05699791
122	0xbe215b6c	-0.15757531
123	0xbea4e9e0	-0.32209682
124	0x3dcbd985	0.09953598
125	0x3c1aff59	0.009460294
126	0x3eb3b050	0.35095453
127	0xbe5a6439	-0.21327294
128	0x3e3be26a	0.18348089
129	0x3e834339	0.25637224
130	0xbe9d9903	-0.307808
131	0xbd9610cf	-0.07327425
132	0xbe30ceaf	-0.17266344
133	0xbd976b81	-0.073935516
134	0xbe8cfe9d	-0.27538005
135	0xbd4ffb38	-0.05077669
136	0xbd127bea	-0.035762705
137	0xbe80fb45	-0.25191703
138	0xbd97826a	-0.073979214
139	0xbdbf77ad	-0.09348998
140	0x3da5042b	0.080574356
141	0xbec7f318	-0.39052653
142	0x3cc45b2a	0.023969252
143	0x3dbe93ba	0.0930552
144	0x3e9d8611	0.30766347
145	0x3ecf3ebb	0.40477547
146	0x3df85b06	0.12126736
147	0x3df793c7	0.12088733
148	0x3d1e6a20	0.038675427
149	0xbd15a300	-0.036532402
150	0xbda61355	-0.08109156
151	0xbcbf0b84	-0.02332092
152	0xbca95411	-0.020669969
153	0xbdad9839	-0.084763
154	0xbd5ceae5	-0.05393495
155	0xbd9a8bae	-0.07546173
156	0xbb060d68	-0.0020454768
157	0xbd02bbc4	-0.03191735
158	0x3d372416	0.04471215
159	0xbd6e4dac	-0.058179542
160	0x3e6e06c2	0.23244765
161	0x3ea2af0f	0.31774184
162	0x3ebb7242	0.3661061
163	0x3ed342d7	0.41261932
164	0x3ea7f1f7	0.32801792
165	0xbd50c2e3	-0.05096711
166	0x3e6b52df	0.22980832
167	0x3dd653b9	0.104651876
168	0xbce8c17a	-0.02841257
169	0xbd86b214	-0.065769345
170	0x3da7feb8	0.082028806
171	0xbdd7c9b5	-0.105365194
172	0xbdf67abd	-0.12035129
173	0xbe93c1c1	-0.2885876
174	0x3d61cb5a	0.05512557
175	0x3da0ac1f	0.078453295
176	0x3e7342d0	0.23755956
177	0x3db93509	0.09043319
178	0xbeae101e	-0.3399667
179	0x3e20d2f8	0.15705478
180	0x3d7eaa60	0.0621742
181	0xbe222a45	-0.15836437
182	0xbc4a2921	-0.012338907
183	0xbe9bc283	-0.30421838
184	0xbe801858	-0.25018573
185	0xbe816e62	-0.25279528
186	0x3b9f2a07	0.004857305
187	0xbded0228	-0.11572677
188	0x3d10aab2	0.035319038
189	0xbe5de1d6	-0.21668181
190	0xbc98fa81	-0.018674137
191	0x3e1e57c0	0.15463161
192	0x3cf69963	0.030102437
193	0xbe2a4cf5	-0.1663092
194	0x3dcd7c4b	0.100334726
195	0xbeb49028	-0.35266232
196	0xbd421b5d	-0.047389377
197	0x3e8b846b	0.27249464
198	0x3ecba391	0.3977323
199	0xbc5c1fb9	-0.013435298
200	0xbe32c793	-0.17458944
201	0x3e24bf4c	0.16088599
202	0x3e8daecd	0.27672425
203	0x3daa5945	0.08317808
204	0xbe984b12	-0.29744774
205	0xbe9305fd	-0.28715506
206	0xbe8b9c13	-0.27267513
207	0x3d851fa5	0.06500176
208	0x3a70da77	0.0009187827
209	0xbd909ce6	-0.07061176
210	0xbe480a1c	-0.19535106
211	0xbdd64de1	-0.10464073
212	0xbdd7440f	-0.10511028
213	0xbe2b9fff	-0.16760252
214	0xbe5396c4	-0.20662981
215	0xbd0a5438	-0.033771724
216	0x3e5d9ef3	0.21642666
217	0x3d7b1877	0.06130263
218	0x3eb425e2	0.35185152
219	0x3e326653	0.17421846
220	0x3e941024	0.28918564
221	0x3d91454c	0.070932955
222	0xbe483767	-0.19552384
223	0xbe8458db	-0.2584904
224	0x3d60414d	0.054749776
225	0xbe7152ef	-0.23566793
226	0x3ea02007	0.31274435
227	0xbe27e10a	-0.1639444
228	0xbdfc4fff	-0.123199455
229	0x3e2d430e	0.1692011
230	0xbd2ea763	-0.0426401
231	0x3e1224ea	0.14271894
232	0x3e0d84a4	0.1382013
233	0x3d84b56b	0.06479915
234	0xbbac43d8	-0.005257111
235	0xbc961b97	-0.018323703
236	0xbe5eee03	-0.21770482
237	0x3ed9bb21	0.4252558
238	0x3d99b835	0.07505838
239	0xbd8a733c	-0.067602605
240	0x3ea08d9f	0.31358048
241	0x3e70c315	0.23511918
242	0x3df260e1	0.118348844
243	0xbe3ef763	-0.18649058
244	0xbe4a4790	-0.19753861
245	0xbe8b2c13	-0.27182063
246	0xbed1523f	-0.4088306
247	0x3d8d51ce	0.06900369
248	0xbe81f09e	-0.2537889
249	0x3ccf37c9	0.025295155
250	0x3c404001	0.01173401
251	0xbd024bc7	-0.03181055
252	0xbc440a3a	-0.011965329
253	0x3e315367	0.17316972
254	0x3eaa794f	0.33295676
255	0xbec46da4	-0.383649

bias f4 [16]
0	0xbd9a23db	-0.0752637
1	0x3de26b92	0.11055674
2	0x3d9df19d	0.077121
3	0xbca41175	-0.020027855
4	0x3cc6021c	0.024170928
5	0xbd032b62	-0.032023795
6	0x3dddc58c	0.10828695
7	0x3e07dc28	0.13267577
8	0x3d902123	0.0703757
9	0xbdab88ef	-0.083757274
10	0xbd8e22ab	-0.06940206
11	0x3dc7e45e	0.097603545
12	0xbc80a819	-0.015705155
13	0x3d912ddb	0.07088824
14	0x3dc9e2c4	0.09857705
15	0x3d4b08d5	0.04956897

weight f4 [16]
0	0x3ed59df0	0.4172206
1	0x3eb95637	0.3619859
2	0x3f4233b1	0.75860125
3	0x3e86c1b7	0.26319668
4	0x3e23c87f	0.15994452
5	0x3eeea71a	0.46611863
6	0x3f656c52	0.8961841
7	0x3e83a765	0.2571365
8	0x3ecade5d	0.39622775
9	0x3f15860a	0.5840765
10	0x3ed171a9	0.40907028
11	0x3ef319a4	0.474805
12	0x3ebd9bc5	0.37032905
13	0x3eb48686	0.35258883
14	0x3f617ccb	0.88081044
15	0x3f11d139	0.56959873

bias f4 [16]
0	0x3ec16075	0.37768903
1	0x3f7bf040	0.9841347
2	0x3f079007	0.52954143
3	0x3eaf5aa3	0.34248838
4	0x3d474d74	0.04865785
5	0xbf3289f7	-0.6974177
6	0x3f89b6ba	1.0758889
7	0x3d0de330	0.03464049
8	0xbe9a02a1	-0.3008013
9	0x3f260411	0.64849955
10	0x3f6fc4f3	0.93659896
11	0x3f7235de	0.94613445
12	0x3f3c41fa	0.7353817
13	0xbae58ad9	-0.0017512693
14	0x3f824a69	1.0178958
15	0x3f03b3ec	0.51446414

running_mean f4 [16]
0	0xbf110d06	-0.566605
1	0x3f3796f7	0.7171473
2	0x3e8500f6	0.25977296
3	0x3e5ae66e	0.21376964
4	0x3ef09fd3	0.46996936
5	0xbfeea1eb	-1.8643163
6	0xbe9553f3	-0.2916561
7	0x3e6d6747	0.23183928
8	0xbf4d8a86	-0.80289495
9	0xbf02d1bf	-0.511013
10	0xbf29cd5e	-0.6632899
11	0x3f354f1c	0.70823836
12	0x3e5ad8f9	0.21371831
13	0xc04947b0	-3.1450005
14	0x3ed24ef8	0.41075873
15	0x3e3e5a88	0.18589222

running_var f4 [16]
0	0x3e92f112	0.28699547
1	0x3f0f2601	0.55917364
2	0x3f138752	0.5762836
3	0x3e0f596f	0.1399896
4	0x3debadfb	0.115077935
5	0x3e09fcd0	0.13475347
6	0x3f66d3ee	0.9016713
7	0x3ea54df3	0.32286033
8	0x3e176b8c	0.1478712
9	0x3f59e2bb	0.8511159
10	0x3f0e283e	0.55530155
11	0x3f13ee22	0.57785237
12	0x3f9b562e	1.2135675
13	0x3e9bd1bb	0.3043345
14	0x3f50537e	0.813774
15	0x3faa2eef	1.3295573

weight f4 [16, 16, 3]
0	0xbd0bd49a	-0.0341383
1	0xbdf4b303	-0.11948206
2	0xbc2323c8	-0.009957261
3	0xbe8b79c6	-0.27241343
4	0xbec81f7b	-0.39086518
5	0x3da75675	0.08170787
6	0x3d665d29	0.05624119
7	0x3dee46c4	0.11634591
8	0x3d6644ce	0.05621796
9	0xbd522769	-0.051307116
10	0x3cb3d99a	0.021954346
11	0x3dc99498	0.09842795
12	0x3e94fab8	0.29097533
13	0xbde83f70	-0.11340225
14	0xbda71eb5	-0.08160154
15	0xbec384ba	-0.381872
16	0x3e612a83	0.21988873
17	0x3dea120f	0.11429226
18	0x3da7a558	0.08185834
19	0xbe0e16c1	-0.13875867
20	0xbe807d1c	-0.2509545
21	0x3e74dfd0	0.23913503
22	0x3e00b5db	0.12569372
23	0x3d7061cc	0.058687016
24	0xbd7552ea	-0.059893526
25	0x3cd3890a	0.025822181
26	0x3e1dfaa1	0.15427639
27	0xbea2cf58	-0.31798816
28	0xbe3da292	-0.18519047
29	0xbea0c6f4	-0.3140179
30	0xbcbbad7a	-0.022909869
31	0xbdda4007	-0.106567435
32	0xbdb45eb3	-0.08807125
33	0x3e840c8d	0.25790825
34	0x3e83713e	0.25672334
35	0xbdf42d32	-0.11922683
36	0xbe7c0a93	-0.24613409
37	0xbe7bf6d2	-0.24605873
38	0xbdcfcc10	-0.10146344
39	0xbd9e81c8	-0.077395976
40	0xbc442617	-0.011971972
41	0xbd6a1a94	-0.057154253
42	0xbe037687	-0.12838183
43	0x3e18bbf4	0.14915448
44	0x3e78043a	0.24220362
45	0x3ed6f62e	0.41984695
46	0x3eb490ce	0.35266727
47	0x3ed6aa0e	0.41926616
48	0x3c85bde9	0.016325908
49	0xbd49d7cf	-0.049278077
50	0xbe6abf73	-0.22924595
51	0x3ce267ed	0.027637446
52	0x3d4c07e4	0.049812213
53	0xbe43dfeb	-0.19128387
54	0xbe82ca65	-0.2554504
55	0x3e5f8eed	0.21831866
56	0x3e35fd77	0.1777247
57	0xbd33c8d0	-0.04389268
58	0xbd52ff3a	-0.051512934
59	0x3dc039fe	0.09386061
60	0xbd8c2ee0	-0.06844878
61	0x3d85cb9e	0.065329775
62	0xbde92a92	-0.11385073
63	0xbc50ed13	-0.012751835
64	0xbe32fdf5	-0.1747969
65	0xbe84f018	-0.25964427
66	0x3e7b4eeb	0.24541824
67	0x3d7a7a4b	0.061151784
68	0x3e84273c	0.25811183
69	0x3e3c7657	0.18404518
70	0x3e9af430	0.30264425
71	0x3e59a8ef	0.2125585
72	0xbd72637e	-0.059176914
73	0x3daa6f58	0.083220184
74	0x3e035df2	0.12828806
75	0x3d3d7fb6	0.046264373
76	0x3e085bd8	0.13316286
77	0x3e1502c6	0.14551839
78	0x3eeb3bb7	0.45943996
79	0xbe867400	-0.26260376
80	0xbdc362b8	-0.095403135
81	0x3d89ce01	0.06728745
82	0x3cf631de	0.030053075
83	0x3e1f77a6	0.15572986
84	0xbe5f62f7	-0.21815096
85	0xbf30bca1	-0.69037825
86	0x3e250aea	0.16117445
87	0xbca1929d	-0.019723231
88	0x3dbd8738	0.092543066
89	0x3dc8e14f	0.09808599
90	0xbe93bb43	-0.28853807
91	0xbdf3f966	-0.11912803
92	0xbe8dedec	-0.27720582
93	0x3df4122f	0.11917531
94	0x3ea6187c	0.32440555
95	0xbe76067d	-0.24025913
96	0xbc92b329	-0.017907696
97	0xbe72eedd	-0.23723932
98	0x3dd53d7f	0.1041212
99	0x3eac0724	0.33599198
100	0x3da8d166	0.082430646
101	0xbde8f739	-0.11375279
102	0x3e61daf7	0.22056185
103	0x3e8f3726	0.27971762
104	0xbdb4fe8c	-0.088376135
105	0x3c199234	0.009373236
106	0xbe3a0dc4	-0.18169314
107	0x3e8d087e	0.27545542
108	0xbc83b567	-0.01607771
109	0xbda30d5d	-0.07961533
110	0xbcd0a1a3	-0.0254677
111	0xbce9c82b	-0.02853783
112	0x3ddb5024	0.10708645
113	0x3c4aedc0	0.012385786
114	0x3e26e89b	0.1629967
115	0x3ee2d37f	0.44301984
116	0xbe1c7db4	-0.15282327
117	0x3dd4967b	0.10380264
118	0x3e412dc4	0.18865114
119	0xbc0d32f6	-0.008618107
120	0x3d3cbbfb	0.04607771
121	0xbdd6bfc9	-0.10485799
122	0x3e217fb6	0.15771374
123	0x3db751b7	0.08951133
124	0x3cce67fe	0.025196072
125	0xbcedcb6d	-0.029027665
126	0xbecccedc	-0.4000157
127	0xbdea316e	-0.11435209
128	0x3d95a05d	0.073059775
129	0xbe55c5ef	-0.20876287
130	0xbcecbe7b	-0.028899422
131	0x3e13b555	0.14424641
132	0xbe9a83ec	-0.30178773
133	0x3ec966cd	0.39336243
134	0x3e893e51	0.26805356
135	0xbccfef85	-0.025382767
136	0xbd88ff31	-0.06689299
137	0x3c29943f	0.010350286
138	0xbe471c79	-0.19444455
139	0xbf0d1b5c	-0.5511987
140	0x3df6f641	0.12058688
141	0x3e02e202	0.12781528
142	0xbe9f0d84	-0.31065
143	0xbe0432f3	-0.1291006
144	0xbd99f919	-0.07518215
145	0xbdab1660	-0.08353877
146	0xbdcdd95e	-0.10051225
147	0x3da7c346	0.08191542
148	0xbdc95381	-0.0983038
149	0x3d86e184	0.065859824
150	0x3cecfdfe	0.028929707
151	0x3dda5c99	0.10662193
152	0xbe142def	-0.14470647
153	0xbd7c372d	-0.061576057
154	0xbd8cef86	-0.06881623
155	0xbcd1b1e4	-0.02559752
156	0x3c76d450	0.015065268
157	0xbcb228b3	-0.021747923
158	0x3dbe8615	0.09302918
159	0xbd9afe52	-0.07568039
160	0x3c0d4dc2	0.008624496
161	0xbd72032e	-0.059085064
162	0xbdebcf97	-0.11514204
163	0x3cf791c9	0.030220883
164	0x3d752322	0.05984796
165	0xbdbd9a95	-0.09258
166	0x3cbc9ae5	0.023023078
167	0x3d310544	0.043217912
168	0xbd6215de	-0.055196635
169	0x3c4219a8	0.011846937
170	0x3b180fe5	0.0023202833
171	0x3db5326f	0.0884751
172	0xbdbcd93d	-0.092211224
173	0xbdaea67a	-0.08527847
174	0xbdc95b8f	-0.098319165
175	0x3d22bd04	0.03973104
176	0x3e0c3dce	0.13695452
177	0xbcbbae18	-0.022910163
178	0x3d2176b7	0.039419856
179	0xbe15815a	-0.14600125
180	0xbd08e060	-0.033417106
181	0xbdaaa658	-0.08332509
182	0x3d887393	0.06662669
183	0x3c74d68b	0.014943729
184	0x3d66b60d	0.05632596
185	0x3dce02f0	0.10059154
186	0x3e0dbedf	0.13842343
187	0x3ddcc9a7	0.1078065
188	0x3e0cdf2a	0.13757005
189	0xbd2ebabb	-0.04265855
190	0xbe0f5a70	-0.13999343
191	0x3e031c13	0.12803678
192	0x3e3953eb	0.18098418
193	0x3e9c3089	0.3050578
194	0x3e33f314	0.17573196
195	0xbc974c75	-0.018469075
196	0xbdb80ca4	-0.08986786
197	0xbda35077	-0.07974332
198	0xbdce2264	-0.10065153
199	0xbe7f9c52	-0.24961975
200	0xbe442b1d	-0.19157071
201	0xbd7698fd	-0.060204495
202	0xbe91f6d5	-0.2850863
203	0xbe7010fb	-0.23443978
204	0x3e430ce9	0.19047894
205	0x3e2c7a51	0.16843535
206	0x3f1b8741	0.60753256
207	0x3e50d3a1	0.2039323
208	0x3dd0d11e	0.10196136
209	0x3e29c596	0.1657928
210	0x3df5ca90	0.12001526
211	0x3e2aa39e	0.16663978
212	0x3db7170f	0.08939945
213	0xbdd91e61	-0.106014974
214	0x3d0b221a	0.03396807
215	0xbe25bad5	-0.16184552
216	0x3ea5d1e1	0.32386687
217	0x3e436c55	0.19084294
218	0xbd036498	-0.032078356
219	0xbe0a54e4	-0.13508946
220	0xbe3e7b72	-0.18601778
221	0x3b66074d	0.0035099566
222	0x3cba85b0	0.022768825
223	0x3ebe8376	0.37209672
224	0x3ebf42b4	0.37355578
225	0x3dc057b3	0.09391727
226	0xbd978d9a	-0.07400055
227	0xbe132154	-0.14368182
228	0x3c94a6d7	0.018145962
229	0x3e9263de	0.28591818
230	0xbbde88fe	-0.006791233
231	0x3e75a858	0.2399
232	0x3e95859c	0.29203498
233	0x3deb93fe	0.11502837
234	0xbd9f5891	-0.077805646
235	0xbe6b40b5	-0.22973903
236	0xbdd36d62	-0.103235975
237	0x3e120b8d	0.14262219
238	0xbcca554b	-0.024698874
239	0x3a62b021	0.0008647461
240	0x3d7e4b3f	0.06208348
241	0x3dd9f0f8	0.10641664
242	0xbe74f76b	-0.23922507
243	0xbd1e5664	-0.038656607
244	0x3dd76c04	0.10518649
245	0x3e605443	0.21907143
246	0xbceb4839	-0.028720962
247	0x3e959c5d	0.29220858
248	0x3eb5c817	0.3550422
249	0xbe0b942e	-0.13630745
250	0xbe4be69a	-0.19912186
251	0xbed829f8	-0.4221952
252	0xbd990cd3	-0.07473149
253	0x3e2c6dd6	0.16838774
254	0xbe131408	-0.1436311
255	0x3f23f089	0.640389

bias f4 [16]
0	0xbd9210a9	-0.07132084
1	0xbdfab5d2	-0.12241711
2	0x3d90aec2	0.070645824
3	0x3d6f6fde	0.058456294
4	0xbaa6691d	-0.0012696121
5	0x3e0c2207	0.13684855
6	0x3e05df33	0.13073425
7	0xbde6b37a	-0.11264701
8	0xbdd0a207	-0.10187154
9	0xbc404cc4	-0.011737052
10	0x3dec9114	0.11551109
11	0x3c666618	0.014062427
12	0x3e08e4d6	0.13368544
13	0xbd6f1e05	-0.05837824
14	0x3dede8a9	0.11616642
15	0xbda3b4d5	-0.07993475

weight f4 [16]
0	0x3e9d76f6	0.30754822
1	0x3eb1fec3	0.3476468
2	0x3f3a0856	0.7266897
3	0x3af1b28d	0.0018440053
4	0x3e9299f2	0.28633076
5	0x3ee5ba13	0.44868526
6	0x3ee218b5	0.44159475
7	0x3e906b69	0.28206947
8	0x3ee6f7a9	0.45110825
9	0x3ee55dc2	0.44798094
10	0x3f01405e	0.5048884
11	0x3f2796e2	0.65464604
12	0x3ea870e9	0.32898644
13	0x3e7ee5ad	0.24892302
14	0x3f02ef99	0.51146847
15	0x3ef75b50	0.48311853

bias f4 [16]
0	0x3f0435d4	0.51644635
1	0x3f72e845	0.94885665
2	0x3f9a4cb6	1.205466
3	0xbc43d7fb	-0.011953349
4	0x3f1f7c39	0.62298924
5	0x3f93bcf7	1.1542042
6	0x3f384199	0.71975094
7	0x3f02bdf6	0.5107111
8	0x3f1235bb	0.57113236
9	0xbe4ac328	-0.19801009
10	0x3eecab98	0.46224666
11	0x3f33ca4b	0.7023055
12	0x3f34a0e9	0.7055803
13	0x3ed77c25	0.42086902
14	0x3f72c0fe	0.9482573
15	0x3f0f60bc	0.5600698

running_mean f4 [16]
0	0xbf41fe95	-0.75779086
1	0xbd59e282	-0.05319453
2	0x3dd6aca3	0.104821466
3	0x3e6f8064	0.23388821
4	0x3edf2ed9	0.4359043
5	0xbf8d26f0	-1.1027508
6	0x3e483350	0.19550824
7	0x3f2da2bf	0.67826456
8	0xbf12885f	-0.57239336
9	0xbcc061bd	-0.023484105
10	0xbec94bf6	-0.39315766
11	0x3d7d5099	0.061844442
12	0x3e14c8f9	0.1452979
13	0x3e856e93	0.26060924
14	0x3f06b56e	0.5262059
15	0xbde7a9cb	-0.11311682

running_var f4 [16]
0	0x3de903c6	0.11377673
1	0x3e50c04e	0.20385858
2	0x3e90ebff	0.2830505
3	0x3d120441	0.035648588
4	0x3dd6e3c2	0.1049266
5	0x3e8ee877	0.27911732
6	0x3ea6e5f7	0.32597324
7	0x3e4724b2	0.19447592
8	0x3e17c79d	0.1482224
9	0x3df8c336	0.121466085
10	0x3f19bd33	0.6005432
11	0x3ee7358c	0.4515804
12	0x3e7ea317	0.24866901
13	0x3e239ea2	0.15978482
14	0x3e9230f1	0.28552964
15	0x3ea368cb	0.31915888

weight f4 [16, 16, 3]
0	0x3c7ce85b	0.015436257
1	0xbd126770	-0.035743177
2	0xbd8d4059	-0.06897039
3	0x3e41d3ff	0.18928526
4	0xbdf33d8d	-0.11876974
5	0xbc70bc92	-0.014693396
6	0xbee84be3	-0.45370397
7	0x3dcee63e	0.10102509
8	0xbe091be0	-0.1338954
9	0xbdde1c20	-0.10845208
10	0x3cf3560b	0.029704114
11	0x3db35db7	0.08758109
12	0x3cf62c96	0.030050557
13	0x3d895b9d	0.06706927
14	0xbc968fa0	-0.018379033
15	0x3e334755	0.1750768
16	0xbe0a9568	-0.13533556
17	0xbc7c8850	-0.015413359
18	0xbdbcf71f	-0.09226822
19	0x3db3144d	0.087441064
20	0xbdc46846	-0.09590201
21	0xbe93fd72	-0.289043
22	0x3d9c00fc	0.07617375
23	0x3dc8870c	0.09791383
24	0x3e64feb1	0.22362782
25	0x3be68e9b	0.007036043
26	0xbd119321	-0.035540704
27	0x3b5bb795	0.0033526171
28	0x3e18b3f0	0.1491239
29	0xbc2e14bd	-0.010625062
30	0xbedc9745	-0.4308416
31	0xbdab8347	-0.083746485
32	0xbe3cf6d2	-0.1845353
33	0x3ea08755	0.3135325
34	0x3db61df0	0.08892429
35	0x3e240525	0.16017587
36	0xbe1e7766	-0.15475234
37	0x3e5689d0	0.20951009
38	0x3d011681	0.031515602
39	0xbdfa0a42	-0.12208988
40	0xbd235e81	-0.039885048
41	0x3d222714	0.03958805
42	0x3f0f7cb9	0.56049687
43	0xbddf139c	-0.10892412
44	0x3e078ccd	0.13237305
45	0x3daf7a7b	0.08568283
46	0xbd93744b	-0.071999155
47	0x3df11bed	0.117729045
48	0xbcf9af2d	-0.030479038
49	0x3c85cde0	0.01633352
50	0x3b2ee8ae	0.002668898
51	0xbe1a0cf0	-0.15043998
52	0xbdedb688	-0.11607081
53	0xbdeed1fd	-0.11661146
54	0xbab02834	-0.0013439716
55	0x3e9fee5f	0.3123655
56	0xbd2f5143	-0.042802107
57	0xb9666b33	-0.00021974444
58	0x3daadd37	0.08342975
59	0x3cc75ef7	0.024337275
60	0xbe2fca43	-0.17167
61	0xbe6320a2	-0.22180417
62	0xbdd4037f	-0.10352229
63	0x3d32bd74	0.043637708
64	0x3d748c45	0.059704084
65	0x3d4153d5	0.04719909
66	0x3e8f9468	0.28042912
67	0x3e7083b0	0.23487735
68	0x3d9e7104	0.077364
69	0x3e9b1e0d	0.30296364
70	0xbdfa9466	-0.12235336
71	0x3d957958	0.07298535
72	0xbe0dcfd9	-0.13848819
73	0x3c32b3df	0.010907142
74	0xbd23c883	-0.039986145
75	0x3d887613	0.06663146
76	0xbdd900a2	-0.10595824
77	0x3e2212f5	0.15827544
78	0x3e0007f3	0.12503032
79	0x3f05c6d1	0.52256495
80	0x3e8b0575	0.271526
81	0xbdabd753	-0.08390679
82	0xbed835a6	-0.4222843
83	0xbe686b1c	-0.22697109
84	0x3db92dcd	0.09041939
85	0xbd290b2f	-0.04127043
86	0x3c9ea1a9	0.019364195
87	0x3e70d8c3	0.23520188
88	0xbda049f7	-0.07826608
89	0x3e0047da	0.12527409
90	0xbcdfe032	-0.027328584
91	0xbf0f0304	-0.55863976
92	0xbba36b5f	-0.004987165
93	0xbe560415	-0.20899995
94	0xbe328a33	-0.17435531
95	0xbd35d777	-0.044394936
96	0xbdc5ef51	-0.096647866
97	0x3da5ee91	0.081021436
98	0x3d040564	0.032231703
99	0x3e246a09	0.16056074
100	0x3dc97a08	0.09837729
101	0xbd39e4ee	-0.04538434
102	0x3d22c809	0.03974155
103	0x3de7498f	0.11293327
104	0x3cb0302b	0.021507343
105	0x3b860000	0.0040893555
106	0x3d282989	0.041055236
107	0xbe0c4204	-0.13697058
108	0xbe57980c	-0.21054095
109	0xbf0d898b	-0.55288
110	0xbe68bf7d	-0.22729297
111	0xbd6da47c	-0.058018193
112	0xbe2c4b50	-0.16825604
113	0xbdae4cb5	-0.085107245
114	0xbde0fce6	-0.109857365
115	0xbf32a4d9	-0.6978279
116	0xbf0b6a39	-0.5445896
117	0x3ee817ac	0.4533056
118	0x3e649e02	0.223259
119	0x3db5f25c	0.08884117
120	0xbe57b2a2	-0.21064237
121	0x3d744c68	0.05964318
122	0x3d9c4779	0.0763082
123	0xbe1559e2	-0.14585069
124	0xbdc86c56	-0.097862884
125	0xbe1471c8	-0.14496529
126	0x3c434f8d	0.011920822
127	0xbe15b624	-0.14620262
128	0x3d8ed671	0.06974495
129	0x3d2e3db6	0.04253932
130	0x3e4caec5	0.19988544
131	0x3b26c682	0.002544791
132	0xbe0f25ee	-0.13979313
133	0x3c9d93f9	0.019235598
134	0x3e040996	0.12894282
135	0x3d3e33e5	0.04643621
136	0xbd1300c6	-0.03588941
137	0xbd5bd0ed	-0.053666044
138	0xbc45d990	-0.012075797
139	0xbe0355e2	-0.1282573
140	0x3cee67e7	0.029102279
141	0x3deb2856	0.11482303
142	0x3f2b13a7	0.6682686
143	0x3f0e7d95	0.5566037
144	0x3dbdf20f	0.09274685
145	0xbd4f412e	-0.05059927
146	0x3c859dfa	0.01631068
147	0xbeab86f4	-0.335014
148	0x3e2343a7	0.15943776
149	0xbc8f16b8	-0.017466888
150	0xbdbb4e1a	-0.09145756
151	0xbe658ba6	-0.22416553
152	0x3d922638	0.07136196
153	0xbdafc609	-0.08582694
154	0xbd9f90b1	-0.077912696
155	0xbd842fe0	-0.06454444
156	0x3c4c1e81	0.012458445
157	0x3d89e77f	0.067336075
158	0x3d9af0da	0.0756547
159	0xbea017dd	-0.31268206
160	0x3d944341	0.0723939
161	0xbe346b9e	-0.17619178
162	0x3e48407c	0.19555849
163	0xbe96220e	-0.29322857
164	0x3d739930	0.059472263
165	0x3e99ce60	0.30040264
166	0xbee79b2b	-0.4523557
167	0x3e2b395b	0.16721098
168	0xbdcf56f4	-0.10124007
169	0x3e3a9b06	0.18223199
170	0xbdbf99de	-0.0935552
171	0x3e0fd44c	0.14045829
172	0xbea7dfd9	-0.3278797
173	0x3e452420	0.19252062
174	0xbed61a6d	-0.41817036
175	0xbc9da11f	-0.019241868
176	0xbe3b5bad	-0.1829669
177	0x3e963ff8	0.2934568
178	0x3d70ee81	0.058821205
179	0x3e02a050	0.12756467
180	0x3e9a09a8	0.30085492
181	0xbe3477ba	-0.17623797
182	0x3cb9953e	0.022654172
183	0xbcf72152	-0.030167256
184	0x3d95b24e	0.073093995
185	0xbc809a05	-0.015698442
186	0x3e3d90e1	0.18512298
187	0x3e9d947a	0.3077734
188	0xbd5071dc	-0.050889835
189	0xbe2a4dd1	-0.16631247
190	0x3e781983	0.24228482
191	0xbd7d14de	-0.06178748
192	0x3e31795c	0.17331451
193	0xbd90a9ad	-0.07063613
194	0xbec4df04	-0.38451397
195	0xbe2b0d8e	-0.1670439
196	0x3f03a340	0.51420975
197	0x3ec0d3ad	0.37661496
198	0x3db02e7b	0.086026154
199	0x3e6f5f40	0.23376179
200	0xbdc2451c	-0.09485838
201	0x3c679173	0.014133799
202	0xbcb5a279	-0.0221722
203	0x3cb6c718	0.022311732
204	0x3eb8230a	0.35964233
205	0x3e40bb86	0.18821535
206	0x3e89f29f	0.26942918
207	0xbe8bec46	-0.273287
208	0xbe2cf210	-0.16889215
209	0xbd174231	-0.03692836
210	0xbe32690c	-0.17422885
211	0xbebd32e5	-0.36952892
212	0xbe0ff284	-0.14057356
213	0x3e2b4fe0	0.16729689
214	0x3dc1b862	0.09458996
215	0x3e02916b	0.12750785
216	0x3d3afe3e	0.04565262
217	0x3da291d8	0.07937974
218	0xbc447b28	-0.011992253
219	0x3c4403f2	0.011963831
220	0xbda007a2	-0.07813956
221	0xbd11ea75	-0.035623986
222	0xbe153e86	-0.14574632
223	0xbca98876	-0.020694952
224	0x3e1ec426	0.15504512
225	0x3d8fdf73	0.070250414
226	0x3c9915cb	0.01868715
227	0xbe158364	-0.14600903
228	0x3e361e9e	0.17785117
229	0xbee3d7c1	-0.44500545
230	0xbef4c672	-0.47807652
231	0xbea8977e	-0.3292808
232	0xbd1485f1	-0.03626055
233	0x3ee1bd89	0.44089916
234	0xbdc5f3b5	-0.09665624
235	0xbea739ea	-0.32661372
236	0x3e073808	0.13204968
237	0x3dcd126a	0.10013278
238	0x3ec61f97	0.38695976
239	0x3db5a1e5	0.088687696
240	0xbed77967	-0.4208481
241	0xbf453c16	-0.7704481
242	0xbeb36443	-0.3503743
243	0x3e750cfa	0.23930731
244	0x3eb5d3de	0.35513204
245	0x3e53a635	0.20668872
246	0xbb89db29	-0.004207034
247	0x3bbae509	0.0057035726
248	0x3ce7eb96	0.028310578
249	0x3e0916e1	0.13387634
250	0xbe25b6e1	-0.16183044
251	0x3d080650	0.033209145
252	0xbe3ae9b5	-0.18253215
253	0xbe653a3f	-0.223855
254	0xbe0cb5cc	-0.13741225
255	0x3dd01b1b	0.1016142

bias f4 [16]
0	0xbdc30bfe	-0.09523772
1	0x3c9cd1fa	0.019143093
2	0xbc9f9cdf	-0.019483982
3	0xbce2ff89	-0.02770974
4	0x3df60a5c	0.12013695
5	0xbd9e1347	-0.077185206
6	0xbca03389	-0.019555824
7	0x3db66c8c	0.089074224
8	0xbdc57d89	-0.096430846
9	0xbd7861e5	-0.060640235
10	0x3d4d8644	0.050176874
11	0x3ddec6a8	0.108777344
12	0xbdbf0ff3	-0.09329214
13	0x3b5a9dc7	0.0033358203
14	0xbd51fd18	-0.05126676
15	0xbc735f73	-0.0148543

weight f4 [16]
0	0x3f12af67	0.5729889
1	0x3f003c39	0.5009189
2	0x3ea5cb1d	0.32381526
3	0x3f08f43b	0.53497666
4	0x3e8994b8	0.26871276
5	0x3eaa036e	0.33205742
6	0x3f2086fd	0.62705976
7	0x3e965715	0.29363313
8	0x3eaafdea	0.33396846
9	0x3e8d57c1	0.27606013
10	0x3eaa9ac3	0.333212
11	0x3f210687	0.62900585
12	0x3f085efc	0.53269935
13	0x3ead832b	0.33889136
14	0x3ef5327a	0.47890073
15	0x3ef5e1d9	0.4802387

bias f4 [16]
0	0x3f31457b	0.69246644
1	0x3f41f5fc	0.7576597
2	0x3f2f0ce1	0.68379027
3	0x3f2e6358	0.68120337
4	0x3ed28838	0.41119552
5	0x3f33f13b	0.70289963
6	0x3f381e05	0.71920806
7	0x3f152281	0.58255774
8	0x3f403621	0.75082594
9	0x3ef0c3a2	0.47024256
10	0x3f77faa6	0.96866834
11	0x3faad853	1.3347267
12	0x3f34bdf0	0.7060232
13	0x3fc7992c	1.5593619
14	0x3f3958f9	0.72401386
15	0x3edd8b91	0.43270543

running_mean f4 [16]
0	0x3de6b5f0	0.112651706
1	0xbefc9f5a	-0.49340326
2	0xbe99021a	-0.29884416
3	0xbe9f6b82	-0.3113671
4	0x3e077058	0.1322645
5	0xbda68730	-0.08131254
6	0xbe29ed12	-0.16594341
7	0x3e1fbd60	0.15599585
8	0xbe461b0c	-0.19346255
9	0xbea5e80d	-0.32403603
10	0xbf1832c7	-0.5945248
11	0x3e17f2a0	0.14838648
12	0xbeb8e356	-0.36110944
13	0xbe622c92	-0.22087315
14	0xbea0c5e2	-0.31400973
15	0x3e2711bf	0.16315363

running_var f4 [16]
0	0x3ea3aecd	0.319693
1	0x3e43fbf5	0.19139083
2	0x3e5ee15b	0.21765654
3	0x3efe7649	0.4969962
4	0x3e478555	0.19484456
5	0x3e49c476	0.1970385
6	0x3ebdc67d	0.37065497
7	0x3e8300a7	0.25586435
8	0x3dded15a	0.108797744
9	0x3df5df59	0.12005491
10	0x3e8a3f56	0.27001446
11	0x3ea49f85	0.32152954
12	0x3e5a7d05	0.21336754
13	0x3e06ae1f	0.1315236
14	0x3f12c6d4	0.5733464
15	0x3d75ee01	0.06004143
